Assets/results/JumperAgentTest/JumperAgent/JumperAgent-4736.onnx (onnx, 91980 bytes, 6 tensors)

network_body._body_endoder.seq_layers.0.weight f4 [128, 42]
00000000: 45c9 fa3d 7314 c6bd 2ccc aa3d bf7c 16bd
00000010: fa95 cd3c 89ad 44be b806 35bd 3966 a83e
00000020: b690 5ebc 3d91 833e ac4e 593e 6712 06be
00000030: 8734 27be 222f 67be ee6f 1e3d f8ba ed3d
00000040: 7ff0 78bd 17dc f5bd 62db 8b3d 7010 ad3d
00000050: ab62 a83d 7322 693e 6a4d dcbc b246 16be
00000060: ffb1 7e3c 750a 94bc f63a a6bd f138 c83d
00000070: 31f7 943c 1ddd 01be fbaa 4b3e f1a5 b8be
00000080: 3257 94be b9e9 b23d 015e 73be c046 58be
00000090: d523 78bd 2631 2abe cc37 0f3d dd9e 54be
000000a0: 8aa6 b23d ef54 963b 35cb ae3d d8ad 5fbe
000000b0: aa80 05bd 37ce b2bc 5ac0 58be 5e16 f7bd
000000c0: e6ad f4bd 4821 21be 8515 823e 9d9d 90bc
000000d0: 924f 353e c21d 423e 45e9 1dbe 5259 85bd
000000e0: 1ab8 723d d9f7 91bd 8f88 26be 1c22 9f3d
000000f0: 1586 903d 7705 b9bd 268d 2cbe 9f0e 733b
00000100: 0af9 8fbd 021f 2a3c 139e f8bd ef4c e23d
00000110: 230a e8bd 12b5 0dbe 2ec6 48be d320 103d
00000120: f552 90bc bde6 373e 5752 42be 9e94 8dbe
00000130: b9ee b83d a331 c43d 6845 95bc c808 44bd
00000140: c7ae 713e f0e3 72bc 4286 d83d a476 90bd
00000150: 92af 09be bb0a 873e 36c4 2cbd a872 74bd
00000160: 161d 3b3d 4284 923d 7bea e03d 2030 493d
00000170: 39ab abbe 1e24 24bd 6bdd 1f3e 8c49 5fbe
00000180: f3cd 903d acb0 88be f439 883b 0d5c 873e
00000190: e309 a7bd 97ad 5b3e 4fb1 49bd ed11 4bbd
000001a0: a373 acbd e03a 813d 4772 94be d66a 223d
000001b0: f007 5c3d daf6 75bd 5992 973c 9a19 81bd
000001c0: 7d18 8f3e b600 2cbe 1689 00be 2325 0b3e
000001d0: 953e dd3d a9a6 0abe 1f49 5f3e 0a4a 183e
000001e0: 1ac0 8a3d 9732 183d 7d60 113e 1f6d 133e
000001f0: cb5c 54be 865f 23be d50d 8bbe 3435 e3bd
00000200: 39a0 96be ca93 b93d 5724 3cbe 1e6c 1bbd
00000210: e03f eb3c 3bd9 edbb a257 5e3e bb84 dcba
00000220: f72b 893b 77e5 e83d b38d 653e e875 b8bb
00000230: ac78 223e c7a3 51be 49ed da3d 704d a53c
00000240: 4a51 b1bd efea 08be 6845 57be 9cea ff3d
00000250: b854 53be 9dab e63d 0cdd 69be 8502 d83d
00000260: 3e0f 89bb 8015 7b3d ac40 43bd d2af 263e
00000270: 4cbb 093e a7bf cf3e 390f 1a3d 4df6 21be
00000280: 59c4 b13d d5ae 133d 5360 253e ba4b b4bd
00000290: cccd 963e 2fd9 a6bd c787 8ebe af7e 18be
000002a0: 0328 c6bd 4ecd 11be b0ae 21be 7d70 26be
000002b0: dca2 a63e 1d6f 2ebe 987b 80bc da00 493d
000002c0: cc67 92bd b0dc 92be 4f6f f6bd 24ce 643d
000002d0: bb11 df3b c128 003e 1a6c 18be 8681 c7bc
000002e0: 661b 91bb 3939 6dbd fa94 75bd e3cf 96bc
000002f0: 4697 903e 5443 3b3d 4fc0 4f3e 2dda 5b3e
00000300: 6a7a 523e 920e 913d 80d1 9a3d cd8c b23d
00000310: a165 283d 7a9f 523d df72 45be d417 ff3c
00000320: 4454 113e 3abc 11be c110 82be 52db e93c
00000330: fac2 e8bd 0bd3 a03e 99b5 5bbe e881 d2bd
00000340: e037 1e3e 02e9 0cbe b8a7 be3d 9de0 b6bd
00000350: f038 2cbe 9913 8f3c 51bc 543e 3547 45bd
00000360: 0628 4b3e 3ea1 aa3e 6b21 aabd 46d8 79be
00000370: 931e bebd b13c af3c b7fa 07bc 3487 bbbd
00000380: b542 62bd 4407 3b3e 616b 82bc 8d21 4ebe
00000390: 34d4 3c3e ace0 e5bd 5054 90bd 9468 bebe
000003a0: f4c0 ad3d d702 19be 222e 2dbe 8a9a d0bc
000003b0: 66ea d03d 4484 81be 65ad 8b3d 5f44 5abe
000003c0: 799a 8c3c 9797 51be 1892 223e c3fb 0b3e
000003d0: c1d3 973d f464 f73e d57f 06be 3e2e 153e
000003e0: de77 a6be 57f6 bd3d dafa 7f3c e4d2 1bbd
000003f0: 21c0 92bd 0bcd 50bd 249e 9f3e 5b08 bc3e
0.1224542 -0.09671869 0.08339724 -0.03674006 0.025095928 -0.19206823 -0.04419586 0.3289049
-0.013584306 0.25696746 0.21221417 -0.13092957 -0.16328631 -0.22576573 0.038680963 0.11607927
-0.06077623 -0.120048694 0.06828953 0.08450401 0.082219444 0.22767048 -0.026892383 -0.14675406
0.015545367 -0.018071393 -0.08116715 0.09776486 0.018184276 -0.12682004 0.19889443 -0.36064103
-0.28972775 0.08735985 -0.23766328 -0.21120739 -0.060581047 -0.16620311 0.03496532 -0.20763727
0.08723171 0.0045877616 0.085348524 -0.2184366 -0.032593407 -0.021826847 -0.21167126 -0.12064813
-0.11947231 -0.15735352 0.25407043 -0.01765328 0.17706135 0.18956664 -0.15421017 -0.06511177
0.059257604 -0.07127351 -0.1626303 0.07770178 0.07056824 -0.090342455 -0.16850719 0.0037087572
-0.07029922 0.010383369 -0.12139525 0.1104983 -0.113300584 -0.13838604 -0.1960685 0.035187554
-0.017617682 0.17959113 -0.18976723 -0.27652448 0.09029908 0.0957978 -0.018221572 -0.047859937
0.23601829 -0.014824852 0.10572483 -0.07053879 -0.13445881 0.26375374 -0.04217931 -0.059679657
0.045682035 0.071541324 0.109822236 0.04911816 -0.3352907 -0.040073507 0.15611808 -0.218054
0.07070532 -0.2669729 0.004157299 0.26437417 -0.081561826 0.21452938 -0.04924136 -0.049577642
-0.084204935 0.06310058 -0.28993437 0.039652668 0.053718507 -0.06004987 0.018502401 -0.06303711
0.2794837 -0.16797146 -0.12552294 0.13588385 0.10802952 -0.13540138 0.21805237 0.14871994
0.06774922 0.03715762 0.14196964 0.14397095 -0.20738523 -0.15954408 -0.2715899 -0.11094132
-0.29419115 0.09061392 -0.18373238 -0.037944905 0.028716981 -0.007258562 0.21713117 -0.0016824225
0.004186149 0.11371892 0.22417335 -0.00562929 0.15866345 -0.20472632 0.1068979 0.020178527
-0.08658083 -0.1337087 -0.2102257 0.1249592 -0.20637786 0.112632014 -0.22838229 0.105473556
-0.004182725 0.0612998 -0.047669098 0.16278008 0.13450354 0.40575907 0.037612174 -0.15816613
0.086800285 0.036055405 0.16150026 -0.08803506 0.29453886 -0.08146893 -0.27837965 -0.14892076
-0.096756004 -0.14238474 -0.15789294 -0.16253848 0.32546127 -0.17034574 -0.015683934 0.049073078
-0.07148704 -0.28683996 -0.12032949 0.055860654 0.0068075336 0.12515546 -0.14884987 -0.024353754
-0.004428315 -0.0579159 -0.05995653 -0.018409675 0.28240412 0.045718506 0.20288204 0.21469946
0.2055451 0.07082857 0.0755949 0.08718262 0.041112546 0.05142162 -0.19282101 0.031139292
0.14192301 -0.14231959 -0.25403407 0.028546963 -0.11365314 0.31411013 -0.21455993 -0.10278684
0.15451002 -0.1376076 0.093093336 -0.0892956 -0.16818595 0.0174654 0.20774962 -0.04816361
0.19839486 0.33326143 -0.08307155 -0.24398908 -0.09283175 0.021391245 -0.008299521 -0.09156647
-0.055239398 0.1826449 -0.015920343 -0.20129986 0.18440324 -0.112244934 -0.07047331 -0.37189162
0.084840685 -0.1494249 -0.1691213 -0.025464315 0.10200958 -0.25296223 0.06820182 -0.21315144
0.017163502 -0.20467983 0.15876043 0.13670258 0.07413436 0.4831921 -0.13134702 0.14568421
-0.32513326 0.09275501 0.0156237725 -0.038042918 -0.07165552 -0.050976794 0.3117534 0.36725125

network_body._body_endoder.seq_layers.0.bias f4 [128]
00000000: 69af 3dbc 4897 66bb c640 283c 5943 da3b
00000010: 4611 ae39 38ce 57bc 3174 7a3b a5a2 e7bb
00000020: e45f 1e3c 8153 0abc 3ac6 11bc ff7b 203c
00000030: 4859 413b 97a3 3f3c 6805 a8ba 9aae 8f3c
00000040: 621e 2539 2feb 3abb 3dde 813b 0b2e 9bbb
00000050: 941a 2b3b 3280 a53b 4ba7 d1bc 1462 b43c
00000060: ef0c 3f3d af9f 4f3c eba8 adbb 2ce7 b93b
00000070: 4661 8dbc a3a8 f838 7e2f 133c 9d71 883c
00000080: 28c8 cbb9 292c 833c 7952 ccbb 0ca6 b53b
00000090: 66ca 3bbb 2994 32bc 6509 54ba 81e4 983a
000000a0: 8ba8 65bc 5e80 983b 79ad 463c 1363 aabb
000000b0: 61da 11bb f9c3 d03b ab5e 793c a66c 45bc
000000c0: ca1a 173c e578 55bc 6574 aabb e541 af3b
000000d0: b28b 63bb 40ba 8339 2acb 953c ae04 8dbc
000000e0: bd25 35bc 5c4c 043b 00ed c8ba efac ba39
000000f0: 673b 373c 3a7e 1b3c d4cc a43c d62a 753c
00000100: 91a2 02bc e43d cfbb 7f6d febb 6bb7 bf3b
00000110: 9f52 f83c 521c 87bb 49db 00bc b898 3abc
00000120: 0c9f 283d f385 8c3a 9084 403c 993f 3dbc
00000130: 6c57 8fbc a971 323c 35e1 a93b e1f1 753b
00000140: b394 253c a799 1e3c c0df 61bc 3e7c 88bb
00000150: 203a 5f3c 5dd9 87bc 7fdb 6b3b 92bd 093b
00000160: 3868 9c3c 2b08 37bb 13a4 b33b 205f 8dbb
00000170: ceb4 92bb 7a3b bdbb d6e4 d0bb ed74 71bc
00000180: ecfd 843c 533f e33b 1f66 cfbb 2255 1f3b
00000190: d267 123c 4c35 a93a 7b2c 21bb 50df ce3b
000001a0: 8424 b53b 44d3 8a3c e68a 223c f00c 213c
000001b0: 68c2 983c 3caf 95bb b343 45bb 3777 f8ba
000001c0: dcbd 853a 9e2e 083c 51d2 983b 9812 61bb
000001d0: db61 303c dc59 d0bb d53b 2cbb b708 82bc
000001e0: c42e 783c 54ff ecbb ec5b 8cbc e154 20bc
000001f0: 405a c9bb a102 7139 b85f a33b 3651 65bc
-0.011577466 -0.0035185385 0.010269349 0.0066608605 0.00033200736 -0.013171725 0.0038216228 -0.0070689493
0.009666417 -0.00844276 -0.008897359 0.009795188 0.0029502679 0.011696718 -0.0012818994 0.017539311
0.00015746945 -0.0028521528 0.0039632604 -0.0047357134 0.002610837 0.0050506825 -0.025592467 0.022019424
0.046643194 0.012672349 -0.0052996776 0.00567331 -0.017258298 0.000118569726 0.008983491 0.016655738
-0.00038868305 0.016012268 -0.0062354174 0.005543476 -0.0028654574 -0.010899582 -0.0008088558 0.0011664779
-0.014017235 0.0046539744 0.01212632 -0.005199799 -0.0022255408 0.006371018 0.0152203245 -0.01204983
0.009222696 -0.013029312 -0.0052018636 0.0053484314 -0.0034720716 0.00025125034 0.018285353 -0.017214146
-0.011056361 0.0020187115 -0.001532942 0.0003560553 0.011183596 0.009490544 0.0201172 0.014963826
-0.007973329 -0.0063245166 -0.007764518 0.0058507225 0.030312834 -0.004123249 -0.007864782 -0.01138895
0.041167304 0.0010721072 0.011750355 -0.011550807 -0.01749774 0.0108913565 0.0051843175 0.0037528204
0.010106253 0.009680188 -0.013786256 -0.0041652014 0.013624698 -0.01658314 0.0035988984 0.0021017534
0.019092664 -0.0027928452 0.0054822057 -0.0043143183 -0.00447712 -0.0057749124 -0.0063749356 -0.01473735
0.01623436 0.006935039 -0.0063293125 0.0024312218 0.0089358855 0.001290956 -0.0024593163 0.006313242
0.0055280346 0.016946442 0.009920811 0.009829745 0.018647388 -0.0045680087 -0.0030100166 -0.0018956427
0.0010203677 0.008311896 0.0046637435 -0.0034343358 0.010765518 -0.0063583683 -0.002628078 -0.015873296
0.015147869 -0.007232586 -0.017133676 -0.009785862 -0.006144792 0.0002298453 0.004985776 -0.013996413

network_body._body_endoder.seq_layers.2.weight f4 [128, 128]
00000000: b142 d73d bc19 863d 5914 ef3c 224b 703d
00000010: 0a28 1cbe d233 d3bb d7e8 533d af6c 043d
00000020: fe96 2fbd 2d41 c3bc 7eef dc3b 95c2 123d
00000030: c4d5 53bd aa1e 843d 9374 07bd 7066 04bd
00000040: e672 263e b2c3 54be 8950 8a3d ed3b 34be
00000050: 4ada 1e3e fd8a 28bd 929a 333d 0469 4b3d
00000060: 4270 62be 102a ca3c 08e5 01bc fef3 103e
00000070: efc6 003d a376 303c c415 eabd 5165 bebd
00000080: f551 2abd 7749 af3d 72a6 88bd 8dd5 99bd
00000090: ec97 8f3d 7f42 9bbd 6247 75bd 7aad fc3d
000000a0: 7fff 273e ab0a 11be f110 6e3c f12b 463d
000000b0: da59 29bd 2e49 dabd 6759 e2bb cd64 463c
000000c0: f046 b7bd f2b8 863e 61dc 153d dba2 813d
000000d0: 43af f53c 082a 4e3d 6f33 403b e134 79bd
000000e0: 8cc0 653e 0b8d 1d3d dc55 4f3e a7fa ac3d
000000f0: fd6c 073b 95a9 2fbd 4029 a33d 571d 7b3d
00000100: 622c b03d c7f8 abbd 1b23 753d 9ff8 db3c
00000110: 0d67 223d d2d1 873d 2d10 223d 78c7 b6bc
00000120: 877b 4c3e 567e b3bd 9452 943d 9cfc fe3d
00000130: 6a35 ff3b 57c3 ef3d 1dd7 b0bc ac10 cc3d
00000140: 1d5e f83d aeba 383e 14f3 9bbd 8560 983d
00000150: 7c02 a2bd 5433 8bbc 4757 ea3d 7aac 793d
00000160: 786f 8abd f877 6e3d 4e34 9abd 8a3e 5bbd
00000170: 0981 343d 2bb7 163e fb76 9b3c c20b 893c
00000180: e7d0 4d3d 14d2 8f3c 9b36 c3ba ca61 af3c
00000190: 1970 203d 4f7b 9ebd 4a73 013d bf95 9b3d
000001a0: b913 0fbd c016 c33d c696 adbd 435f c9bd
000001b0: b7e3 e9bd 624e 213d 5e7f b73d 7a06 0bbe
000001c0: 3bd6 a1bd c0a1 943d 0590 4f3d 7a6a bd3c
000001d0: a71f 643c 5778 bcbd 52d5 45bd 808a 383e
000001e0: 782f a83d 3ff7 b93d 7777 1fbe 1a74 96bd
000001f0: f591 8e3d f5a0 ca3d 1693 e9bc 2694 22be
00000200: 6485 90bd 1df9 afbc 2307 6dbc dd02 d33d
00000210: 30b0 483b c2fc 583c eba8 3d3c d761 d0bd
00000220: a9eb 8d3d 02d7 33bc 4721 df3d 144e 1cbd
00000230: c372 923c f29e bfbd 4519 bd3d fdc4 52be
00000240: 52fe de3d 2100 273d a169 b13d f352 f93d
00000250: 8c77 c93c 6ee1 b0bc e669 aeb9 4254 88bb
00000260: 3dd0 233d 654b a03b 414c 84bc a338 36bd
00000270: c263 973d 1d08 0d3d bb3e d0bd d94a 4f3d
00000280: 13dc 48bd 79c4 273d 644b 0fbd 001c 4bbd
00000290: f0a7 22be 54db 3f3d 773a 7ebd 50c8 513d
000002a0: 3790 48bd d242 a8bd 7543 c23d b554 623d
000002b0: 2023 38bd 7f16 28bd 8c40 9cbd d874 073b
000002c0: ab1a 9c3d af98 4d3d 1395 883d 4cf2 b238
000002d0: 29a3 623d 292a 53be 814a bcbd 7b6a 523e
000002e0: c719 aebd 8861 733c d703 0f3d 1c2f 243d
000002f0: 49e1 953d 304d d4bd ac18 18bc 5be2 583b
00000300: de6d 34bd ee21 133d d1e2 743b e817 c23d
00000310: d3d5 3a3d 870f 2cbd 2c89 debd 18ee 69ba
00000320: f51e cdbd 0879 84bd c8ea 913c 3fc9 e6ba
00000330: 6d2f b53d bb84 68be 92fe 14bd e2d1 10be
00000340: e42d 47be 3494 f13d 94e9 dbbd 96e5 103d
00000350: 6f12 39bc 12dd 32bd 0cd7 1fbd 6779 da3d
00000360: bc89 183e 2f26 6fbd ef2d 51be e504 5ebb
00000370: b693 06be bd93 fabc 7714 343d fc82 6cbe
00000380: 6753 a03c 1576 a83d 17df 453e 9e1c e1bc
00000390: 3c10 fbbd 0798 ebbc dcaf 2abd 5dc4 913d
000003a0: 92af 613d 21df 23bd 4f8c 3ebe 52b2 a0bc
000003b0: 7f4e f73c 5d72 0d3d 76dd a4bd 7a3c 1d3d
000003c0: 5fd2 be3d d61b 043d e023 06bd 5255 c8bd
000003d0: 0293 c2bd 8bbd 6f3d 1e55 47bc bf45 673d
000003e0: 86a6 183e ab17 eabc a5b1 1e3e 3abd ab3d
000003f0: e2fb 823d 74a2 ac3d 098d a4bc be38 aebd
0.10510767 0.06547877 0.029184507 0.058665402 -0.15249649 -0.0064453864 0.051735725 0.03233021
-0.042868607 -0.02383479 0.006742417 0.0358301 -0.051717535 0.06451161 -0.03307016 -0.032324255
0.16254768 -0.20777777 0.06753642 -0.17600985 0.15512958 -0.041148175 0.04384858 0.049660698
-0.22113135 0.02467826 -0.00792814 0.14155576 0.031439718 0.010770473 -0.11429933 -0.09296668
-0.041582067 0.08558934 -0.06672372 -0.07511435 0.07011399 -0.075810425 -0.05988253 0.123377755
0.16406058 -0.14164226 0.014530406 0.04838175 -0.041345455 -0.10658489 -0.0069076302 0.012108994
-0.08949077 0.26312977 0.036587123 0.0632989 0.029990798 0.050333053 0.0029327532 -0.060841445
0.22436732 0.038464587 0.20247597 0.08446246 0.0020664327 -0.042886335 0.07966852 0.061307278
0.08602215 -0.0839706 0.059847932 0.02685195 0.039649058 0.06631817 0.039566208 -0.022311911
0.19968997 -0.08764331 0.07242313 0.12450525 0.00778835 0.1170718 -0.021586949 0.099641174
0.12127326 0.18039963 -0.07614723 0.07440285 -0.0791063 -0.016992249 0.11442428 0.060955502
-0.06759542 0.05821988 -0.075295076 -0.05352644 0.04406837 0.1471831 0.018977633 0.01672924
0.050248053 0.017556228 -0.0014893593 0.021408934 0.039169405 -0.07738363 0.03160409 0.07596921
-0.03493092 0.095258236 -0.084760234 -0.09832623 -0.11420386 0.039381392 0.0895984 -0.1357669
-0.07902189 0.07257414 0.050674457 0.023122061 0.013923562 -0.092026405 -0.04829914 0.18021584
0.08212179 0.090803616 -0.15572916 -0.07346363 0.06961433 0.09893981 -0.028512519 -0.15876827
-0.07056692 -0.021481091 -0.014467034 0.103032805 0.0030622594 0.013243856 0.011575918 -0.101749115
0.06929714 -0.010976555 0.10895019 -0.0381604 0.017876988 -0.09356488 0.092333354 -0.20582958
0.108883515 0.040771607 0.08662725 0.121740244 0.024593137 -0.021591868 -0.00033266767 -0.004160435
0.039993513 0.0048918 -0.016149642 -0.044487607 0.07392074 0.034431566 -0.10168215 0.05060849
-0.049038004 0.040958855 -0.034984007 -0.04958725 -0.15884376 0.046840027 -0.062067475 0.051216424
-0.04896566 -0.0821587 0.09485523 0.055256564 -0.044955373 -0.04103708 -0.07629499 0.002066901
0.07622274 0.05019444 0.06669059 8.532833e-05 0.055331383 -0.20621552 -0.09193898 0.20548432
-0.085010104 0.014854796 0.03491577 0.04008399 0.0731836 -0.10366285 -0.009283226 0.0033093903
-0.04405009 0.03592103 0.0037366638 0.09477216 0.045614075 -0.042006996 -0.10866007 -0.00089237234
-0.1001567 -0.064683974 0.017812148 -0.0017607583 0.088469364 -0.22706883 -0.03637559 -0.14142564
-0.194511 0.11795846 -0.10737911 0.0353752 -0.011295899 -0.04366786 -0.039023444 0.10667687
0.14896291 -0.058386024 -0.20427679 -0.003387743 -0.13142285 -0.030588025 0.04396483 -0.23096842
0.01957102 0.08225647 0.19323383 -0.027479466 -0.12258956 -0.028759016 -0.04167162 0.071175314
0.055099078 -0.040007714 -0.18608211 -0.01961628 0.030188797 0.034532893 -0.08050053 0.038387753
0.09317469 0.03225311 -0.032749057 -0.097818986 -0.09500696 0.05853037 -0.01216629 0.056463
0.14907274 -0.028575739 0.15497454 0.083857015 0.06395699 0.08429423 -0.020086782 -0.085069165

network_body._body_endoder.seq_layers.2.bias f4 [128]
00000000: 3220 b13a c488 82ba 0add cc3b 9842 3b3b
00000010: b726 d4bb fc4b 9abb 2511 463b 836d 1dbc
00000020: 9d7b 85bb 8b30 9cbb e5a9 6d3a a4dd 28bb
00000030: bbe1 b8ba 2fc5 c73b 6e94 183c 4ab9 d8b9
00000040: 4ac6 f13a 2cd9 1dbb 0ed2 10bc 975d 73bc
00000050: 1791 9eba dd50 05bc 7317 b9bb e440 a8bb
00000060: 50be a9bb 7979 953b 60d4 413c a383 babb
00000070: dfcd c6bb a531 c4bb ab50 d53b 22e4 073c
00000080: 0f13 643b 954b b4ba 276d c4ba 27e6 d1ba
00000090: 38c1 6bbb a98a 8f3b 778f dcba fc19 02b9
000000a0: 62ae 9bbc c7d3 0a3c 2112 a0bb 17ee bcba
000000b0: 649f 7cbb 0dea 6dba 1dc2 d2bb 5be6 663c
000000c0: d3a1 adbb 266c 1f3c 1bcc 85bc 4052 3e3c
000000d0: a59c 783c a5e4 423b a639 8cbb d73a 5bbc
000000e0: d71e 80bb 3700 263b 02d6 013b 5a3b 79bb
000000f0: 0259 3e3b 082d e53b 9918 ed3b dac8 2e3a
00000100: dc26 dfbb 4c05 b53c bbea 64bb bd81 8c3b
00000110: 098c 713c fa0b ed3b 541a 6bbb 7568 79bb
00000120: 6e56 ddbb 24bb 523c e706 a6bb 564b d13b
00000130: 2aa4 8c3b b9c3 283c 9fbd eabb b333 e8bb
00000140: e09e cd3b a40e efbb 3f2e 19bc cf37 ec3b
00000150: 26b2 eebb 3e01 023c d998 0fbc c4ee 63bb
00000160: 4a1a a03b af82 e9bb 0cb9 79bb b9ad 5dbb
00000170: ca60 9ebb 766e 1dbc 9da2 093c 40b1 033d
00000180: cbfc 8ebb 5858 cebb d058 4dbb 6422 0fbc
00000190: 8bac 863c c6a9 9a3b 838f 98ba 30db 793b
000001a0: b2a1 f53b 0738 803b 6888 983b 1282 3fbc
000001b0: e4a6 503b 3db2 48bc 7ef7 62bb 5f33 a1bc
000001c0: 913c 203c 212e efbb 932e c0bb 562c 85bb
000001d0: dc78 233b e96c 7dbc ea75 6bbb 2545 41bc
000001e0: f16c fcbb e6a6 a1bc 5c44 a3bb 1970 773b
000001f0: 3486 393c 21e6 473c d897 f4bb 543d 64bc
0.0013513623 -0.0009958972 0.006251936 0.0028573629 -0.0064743417 -0.004708765 0.0030222621 -0.009608629
-0.0040735737 -0.004766529 0.0009066149 -0.0025766874 -0.0014105359 0.006096504 0.009312732 -0.00041336782
0.0018445936 -0.0024085743 -0.008839143 -0.0148538565 -0.0012097684 -0.008136955 -0.0056485473 -0.0051346887
-0.0051801577 0.0045616 0.011830419 -0.005691962 -0.006067022 -0.0059873634 0.0065098605 0.008294137
0.00348014 -0.0013755435 -0.0014986143 -0.0016014025 -0.0035973322 0.0043805433 -0.0016827424 -0.00012407446
-0.01900405 0.008473343 -0.0048849736 -0.0014414218 -0.0038547153 -0.0009075709 -0.0064318315 0.014093007
-0.005298832 0.009730374 -0.016332677 0.01161629 0.015174066 0.0029738334 -0.004279333 -0.013380728
-0.0039099264 0.0025329718 0.0019811396 -0.003802976 0.0029044752 0.0069938935 0.0072355983 0.00066675025
-0.0068100523 0.022097252 -0.003492995 0.004287927 0.01474286 0.0072340937 -0.0035873847 -0.0038056646
-0.006754688 0.012862001 -0.005066741 0.0063871546 0.004292031 0.01030057 -0.007163718 -0.007086241
0.006275043 -0.0072954465 -0.009349405 0.0072088013 -0.0072844205 0.0079348665 -0.008764469 -0.0034779767
0.0048859464 -0.0071261744 -0.0038104681 -0.003382547 -0.0048333155 -0.0096088555 0.008400586 0.03215146
-0.0043636314 -0.0062971525 -0.0031333454 -0.008736227 0.016439697 0.0047199456 -0.001163945 0.003812503
0.007496082 0.003912929 0.0046549328 -0.011688726 0.0031837756 -0.012249527 -0.003463238 -0.019677816
0.009780065 -0.0072992 -0.005864927 -0.004064123 0.0024943864 -0.015467861 -0.0035928437 -0.0117962705
-0.0077034165 -0.019732904 -0.0049825143 0.0037756024 0.0113235 0.012200863 -0.0074643902 -0.013930637

action_model._discrete_distribution.branches.0.weight f4 [2, 128]
00000000: f903 1dbc 7997 233c 45a9 1cbb a43c 673c
00000010: 3ce3 2bba bc3f cb3b ac83 3ebc 6693 b73b
00000020: 26a7 e1bb 94cc 08bc d9bb f93c a068 813c
00000030: a60c 9b3c 5c00 003c 913a e3bb fb93 dbbb
00000040: 9429 7bbb d89b 083b 49ac 2cbc 8c6b 09bc
00000050: ab58 1f3c 81c5 493b 0479 5a3b 9b43 c03c
00000060: 257f 1ebc 5b4f 8c3c 1b37 2fbc 6c18 96bc
00000070: e36c 333c feb4 863b 60e2 aabc 8928 db3c
00000080: f54c 263c c03a ce3b 2ca5 903c 6344 84bc
00000090: f2c9 81bc 704d 4b3c 8029 d53b d26e 41bc
000000a0: dc8f 213c a7f3 6c39 1cff c2bb fc91 2fbc
000000b0: c7d7 4f3c 8f9f 843c 226a 6e3b eb46 aa3c
000000c0: ce39 9c3b 83ee b13c 7c49 31bc b008 88bb
000000d0: 6b34 68bc 6e45 9cbc 0f82 03bb 6b8d 29bb
000000e0: 760a 8fb9 5b3e 09bd c80f b6bc 3553 93bc
000000f0: d250 813b 04a4 f7bb d68d a53c 1b59 27bc
00000100: 087a 53bb 47ae 64bc 4b10 3bbc c4de 71bc
00000110: 9be6 82bb 1937 373b 5eb2 86bb 1bfe 65bc
00000120: 653c 223c 31ca 863b 84db 153b 2968 c43c
00000130: b375 02bb 11ba 92bb 06af 82ba 43bc 093c
00000140: f04b 5cbb 4f48 a2bb 0da7 f3bb 90fb 82bc
00000150: 5cac 64bb 2724 0ebc 941d 8bbb 9575 3bbc
00000160: 1c5c e33a dcc0 0a3b dc4f 8abc 6527 8839
00000170: 66a3 7d3c a5de 553c 5899 3ebb a8df 223c
00000180: 4c0f 7abb a63f 413c 66a9 89bc 8a25 20bc
00000190: 5ce5 0c3b a4ed df3b 492d 64bc 4f13 c03b
000001a0: 3675 293c bb3d 97bb 843b 593b 73e6 84bc
000001b0: aae9 8d3b 7b80 ce3b 28ad 013c e856 1c3b
000001c0: a691 873c f635 a33c 09e3 033b dcc9 ecba
000001d0: edb8 1c3c 3e48 3b3a aadb 50bc 3eef 28bc
000001e0: bcae 71bc 0f64 e8bc 9719 53bc e3bd 923c
000001f0: 910b 453c ded2 60bb 97d0 833b 3fef 033b
00000200: ed6f 93bb 5e3e 2abc 8bc6 8dbc adc8 43bc
00000210: 0ed8 aebb ecd1 cc3b 2278 89bc fa4c 183b
00000220: db92 8bba a3b4 6ebb 9152 9cbc 901d 1ebc
00000230: b965 65bb 155c b83b 576b 0e3b 0514 093c
00000240: 6ee5 a53a b26d aebb ff01 ec3a 3650 aabb
00000250: 73b8 ddba f7fa 3f3b d7c2 8e3b a1a1 12bb
00000260: 053f 0b3c 6b52 0f3a fbe8 823c 6435 133c
00000270: ddf2 1b3b 87ec 5d3c 489f d1b9 e563 68bb
00000280: e6dd 1eba 3796 8bbc a5ac 8a3b 482d 3d3c
00000290: 4515 773c 1895 e5bc e3ab c2bb 191a 943a
000002a0: 28d1 20bc 7e50 e23b df8a 873b b365 4e3b
000002b0: 16e1 8dbc 752b 27bc 34bf 9f3b ed82 aebc
000002c0: b2cb 0c3c f2b6 33bb 059a 983b 54b7 2a3c
000002d0: 9dd5 4e3c da02 973c c4ec 8a3c 8b7a 233c
000002e0: 24fe 583b bbfd 92bb 6adc b53c 794d f53b
000002f0: a994 29bc 5ef5 00bc 5987 5dbc c506 49bb
00000300: b4d6 1e3c e575 963c c350 6b3a d52a c63c
00000310: d006 3a3c b700 1ebc d26e 983c c4c9 8d3b
00000320: a61c 41bb 855e 8dbc 6003 913b d247 82bb
00000330: 47b3 2fbc 9251 f23b 0b2b 19bc bf84 49bb
00000340: c9dc 04bc 3243 45bb e694 8fbb 0e98 87ba
00000350: dcb5 523b f990 743c a6f3 203b 65f9 cebb
00000360: dbd8 4a3b 1691 013c abf4 85ba 80d2 d73b
00000370: f59a 8b3b 4464 f6ba 3b6d cd39 3d0c f3bc
00000380: 0919 ac3b e2eb 7d3b 934c 2bbc 1dc7 fc3b
00000390: 3a2f 17bc 9ea2 7fbb 8503 ccbb 310e f33a
000003a0: e0d4 c53a e793 fdbb daae dbbb 134c 993b
000003b0: 7b50 aa3b a704 2c3b 8688 5bbb 3add 2bbb
000003c0: 70eb edbc a8cf 8fbc 7205 363b b98c 813c
000003d0: b82e 333c bcb1 b33b f40f be3b f124 843c
000003e0: 7507 a13c 7803 1bbc bc83 143c 46b1 48bb
000003f0: 0091 57bc f735 4e3c f0c2 82bc c10e 89bb
-0.009583467 0.009984844 -0.0023904603 0.014113579 -0.0006556993 0.006202666 -0.011628073 0.005602288
-0.0068863807 -0.0083495565 0.03048508 0.01579696 0.01892693 0.007812586 -0.006934472 -0.0067009903
-0.0038324343 0.0020844843 -0.010539123 -0.008387458 0.00972573 0.0030787888 0.003333629 0.023469737
-0.009673868 0.017127683 -0.0106942905 -0.018322192 0.010951254 0.0041109314 -0.020859897 0.026752727
0.010150184 0.0062936246 0.017656885 -0.01614589 -0.015843365 0.012408599 0.0065051913 -0.011806207
0.009860959 0.00022597481 -0.0059508216 -0.010715958 0.012685723 0.016189365 0.0036379178 0.02078577
0.004767633 0.021720177 -0.010820743 -0.0041514263 -0.014172654 -0.019076075 -0.0020066535 -0.0025871645
-0.0002728288 -0.033506732 -0.022224322 -0.017984012 0.003946402 -0.007557394 0.020209234 -0.0102141155
-0.0032268781 -0.013957567 -0.011417459 -0.014762584 -0.0039947755 0.0027956425 -0.0041106185 -0.014037634
0.0099020945 0.0041134586 0.0022866437 0.023975449 -0.001990658 -0.0044777473 -0.0009970374 0.0084067015
-0.0033614598 -0.0049524675 -0.0074356855 -0.015989095 -0.0034892773 -0.008675612 -0.0042454693 -0.011441608
0.0017346176 0.0021172082 -0.016883783 0.00025969293 0.015480852 0.013053571 -0.00290831 0.009941019
-0.003815609 0.01179496 -0.016804408 -0.009774575 0.0021499014 0.006833749 -0.013926812 0.0058616768
0.010342887 -0.004615513 0.0033147046 -0.016223168 0.0043308334 0.006301937 0.007914819 0.002385551
0.016548943 0.019923192 0.0020124337 -0.001806553 0.009565574 0.0007144249 -0.0127476845 -0.010310946
-0.014751133 -0.028368024 -0.012884519 0.01791281 0.012026683 -0.0034305374 0.0040226686 0.0020131615
-0.0044994266 -0.010390846 -0.017306587 -0.0119497 -0.0053358143 0.0062506106 -0.016780917 0.002323924
-0.0010648625 -0.0036423586 -0.01908234 -0.009650603 -0.0035003258 0.0056262114 0.002173146 0.008366589
0.0012656876 -0.0053231353 0.0018005966 -0.00519755 -0.0016915932 0.0029293874 0.004356723 -0.002237417
0.008498912 0.00054672983 0.015980234 0.008984897 0.002379588 0.013545162 -0.0003998226 -0.0035459932
-0.0006060287 -0.017039401 0.0042320066 0.01154644 0.015080755 -0.028025195 -0.0059409006 0.0011299282
-0.009815492 0.006906568 0.004136428 0.0031493723 -0.017319243 -0.010203232 0.004875088 -0.021302665
0.008593487 -0.0027422276 0.0046570324 0.010419685 0.012624172 0.018433977 0.016958602 0.009977947
0.0033110464 -0.0044858134 0.022199828 0.007486042 -0.010350385 -0.007871 -0.013521039 -0.00306742
0.009694744 0.018366763 0.0008976573 0.024190346 0.011354163 -0.009643725 0.01860753 0.004327031
-0.0029466539 -0.017256984 0.004425451 -0.003975847 -0.010723895 0.007394978 -0.009348641 -0.003074929
-0.00810928 -0.0030099866 -0.0043817637 -0.0010344998 0.0032151854 0.014927142 0.0024559288 -0.0063163512
0.003095201 0.007908126 -0.0010220011 0.006586373 0.0042604157 -0.0018798192 0.0003918203 -0.029668922
0.005252008 0.0038745333 -0.010455268 0.007714166 -0.009227568 -0.003900684 -0.0062260055 0.0018543658
0.0015093349 -0.0077385786 -0.0067041935 0.004678258 0.0051975823 0.002624789 -0.0033498122 -0.002622439
-0.02904293 -0.017555073 0.0027774242 0.015814172 0.010936432 0.005483834 0.0058002416 0.016130896
0.019656876 -0.009461276 0.009064611 -0.0030623241 -0.013157129 0.012586108 -0.015962094 -0.004182667

action_model._discrete_distribution.branches.0.bias f4 [2]
00000000: e875 473b e275 47bb
0.0030435268 -0.0030435254
