Assets/results/JumperAgentTest/JumperAgent/JumperAgent-7296.pt (torch, 546980 bytes, 33 tensors)

network_body._body_endoder.seq_layers.0.weight f4 [128, 42]
0	0x3e4b3ebf	0.19848154
1	0xbe8b6e88	-0.27232766
2	0x3dfe1cc6	0.12407832
3	0x3cb3719e	0.021904763
4	0x3cee0afb	0.02905797
5	0xbdf21beb	-0.11821731
6	0xbd590759	-0.052985523
7	0x3d203257	0.039110508
8	0x3e8c7657	0.27434036
9	0xbd56633c	-0.05234073
10	0xbe328f28	-0.17437422
11	0xbde3bc37	-0.111198835
12	0x3e407e42	0.18798164
13	0x3ecdfded	0.40232792
14	0xbe36c76b	-0.1784951
15	0x3d0c9c4f	0.034328755
16	0xbcf59084	-0.029976137
17	0x3e432a57	0.1905912
18	0x3e4fa090	0.20276093
19	0xbde74afa	-0.112935975
20	0xbdf0caec	-0.11757454
21	0x3e8070d5	0.25086084
22	0x3daa1030	0.08303869
23	0xbd4248c7	-0.047432687
24	0xbe801e06	-0.25022906
25	0xbdb62c62	-0.08895184
26	0xbe29eadd	-0.165935
27	0xbd5fd415	-0.054645617
28	0x3e5e4c03	0.21708684
29	0x3e08485d	0.13308854
30	0xbd9cc5c5	-0.07654909
31	0xbe048c51	-0.12944151
32	0xbddea6c1	-0.108716495
33	0xbda93492	-0.0826198
34	0xbe4502e3	-0.19239382
35	0xbe27242a	-0.16322389
36	0xbea64290	-0.32472658
37	0x3d6c7157	0.057725277
38	0xbe042999	-0.12906493
39	0x3dc8e6bf	0.09809636
40	0xbdb590fa	-0.08865543
41	0x3e21b74b	0.15792577
42	0x3de5a0bd	0.11212299
43	0xbe52c725	-0.2058378
44	0xbdaf2c37	-0.08553355
45	0xbe23b5f9	-0.15987386
46	0x3d844a11	0.064594395
47	0x3ce9adff	0.02852535
48	0x3b86988e	0.0041075414
49	0xbe156a47	-0.14591323
50	0xbdc8fb6f	-0.09813582
51	0x3d45959c	0.04823838
52	0x3e9ecef5	0.3101727
53	0x3dcb76d2	0.099347726
54	0xbd7be7b6	-0.061500274
55	0xbdfa8e96	-0.12234227
56	0xbdb6b572	-0.08921327
57	0x3caf0770	0.021365851
58	0x3d81b388	0.06333071
59	0xbe54483a	-0.20730677
60	0x3e714fc2	0.23565581
61	0x3d8f8c17	0.07009142
62	0xbdf1e332	-0.11810912
63	0xbddb48be	-0.10707234
64	0xba5dfc56	-0.0008468082
65	0xbd3106e3	-0.04321946
66	0x3d04a740	0.032386065
67	0xbdadbf6d	-0.08483777
68	0xbdcad513	-0.09903922
69	0x3dd5efc8	0.10446125
70	0xbe1436ae	-0.14473984
71	0xbcff7bfe	-0.031187054
72	0x3d52c76b	0.05145971
73	0x3cf62c0b	0.030050298
74	0x3ec7c63b	0.39018425
75	0xbe0af375	-0.13569434
76	0xbd9e490f	-0.077287786
77	0x3ec65eca	0.38744193
78	0xbcedbbb4	-0.029020168
79	0x3d8b6f99	0.06808395
80	0x3e79adfb	0.24382775
81	0x3e30dce4	0.17271763
82	0xbe60838f	-0.21925186
83	0xbe2caebb	-0.1686353
84	0x394d9b6c	0.00019608223
85	0xbe7093ae	-0.23493835
86	0x3ea92474	0.33035624
87	0xbe203a02	-0.15647128
88	0x3da658f9	0.08122439
89	0x3d9466cc	0.072461694
90	0xbe4b010d	-0.1982462
91	0x3d920f91	0.07131875
92	0x3c9b3ee9	0.018950896
93	0x3cfc3bca	0.030790228
94	0x3daee1d0	0.08539164
95	0x3dfb0cfe	0.122583374
96	0xbcd2a8ae	-0.025715198
97	0x3c9b9e88	0.018996492
98	0xbe62169f	-0.22078942
99	0xbe4f3dc4	-0.20238405
100	0xbe876d9a	-0.26450807
101	0x3d46c2fb	0.04852579
102	0xbd39ee00	-0.04539299
103	0xbe411e3a	-0.18859187
104	0xbe3540b9	-0.17700471
105	0xbc83edc7	-0.016104592
106	0x3d494e5f	0.049147006
107	0xbe9e8ac1	-0.30965236
108	0xbe3dc34c	-0.18531531
109	0x3dec726e	0.11545263
110	0xbe5833d2	-0.21113518
111	0xbeb4fd17	-0.35349342
112	0xbde6409e	-0.112427935
113	0xbc9c366f	-0.019068925
114	0xbe007d2d	-0.12547751
115	0x3ea9fcf1	0.3320079
116	0xbe08b573	-0.13350467
117	0x3c15fb96	0.009154221
118	0xbdc7d0ba	-0.09756608
119	0x3e6c7924	0.23093086
120	0x3dae3c5f	0.085076086
121	0xbe219bdb	-0.1578211
122	0x3e1fc94b	0.15604131
123	0x3dd114b1	0.10209025
124	0xbe77b639	-0.24190606
125	0xbe4917bf	-0.19637965
126	0x3ceac0e0	0.028656423
127	0xbd3c1809	-0.04592136
128	0xbddabb83	-0.10680296
129	0xbdc9f89f	-0.09861874
130	0x3db7ed7b	0.08980843
131	0xbe973034	-0.29528964
132	0x3dddcb82	0.10829832
133	0x3d8ddda4	0.0692704
134	0xbc805cfc	-0.015669338
135	0xbe115c1d	-0.14195295
136	0xbe2fd0cd	-0.17169495
137	0xbd1294ca	-0.035786428
138	0xbd3d229b	-0.04617558
139	0xbdc8d8a3	-0.09806945
140	0x3e07573b	0.1321687
141	0x3e1fb163	0.15595011
142	0x3e34a643	0.17641549
143	0x3de33e7d	0.11095903
144	0xbd7d6a94	-0.06186922
145	0x3e3758cb	0.17904966
146	0x3ce340a6	0.027740788
147	0x3d797cf4	0.06091018
148	0x3d0fefd3	0.035140824
149	0xbdba54ef	-0.09098231
150	0x3d5ad9ff	0.053430554
151	0xbe1267fd	-0.14297481
152	0x3e73b8e4	0.23800999
153	0x3e256eed	0.16155596
154	0xbe25f52a	-0.16206804
155	0x3e27ed51	0.16399123
156	0xbdc09deb	-0.094051205
157	0xbeb3eb7f	-0.35140607
158	0x3e22cd70	0.1589868
159	0x3e60bca6	0.21946964
160	0x3dd89a0d	0.10576258
161	0xbde1e392	-0.11029734
162	0xbe0dfaf0	-0.13865256
163	0x3e02369c	0.12716144
164	0xbd524303	-0.05133344
165	0xbe1ac82b	-0.1511542
166	0xbdb3ca18	-0.08778781
167	0xbe767ae2	-0.24070314
168	0xbe28e4c0	-0.16493511
169	0x3e965553	0.29361972
170	0x3e23d625	0.15999658
171	0x3e2f7766	0.1713539
172	0xbc998bea	-0.018743474
173	0xbde12e51	-0.10995162
174	0x3d7db33e	0.061938517
175	0xbd32b07a	-0.043625332
176	0x3e2654a0	0.1624322
177	0x3e1a5040	0.15069675
178	0x3dc85cd9	0.09783334
179	0xbe806058	-0.25073504
180	0xbe4b5714	-0.19857436
181	0xbd8d9be0	-0.069144964
182	0x3db52b4d	0.088461496
183	0xbda78378	-0.081793725
184	0x3df9e626	0.122021005
185	0x3e8f3fba	0.27978307
186	0xbe705331	-0.23469235
187	0xbd934ad0	-0.07192004
188	0x3e2e480d	0.17019673
189	0x3dd05687	0.10172754
190	0x3e7101c9	0.23535837
191	0x3e0559aa	0.13022485
192	0xbdc05cd9	-0.09392709
193	0xbe22ae16	-0.15886721
194	0x3dc37bb8	0.09545082
195	0xbb5a77bf	-0.0033335534
196	0xbc9818b5	-0.018566469
197	0xbde31e03	-0.11089709
198	0x3bc65b86	0.006053391
199	0xbe2a90f3	-0.16656856
200	0x3c692b06	0.014231449
201	0x3e2919da	0.16513768
202	0xbe1f04bf	-0.15529154
203	0x3e43f9de	0.19138286
204	0xbcbd6a9e	-0.023122128
205	0xbe07809e	-0.13232657
206	0x3d86bf39	0.065794416
207	0xbcdf03b2	-0.027223442
208	0xbe06e27b	-0.13172333
209	0x3ea361d5	0.31910577
210	0xbe55934c	-0.2085697
211	0xbd29ac59	-0.04142413
212	0xbe806ca6	-0.25082892
213	0x3ed44806	0.414612
214	0xbdc85743	-0.09782269
215	0xbe95e05d	-0.29272738
216	0x3e279ec4	0.16369158
217	0xbdc3703c	-0.095428914
218	0xbc42809d	-0.011871484
219	0x3dcb8b21	0.09938646
220	0xbd9d21e0	-0.07672477
221	0xbddb042e	-0.106941566
222	0x3dd32895	0.10310475
223	0x3e434fb2	0.1907337
224	0xbdb7b062	-0.08969189
225	0xbd90dd83	-0.070735
226	0xbd966ecd	-0.07345352
227	0x3d7338c9	0.059380326
228	0x3dd6a6aa	0.104810074
229	0x3ebbf0d2	0.3670717
230	0xbd3a40d7	-0.045471992
231	0xbe76961f	-0.24080704
232	0x3dd872ad	0.10568748
233	0x3e4b49a5	0.19852312
234	0x3dbcbd79	0.092158265
235	0x3ba5e40d	0.005062586
236	0x3e5ae952	0.21378067
237	0xbd62ecfa	-0.05540178
238	0x3db3d236	0.08780329
239	0xbe86c9b1	-0.26325753
240	0xbe336f74	-0.17522985
241	0x3d6248c7	0.055245187
242	0xbe2a01c8	-0.16602242
243	0x3e169448	0.14705002
244	0xbd166b61	-0.0367235
245	0x3d892cec	0.06698021
246	0xbcd79a0c	-0.026318572
247	0xbb0768e0	-0.0020661876
248	0xbe1ebd41	-0.15501882
249	0xbe2f5004	-0.17120367
250	0x3d808de2	0.06277062
251	0x3e7def7a	0.24798384
252	0x3e91a83e	0.2844867
253	0xbeb25ca5	-0.34836307
254	0x3e72ef6c	0.23724145
255	0x3bde8a9a	0.006791425

network_body._body_endoder.seq_layers.0.bias f4 [128]
0	0xbcb0674e	-0.021533635
1	0x3bbf9b2e	0.0058473563
2	0xbc9e07bf	-0.019290803
3	0x3b8392c4	0.0040152986
4	0xba0e6824	-0.0005432388
5	0x3c8f59ef	0.017498938
6	0x3b928623	0.0044715567
7	0x3bc164c3	0.0059019043
8	0x3c8284e7	0.015932513
9	0xbc44fd05	-0.012023215
10	0xbc434874	-0.01191913
11	0x3c5b581c	0.013387706
12	0x3b2d785f	0.0026469452
13	0xbb9e73fe	-0.0048356047
14	0xbb4e9833	-0.0031523823
15	0x3ab1499c	0.0013525966
16	0x3c33aa3c	0.01096588
17	0x3caad24c	0.02085223
18	0x3c4725af	0.012154981
19	0xba9c2dc0	-0.001191549
20	0x3b74f758	0.0037378874
21	0x3b73bf53	0.0037192896
22	0x3a555397	0.0008137761
23	0x3c148e8a	0.009067187
24	0x3b319b0e	0.0027100476
25	0x3c157402	0.009121897
26	0xbab70e9f	-0.0013966149
27	0xbc09b5b2	-0.008405136
28	0x3c68b9f1	0.014204488
29	0x3c900c36	0.017583948
30	0x3baa3014	0.0051937196
31	0x3c34e494	0.011040825
32	0x3c1d970e	0.009618534
33	0xbac2e5e2	-0.0014869536
34	0x3c4d4965	0.012529706
35	0x3c429e69	0.011878588
36	0x3b92f9b0	0.0044853315
37	0xbaf76f17	-0.0018877712
38	0xbad508ad	-0.0016253196
39	0xbc3ecd9b	-0.0116457
40	0xbca53094	-0.020164765
41	0x3c60eb46	0.013727969
42	0x3c255ac3	0.01009244
43	0x3ae0aba0	0.0017140992
44	0x3c619253	0.013767797
45	0xbb386e09	-0.0028141758
46	0xbac3a560	-0.0014926605
47	0x3ae9ffbc	0.0017852704
48	0x3cc07737	0.023494346
49	0x3c90b1d0	0.017662913
50	0xbbdf7326	-0.0068191467
51	0x3cb79a51	0.022412451
52	0x3c1037dd	0.008802381
53	0xbba2b5a4	-0.004965501
54	0xbba37174	-0.00498789
55	0xbb86e185	-0.0041162395
56	0xbb387cc8	-0.0028150547
57	0xbb581a0e	-0.0032974514
58	0xbada1bd1	-0.001664037
59	0x3c1a4fbf	0.009418427
60	0x3c518a56	0.0127893295
61	0xbac0ea52	-0.001471827
62	0xbc466d9f	-0.012111097
63	0xbc12e768	-0.008966304
64	0x3a5e5906	0.00084818935
65	0x3c618198	0.013763808
66	0x3c3db6eb	0.011579256
67	0x3c01ee45	0.007930343
68	0x3c9d5664	0.019206233
69	0x3c1582d2	0.009125428
70	0x3ba47e37	0.005019929
71	0x3c29bb60	0.010359615
72	0xbc1483cb	-0.009064625
73	0xbb0a14b5	-0.0021069471
74	0x3bf8204b	0.007572209
75	0xbc922188	-0.017838255
76	0x3bdacc97	0.006677221
77	0xbad596cf	-0.0016295555
78	0xbc8b63e8	-0.017015412
79	0xbd02a573	-0.031896066
80	0xbc0b0366	-0.008484697
81	0x3c57ba05	0.013166909
82	0x3c9301aa	0.01794513
83	0x3b7b5c50	0.0038354583
84	0x3aa23a90	0.0012377072
85	0x3cae9953	0.021313345
86	0x3c5377f0	0.012907013
87	0x3cb7a25a	0.022416282
88	0xbb048570	-0.0020221137
89	0x3c4164f2	0.011803852
90	0x3cbe155c	0.023203544
91	0x3bc3fdfd	0.0059812055
92	0x3cd50daf	0.026007501
93	0xbaeb3d44	-0.0017947336
94	0x3ca9ebed	0.020742381
95	0x3bf84ccb	0.007577514
96	0x3c7e660e	0.015527261
97	0x3b07d085	0.0020723653
98	0x3c87bfe2	0.016570989
99	0x3ca4caca	0.020116229
100	0x3d31371d	0.04326545
101	0xbb8857d7	-0.004160862
102	0x3ca86322	0.020555083
103	0x3bfe8d03	0.0077682748
104	0x3ba0c301	0.004906059
105	0x3b01d90c	0.0019813208
106	0x3b59a56e	0.0033210176
107	0xbb56a640	-0.0032752901
108	0xbceb718d	-0.028740669
109	0xbc11c2dd	-0.008896557
110	0x3c27019c	0.010193255
111	0x3aa7e1dc	0.00128084
112	0xba2e78d0	-0.00066555757
113	0x3b9505d1	0.0045478125
114	0x3c253e87	0.010085708
115	0x3c26a226	0.010170495
116	0x3b8ff55b	0.0043932623
117	0x3c367331	0.011135862
118	0x3c55d0fc	0.013050314
119	0xbc459601	-0.0120596895
120	0x3bcbeda8	0.006223399
121	0x3b824b5b	0.003976268
122	0xbc5497e2	-0.012975665
123	0x3c502e87	0.0127064055
124	0x3b9e752e	0.0048357463
125	0x3bbca185	0.0057565593
126	0xbc24e0c6	-0.010063356
127	0x3c35fbb2	0.011107372

network_body._body_endoder.seq_layers.2.weight f4 [128, 128]
0	0xbd1f3729	-0.038870964
1	0x3d7b8c7e	0.06141328
2	0x3bddda44	0.006770404
3	0x3d993ce4	0.07482317
4	0x3d7f8c3f	0.06238961
5	0x3d878062	0.06616284
6	0x3cc9a23b	0.02461349
7	0xbd7a8f0f	-0.061171588
8	0xbd3111c3	-0.04322983
9	0xbdb1970c	-0.08671388
10	0xbdb9415f	-0.09045672
11	0xbcd6678b	-0.02617242
12	0x3c7d7cae	0.0154716205
13	0x3d9924e0	0.074777365
14	0xbc276e0a	-0.010219106
15	0x3c759618	0.014989398
16	0x3d5a92db	0.05336271
17	0x3e21a4ad	0.15785475
18	0xbe1bb52b	-0.15205829
19	0xbc339fee	-0.010963423
20	0xbcfd039a	-0.030885506
21	0x3da7a361	0.08185459
22	0xbd7595f9	-0.05995748
23	0x3c5bba5f	0.013411134
24	0xbeab75b2	-0.33488232
25	0xbcf2d6b2	-0.02964339
26	0x3e6470ed	0.22308703
27	0xbac6dfda	-0.0015172914
28	0xbd7f2064	-0.06228675
29	0xbde65b7d	-0.11247919
30	0x3d19312a	0.037400402
31	0xbd09cbee	-0.033641748
32	0xbe21d182	-0.15802577
33	0x3cf50f97	0.02991466
34	0xbdf7e03d	-0.12103317
35	0xbd900d27	-0.070337586
36	0x3e129d77	0.1431788
37	0xbda70ef8	-0.08157152
38	0xbcde9760	-0.02717179
39	0x3e1d6ed1	0.15374304
40	0xbbc62087	-0.006046358
41	0x3d37447d	0.04474305
42	0xbc957ccf	-0.01824799
43	0xbd8b7a07	-0.06810384
44	0x3cf30e71	0.029669972
45	0x3d9c3544	0.07627347
46	0xbd45c2f1	-0.048281614
47	0x3d5a9d7a	0.053372838
48	0xbd4188b4	-0.04724951
49	0x3d916ebc	0.07101199
50	0x3ca9d3fb	0.020730963
51	0xbdae9028	-0.085235894
52	0xbdaf0337	-0.08545535
53	0xbd2a4450	-0.041569054
54	0x3d81b050	0.06332457
55	0x3d158281	0.03650141
56	0x3dd2f609	0.10300834
57	0xbe36a2bd	-0.17835517
58	0xbd872c0c	-0.06600198
59	0xbd1dc5f8	-0.038518876
60	0xbc923004	-0.017845161
61	0xbd15fcd9	-0.036618087
62	0xbe0c8867	-0.13723908
63	0x3e59c098	0.21264875
64	0xbd41c818	-0.047309965
65	0xbe2bcc3a	-0.16777125
66	0x3c91d168	0.017800048
67	0x3d73d808	0.059532195
68	0xbd11d33a	-0.035601832
69	0x3e00df88	0.1258527
70	0xbe1cc268	-0.15308535
71	0xbe0295d6	-0.1275247
72	0xbbc36e80	-0.0059641004
73	0x3d9b168c	0.0757266
74	0x3c77259b	0.015084649
75	0x3bc7f70a	0.0061024474
76	0x3d1c9124	0.038224354
77	0x3d956ca1	0.0729611
78	0xbbe74f6a	-0.0070590274
79	0x3c7cddb0	0.015433714
80	0xbde6a9c0	-0.11262846
81	0x3d416bdf	0.047222015
82	0x3d1addb5	0.037809093
83	0x3d5d96dc	0.05409895
84	0x3d786dd6	0.060651623
85	0x3e1a8ab3	0.15091972
86	0xbd95cfd1	-0.073150285
87	0x3dc87bcd	0.09789238
88	0xbd2befcc	-0.041976735
89	0xbd500ca4	-0.050793305
90	0x3c9d0f63	0.019172376
91	0xbda44f63	-0.08022954
92	0xbdc1fd64	-0.094721586
93	0x3dd56ef5	0.10421554
94	0x3c9a55ba	0.018839706
95	0xbdf6c57a	-0.120493844
96	0xbd8b422f	-0.06799733
97	0xbdc99f04	-0.09844783
98	0x3dc0e89b	0.09419366
99	0x3dfa5e5c	0.12225029
100	0x3d24612f	0.040131744
101	0xbd71e36d	-0.05905478
102	0x3cabc9bc	0.020970218
103	0xbd7cb05d	-0.06169163
104	0x3e1b6009	0.15173353
105	0x3d0434ff	0.032277104
106	0x3dabb0aa	0.08383305
107	0x3e07d53f	0.1326494
108	0x3df4d4d7	0.119546585
109	0xbc0e903c	-0.00870138
110	0xbe5000da	-0.20312825
111	0xbd92f136	-0.071749136
112	0x3cbe4b46	0.023229253
113	0x3c5ab96d	0.013349873
114	0xbd943143	-0.072359584
115	0xbb0d6fb8	-0.0021581482
116	0x3dbae42d	0.09125552
117	0xbe2486bc	-0.16067022
118	0x3d733a7f	0.059381958
119	0x3e01052e	0.12599632
120	0x3d27b7d7	0.040946808
121	0xbdb2de66	-0.087338254
122	0xbba84bd7	-0.005135994
123	0xbdfc0aef	-0.12306773
124	0xbd8e9810	-0.06962597
125	0xbdb436bd	-0.08799503
126	0xbc82c82f	-0.015964596
127	0xbc12fc5f	-0.008971303
128	0x3d97bd4c	0.074091524
129	0x3d43af65	0.04777469
130	0xbe24ad35	-0.16081698
131	0x3cbedf6a	0.023299892
132	0xbbe16e18	-0.0068795793
133	0xbdba23ae	-0.090888366
134	0x3ced3c01	0.028959276
135	0x3c5fbef5	0.013656368
136	0xbd1c9a4f	-0.038233098
137	0x3d9bb10c	0.076021284
138	0xbd9cd464	-0.07657698
139	0x3d8d384c	0.068955034
140	0x3eac3652	0.33635193
141	0xbbf81caf	-0.0075717787
142	0xbd8c8491	-0.068612225
143	0xbd97d806	-0.0741425
144	0x3e3267bd	0.17422386
145	0xbd036d12	-0.03208644
146	0x3ddb1707	0.106977515
147	0x3bd68610	0.006546743
148	0x3dd5a3c0	0.104316235
149	0xbdab95f8	-0.08378214
150	0x3d918b97	0.07106703
151	0x3d9906ae	0.07471977
152	0x3db33b97	0.087516
153	0x3e4ddbfb	0.20103447
154	0xbde3922a	-0.11111863
155	0x3d5141a2	0.051087983
156	0x3cea04b6	0.0285667
157	0xbd7b265b	-0.061315876
158	0x3c2143f2	0.00984286
159	0x3db3f293	0.08786502
160	0xbd8eece4	-0.06978777
161	0xbe14d3bb	-0.14533894
162	0x3c4cfce3	0.012511465
163	0xbb986742	-0.004650981
164	0x3e1d339f	0.15351723
165	0xbd17c69a	-0.037054636
166	0xbb19b635	-0.002345455
167	0x3e2570cc	0.1615631
168	0x3dfa6a9e	0.12227367
169	0x3cd09c9d	0.025465304
170	0xbdc20069	-0.094727345
171	0xbd6ae36a	-0.057345785
172	0xbcfd680d	-0.030933404
173	0x3db99789	0.09062106
174	0x3d8db527	0.06919318
175	0x3c826e4b	0.015921732
176	0xbddd72fd	-0.10812948
177	0x3d3c1f74	0.045928434
178	0x3dcaa6a2	0.09895064
179	0x3d01df87	0.031707313
180	0xbd8500b5	-0.064942755
181	0xbc9e943e	-0.019357797
182	0xbe2208c1	-0.15823652
183	0xbb8ca3f3	-0.004292005
184	0xbdaf4042	-0.08557178
185	0x3e100ba9	0.14066948
186	0xbd0be635	-0.03415509
187	0xbc05a29f	-0.008156448
188	0x3e314301	0.17310716
189	0xbe188551	-0.14894606
190	0x3c97b727	0.018519951
191	0x3d4306c6	0.04761388
192	0xbbe7efff	-0.0070781703
193	0xbda22e2a	-0.07918961
194	0x3e403122	0.18768743
195	0xbc0eb349	-0.008709737
196	0x3d6fc8ac	0.058540985
197	0xbc84e89d	-0.0162242
198	0x3d76626b	0.060152452
199	0xbd2fc0fa	-0.042908646
200	0xbd12d0ce	-0.035843663
201	0x3c1f9f33	0.009742546
202	0xbcfac4ab	-0.030611357
203	0xbdba7fbf	-0.09106397
204	0xbde6ff50	-0.11279166
205	0xbde2dd0e	-0.11077319
206	0xbcea3537	-0.028589828
207	0x3e3b76d1	0.18307044
208	0x3c5b11f0	0.013370976
209	0xbda26978	-0.07930273
210	0xbca56dd0	-0.020193964
211	0xbd34908a	-0.044083156
212	0x3df2b473	0.11850824
213	0xbdd942a7	-0.10608416
214	0xbd9a39a8	-0.07530528
215	0xbe07a180	-0.13245201
216	0x3d94c207	0.0726357
217	0xbcc2c97b	-0.023777714
218	0x3e369d69	0.17833485
219	0x3e09d316	0.13459429
220	0x3bfbe498	0.0076871626
221	0xbe563c96	-0.20921549
222	0x3d94e686	0.07270531
223	0x3d99044e	0.07471524
224	0x3d0b91a6	0.034074448
225	0x3e4453a6	0.19172534
226	0xbcce2218	-0.025162742
227	0x3dc2c86d	0.095108844
228	0xbb6017ca	-0.0034193867
229	0xbdeb895e	-0.1150081
230	0x3d27497a	0.040841557
231	0x3d815ad7	0.063161545
232	0xbdcaa759	-0.098952
233	0xbe16df2d	-0.14733572
234	0xbe487e71	-0.19579484
235	0xbc03d5e7	-0.008046604
236	0x3cde595d	0.027142221
237	0xbdbfb5fc	-0.09360883
238	0xbd651fdb	-0.055938583
239	0x3e1ff669	0.15621342
240	0xbd7d9251	-0.061907116
241	0xbd21c551	-0.039494816
242	0x3e044c8e	0.12919828
243	0xbbe83acc	-0.0070870873
244	0xbe3a50aa	-0.18194833
245	0x3df241fe	0.11828993
246	0x3d207b64	0.039180174
247	0x3da71fee	0.08160387
248	0xbdd9df24	-0.10638264
249	0x3d2a469e	0.041571252
250	0xbe3992d4	-0.18122417
251	0xbd45f14b	-0.048325818
252	0x3de75143	0.11294796
253	0xbdde8717	-0.1086561
254	0x3e3f8725	0.18703897
255	0xbdafff04	-0.08593562

network_body._body_endoder.seq_layers.2.bias f4 [128]
0	0x3a536822	0.0008064528
1	0x3c39e727	0.011346615
2	0xbb8ebadf	-0.004355773
3	0x3b1f188f	0.0024276113
4	0x3bb62914	0.005559096
5	0x3bcb6184	0.006206693
6	0x3c3a2a45	0.011362617
7	0x3b6abde8	0.003581876
8	0x3bdb6805	0.0066957497
9	0x3c2b9231	0.0104718665
10	0x3afeb948	0.001943388
11	0xba294bd4	-0.00064581377
12	0xbba06329	-0.0048946333
13	0x3b0abd35	0.0021169905
14	0x3c30eafa	0.01079821
15	0xb9001560	-0.00012214994
16	0x3a60e183	0.0008578526
17	0x3c1d6295	0.009606023
18	0xbb3f8461	-0.002922319
19	0xbc96b46e	-0.018396582
20	0xbaf42db8	-0.0018629348
21	0x3c5ac957	0.013353667
22	0x3bd3d19c	0.0064641964
23	0x3c5a5b70	0.013327464
24	0xbb07bc8e	-0.0020711753
25	0x3a9fd94f	0.00121955
26	0x3c028867	0.007967091
27	0x3c1d1023	0.009586367
28	0x39257f58	0.00015783065
29	0x3bd37504	0.0064531583
30	0xbcc709d3	-0.024296677
31	0x3c6c6764	0.014428947
32	0xbc0920f7	-0.008369676
33	0x3c15d320	0.009144574
34	0x3bbbf8d1	0.0057364483
35	0xb8129d52	-3.495563e-05
36	0x3c49ad80	0.012309432
37	0xbbc6ea87	-0.0060704383
38	0x3b772194	0.0037709223
39	0xbadb52af	-0.0016733016
40	0x3c4b1310	0.012394682
41	0x3bf27a97	0.0073998678
42	0xbc1163ac	-0.008873861
43	0xb99df3ca	-0.0003012701
44	0x3be3bb77	0.006949838
45	0x3a257488	0.0006311615
46	0xbcb30017	-0.021850629
47	0xb91007fc	-0.00013735885
48	0x3c6482ff	0.0139472475
49	0x3c1b8c65	0.009493922
50	0x3ba7156c	0.0050989892
51	0x3bc8b8fb	0.006125567
52	0x3ad9b5ac	0.0016609929
53	0x3bd0a4ac	0.0063672867
54	0x3b85e0d5	0.00408564
55	0x3c32195b	0.010870303
56	0xb9e0f27d	-0.00042905277
57	0x3c283c3e	0.010268269
58	0xbccfb829	-0.02535637
59	0x3babcedb	0.005243165
60	0xbbd9bc21	-0.006644741
61	0x3c291829	0.010320702
62	0x3c475201	0.012165547
63	0x3a9b533d	0.0011850368
64	0x3b99bd28	0.0046917386
65	0x39981bfb	0.00029012546
66	0x3b6060ff	0.0034237502
67	0xbc0b3f7b	-0.008499022
68	0x3c334c20	0.010943443
69	0x3b956d6b	0.004560163
70	0x3b08f57c	0.0020898273
71	0x3bac5890	0.005259581
72	0x3c376b6a	0.011195043
73	0xba13f0b6	-0.00056434737
74	0x3c217639	0.009854847
75	0x3c1f2c1f	0.009715109
76	0x3bbbfcb4	0.0057369117
77	0xbc87c325	-0.016572544
78	0xbc1979ff	-0.009367465
79	0x3be661b9	0.0070306924
80	0x3b4c771b	0.0031198922
81	0x3bb99df3	0.005664581
82	0xbb100611	-0.0021976272
83	0x3bedb4e3	0.0072542294
84	0x3b3188cf	0.00270896
85	0xbbb4276a	-0.0054978626
86	0x3afa51c5	0.0019097856
87	0x3b2a584c	0.002599257
88	0x3ab34679	0.0013677619
89	0x3c8805ec	0.016604386
90	0x3bbc3c12	0.0057444656
91	0x3a8ef37b	0.0010906303
92	0x3c039e26	0.008033311
93	0xb9131a32	-0.00014028771
94	0xbb3c1bb0	-0.0028703026
95	0xbb2c8b12	-0.002632801
96	0x3bad9cb1	0.00529822
97	0x3c36e572	0.011163102
98	0x3c6e80aa	0.014557043
99	0xbb4c1485	-0.003114016
100	0xbc223f35	-0.009902765
101	0x3c0cbd1b	0.008590008
102	0x3b89db4b	0.00420705
103	0x3b8b5007	0.0042514834
104	0xbb7df8c9	-0.0038753024
105	0x3b9f6209	0.0048639816
106	0xbb9c6ea5	-0.004773932
107	0x3c87d77d	0.016582245
108	0x3b8bfb5c	0.0042719077
109	0x39c6bff5	0.00037908522
110	0x3bfa1b9f	0.007632687
111	0x3c26898c	0.01016463
112	0xb9f727d3	-0.00047141183
113	0xbb4ad7c8	-0.003095137
114	0xbcb0220b	-0.021500608
115	0x3c2a7a7f	0.010405182
116	0x3c2c40a0	0.010513455
117	0xba9b4369	-0.0011845651
118	0xbb0b91d2	-0.0021296632
119	0x3a48dc85	0.00076622545
120	0x3c182ed5	0.009288509
121	0xbb5d227c	-0.0033742478
122	0x3c3e8a5b	0.011629666
123	0x3c2b5006	0.010456091
124	0x3c12d505	0.008961921
125	0xbc0167fd	-0.007898328
126	0x3c1945da	0.009355033
127	0xbb57da82	-0.0032936637

action_model._discrete_distribution.branches.0.weight f4 [2, 128]
0	0x3d6eb61b	0.058279138
1	0xbd00dbb5	-0.03145953
2	0x3c464fd1	0.012103991
3	0x3c56e612	0.0131163765
4	0xbcc47e2f	-0.02398595
5	0xbc9f89cd	-0.019474888
6	0x3c234868	0.009965993
7	0x3d21eb4f	0.03953105
8	0xbc88a2db	-0.016679218
9	0xbcb71901	-0.02235079
10	0x3cc0001d	0.023437554
11	0x3ccf6303	0.025315767
12	0x3b9c89ec	0.0047771838
13	0xbc93b6f6	-0.018031579
14	0xbd0392a0	-0.032122254
15	0x3cafb9aa	0.021450836
16	0x3ca7b406	0.020471584
17	0xbd25dc37	-0.040493216
18	0x3c766db8	0.015040807
19	0xbac89f06	-0.0015306182
20	0x3cb7c40e	0.022432353
21	0x3cf370b8	0.029716834
22	0xbc31613f	-0.010826408
23	0xbcaf28bc	-0.021381728
24	0x3c83a5d5	0.016070286
25	0x3d34e2a6	0.04416146
26	0xbc69f353	-0.014279204
27	0xbcb78886	-0.022403967
28	0x3cc01ca9	0.023451166
29	0xbc8ce7a5	-0.0172003
30	0xbc406bf3	-0.011744487
31	0xbce88971	-0.02838585
32	0x3c20b163	0.009807917
33	0xbc940a1b	-0.018071225
34	0x3d3a816a	0.045533575
35	0x3c70c7b5	0.014696051
36	0xbc890b12	-0.016728912
37	0xbc012499	-0.007882261
38	0x3cbccea9	0.023047762
39	0x3c98ee7f	0.018668411
40	0xbd15122d	-0.036394287
41	0xbc05fa83	-0.008177402
42	0xbb3153c5	-0.0027057987
43	0xbcb27026	-0.021781992
44	0x3b02f970	0.0019985102
45	0x3c912a7e	0.017720457
46	0xbb2bbf91	-0.0026206712
47	0x3ce12df8	0.02748774
48	0xbcfc9d3b	-0.030836692
49	0xbd144700	-0.036200523
50	0xbc8e904f	-0.017402796
51	0xbca34464	-0.019930072
52	0x3cd5e486	0.026109945
53	0xbc6ab4bc	-0.014325317
54	0x3d215786	0.03939011
55	0xbc47d6f6	-0.012197247
56	0x3d2107aa	0.03931395
57	0xbca9290e	-0.02064946
58	0x3c05f734	0.008176614
59	0x3d3d4979	0.046212647
60	0xbaaeb3ad	-0.0013328694
61	0xbc7fef0e	-0.01562096
62	0xb81ec900	-3.785733e-05
63	0x3c1aa1cc	0.009437989
64	0x3cd88ae1	0.02643341
65	0xbac0cc93	-0.0014709405
66	0xbbe27657	-0.00691108
67	0x3c6721bd	0.014107165
68	0xbcb2a7bb	-0.021808496
69	0x3d176523	0.036961686
70	0x3d043543	0.032277357
71	0x3c6e0398	0.014527224
72	0xbb898138	-0.0041963123
73	0x3d469c13	0.048488688
74	0xbc66f71b	-0.0140970005
75	0xbc4da64c	-0.012551855
76	0x3c87e3b1	0.016588064
77	0xbc2dd187	-0.010609037
78	0x3bc0c570	0.0058829114
79	0x3d0aa4d1	0.033848587
80	0xbc4f356b	-0.012647013
81	0xbc879954	-0.016552605
82	0xbbc92ab0	-0.006139122
83	0xbc87f020	-0.016593993
84	0xbbc52f09	-0.00601757
85	0x3ae8efd3	0.0017771668
86	0x3d2b0268	0.04175034
87	0x3d1631d1	0.036668602
88	0x3c8bcc7a	0.017065275
89	0xbd214f5f	-0.039382335
90	0x3d019360	0.03163469
91	0xbc54219f	-0.012947469
92	0xbc55150e	-0.013005508
93	0xbc9f0cf3	-0.019415354
94	0x3cd21666	0.025645446
95	0x3c203941	0.009779275
96	0x3d178598	0.03699264
97	0xbcc2aac9	-0.023763077
98	0xbc566e16	-0.01308777
99	0x3cd8a9e7	0.026448203
100	0xbba7b1fb	-0.0051176525
101	0xbc9e3a15	-0.019314805
102	0x3cebc3d8	0.028779909
103	0x3cccd01c	0.025001578
104	0xbb4a5df6	-0.003087876
105	0x3d081dc5	0.033231515
106	0x3b82f5b3	0.003996575
107	0xbcf5444f	-0.029939799
108	0x3d085d41	0.03329206
109	0x3b084130	0.0020790808
110	0xbcc6ecf7	-0.024282916
111	0xbc39b1d3	-0.0113339005
112	0x3b1e2b14	0.0024134563
113	0x3ccaeab2	0.024770115
114	0xbc4f7649	-0.012662479
115	0xbca7d7a5	-0.02048857
116	0xbcb7ebb2	-0.022451255
117	0x3d2e1244	0.04249789
118	0x3cf47c05	0.029844293
119	0x3c89cffa	0.016822804
120	0xbca0280d	-0.019550348
121	0x3c9dea2a	0.019276697
122	0xbd145395	-0.036212523
123	0x3ccf8818	0.02533345
124	0xbcd7842f	-0.026308147
125	0xbbe22d2f	-0.006902359
126	0xbcda1e3a	-0.026625741
127	0x3bb35a34	0.0054733995
128	0xbd0bbb6d	-0.03411429
129	0x3c849758	0.016185448
130	0xbc5ed266	-0.013599968
131	0x3c0f2f65	0.008739327
132	0x3b9b0da9	0.004731853
133	0x3c75e15d	0.015007344
134	0xbc61b192	-0.013775246
135	0xbcac3c97	-0.021024985
136	0x3cb5bd0b	0.02218487
137	0x3d16d8b1	0.036827747
138	0xbcc99c88	-0.024610773
139	0xbcae9e4d	-0.021315718
140	0xbcee05a6	-0.029055428
141	0x3b524125	0.0032082286
142	0x3ce51707	0.027965082
143	0xbd09132b	-0.033465546
144	0xbca16b9d	-0.019704634
145	0x3ca2f41c	0.019891791
146	0xbc472d07	-0.012156731
147	0x3c3d8baa	0.011568943
148	0xbc42e8cb	-0.0118963225
149	0xbaa0c11e	-0.0012264585
150	0x3b8e3320	0.0043395907
151	0x3c609b31	0.0137088755
152	0xbbc1a0a2	-0.0059090415
153	0xbd427df0	-0.047483385
154	0x3c81c1ab	0.015839418
155	0x3c9871d6	0.018608969
156	0xbbe713e1	-0.0070519303
157	0x3cd2991f	0.02570778
158	0xbc36cbaa	-0.011156956
159	0x3c33f558	0.0109837875
160	0xbc4c47b7	-0.01246827
161	0x3c9aec17	0.018911405
162	0xbd2772df	-0.040881034
163	0xbca3f47c	-0.02001404
164	0x3cfccded	0.030859912
165	0x3b92fcbc	0.0044856947
166	0xbbdf7b27	-0.006820101
167	0xbd1a4d68	-0.037671477
168	0x3cfa5acf	0.030560879
169	0x3bd76d05	0.0065742754
170	0x3cdba1a2	0.026810471
171	0x3ce1ef26	0.027579855
172	0x3ca1d959	0.01975696
173	0xbc8c1b29	-0.017102795
174	0x39d347b5	0.00040298482
175	0xbd059c11	-0.03261954
176	0x3cedd7a9	0.029033499
177	0x3cd29d05	0.025709638
178	0x3cebaeac	0.028769813
179	0x3c0b3c78	0.008498304
180	0xbd10ef7c	-0.03538464
181	0x3bd4deba	0.0064962776
182	0xbc15ef66	-0.009151315
183	0x3c69d166	0.014271116
184	0xbccf3785	-0.025295028
185	0x3d192e31	0.037397567
186	0x3bae697d	0.005322634
187	0xbd4d12aa	-0.050066628
188	0xbb95e95f	-0.004574939
189	0x3cad98aa	0.02119096
190	0xb9978778	-0.00028901896
191	0x3b1b0a4f	0.0023657267
192	0xbcb5c18e	-0.02218702
193	0xbcb9277b	-0.022601834
194	0x3b054263	0.002033376
195	0xbb8e5eb0	-0.0043447837
196	0x3cbc70f9	0.023003088
197	0xbd51595e	-0.051110618
198	0xbd06c92b	-0.032906692
199	0xbc34f419	-0.011044526
200	0x3cf97c1b	0.030454686
201	0xbd157c53	-0.036495518
202	0x3cd73bbb	0.026273599
203	0x3ca8d65d	0.020610029
204	0xbc95d38f	-0.018289356
205	0x3c8c6886	0.017139684
206	0xbc775640	-0.015096247
207	0xbd3c16f2	-0.04592032
208	0x3c89d4c5	0.01682509
209	0x3c07511f	0.008259087
210	0x3ad1e3e9	0.0016013357
211	0x3cb46a99	0.022023486
212	0xbc77a111	-0.015114085
213	0x3b81ba2a	0.00395896
214	0xbd78b066	-0.0607151
215	0xbd0e43d4	-0.034732655
216	0xbc2a2bc1	-0.010386408
217	0x3d15336f	0.036426004
218	0xbc84f6fd	-0.016231054
219	0x3c68ef89	0.014217266
220	0x3cb779c1	0.022396924
221	0x3c407778	0.011747234
222	0xbcc38f81	-0.023872139
223	0xbc0ae015	-0.008476277
224	0xbcaa2d82	-0.020773653
225	0x3cf5ae38	0.0299903
226	0x3c9f4565	0.01944227
227	0xbce9ee3f	-0.028555987
228	0xba77e5ad	-0.00094565266
229	0x3d0bef6f	0.03416389
230	0xbd505848	-0.05086544
231	0xbd3deec2	-0.046370275
232	0xbb21149b	-0.0024578932
233	0xbd2cda7d	-0.042200554
234	0xbc2a924b	-0.0104108555
235	0x3d18a4f0	0.03726667
236	0xbcd12598	-0.025530621
237	0xb99ad5c1	-0.00029532428
238	0x3ce6c463	0.028169816
239	0x3ce775ac	0.028254353
240	0xbce1ba8a	-0.02755477
241	0xbb63d9e7	-0.003476733
242	0x3c3a674e	0.011377169
243	0x3c5e1cbf	0.013556658
244	0x3caf6cfa	0.021414269
245	0xbca19be3	-0.019727653
246	0xbb5c0195	-0.003357028
247	0xbcb30681	-0.021853687
248	0x3c9c452f	0.019075958
249	0xbcdc27bf	-0.026874421
250	0x3cdd39a7	0.02700503
251	0xbcbf5ec4	-0.023360617
252	0x3cdef659	0.027217077
253	0xbb811f3d	-0.0039404915
254	0x3d12d400	0.03584671
255	0xbcb5e3cc	-0.022203349

action_model._discrete_distribution.branches.0.bias f4 [2]
0	0xbbba9472	-0.0056939656
1	0x3bba9487	0.0056939754

exp_avg f4 [128, 42]
0	0x00000000	0.0
1	0x3a7733c7	0.00094300177
2	0x00000000	0.0
3	0x00000000	0.0
4	0x39d07069	0.00039756604
5	0x3a042a6a	0.00050417206
6	0x3a6b9ee3	0.00089882145
7	0x39e79a2f	0.0004417463
8	0x00000000	0.0
9	0x00000000	0.0
10	0xad4e45bd	-1.1725229e-11
11	0x38daddc4	0.00010436357
12	0x00000000	0.0
13	0x39e8445c	0.0004430142
14	0x00000004	6e-45
15	0x322e15a5	1.0133054e-08
16	0x3a6b491d	0.00089754333
17	0x3a6efa22	0.0009116252
18	0x3aafdaa7	0.0013416604
19	0xb592a814	-1.0926765e-06
20	0x00000000	0.0
21	0x00000000	0.0
22	0x2e83adb0	5.9880434e-11
23	0x387abc52	5.978003e-05
24	0x00000000	0.0
25	0xb4ccf07a	-3.817293e-07
26	0x80000004	-6e-45
27	0x3386cc3e	6.277013e-08
28	0x3aafc0b1	0.0013408867
29	0x3aafc049	0.0013408746
30	0x3aafd5f7	0.0013415207
31	0xb2b14485	-2.0636671e-08
32	0x00000000	0.0
33	0x00000000	0.0
34	0xb57a3885	-9.3214504e-07
35	0x3836466a	4.345776e-05
36	0x00000000	0.0
37	0x00000000	0.0
38	0x00000004	6e-45
39	0x3ab03923	0.0013444762
40	0xb6832528	-3.90843e-06
41	0x3953b57c	0.00020190136
42	0x00000000	0.0
43	0xbab911c9	-0.001411968
44	0x00000000	0.0
45	0x00000000	0.0
46	0xba115b62	-0.0005544928
47	0xba3c53c9	-0.0007184116
48	0xbaaba24d	-0.0013094634
49	0xba2c3a5b	-0.0006569975
50	0x00000000	0.0
51	0x00000000	0.0
52	0x2ddc2ffb	2.5032412e-11
53	0xb91d7f3e	-0.00015020088
54	0x00000000	0.0
55	0xba2ca390	-0.0006585652
56	0x00000004	6e-45
57	0xb28c7d6e	-1.6355184e-08
58	0xbaab6d26	-0.0013078793
59	0xbaae2b8c	-0.0013288124
60	0xbb0106dc	-0.0019687926
61	0x361c80ba	2.332074e-06
62	0x00000000	0.0
63	0x00000000	0.0
64	0xadae803b	-1.9838456e-11
65	0xb8b4d2f1	-8.62236e-05
66	0x00000000	0.0
67	0x35d558e6	1.589561e-06
68	0x80000004	-6e-45
69	0xb39132ad	-6.7613065e-08
70	0xbb00f946	-0.0019679829
71	0xbb00f842	-0.0019679223
72	0xbb0102b1	-0.0019685442
73	0x325eb19a	1.2962483e-08
74	0x00000000	0.0
75	0x00000000	0.0
76	0x360af000	2.07033e-06
77	0xb881f884	-6.197489e-05
78	0x00000000	0.0
79	0x00000000	0.0
80	0x80000004	-6e-45
81	0xbb012010	-0.0019702949
82	0x3680a5b6	3.8339886e-06
83	0xb99ca66d	-0.00029878636
84	0x00000000	0.0
85	0x39fd87f2	0.00048357208
86	0x00000000	0.0
87	0x00000000	0.0
88	0x396a9fbc	0.00022375485
89	0x398935b5	0.0002617069
90	0x39bf67f1	0.000365078
91	0x39b36fe2	0.000342249
92	0x00000000	0.0
93	0x00000000	0.0
94	0xacb73be9	-5.207824e-12
95	0x386c5944	5.634992e-05
96	0x00000000	0.0
97	0x39b3bbd0	0.00034281472
98	0x00000004	6e-45
99	0x323264dc	1.0383896e-08
100	0x39bf1a9d	0.00036450187
101	0x39c4d128	0.00037539867
102	0x3a39bf1f	0.0007085669
103	0xb5a66ae3	-1.2399072e-06
104	0x00000000	0.0
105	0x00000000	0.0
106	0x2de1f03a	2.568622e-11
107	0x380b807d	3.3259847e-05
108	0x00000000	0.0
109	0xb5bd2d04	-1.4094699e-06
110	0x80000004	-6e-45
111	0x332b8f88	3.994458e-08
112	0x3a39c7d0	0.00070869643
113	0x3a39c41c	0.00070864125
114	0x3a39b767	0.0007084519
115	0xb2911457	-1.6889471e-08
116	0x00000000	0.0
117	0x00000000	0.0
118	0xb594b9d7	-1.1080946e-06
119	0x37c5ff08	2.3602988e-05
120	0x00000000	0.0
121	0x00000000	0.0
122	0x80000004	-6e-45
123	0x3a399cf7	0.00070805795
124	0xb5443963	-7.30992e-07
125	0x38de82e6	0.00010610167
126	0x00000000	0.0
127	0xb99ec287	-0.00030281043
128	0x00000000	0.0
129	0x00000000	0.0
130	0xb8798965	-5.9494185e-05
131	0xb8c10e83	-9.20566e-05
132	0xb9633406	-0.00021667787
133	0xb918b360	-0.00014562672
134	0x00000000	0.0
135	0x00000000	0.0
136	0x2cfdc7b2	7.212863e-12
137	0xb7b1362c	-2.112527e-05
138	0x00000000	0.0
139	0xb91918fb	-0.00014600523
140	0x80000004	-6e-45
141	0xb0de0da8	-1.6156507e-09
142	0xb962cdfa	-0.00021629772
143	0xb967abd5	-0.00022093889
144	0xb9be819f	-0.000363362
145	0x358dedb2	1.0574497e-06
146	0x00000000	0.0
147	0x00000000	0.0
148	0xae0a6801	-3.146994e-11
149	0xb753f40c	-1.2633402e-05
150	0x00000000	0.0
151	0x3555b4f3	7.9612e-07
152	0x00000004	6e-45
153	0x31516bc0	3.0474752e-09
154	0xb9be5ef6	-0.00036310375
155	0xb9be5ab2	-0.00036307197
156	0xb9be7ce0	-0.00036332663
157	0x3316f139	3.5143987e-08
158	0x00000000	0.0
159	0x00000000	0.0
160	0x3584762c	9.869159e-07
161	0xb70d3473	-8.416467e-06
162	0x00000000	0.0
163	0x00000000	0.0
164	0x80000004	-6e-45
165	0xb9bf38d0	-0.00036472687
166	0x36228e9c	2.422289e-06
167	0xb86be3cd	-5.6240522e-05
168	0x00000000	0.0
169	0x3a3d2e9c	0.0007216723
170	0x00000000	0.0
171	0x00000000	0.0
172	0x393e1713	0.00018128408
173	0x39909802	0.00027579075
174	0x3a289003	0.0006430151
175	0x398848bf	0.00025994141
176	0x00000000	0.0
177	0x00000000	0.0
178	0xad249295	-9.3548684e-12
179	0x387a5e70	5.9692597e-05
180	0x00000000	0.0
181	0x3988cd6a	0.00026092987
182	0x80000004	-6e-45
183	0x2fe25bc5	4.1174367e-10
184	0x3a284da4	0.0006420261
185	0x3a2a7a37	0.0006503197
186	0x3a6d3645	0.00090489193
187	0xb601e561	-1.9356014e-06
188	0x00000000	0.0
189	0x00000000	0.0
190	0x2e1f3d2b	3.6206742e-11
191	0x380f99d7	3.423713e-05
192	0x00000000	0.0
193	0xb59a7865	-1.1508934e-06
194	0x00000004	6e-45
195	0xb271402f	-1.404264e-08
196	0x3a6d028e	0.0009041213
197	0x3a6cff6b	0.0009040746
198	0x3a6d31e7	0.00090482685
199	0xb340de33	-4.4905573e-08
200	0x00000000	0.0
201	0x00000000	0.0
202	0xb5f504f3	-1.8255363e-06
203	0x37c64493	2.3635372e-05
204	0x00000000	0.0
205	0x00000000	0.0
206	0x80000004	-6e-45
207	0x3a6df892	0.00090778724
208	0xb6a218a5	-4.8308452e-06
209	0x3911b5d7	0.00013896018
210	0x00000000	0.0
211	0x396921c0	0.00022233184
212	0x00000000	0.0
213	0x00000000	0.0
214	0x3857cc84	5.1450465e-05
215	0x38a54b59	7.881848e-05
216	0x39401b8a	0.00018320806
217	0x38bdf2ad	9.057424e-05
218	0x00000000	0.0
219	0x00000000	0.0
220	0xaccd2b11	-5.8312318e-12
221	0x3793125f	1.753232e-05
222	0x00000000	0.0
223	0x38bee907	9.103311e-05
224	0x80000004	-6e-45
225	0x3004b5ea	4.8279836e-10
226	0x393fa03b	0.0001827487
227	0x3942a8de	0.0001856419
228	0x398fc699	0.00027423052
229	0xb4f0a4ad	-4.48233e-07
230	0x00000000	0.0
231	0x00000000	0.0
232	0x2d1a2d7a	8.763984e-12
233	0x372af1d2	1.0189093e-05
234	0x00000000	0.0
235	0xb3ad3ac6	-8.066631e-08
236	0x00000004	6e-45
237	0xb2b89c78	-2.1491573e-08
238	0x398f9826	0.00027388445
239	0x398f976e	0.0002738791
240	0x398fc323	0.00027420474
241	0xb1db8681	-6.38903e-09
242	0x00000000	0.0
243	0x00000000	0.0
244	0xb4df5dcf	-4.1605242e-07
245	0x36f026cf	7.1570753e-06
246	0x00000000	0.0
247	0x00000000	0.0
248	0x80000004	-6e-45
249	0x39901a4b	0.0002748541
250	0xb58fdb33	-1.0718126e-06
251	0x3832b27f	4.2604745e-05
252	0x00000000	0.0
253	0x3a4ec006	0.000788689
254	0x00000000	0.0
255	0x00000000	0.0

exp_avg_sq f4 [128, 42]
0	0x00000000	0.0
1	0x36f64bfe	7.340218e-06
2	0x00000000	0.0
3	0x00000000	0.0
4	0x372266ae	9.679859e-06
5	0x3728d920	1.0064134e-05
6	0x3737373a	1.0920508e-05
7	0x36da967f	6.5144263e-06
8	0x00000000	0.0
9	0x00000000	0.0
10	0x3029996f	6.1699884e-10
11	0x3579afdb	9.301563e-07
12	0x00000000	0.0
13	0x34d54583	3.9724918e-07
14	0x3004ff55	4.838417e-10
15	0x36a5a5ee	4.9367e-06
16	0x373b4364	1.1161759e-05
17	0x373bdb00	1.11970585e-05
18	0x375e15ad	1.3237278e-05
19	0x365afce7	3.263174e-06
20	0x00000000	0.0
21	0x00000000	0.0
22	0x30839f48	9.576775e-10
23	0x34b356c5	3.340448e-07
24	0x00000000	0.0
25	0x340a6f37	1.2892711e-07
26	0x2f576728	1.9590785e-10
27	0x36e07e91	6.6904545e-06
28	0x371d9cae	9.394409e-06
29	0x371e31f3	9.429164e-06
30	0x377251c1	1.4443359e-05
31	0x3606ed0f	2.0105542e-06
32	0x00000000	0.0
33	0x00000000	0.0
34	0x30a8bfa4	1.2278076e-09
35	0x344fa43b	1.9338124e-07
36	0x00000000	0.0
37	0x00000000	0.0
38	0x2f519010	1.905962e-10
39	0x3775a719	1.4642043e-05
40	0x35c0456b	1.4325318e-06
41	0x35e3ad52	1.6963261e-06
42	0x00000000	0.0
43	0x36c545dd	5.8791907e-06
44	0x00000000	0.0
45	0x00000000	0.0
46	0x379e2cec	1.8855986e-05
47	0x37a0d930	1.9174622e-05
48	0x37697521	1.3915153e-05
49	0x374b3838	1.2112832e-05
50	0x00000000	0.0
51	0x00000000	0.0
52	0x313ce39e	2.7486986e-09
53	0x36061900	1.9982108e-06
54	0x00000000	0.0
55	0x34b04d92	3.2838994e-07
56	0x2d6dbf58	1.3514377e-11
57	0x37434363	1.1638595e-05
58	0x3758964f	1.29096e-05
59	0x3758f88d	1.29324735e-05
60	0x379de49f	1.8822318e-05
61	0x36b2436b	5.312662e-06
62	0x00000000	0.0
63	0x00000000	0.0
64	0x314a1a14	2.9409692e-09
65	0x3540d37e	7.1833335e-07
66	0x00000000	0.0
67	0x34159ef7	1.3934537e-07
68	0x2defb163	2.724993e-11
69	0x377ff1e2	1.5255502e-05
70	0x370cb111	8.385877e-06
71	0x370dd20f	8.453163e-06
72	0x37a376a2	1.9486357e-05
73	0x36989b5f	4.5480406e-06
74	0x00000000	0.0
75	0x00000000	0.0
76	0x319182d8	4.2349306e-09
77	0x34d4825c	3.9582926e-07
78	0x00000000	0.0
79	0x00000000	0.0
80	0x2eee3b79	1.08335514e-10
81	0x37c86661	2.3889532e-05
82	0x34caa38f	3.7744437e-07
83	0x351e2f97	5.892884e-07
84	0x00000000	0.0
85	0x34ec4206	4.4006464e-07
86	0x00000000	0.0
87	0x00000000	0.0
88	0x360f8a66	2.138922e-06
89	0x3611c55e	2.1721567e-06
90	0x358409bf	9.837603e-07
91	0x35cc765d	1.5233633e-06
92	0x00000000	0.0
93	0x00000000	0.0
94	0x2ee178d2	1.02532774e-10
95	0x342dc5ca	1.6183836e-07
96	0x00000000	0.0
97	0x3361c685	5.2567447e-08
98	0x2b2e3f0e	6.1904724e-13
99	0x358505dc	9.910977e-07
100	0x35ca25b7	1.5061149e-06
101	0x35ca6ad3	1.5081263e-06
102	0x35d034b4	1.5512546e-06
103	0x356e989a	8.8883974e-07
104	0x00000000	0.0
105	0x00000000	0.0
106	0x2f2b604f	1.5586575e-10
107	0x33870eae	6.2890976e-08
108	0x00000000	0.0
109	0x329146f1	1.6912482e-08
110	0x2aa8e483	3.0001357e-13
111	0x35a5e7ae	1.2360886e-06
112	0x358be66b	1.0423367e-06
113	0x358e1f88	1.0589001e-06
114	0x35c7d34a	1.4888149e-06
115	0x356a55aa	8.729645e-07
116	0x00000000	0.0
117	0x00000000	0.0
118	0x3019c25c	5.5937277e-10
119	0x33131369	3.4243758e-08
120	0x00000000	0.0
121	0x00000000	0.0
122	0x2d3c773d	1.0713039e-11
123	0x362420fa	2.44571e-06
124	0x32acf5cc	2.013521e-08
125	0x33265fca	3.8737006e-08
126	0x00000000	0.0
127	0x35eef8a7	1.7804749e-06
128	0x00000000	0.0
129	0x00000000	0.0
130	0x36529139	3.137697e-06
131	0x365ac507	3.2599216e-06
132	0x363721e8	2.728886e-06
133	0x361dcddb	2.3514647e-06
134	0x00000000	0.0
135	0x00000000	0.0
136	0x2fa7da13	3.0532074e-10
137	0x34aa1801	3.1682433e-07
138	0x00000000	0.0
139	0x3383b7d6	6.1336024e-08
140	0x2ed4c697	9.6759205e-11
141	0x35c8c69e	1.4958966e-06
142	0x365e9f30	3.3173237e-06
143	0x365f2cc6	3.325565e-06
144	0x36400d2a	2.8617892e-06
145	0x3601ff42	1.9371078e-06
146	0x00000000	0.0
147	0x00000000	0.0
148	0x2fd36346	3.8451214e-10
149	0x33d33fea	9.837079e-08
150	0x00000000	0.0
151	0x32828d77	1.5198323e-08
152	0x2df988f4	2.8368842e-11
153	0x3622df0c	2.4269712e-06
154	0x3620d526	2.3965927e-06
155	0x362161fb	2.4047902e-06
156	0x36892527	4.0872433e-06
157	0x355671c3	7.988676e-07
158	0x00000000	0.0
159	0x00000000	0.0
160	0x30369b15	6.64316e-10
161	0x3385ae06	6.22495e-08
162	0x00000000	0.0
163	0x00000000	0.0
164	0x2df51e97	2.786686e-11
165	0x369db120	4.6995847e-06
166	0x342ea7dd	1.6266081e-07
167	0x34688cb3	2.165787e-07
168	0x00000000	0.0
169	0x36292d95	2.5209495e-06
170	0x00000000	0.0
171	0x00000000	0.0
172	0x366a5bd2	3.4922164e-06
173	0x3676799e	3.6727647e-06
174	0x367b1924	3.7416548e-06
175	0x3623a1a2	2.4382975e-06
176	0x00000000	0.0
177	0x00000000	0.0
178	0x31193015	2.2291762e-09
179	0x34a83d1c	3.1336901e-07
180	0x00000000	0.0
181	0x33f3b156	1.13478265e-07
182	0x3144e70b	2.8653087e-09
183	0x358546f4	9.929922e-07
184	0x36a760d7	4.9882615e-06
185	0x36a786e8	4.992693e-06
186	0x36803b10	3.821573e-06
187	0x360b13a4	2.0724046e-06
188	0x00000000	0.0
189	0x00000000	0.0
190	0x3163d22a	3.3152312e-09
191	0x33d276ba	9.800483e-08
192	0x00000000	0.0
193	0x3329561f	3.9426705e-08
194	0x30ddfd63	1.6151883e-09
195	0x361d51a3	2.3442342e-06
196	0x36729e9c	3.6153133e-06
197	0x3673491b	3.6252375e-06
198	0x36a714a1	4.9793894e-06
199	0x358c1cac	1.0439157e-06
200	0x00000000	0.0
201	0x00000000	0.0
202	0x31901ae0	4.194007e-09
203	0x33859797	6.220869e-08
204	0x00000000	0.0
205	0x00000000	0.0
206	0x309cbb58	1.140374e-09
207	0x36be89bd	5.678476e-06
208	0x34b37349	3.342523e-07
209	0x34db16bf	4.080848e-07
210	0x00000000	0.0
211	0x343037b5	1.6411543e-07
212	0x00000000	0.0
213	0x00000000	0.0
214	0x3408e4ea	1.2749265e-07
215	0x34144a04	1.3810501e-07
216	0x3466f27a	2.1508632e-07
217	0x33a2a5da	7.573881e-08
218	0x00000000	0.0
219	0x00000000	0.0
220	0x3089e10c	1.0032024e-09
221	0x324ffbc6	1.21062325e-08
222	0x00000000	0.0
223	0x33271717	3.8903718e-08
224	0x30f177f2	1.7569148e-09
225	0x332ba929	3.996789e-08
226	0x3464e1c1	2.1316283e-07
227	0x3465ab5b	2.1389626e-07
228	0x344238eb	1.8088365e-07
229	0x33dfdbd7	1.0424235e-07
230	0x00000000	0.0
231	0x00000000	0.0
232	0x308cd982	1.024816e-09
233	0x317e0ee8	3.6970338e-09
234	0x00000000	0.0
235	0x32a66951	1.9372836e-08
236	0x309dbc61	1.1476794e-09
237	0x3386980c	6.2675184e-08
238	0x345538dd	1.9857858e-07
239	0x3455d3ff	1.9914295e-07
240	0x345d34fe	2.0601507e-07
241	0x33a7c389	7.812111e-08
242	0x00000000	0.0
243	0x00000000	0.0
244	0x30932f67	1.070913e-09
245	0x31418a7d	2.8163918e-09
246	0x00000000	0.0
247	0x00000000	0.0
248	0x302be8ae	6.2540095e-10
249	0x347b1165	2.3382525e-07
250	0x3377d756	5.7705016e-08
251	0x3381fe79	6.053319e-08
252	0x00000000	0.0
253	0x36fc0a3c	7.5113767e-06
254	0x00000000	0.0
255	0x00000000	0.0

exp_avg f4 [128]
0	0x3aafb5fe	0.0013405678
1	0xbb00dfbd	-0.0019664608
2	0x3a396be9	0.000707327
3	0xb9bdf3b4	-0.00036230462
4	0x3a6cb461	0.0009029564
5	0x398f8a71	0.00027378232
6	0x3a919cf4	0.0011109398
7	0x39bd0926	0.00036055705
8	0x3b079fc8	0.0020694602
9	0x3a286905	0.00064243405
10	0x397d170b	0.00024136544
11	0x3a066fc1	0.0005128347
12	0x3a5a4d46	0.00083275547
13	0xbad7803b	-0.0016441414
14	0x3a893c84	0.0010470306
15	0xb93efe47	-0.00018214538
16	0xba6b0139	-0.0008964721
17	0xbb284b95	-0.0025679816
18	0x3a991e78	0.0011682054
19	0x3b64557d	0.0034840994
20	0x3ba6bf9d	0.00508876
21	0xb9fe80a3	-0.00048542497
22	0xbb2b586f	-0.002614524
23	0xba889e6e	-0.0010423192
24	0xb948e33e	-0.0001915814
25	0x3ad2a8a5	0.0016071989
26	0xbb0b815b	-0.0021286819
27	0x3a8e40ef	0.0010853092
28	0x3ba50995	0.0050365427
29	0x3b9c2623	0.0047652884
30	0xb92c8fe0	-0.00016456796
31	0x3b5d5800	0.0033774376
32	0xba2b8666	-0.0006543159
33	0xbb2d1832	-0.0026412127
34	0x39f959df	0.0004755994
35	0x3af5bba7	0.0018747941
36	0xb95be46a	-0.00020970558
37	0xbb4c0f23	-0.0031136952
38	0xba0b588d	-0.00053156243
39	0xb8b8ae88	-8.806313e-05
40	0x39a79229	0.0003196162
41	0xb972e274	-0.00023163279
42	0x3aeba008	0.001797677
43	0xba11b2d6	-0.00055579597
44	0xb9521b10	-0.00020037242
45	0xbb2dc2d4	-0.0026513832
46	0x3a95cf3d	0.001142956
47	0xbb865987	-0.004100028
48	0xbadae43a	-0.0016700097
49	0xbb01e560	-0.0019820556
50	0xba39012c	-0.00070573646
51	0x3b33ce26	0.0027436106
52	0x3a434490	0.0007448876
53	0x38e47739	0.00010894094
54	0xbae0bad3	-0.0017145522
55	0xbb6d9f72	-0.0036258367
56	0xba0f8191	-0.0005474324
57	0x39bba898	0.00035793032
58	0xba32f1bb	-0.0006826182
59	0xbbadb4c6	-0.005301091
60	0x3b1870ea	0.0023260661
61	0x3a9bed71	0.0011896325
62	0xb83c86d0	-4.4948247e-05
63	0x3a14a1ea	0.0005669879
64	0x3b524bcd	0.0032088638
65	0x3ae46389	0.0017424683
66	0x3b13e40c	0.0022566346
67	0xbb0a5d0e	-0.0021112594
68	0x3b7a40df	0.003818564
69	0x3923d718	0.0001562502
70	0x3b68ef54	0.0035543041
71	0x3ad0a614	0.0015918636
72	0xb9c4a365	-0.00037505772
73	0xbacec6b9	-0.0015775777
74	0x3a918893	0.0011103324
75	0x386a0248	5.5792072e-05
76	0x3b734e0c	0.0037125377
77	0xbb04dc18	-0.0020272788
78	0xbab3615d	-0.0013685633
79	0x39d50f68	0.00040638004
80	0xb996e23e	-0.00028778793
81	0xbad5aae9	-0.0016301546
82	0x3b206e52	0.0024479819
83	0xbb708aeb	-0.0036703895
84	0xbaecce42	-0.0018066841
85	0xbb35abb2	-0.0027720747
86	0x3a6ce800	0.0009037256
87	0xba2c33bd	-0.0006568989
88	0x3b00a2e9	0.0019628352
89	0x3b46de3c	0.0030344864
90	0x3773da2c	1.4534726e-05
91	0x3ab847f9	0.0014059535
92	0x391badd3	0.00014846706
93	0x3abcbdb1	0.0014399794
94	0x38c6db06	9.482172e-05
95	0x39f0df26	0.00045942626
96	0x3b38ab2c	0.0028178198
97	0x3a65b662	0.0008762834
98	0xba028bee	-0.00049799576
99	0x39f82916	0.00047332858
100	0xbb3fa3df	-0.0029241962
101	0xb98e4d28	-0.00027141836
102	0x3ab4c784	0.001379237
103	0x3a478331	0.00076107966
104	0xbaeba5ef	-0.0017978529
105	0x3a305b95	0.0006727514
106	0xbad97b08	-0.0016592452
107	0x3976deb0	0.00023543346
108	0x3a66efc1	0.000880953
109	0xb96b74a0	-0.00022454793
110	0x3aea9d5b	0.0017899679
111	0xba4adc5d	-0.0007738525
112	0xbad8ef11	-0.001655074
113	0x3acf8aa2	0.0015834162
114	0x3b615972	0.003438559
115	0x3b92e7c2	0.004483194
116	0xbaf7c7ca	-0.0018904146
117	0x3b6cd1c5	0.0036135775
118	0x3b2d5462	0.0026448
119	0xb76822b1	-1.3836355e-05
120	0xba0a2fda	-0.00052714127
121	0x3b10a2b7	0.0022069642
122	0xb9895092	-0.00026190706
123	0x3b2d7b2e	0.0026471126
124	0xb795fb14	-1.7879102e-05
125	0x3a89881d	0.0010492835
126	0x3882bf22	6.234484e-05
127	0x3b25dce4	0.0025308663

exp_avg_sq f4 [128]
0	0x378be4b2	1.6676586e-05
1	0x37cdb132	2.4520417e-05
2	0x3627250a	2.4906499e-06
3	0x36a5536f	4.927096e-06
4	0x36cc23ea	6.0838547e-06
5	0x349c6711	2.9132255e-07
6	0x3840557d	4.5855984e-05
7	0x37025e4a	7.770557e-06
8	0x38554c1b	5.0854036e-05
9	0x35c8b723	1.4954461e-06
10	0x35997e5e	1.1436166e-06
11	0x374a01e3	1.20405775e-05
12	0x369a5952	4.599956e-06
13	0x376d6ad3	1.4151173e-05
14	0x37388d2b	1.1000123e-05
15	0x3676ed2e	3.6794913e-06
16	0x378d9fc4	1.6882906e-05
17	0x38382b55	4.3909375e-05
18	0x370063b5	7.652609e-06
19	0x388a73a0	6.6018896e-05
20	0x396cbe55	0.00022577618
21	0x3705aa3c	7.9670535e-06
22	0x3849d364	4.8119007e-05
23	0x37a83085	2.0049754e-05
24	0x35fc36b1	1.879138e-06
25	0x37b9c611	2.214595e-05
26	0x37d1f1a8	2.5027271e-05
27	0x3694295b	4.415558e-06
28	0x38dca7e9	0.00010521693
29	0x3905cccc	0.00012760161
30	0x3627b070	2.498764e-06
31	0x387b6e6d	5.9945905e-05
32	0x3722c158	9.700969e-06
33	0x3869450c	5.5615834e-05
34	0x35cc531e	1.5223375e-06
35	0x37cb3458	2.422386e-05
36	0x374ca841	1.2198522e-05
37	0x38712206	5.7490564e-05
38	0x36d755c2	6.417483e-06
39	0x3554dabe	7.9294466e-07
40	0x359eda3a	1.183543e-06
41	0x36ff71dc	7.612847e-06
42	0x3769d21d	1.3936803e-05
43	0x35af4fa3	1.3061693e-06
44	0x35e509a8	1.706464e-06
45	0x381fdf89	3.8116737e-05
46	0x36a79895	4.9947507e-06
47	0x389ceab0	7.4823736e-05
48	0x3832969d	4.2578777e-05
49	0x3782a332	1.5573201e-05
50	0x373c5bd0	1.122705e-05
51	0x38799c7f	5.9511975e-05
52	0x35f4cd51	1.8239172e-06
53	0x35e39a53	1.6957732e-06
54	0x37bff9f1	2.2885362e-05
55	0x3836ead1	4.361087e-05
56	0x3701795f	7.717258e-06
57	0x3492077c	2.7200065e-07
58	0x36404286	2.8648951e-06
59	0x38ddfcd7	0.00010585196
60	0x37d45ba7	2.5315048e-05
61	0x37f0ea1d	2.8719247e-05
62	0x3618c1ef	2.276265e-06
63	0x3738334a	1.0979196e-05
64	0x38920c8e	6.964161e-05
65	0x375226dc	1.2526023e-05
66	0x381ae838	3.693273e-05
67	0x385af99d	5.220772e-05
68	0x391389c2	0.00014070331
69	0x34ae1d27	3.2431237e-07
70	0x3876920c	5.8786987e-05
71	0x3810fc47	3.4567227e-05
72	0x370e3ec1	8.478471e-06
73	0x376b3823	1.4020162e-05
74	0x379d73ef	1.8769844e-05
75	0x361db1ae	2.3498246e-06
76	0x385714f6	5.1279516e-05
77	0x379cb883	1.868257e-05
78	0x370d1442	8.408972e-06
79	0x357788a0	9.2213486e-07
80	0x3643474e	2.909877e-06
81	0x36f4eff1	7.2996995e-06
82	0x380fcdb8	3.4285447e-05
83	0x38891e10	6.538269e-05
84	0x380dd55b	3.3815722e-05
85	0x386066cf	5.350151e-05
86	0x3630515f	2.6273408e-06
87	0x3649d837	3.0077188e-06
88	0x37d29b8c	2.5106383e-05
89	0x38890dec	6.535262e-05
90	0x345f6f31	2.0808945e-07
91	0x37f924c3	2.9700232e-05
92	0x357464ae	9.104359e-07
93	0x37a0537a	1.9112358e-05
94	0x349afd61	2.8869093e-07
95	0x370606d1	7.9886095e-06
96	0x37e0522c	2.6741145e-05
97	0x366fc819	3.5730247e-06
98	0x3702780a	7.776553e-06
99	0x3575042c	9.1275683e-07
100	0x38c5a6aa	9.4247356e-05
101	0x36951b3f	4.443718e-06
102	0x373690c9	1.0881756e-05
103	0x36a67a3a	4.9614146e-06
104	0x3819a0ed	3.6627916e-05
105	0x37fe8679	3.0341778e-05
106	0x373872ec	1.0994012e-05
107	0x3615bf19	2.2313964e-06
108	0x378b2118	1.6585502e-05
109	0x36840764	3.934767e-06
110	0x3837b1d1	4.3796204e-05
111	0x37afb525	2.0945978e-05
112	0x373bf3eb	1.120286e-05
113	0x37a805f9	2.0029942e-05
114	0x38a6fef1	7.962983e-05
115	0x39296dff	0.00016158073
116	0x371dc4a8	9.403717e-06
117	0x38b24ff7	8.502596e-05
118	0x38a0fcbc	7.67647e-05
119	0x35ea4814	1.7455336e-06
120	0x36e560e0	6.8360096e-06
121	0x375c5bdc	1.31344095e-05
122	0x37776f1c	1.4748217e-05
123	0x38989046	7.274798e-05
124	0x362c892b	2.570984e-06
125	0x381d9e0b	3.7578906e-05
126	0x36418637	2.8837364e-06
127	0x37dff0ec	2.669586e-05
