Assets/results/JumperAgentTest/JumperAgent/JumperAgent-17280.pt (torch, 546980 bytes, 33 tensors)

network_body._body_endoder.seq_layers.0.weight f4 [128, 42]
000000 0c 81 0c 3d 18 f9 f6 bd ed 45 16 3e 9f 17 a0 bc
       0.034302756 -0.120592296 0.14675112 -0.019542513
000010 5e b5 6f 3d 6c 83 ec bd 2c 46 15 3d cc 7d 5b bd
       0.058522575 -0.11548504 0.036443874 -0.053586766
000020 fa d2 0d bd b0 44 f0 bc c6 82 4d be 3c 3c 91 3a
       -0.03462503 -0.029329628 -0.20069417 0.0011080573
000030 78 f8 41 be d8 80 2e bc a8 a9 83 be 42 9a d2 3d
       -0.1894244 -0.010650836 -0.25715375 0.102833286
000040 70 97 74 bb 04 12 b8 be fe 00 03 be ee d5 93 be
       -0.003732171 -0.35951245 -0.12793347 -0.28874153
000050 8c 94 92 3c c6 c2 9a 3d c9 a8 37 3e c2 ad c0 3d
       0.017893098 0.07556681 0.1793548 0.09408142
000060 81 68 e8 bb 16 31 22 3e c1 85 d3 bc 6d 99 70 3c
       -0.007092536 0.15839037 -0.025820615 0.014685017
000070 e9 3f af 3c 98 2d 99 be b5 33 1c bd 15 39 ad bd
       0.02139278 -0.29917598 -0.03813525 -0.08458153
000080 28 9d 99 bd 47 4f 51 3d ef ff 34 bd ae 16 90 bd
       -0.07500678 0.051100995 -0.04418939 -0.07035576
000090 8f 8c 25 3d 6a 97 64 be 96 ee 84 3d 72 8b 81 3e
       0.04041725 -0.22323385 0.06490819 0.253017
0000a0 07 3d 1a be 79 60 25 3e 52 af e5 3b 72 77 da bd
       -0.15062343 0.16150083 0.007009425 -0.10667314
0000b0 32 27 af 3c f1 b8 66 3c 70 4a 11 be 1a 87 03 3e
       0.021380994 0.014082179 -0.14188552 0.12844506
0000c0 8f d6 28 3d e8 6d 0c bc 68 9d f8 3d 24 2f b4 3d
       0.041220244 -0.008571126 0.12139398 0.08798054
0000d0 16 c4 a8 3d 05 fe 7a be 43 72 0d bb 00 11 e7 3c
       0.082405254 -0.24510963 -0.0021582998 0.028206348
0000e0 f4 4c 1c bd 22 34 20 be d5 62 ed 3e 70 77 98 bc
       -0.038159326 -0.15644887 0.46364465 -0.01861164
0000f0 71 05 37 3e 66 32 e1 3d 26 cd 1e be 88 5f 10 3e
       0.1787317 0.10995941 -0.15507945 0.14098942
000100 b8 d2 39 bd 14 06 5d 3a 30 3d a3 be 1b 99 3b bd
       -0.045366973 0.00084313867 -0.3188262 -0.04580031
000110 28 73 5f 3e 1a 0a d4 bd aa a6 a2 be 22 4e 09 3e
       0.21821272 -0.10353489 -0.3176778 0.13408712
000120 5e 36 9c 3d af 17 4a 3e ca 57 3e be 84 7a 80 be
       0.07627557 0.19735597 -0.18588176 -0.25093472
000130 55 5a a9 bd 36 1d 17 3e 4a d4 e2 3d 1a 92 06 3b
       -0.082691826 0.14757237 0.11075647 0.002053386
000140 77 61 91 bc b8 26 fa bd a4 5e b1 bc 6e 2c b2 3c
       -0.01774667 -0.12214416 -0.021651573 0.021749701
000150 39 78 60 3d 96 ee 2d 3e 5e 9d 2d 3d a3 cf e8 3d
       0.054802153 0.16985545 0.042386405 0.113677286
000160 c1 aa 56 bb e2 e2 05 3e 57 57 4f 3e 89 a6 e9 3c
       -0.0032755586 0.1307483 0.20248161 0.028521793
000170 5a dc 2c bd dd 0b 83 3a ef f2 1c be a7 fa 33 3d
       -0.04220233 0.0009998042 -0.15327047 0.043940213
000180 1f 05 88 3c eb 81 b8 3c 34 68 28 3e 83 b3 6f 3e
       0.016604004 0.022522887 0.16446 0.23408322
000190 cd d3 b4 bd c7 5d 99 bb 2e cb 09 3e d8 d2 2a 3d
       -0.0882946 -0.0046803686 0.13456413 0.041704983
0001a0 11 81 cf 3c e6 0c 6f be 13 3e 23 be 24 a2 64 3e
       0.025330098 -0.23344764 -0.15941648 0.22327477
0001b0 13 b9 9b bd 6e e0 75 3d 7d 23 b5 bc f6 de a1 3c
       -0.076036595 0.060028486 -0.022111649 0.019759636
0001c0 ca 89 de bd 0c 47 f8 bd d1 5c 9f 3d 46 7b 3a 3e
       -0.10866125 -0.12122926 0.07781375 0.18211088
0001d0 8e ba 1f 3d 7b 64 3a bd 47 70 7d 3d 32 a0 4c be
       0.03899627 -0.045505982 0.061874654 -0.19982985
0001e0 da d8 46 bd bc 5e 0c 3e 68 a7 a2 3d ab fd 8a 3d
       -0.04854665 0.13708013 0.079420865 0.067866646
0001f0 ae 70 99 3d 5f 41 8e bd 3f 9f 5b bd c4 4c 59 bd
       0.07492195 -0.06946062 -0.053618666 -0.053051725
000200 6f 2b 25 bd bc 52 d3 3d 60 de c4 bd e8 e7 cf bc
       -0.040324625 0.10318515 -0.09612727 -0.025379136
000210 29 cb 09 3d 45 d5 db 3d fd cc d0 bc 35 93 07 3e
       0.033641014 0.10734037 -0.025488371 0.13239749
000220 24 02 4c 3e a0 3e a8 bd 19 a2 6d be a8 d3 30 3e
       0.19922692 -0.0821507 -0.23206367 0.1726824
000230 e8 3a ea 3d 39 7d 46 bd 5b b2 a3 3c 78 01 7b 3d
       0.11437017 -0.048459265 0.019982507 0.061280698
000240 1a b7 fc 3d f7 42 24 3e 86 0f 0e bd b0 f4 38 bd
       0.12339611 0.1604117 -0.034682773 -0.045155227
000250 21 2d 78 bd ab c3 2f be ac 40 12 be ba d4 10 3e
       -0.060589913 -0.17164485 -0.14282483 0.14143649
000260 74 35 88 3d 85 0d 96 be a5 6b ec bd 20 77 e3 3d
       0.066508204 -0.2930719 -0.11543969 0.11106706
000270 f1 67 c5 3c 7f 5a 19 3e 5a a7 fd 3d 6d 46 01 3e
       0.024097415 0.14975928 0.123854354 0.12624522
000280 dd b4 84 bd 8f a9 3f 3e 52 92 96 3e a6 b9 94 be
       -0.064798094 0.18717025 0.2940851 -0.2904789
000290 e9 1f 0b be 1b f0 15 3d 2c 98 1f 3e 5e 01 08 3e
       -0.13586392 0.036605936 0.15585393 0.13281772
0002a0 d2 f9 3b 3e d7 32 a3 bd 32 f9 f4 3d 26 8c dd 3b
       0.18357018 -0.07968681 0.11961593 0.0067610918
0002b0 42 f4 1f 3d 03 77 be 3e 10 27 41 bd aa 1c 8c bb
       0.0390513 0.37200174 -0.047156394 -0.004275878
0002c0 fc 69 56 bd ab 54 85 3e be 5e a1 3b e8 68 03 3d
       -0.05234717 0.2604116 0.004924624 0.03208247
0002d0 82 e4 0a 3e a9 73 25 be dc 6a 31 3e 0b b0 98 3d
       0.13563731 -0.16157402 0.1732592 0.074554525
0002e0 de e8 95 3e ad bc 38 3d d3 19 54 3d 57 7a 9b 3d
       0.29279226 0.04510181 0.05178244 0.07591694
0002f0 9c f6 e5 bd 20 17 3b 38 46 9b d6 3c 31 f1 3e bd
       -0.11228678 4.460581e-05 0.026197087 -0.046616737
000300 3f 2d 6a be d1 7e 6b bc 62 3a d1 bd 54 52 2d 3e
       -0.22868823 -0.014373497 -0.10216214 0.16925937
000310 4a d5 18 3e 90 56 84 3d 7c 63 d8 bd 39 77 48 bd
       0.14925113 0.06461823 -0.1056585 -0.048941825
000320 e0 df 87 3e 42 8a 6e 3d a1 80 44 be 14 c7 c6 bd
       0.2653799 0.05823732 -0.19189693 -0.0970594
000330 80 7f 96 3d 78 5e 3a be e9 6f ad 3d b9 70 57 bd
       0.073485374 -0.182001 0.08468611 -0.052597735
000340 0c ce e8 bd f0 3e cd 3b 73 61 8d bd 78 e1 ff 3c
       -0.11367425 0.0062636063 -0.069033526 0.031235442
000350 56 01 bf 3c dd 38 15 bc 4b e4 a7 bd fa cd 66 bd
       0.023316067 -0.009107796 -0.0819784 -0.05634878
000360 18 2b 6d 3e 69 fe 08 be b7 0e f1 3d 36 90 93 3e
       0.2316097 -0.133783 0.11770385 0.28820962
000370 19 86 6e be a5 42 86 be a8 ff af bd 78 4d af 3d
       -0.23293342 -0.2622272 -0.085936844 0.08559698
000380 ec 11 54 bd 05 80 86 3e 8c 9a 27 3e c8 5e 0f bd
       -0.051774904 0.26269546 0.16367549 -0.0350025
000390 5c e6 3b 3e 11 11 7f 3d 7c 1f d8 be f9 3b 1d bd
       0.18349594 0.062272135 -0.4221152 -0.038387273
0003a0 f4 11 53 3d 2d de 93 bd 9a 2a 22 3e 95 62 2a 3e
       0.051530793 -0.07220111 0.15836564 0.16639169
0003b0 9c f7 74 bd 24 f4 11 be f2 50 96 3e cd bf 65 bd
       -0.05980645 -0.14253289 0.2935863 -0.05609112
0003c0 ad 2c f6 3d ff b9 10 3d f2 f6 19 3e 23 ca 08 3b
       0.1202024 0.03533363 0.15035608 0.0020872436
0003d0 fc 28 ab bd 77 34 5f 3c 4c 4e 2e bd e1 84 2d 3e
       -0.083574265 0.013623348 -0.04255514 0.1694522
0003e0 4b 02 29 bd 06 4d 19 be 6c 39 bb 3e fa 9a 26 3e
       -0.041261952 -0.14970788 0.36567247 0.16270056
0003f0 f3 7e f0 bd d1 eb 19 3d 52 2a 6a 3e 30 e1 3b bd
       -0.11742964 0.037578408 0.22867706 -0.045869052

network_body._body_endoder.seq_layers.0.bias f4 [128]
000000 05 32 57 3d 13 93 b5 bc 09 74 c7 3c f0 3e 96 bc
       0.052537937 -0.022164857 0.024347322 -0.018340558
000010 37 b9 95 bc ae 92 09 bc 07 98 37 bb a7 fb 7d b9
       -0.018276794 -0.008396788 -0.00280142 -0.00024221708
000020 79 4e 92 bb 54 af a5 bb e4 0c 0e bc 31 b1 01 bc
       -0.004464921 -0.005056301 -0.008670066 -0.007915781
000030 50 59 9c 3b e7 a8 d7 bc 39 c5 e2 3c d1 24 98 bc
       0.004771389 -0.026325656 0.027681934 -0.018572243
000040 8c b9 ec 3c 56 66 ae 3c 28 01 92 bc c0 a8 a2 3b
       0.02889707 0.021289032 -0.017822817 0.004963964
000050 35 89 76 3b c8 ea b9 bb c6 42 32 3c c5 68 10 3d
       0.0037618403 -0.00567374 0.010880178 0.035256166
000060 b9 4b ca 3b fc b0 8f 3c c7 28 b8 3b 01 2c 16 bc
       0.0061735776 0.017540447 0.0056200954 -0.009165765
000070 47 ac 82 3d f7 79 76 bd 5d 50 04 bc b1 df bb 3c
       0.063805155 -0.06017491 -0.008075801 0.022933813
000080 8b b1 00 3c 8f 5e 08 3d d2 ac 33 bb 1b 05 ef 3c
       0.00785483 0.033293303 -0.0027416241 0.02917724
000090 97 06 58 bc bc 30 cc bc 6e 34 0b bc 39 20 49 3d
       -0.013185165 -0.024925582 -0.008496387 0.049102996
0000a0 64 b7 9d bc 33 46 a4 ba 25 53 85 bc 80 e3 27 3c
       -0.019252487 -0.0012533128 -0.016274998 0.010247111
0000b0 a2 f4 45 bd d8 07 9d 3c 57 69 9c bc fb 37 a5 bc
       -0.048329003 0.01916878 -0.019093199 -0.020168295
0000c0 26 94 14 3c 8d a8 8c bc a5 c7 1d bc 8a c9 76 3c
       0.009068524 -0.017170215 -0.0096301185 0.015062699
0000d0 f0 78 47 3c b6 5a c0 3c 2f 28 30 bd e6 a8 3d 3c
       0.01217483 0.023480754 -0.043007072 0.011575913
0000e0 bf 31 88 bc b3 d3 6c bc ec 7b 80 bc 91 48 64 3c
       -0.016625283 -0.01445477 -0.01568409 0.013933317
0000f0 24 e9 3b bb 26 75 35 3c 44 37 6c 3c 4b c5 b1 ba
       -0.0028672898 0.011075294 0.014417473 -0.0013562826
000100 d2 8c f8 bc 32 d5 6e bc c6 8f 99 bc 43 ae f7 3c
       -0.030340586 -0.014577197 -0.018745314 0.030234462
000110 2d 6e 3c bd 4c 2c 49 bc 56 60 33 bd 79 6c 24 bc
       -0.04600351 -0.012278628 -0.043793045 -0.0100356275
000120 74 9d 0d 3d af 86 03 bd 6c 81 75 3c c9 9a 43 3d
       0.034573987 -0.032110866 0.01498447 0.047755037
000130 2f 18 f0 3c 82 6f cb bc 8f ed 0a 3d 7c f4 bd bc
       0.029308407 -0.024833445 0.03391796 -0.023187868
000140 51 15 89 3d 3e 34 41 bb 48 9b c1 3c c5 18 90 3d
       0.06693519 -0.0029480602 0.023633614 0.070359744
000150 4c 52 0e 3c 5c 69 ff bc be 6a 13 bc 97 80 82 bb
       0.008686613 -0.031178169 -0.008997617 -0.0039826143
000160 2e 97 c5 bc 3f e1 78 bc 90 2b cb bc 24 4b 8d bc
       -0.02411994 -0.015190422 -0.024801046 -0.017247744
000170 fb 4d 23 3a 13 95 92 3c 48 1a ee 3c d4 65 cb bb
       0.00062295765 0.01789335 0.029065266 -0.006207207
000180 19 65 8d bb 4a 65 9d bc 6b cf ad ba d3 f6 c1 bc
       -0.0043150303 -0.019213337 -0.0013260668 -0.023677265
000190 4e e9 1e ba 5a 98 10 bc db 0a e8 3b 6d af 15 bd
       -0.0006061987 -0.008825386 0.007081372 -0.036544252
0001a0 de 2c 64 3d cd 0c 48 bc 5e 6a 98 bc b1 cc b8 bc
       0.05570685 -0.012210083 -0.018605407 -0.022558542
0001b0 e4 5b ba 3c 63 e1 a4 3c e6 d2 5c 3d 5b 42 ee 3b
       0.022748895 0.020127004 0.053912066 0.007271094
0001c0 94 0b fc bb 02 e0 00 bb f6 2e a9 bc 09 ca ee bc
       -0.00769181 -0.001966477 -0.020652276 -0.029149072
0001d0 6f 1d 42 3c 4a dd 21 bc 86 93 ff 3c 3c 4d 0a bc
       0.011847838 -0.00987942 0.031198274 -0.008441266
0001e0 16 e3 6a 3c 2f 12 d2 3c 32 a5 cf 3c 02 9c 15 bd
       0.014336368 0.025643436 0.025347326 -0.036525734
0001f0 20 4c 05 bc d1 9f df bb 31 a0 2b bc 7b 2d 2b bc
       -0.008135825 -0.0068244715 -0.010475204 -0.010447855

network_body._body_endoder.seq_layers.2.weight f4 [128, 128]
000000 43 96 c7 bd 18 c7 33 3d 6e a5 6f 3e c5 07 46 3c
       -0.09745457 0.043891042 0.2340295 0.012086813
000010 62 f2 cf 3d 80 aa 18 3e af b6 c9 3d 5b 8d fb 3d
       0.10153653 0.1490879 0.09849297 0.12282821
000020 6f 5c 3b 3e 32 b7 06 3c ec 55 5b bd 53 37 54 bd
       0.1829698 0.008222388 -0.05354874 -0.051810574
000030 81 90 08 3c da da 5d 3d 9f 49 95 bd 38 d6 43 bd
       0.008335234 0.05416379 -0.07289433 -0.047811717
000040 ec e1 d9 bd 1e d5 cc 3c 88 b8 f6 bd 62 fd aa bd
       -0.10638794 0.025003966 -0.12046915 -0.0834911
000050 08 df 92 3c 89 5f 8f 3d 0f 57 c0 3d 7e d9 bf 3d
       0.017928615 0.07000644 0.09391605 0.09367655
000060 77 69 09 bd 7a 76 43 bd 8c 0c 88 bc 18 16 91 bc
       -0.033547845 -0.04772041 -0.016607545 -0.01771073
000070 21 c5 e1 bd 24 41 5f 3c 39 4d ab bd 46 18 73 bd
       -0.110239275 0.013626371 -0.083643384 -0.05934932
000080 72 8f 37 bc 29 aa 26 be 07 de be 3d 4b 74 71 bd
       -0.011203634 -0.16275848 0.09319692 -0.058948796
000090 74 5e e1 bd 25 9c 9c bd 64 e9 9d 3d a2 e6 1f 3d
       -0.11004344 -0.0764697 0.07710531 0.039038308
0000a0 23 9a e9 3d 19 78 94 bc 4e 67 c9 3d c7 f5 55 3d
       0.11406352 -0.018123673 0.09834157 0.052236345
0000b0 c5 36 6a bd 20 6c 6b bd e7 a1 f7 bd 51 89 c3 bd
       -0.05718114 -0.057476163 -0.12091427 -0.095476754
0000c0 4e 6d d9 bd 41 54 d1 bd 3b 38 0f 3d 37 1a b2 3d
       -0.10616551 -0.10221148 0.034965735 0.08696406
0000d0 61 a2 39 3d e4 d5 5e 3d b6 b6 40 3d 62 bb fb 3b
       0.045320872 0.0544032 0.047049247 0.00768225
0000e0 05 2b ad 3d f4 4e 81 3d 83 7e 92 3c 77 f4 d7 3c
       0.08455471 0.06313887 0.017882591 0.026361687
0000f0 52 25 42 3e c1 74 d7 3d 8c 40 17 3d a3 9f 13 be
       0.18959549 0.10520316 0.03692679 -0.14416365
000100 24 97 be bc df e7 b6 3d 1e 3a 52 3d 54 21 42 3d
       -0.023265429 0.08930945 0.051324956 0.047395065
000110 52 02 5d 3b 6b 31 94 3d 5d 6b d4 bc 3b 19 b0 3d
       0.0033723307 0.07235988 -0.025930101 0.08598562
000120 e9 35 ed 3d d9 64 71 3c 53 2d 15 bd 58 87 44 bd
       0.11582548 0.014733517 -0.036420178 -0.047980636
000130 cd e0 00 bd aa 1e 40 bd 55 08 f7 3c 00 51 66 bd
       -0.031464387 -0.046904244 0.03015534 -0.05622959
000140 a0 57 82 ba db 92 9f bd 50 5f 30 3d 3c f1 8e bd
       -0.0009944327 -0.07791682 0.043059647 -0.069796056
000150 0a 66 18 3d 5e 38 03 be a5 d1 7a 3d 00 53 65 bd
       0.037206687 -0.12814471 0.06123509 -0.055987358
000160 28 66 e0 3c 96 08 75 bd 26 34 cd 3d 6b 6a e9 3d
       0.027392462 -0.05982264 0.10019712 0.11397251
000170 82 cb a4 bd 6c 21 98 3d d2 c9 06 3d 87 60 7a bc
       -0.080466285 0.0742825 0.032907315 -0.015281803
000180 54 0c 94 3c c7 5d 9a bc cd 6e a7 3d 25 f6 f7 3d
       0.018072285 -0.018843545 0.081754304 0.12107495
000190 90 9f 19 3b 4d ff 42 bd f7 f1 8d 3d cc f0 94 bd
       0.0023441054 -0.047606755 0.06930917 -0.07272491
0001a0 c3 e3 28 bd 14 ce f5 3a 2c 22 91 bd f0 e7 ce bd
       -0.041232836 0.0018753433 -0.07086596 -0.10102832
0001b0 bf 29 00 3d 66 64 db 3c 71 d2 55 3e 2d ce b3 bd
       0.031289812 0.026781272 0.20881058 -0.08779559
0001c0 f9 60 d3 bd e2 c2 ef 3d a6 02 2e 3d 4a 31 1f 3d
       -0.103212304 0.11707093 0.042482994 0.038865365
0001d0 aa 75 97 3c c5 a6 1d 3e 59 21 4d 3e 31 3a e3 3d
       0.018488724 0.15395649 0.20032252 0.110950835
0001e0 45 3d aa bd e2 b3 70 3d 87 e5 16 3c bb ca 86 bd
       -0.083124675 0.0587653 0.009209997 -0.065816365
0001f0 e7 c8 1d 3c 58 5d 18 bd 78 07 97 3d 00 d1 18 be
       0.009630418 -0.037198395 0.073744714 -0.14923477
000200 9b 85 32 3c a1 80 94 bc ca 20 50 be 00 2a 3c 3c
       0.010896112 -0.018127741 -0.20325008 0.011484623
000210 ee 71 8c 3d ab 1c 31 bd cf 2a 70 3e ee e8 06 bc
       0.06857668 -0.04324023 0.2345383 -0.008234246
000220 f8 37 4f 3e 2b f8 12 3d 94 26 f2 3d dc 72 35 3d
       0.20236194 0.035881203 0.118237644 0.04429899
000230 14 8c 0e 3b 3a 47 5e be 8c 78 c1 bd ad 36 1d 3e
       0.0021750974 -0.21706858 -0.094468206 0.15352888
000240 4b bc d4 bc fa 98 12 3e 92 aa 25 3d 28 a9 9b 3d
       -0.025968691 0.14316168 0.04044587 0.07600623
000250 e0 11 06 be 28 4b 80 bd 77 cf 55 3e 5f 4e d3 bd
       -0.13092756 -0.06264335 0.20879923 -0.103176825
000260 89 57 72 3d 8b 5e 1c bd 11 54 98 3c c8 6e 15 be
       0.05916551 -0.0381761 0.018594773 -0.14593041
000270 38 17 6d bd 97 e2 58 3e 50 75 9d 3d 5e ba ea bd
       -0.05788347 0.21180187 0.07688391 -0.11461328
000280 b5 a7 92 bd e4 a8 b4 bc e4 56 5c bd 76 6b 32 bd
       -0.07160894 -0.02205319 -0.053793803 -0.043559514
000290 72 b1 67 3d c2 cf 93 bc 01 33 f2 bc 1a d1 8c 3d
       0.05656571 -0.018043403 -0.029565336 0.068758205
0002a0 c0 c6 3f 3e 14 5b 8b 3c d7 88 55 bb 01 17 7b bd
       0.18728161 0.017011203 -0.0032582784 -0.061301235
0002b0 81 0f 3e 3d 00 f0 79 3d 97 c6 4c bd a5 d2 ce 3b
       0.046401504 0.061019897 -0.049994078 0.006311732
0002c0 48 ac 94 3d d3 e4 0e bd d4 63 33 bd bd f2 bc 3d
       0.072594225 -0.034886193 -0.043796375 0.09225986
0002d0 0f 5e e1 bd d1 7b d5 bc 8a 5a 02 3d 39 7d 78 bd
       -0.110042684 -0.026060017 0.031824626 -0.060666297
0002e0 05 27 75 bd e2 3a d6 bc ba 19 31 3c a0 63 be bd
       -0.059851665 -0.026151124 0.010809356 -0.09296346
0002f0 24 9d 1e 3d 9a 1d 25 3d cf 82 b9 bd 3a 31 0a 3b
       0.03872408 0.040311433 -0.09058153 0.002108647
000300 55 c0 13 3c f4 d8 0a 3e b0 5e 4e bd bd 44 b3 bd
       0.0090180235 0.13559324 -0.05038327 -0.08753345
000310 a7 41 ca 3d 5d 5f 0c 3b ff c2 09 3d c6 76 cd 3d
       0.098758034 0.0021419146 0.03363323 0.1003242
000320 2b 61 55 bd 57 83 c3 3d e4 b1 78 3c 50 15 4d bd
       -0.05209462 0.095465355 0.015179131 -0.050069153
000330 0a ae d8 bc a7 b4 2e 3d a9 aa bc bd ef da 46 bd
       -0.026450176 0.042652752 -0.09212238 -0.048548635
000340 c0 17 22 3d 78 bc 36 3e 18 01 02 bc 5c 3f f9 b9
       0.03957343 0.17845333 -0.007934831 -0.00047540187
000350 d3 2f 55 3d 5e 73 29 3d ae 0b a8 3d 1a a9 da bd
       0.05204756 0.04136979 0.08205353 -0.10676785
000360 06 70 51 3d 15 74 90 3e 77 7f 08 3d 9a c3 d4 bd
       0.051132225 0.28213564 0.033324685 -0.103888705
000370 15 51 36 3d 48 c8 eb bb 3d 34 0c be dc 4a d0 bd
       0.04451092 -0.0071955062 -0.13691802 -0.10170528
000380 d9 a6 e7 3d 8b 7d a1 3c 99 2b 5f 3d 69 00 17 3d
       0.113111205 0.019713184 0.054484937 0.036865626
000390 81 35 21 bd 53 32 e3 bb 1b bc dd bd dc 2a a9 3e
       -0.039357666 -0.0069334893 -0.10826894 0.33040512
0003a0 ad c5 04 bd 1a 62 e4 3d 40 e2 a8 bc c5 b6 87 3d
       -0.03241508 0.11151524 -0.020615697 0.066266574
0003b0 1e 78 02 be d6 ef a3 bd 3d 07 28 3d a8 bd 1e bd
       -0.12741134 -0.080047294 0.041022528 -0.03875509
0003c0 f0 42 99 ba 6a b8 c5 3d d5 32 13 bd cf 40 f7 bd
       -0.0011692923 0.09654315 -0.03593715 -0.12072908
0003d0 e9 69 0e 3e 4c 1e 3c ba 96 f9 6f bc 39 92 34 bd
       0.13907589 -0.00071761454 -0.014646908 -0.04408476
0003e0 76 cb c2 bd 0f eb 11 bd 34 e8 d0 bd 43 d5 11 3e
       -0.09511463 -0.03562456 -0.10200539 0.14241509
0003f0 54 32 9f bd d4 12 22 3d e7 d0 8f 3c 23 3c 17 3e
       -0.07773271 0.039568737 0.017555667 0.14769034

network_body._body_endoder.seq_layers.2.bias f4 [128]
000000 58 e6 aa 3a 26 64 2b bc ba b9 24 3d 65 04 cb bb
       0.0013038618 -0.010460889 0.040216185 -0.006195592
000010 0c d3 c0 3c 14 37 7d bb c8 93 32 bc 7c bf 83 ba
       0.023538135 -0.0038637565 -0.010899492 -0.0010051574
000020 35 78 82 3c e3 b7 4d 3c 1f 47 0d 3c de 8c bd 3b
       0.01592646 0.012556049 0.008622914 0.005784615
000030 9f 0b 1f bc b0 00 b0 3c 9f 82 1d bc 54 eb 58 bb
       -0.0097073605 0.021484703 -0.009613662 -0.003309925
000040 97 8c 89 3b 9d d4 bd bb 67 10 a6 3c 3e b3 42 3c
       0.004197668 -0.0057931677 0.020271493 0.011883555
000050 3a 81 03 bc ae 35 14 bb e6 f0 cb 3b d7 5b 37 ba
       -0.0080264155 -0.0022615003 0.0062237857 -0.0006994581
000060 e2 17 91 bb 6b da 5a 3c 47 fa bd 3c ce 03 cc ba
       -0.004427896 0.013357739 0.02319063 -0.0015565099
000070 2c 05 bc 3a 88 46 5c 3c 05 a4 94 bc dc 35 95 ba
       0.0014344803 0.01344455 -0.018144617 -0.0011383849
000080 6b f9 07 bc 1c 60 1b bc b5 f6 0e 3c e8 1e 97 bb
       -0.008299212 -0.0094833635 0.008725812 -0.0046118386
000090 04 b3 58 bc 49 96 4c 3c 02 45 90 bb 12 ef c3 3c
       -0.013226274 0.012487003 -0.0044027576 0.023917709
0000a0 e3 77 94 3c ce 9c e2 3c 13 42 43 3c d4 ef be bb
       0.018123573 0.02766266 0.011917609 -0.0058269296
0000b0 83 04 07 ba fa a7 c8 bb 3e 38 34 3c db 53 0b bc
       -0.00051505136 -0.00612354 0.010999737 -0.008503879
0000c0 45 81 95 bc cd b3 e5 3b 59 1f cb 3b 30 97 e3 3b
       -0.018250117 0.0070099593 0.0061988053 0.006945513
0000d0 e4 44 7b bb 10 e6 e4 3c 03 f7 48 bc 91 b7 03 bc
       -0.0038340623 0.027941734 -0.012265923 -0.008039371
0000e0 5e 97 c0 3b 06 00 ab ba cf 17 4d bc f6 bb 0c bc
       0.0058774194 -0.0013046272 -0.012517883 -0.008589735
0000f0 d0 d1 85 bc 5d ed 9b bc e6 73 41 bb e9 e7 90 3c
       -0.016335398 -0.019034082 -0.0029518544 0.017688708
000100 71 1f fa 3b f6 58 dc bb 3a 07 6e 3c d8 db 19 bb
       0.0076331426 -0.006724472 0.01452809 -0.0023476984
000110 2b cb c5 3c 3f f3 9d bb 1d f6 12 bc 37 fa c1 3c
       0.02414473 -0.004820257 -0.008969811 0.023678882
000120 64 b1 1c 3b 08 35 df 3a fa 7f 9e 3c 1b 45 52 b9
       0.0023909444 0.0017029354 0.019348133 -0.00020052904
000130 48 1e ed 3c 6a c1 ae bb de 17 92 bb 0a b3 d1 3c
       0.028945103 -0.0053331153 -0.0044584116 0.025598068
000140 26 1c b8 bb 0a 07 98 3c f1 06 38 3c a6 f3 ed 3c
       -0.00561859 0.018558044 0.011232124 0.029046845
000150 7f 2a 6b 3c 83 76 c4 bb 45 aa a2 3c 41 d2 80 3b
       0.014353394 -0.005995573 0.019856581 0.003931314
000160 f1 1a 93 3c 24 42 ab 39 ad 18 49 bc a8 0e 8b 3c
       0.017957183 0.0003266494 -0.01227395 0.016974762
000170 4a 6a f8 bb 25 1e 55 bc dc 6d c9 bb ce a4 0a 3b
       -0.00758103 -0.013007675 -0.0061471295 0.002115536
000180 03 f6 2c bb 10 4f 83 bb d0 af b8 bb a7 b5 9c 3c
       -0.0026391752 -0.0040072277 -0.005636193 0.019129587
000190 02 57 88 3c 08 5d 90 bb d8 31 d1 3c 64 c6 f1 3b
       0.016643051 -0.0044056214 0.025536463 0.0073783863
0001a0 33 9a 2f 3b 6c 0c 20 3d 0c 5a 3b 3c 4c 6c 8a 3c
       0.002679479 0.039074346 0.011435043 0.016897343
0001b0 35 75 36 bc 7a e9 1a 3c 9b e0 5a 3c b9 9a 81 bc
       -0.011136343 0.009455079 0.013359214 -0.015820848
0001c0 54 f5 0a 3b fe 05 b0 3c 27 30 44 3c b2 5d fc 3c
       0.0021203356 0.021487232 0.011974371 0.030806396
0001d0 6e 3d 49 3c 6b 6a 40 3c e2 a7 84 3b 2a 47 cf 3c
       0.012282712 0.011744122 0.0040483335 0.025302488
0001e0 d8 f6 36 3c dd a1 8e 3c 61 67 06 3c 9b b1 1b 3c
       0.011167251 0.017411167 0.008203358 0.009502794
0001f0 af 59 5e ba cf 51 8f bc af 90 72 bc 4e da da 3b
       -0.0008481992 -0.017495064 -0.014805003 0.006678856

action_model._discrete_distribution.branches.0.weight f4 [2, 128]
000000 9d 43 19 3c 6b 23 de bc 03 41 36 bd 6f 7d 4b bb
       0.009354499 -0.027116498 -0.044495594 -0.0031050106
000010 aa be 03 3d a2 87 c1 bb b0 02 5f bc 2d a1 92 ba
       0.032164253 -0.0059060613 -0.013611481 -0.001118695
000020 9b 88 61 3c e0 39 4b 3d 82 b1 39 3b 4b ba 0f 3d
       0.013765479 0.04961574 0.0028334563 0.035089772
000030 77 db f5 3a 29 fa 15 3d 29 a8 30 bc 21 8c 8a bb
       0.0018757422 0.036615524 -0.01078228 -0.0042281304
000040 9e 69 68 3c 05 c3 30 bc b6 64 98 3c 2a a9 c8 3c
       0.014185337 -0.010788684 0.01860271 0.024494726
000050 f7 6b 4a bc c7 c5 44 bc 6f d9 04 3c 35 9e fe 3b
       -0.012354842 -0.012010044 0.008108481 0.0077703246
000060 ea 56 6a 3c 7e f2 96 bc d0 f6 97 3c 1c 2f 77 bb
       0.0143029485 -0.018426176 0.018550307 -0.0037717288
000070 7d 00 6f 3c 33 af b4 3c 67 30 2b bc c6 d3 c1 bc
       0.014587519 0.022056198 -0.010448552 -0.023660552
000080 d4 09 79 bc 77 70 42 bc 27 2f 64 3c 60 d7 8c bb
       -0.015200097 -0.011867634 0.013927258 -0.0042981356
000090 ac 99 a7 bc b8 40 07 bd e6 3e ec 3b bd 6a a1 bb
       -0.020459019 -0.033020705 0.0072096465 -0.0049260543
0000a0 67 c5 09 3d 85 b7 bd 3c d0 87 1a 3c e1 e1 88 bc
       0.033635523 0.023158798 0.009431794 -0.01670927
0000b0 97 43 3c 3d b7 c7 2e bb e9 02 0c bd b9 11 07 bd
       0.045962896 -0.0026669332 -0.034182463 -0.032975886
0000c0 c9 7d 96 3c 47 17 67 3c ba 63 86 bb 75 c0 a9 3c
       0.018370526 0.014104671 -0.004101244 0.020721653
0000d0 4c 39 70 bc 2f 98 27 3c a2 66 87 bb c6 15 9e bc
       -0.014662098 0.0102291545 -0.004132108 -0.019297492
0000e0 36 04 08 3c 58 2a cf 3b 60 ac f1 bb 6e 25 41 bb
       0.008301785 0.0063221864 -0.007375285 -0.0029471773
0000f0 5d a9 60 bc e3 01 f0 bc 78 3d db bc 57 00 10 3d
       -0.013712254 -0.029297775 -0.026762709 0.035156574
000100 ad 73 28 3b ee 0c b7 bc 19 04 9d 3c 74 3d a5 bc
       0.0025703714 -0.022345033 0.019166993 -0.020170905
000110 ee 50 27 3d 9d c7 48 3c 59 a8 1e 3d c2 d7 cc 3c
       0.040848665 0.012254623 0.038734768 0.025005225
000120 7d 4a 91 bc 16 b8 f5 bb 80 b9 93 3d c4 6e 3f 3c
       -0.017735714 -0.0074987514 0.07213116 0.011684123
000130 c1 1b 1e 3d 72 cd 1c bc 5a 80 14 3d da ab 51 3d
       0.038600687 -0.009570466 0.036255218 0.05118928
000140 3e 97 4f bc 9a d7 54 3d a6 e8 3a 3b 00 72 b1 3c
       -0.012670336 0.051963426 0.0028520017 0.021660805
000150 db b5 b3 3c 3d b3 47 bb 5a 8b 0d 3d 49 02 02 3c
       0.021937301 -0.0030471825 0.034556724 0.007935115
000160 5a 86 8d 3d 76 0e f1 bb 98 bc 6f bc 1b b5 ef 3c
       0.06910391 -0.00735646 -0.014632367 0.029261163
000170 4f 1e 2f bc 41 8a 05 3c 6e f9 95 bc 65 61 16 bc
       -0.0106883785 0.008150638 -0.018307414 -0.009178494
000180 5e 2a 1b 3b a3 5a 22 bc f7 89 a8 3b 9b 17 e9 bc
       0.0023676376 -0.009909305 0.0051434 -0.028453639
000190 fe 27 94 bc 9c 57 42 3c 40 19 e7 3c ee e8 05 bd
       -0.018085476 0.011861708 0.028210282 -0.032692842
0001a0 4b 47 b2 bb 93 cf 9c 3d dd 62 cc 3c cf ad c4 3c
       -0.0054406277 0.07656779 0.024949485 0.02400866
0001b0 ba 0d 40 bc 84 80 09 3c 8e 5c 43 bd d6 1e df ba
       -0.011722023 0.008392457 -0.04769569 -0.001702274
0001c0 c8 15 0e bb 76 9e 38 3b 65 f5 ef bc 2b 86 f9 3c
       -0.0021680463 0.0028170622 -0.029291818 0.030459484
0001d0 55 8a f7 bb e5 01 88 3c b9 29 2a 3b 6c 4f 7c 3d
       -0.0075543323 0.016602466 0.002596481 0.06159918
0001e0 e1 6c f6 bc 86 91 5e 3d fc 8b 35 3c b2 b8 8d 3c
       -0.030081214 0.054338 0.011080738 0.017299984
0001f0 b5 fa 29 bc bd fd ce bb 40 98 f6 bb c8 e8 09 3c
       -0.010374715 -0.006316869 -0.007525474 0.008417316
000200 e6 a2 47 ba be bd 38 3c 06 09 33 3d cb da 44 3b
       -0.00076155213 0.011275707 0.043709777 0.0030037637
000210 71 75 cc bc 07 39 b4 3c b4 77 8e 3c ca b5 6f 3b
       -0.024958344 0.021999849 0.017391063 0.003657686
000220 52 bc 75 bc 1b a1 2f bd 1b 8f c3 bb bd 6a dc bc
       -0.014998512 -0.04287825 -0.0059679872 -0.026906366
000230 f4 e3 5c ba f4 f3 af bc 47 cb 17 39 1f 3e b5 3b
       -0.00084263016 -0.02147863 0.00014476209 0.005531087
000240 0b 99 75 bb da cc af 3c a4 2d 10 bd 99 52 68 bc
       -0.0037475254 0.021459986 -0.035199776 -0.014179849
000250 fd 26 d1 3b cb ce 7c 3b 19 d9 1a bc 4d e3 02 3c
       0.0063828216 0.0038575407 -0.009451174 0.007988763
000260 d1 d9 60 3c d5 3a 11 3d 51 60 c2 bc 1d d8 84 bb
       0.0137238065 0.035456497 -0.023727568 -0.004054083
000270 4a 7f 03 bc e5 50 87 bc a8 db 92 3c ec 37 f9 3c
       -0.008025954 -0.016518066 0.017927006 0.030422173
000280 36 56 a1 3b 72 44 c7 3b 59 d4 e4 39 40 93 25 bb
       0.004923607 0.0060811574 0.0004364576 -0.002526477
000290 7f a3 5d 3c 7e 52 a6 3c fc eb 81 3c 73 f1 0e bc
       0.01352775 0.020303007 0.015859596 -0.008724558
0002a0 bd 50 9d bc ea 9d f9 bc b8 4d 15 bc 3a 4a 2d 3c
       -0.019203538 -0.030470807 -0.009112768 0.010576779
0002b0 c9 ed 19 bd fa 5f fd ba 33 a7 e4 3c c9 76 b9 3c
       -0.037580285 -0.0019330971 0.027911758 0.022639649
0002c0 97 b9 71 3b 6c 3d 11 bc 7d 1a 18 bc 5c 4e f6 bb
       0.0036884302 -0.008864742 -0.009283659 -0.0075166654
0002d0 22 98 14 bc f5 bd af bc 61 ce 91 3c 66 f0 23 bb
       -0.009069474 -0.021452883 0.017798604 -0.0025015115
0002e0 ba 5a 89 bb f2 b4 4e bc 2f 4b b4 3c a6 b1 8b 3c
       -0.0041917237 -0.012616383 0.022008507 0.017052483
0002f0 d6 f5 bd 3b bc 73 03 3b 00 c0 77 3c 10 4b fb bc
       0.005797128 0.0020057997 0.01512146 -0.030675441
000300 ed 17 81 3a 04 dd 75 3c 51 95 91 bc 9e bc 43 3c
       0.0009849049 0.0150063075 -0.017771395 0.011946825
000310 dd a7 e6 bc 59 27 aa bc d2 dc fb bc e8 5c 73 bc
       -0.028156215 -0.020770716 -0.030744944 -0.014853694
000320 84 5f 95 3c 30 e3 25 ba 85 ef 92 bd a2 6d d2 3b
       0.018234022 -0.0006328104 -0.07174591 0.0064217607
000330 33 0b a2 bc d3 ae b5 3c 47 36 0e bd ed 6b 30 bd
       -0.01978073 0.02217809 -0.03471973 -0.043071676
000340 0c a4 25 3c 7a 9f 44 bd 4a 0c a6 bc 56 e4 ee bc
       0.010109913 -0.04800365 -0.020269532 -0.029161613
000350 b0 b1 b5 bc 11 78 7e 3c c2 99 f3 bc 85 e0 b2 3b
       -0.022179455 0.015531556 -0.029736403 0.0054588937
000360 33 17 9b bd d6 c0 29 3b 8b ee af 3c cb 38 d0 bc
       -0.07572784 0.0025902293 0.02147605 -0.025417706
000370 b8 9c b9 3c dc 4b 53 3c a7 34 1a 3c 24 31 3e bb
       0.022657737 0.012896504 0.009411967 -0.002902099
000380 2e 2d 4e bc 53 bb d3 bb 17 d4 aa 3c 90 6b 1c 3d
       -0.012584014 -0.00646154 0.020853085 0.038188517
000390 33 82 b2 3c fb bc 2f 3b 20 18 3e bd f8 6b a0 3c
       0.0217906 0.0026815522 -0.046409726 0.019582734
0003a0 b3 43 fb bb 03 44 86 bd 78 00 e8 bc 8a 56 17 bd
       -0.0076679825 -0.06555941 -0.028320536 -0.036947764
0003b0 53 ad 1c 3b 4c de b5 bc 4d d3 95 3c 4f 8b 47 3c
       0.002390702 -0.022200726 0.018289233 0.01217921
0003c0 73 c1 9e 3b 88 21 84 bc 1a b5 2b 3d 58 7e 98 bc
       0.0048448383 -0.01612927 0.04192076 -0.018614933
0003d0 b5 a7 cc bb 6d d9 58 bc f7 01 0b bd bf b6 83 bd
       -0.006245578 -0.013235432 -0.03393742 -0.064313404
0003e0 46 95 9d 3c 7e 9f 37 bd 97 ef 05 3c 7b 26 9f bc
       0.019236218 -0.044829838 0.008174798 -0.019427529
0003f0 38 fc 2d bc cd cd ef 3b 54 8d 72 bc 92 0b b7 ba
       -0.010619216 0.0073182345 -0.014804203 -0.001396524

action_model._discrete_distribution.branches.0.bias f4 [2]
000000 2b 7f 2b 3c 23 7f 2b bc
       0.010467331 -0.0104673235

exp_avg f4 [128, 42]
000000 00 00 00 00 bd 69 ed b9 00 00 00 00 00 00 00 00
       0.0 -0.00045282944 0.0 0.0
000010 6b f5 4f 2b 62 0a 15 39 1f 7d c5 b9 91 7d 2f af
       7.388176e-13 0.00014213615 -0.0003766799 -1.5960767e-10
000020 00 00 00 00 00 00 00 00 63 b2 9f b8 66 41 81 b8
       0.0 0.0 -7.614938e-05 -6.163381e-05
000030 00 00 00 00 a6 99 87 ba 04 00 00 00 7b 59 0d 24
       0.0 -0.0010345473 6e-45 3.0650294e-17
000040 6c 7e 18 3a a6 ef 0f 3a 1f 7d c5 b9 9a 3b 8e 32
       0.0005817178 0.00054907275 -0.0003766799 1.655808e-08
000050 00 00 00 00 00 00 00 00 5e bb 9f b8 26 88 8f b8
       0.0 0.0 -7.616611e-05 -6.844131e-05
000060 00 00 00 00 d7 1f 88 ba 04 00 00 00 47 53 b0 23
       0.0 -0.0010385466 6e-45 1.9117228e-17
000070 d0 8a 19 3a b8 b2 0e 3a 1f 7d c5 b9 d9 eb 2e a6
       0.00058571715 0.0005443501 -0.0003766799 -6.068801e-16
000080 00 00 00 00 00 00 00 00 79 b2 9f b8 8f ac 93 b8
       0.0 0.0 -7.614954e-05 -7.041648e-05
000090 00 00 00 00 00 00 00 00 04 00 00 80 82 20 22 3a
       0.0 0.0 -6e-45 0.00061846536
0000a0 b0 6a 8c ba ee 9e 7c ba 00 00 00 00 50 96 7f ba
       -0.0010712948 -0.00096367195 0.0 -0.00097498763
0000b0 00 00 00 00 00 00 00 00 2b 61 1c ac 17 56 72 ba
       0.0 0.0 -2.2222872e-12 -0.0009244396
0000c0 bc ac a3 ba 59 c1 ba b2 00 00 00 00 00 00 00 00
       -0.0012487392 -2.1741174e-08 0.0 0.0
0000d0 34 89 8f 39 62 92 4f 39 00 00 00 00 9d b3 06 3b
       0.0002737731 0.0001979559 0.0 0.0020553835
0000e0 04 00 00 00 87 39 31 a4 31 99 46 bb cf 97 41 bb
       6e-45 -3.8429484e-17 -0.0030303712 -0.0029539948
0000f0 bc ac a3 ba d4 f9 6e b3 00 00 00 00 00 00 00 00
       -0.0012487392 -5.564091e-08 0.0 0.0
000100 c0 8d 8f 39 a1 cd 74 39 00 00 00 00 54 9f f8 3a
       0.00027380697 0.00023346256 0.0 0.0018968382
000110 04 00 00 00 f3 e3 a9 a0 3f 35 3c bb 74 41 37 bb
       6e-45 -2.8780558e-19 -0.002871826 -0.0027962597
000120 bc ac a3 ba 2f 2b 88 27 00 00 00 00 00 00 00 00
       -0.0012487392 3.7794403e-15 0.0 0.0
000130 49 86 8f 39 c3 a6 7f 39 00 00 00 00 00 00 00 00
       0.00027375136 0.00024380819 0.0 0.0
000140 04 00 00 80 d5 41 09 bb 7d b8 92 3a 7e 14 47 3a
       -6e-45 -0.002094378 0.0011193898 0.0007594301
000150 00 00 00 00 96 30 07 3a 00 00 00 00 00 00 00 00
       0.0 0.0005157081 0.0 0.0
000160 c3 b2 1f 2c a6 5c 82 3a 0a b2 41 3a bb e8 28 33
       2.2694492e-12 0.0009945824 0.00073888956 3.9327215e-08
000170 00 00 00 00 00 00 00 00 55 10 6a b9 a5 87 12 b9
       0.0 0.0 -0.00022322063 -0.00013974177
000180 00 00 00 00 97 b7 37 bb 04 00 00 80 10 97 b3 24
       0.0 -0.0028033012 -6e-45 7.7884785e-17
000190 bc 83 59 3b 76 86 53 3b 0a b2 41 3a 56 e0 c0 33
       0.0033190092 0.003227619 0.00073888956 8.981503e-08
0001a0 00 00 00 00 00 00 00 00 e5 1d 6a b9 3e 89 3b b9
       0.0 0.0 -0.00022327116 -0.00017884836
0001b0 00 00 00 00 e8 b0 35 bb 04 00 00 80 f8 8e 4d 24
       0.0 -0.0027723853 -6e-45 4.4573388e-17
0001c0 10 7d 57 3b 33 3f 50 3b 0a b2 41 3a e7 27 6d a7
       0.003288094 0.003177595 0.00073888956 -3.2911988e-15
0001d0 00 00 00 00 00 00 00 00 c7 05 6a b9 af 73 47 b9
       0.0 0.0 -0.00022318131 -0.00019021214
0001e0 00 00 00 00 00 00 00 00 04 00 00 00 f8 6c 23 3b
       0.0 0.0 6e-45 0.0024936777
0001f0 d3 a0 01 bb e0 ee ca ba 00 00 00 00 60 bd c9 b8
       -0.0019779697 -0.0015482567 0.0 -9.619701e-05
000200 00 00 00 00 00 00 00 00 86 da 15 2a dd 67 1d 39
       0.0 0.0 1.3309674e-13 0.00015011379
000210 3e 3d 91 b8 4f b3 bd 32 00 00 00 00 00 00 00 00
       -6.925546e-05 2.2084036e-08 0.0 0.0
000220 30 30 e2 b7 c4 d1 ac b7 00 00 00 00 1d d8 12 ba
       -2.6963738e-05 -2.0601678e-05 0.0 -0.00056016614
000230 04 00 00 00 89 5d dc 21 dd 40 f3 39 da da e8 39
       6e-45 1.4932538e-18 0.000463969 0.00044413545
000240 3e 3d 91 b8 36 ab 18 33 00 00 00 00 00 00 00 00
       -6.925546e-05 3.5545973e-08 0.0 0.0
000250 1a 4d e2 b7 4a e4 c5 b7 00 00 00 00 c6 8b 0b ba
       -2.6977203e-05 -2.3590535e-05 0.0 -0.0005323257
000260 04 00 00 80 46 bf 40 22 31 a8 e4 39 35 87 d9 39
       -6e-45 2.6122111e-18 0.0004361286 0.00041490202
000270 3e 3d 91 b8 ff 19 f7 a4 00 00 00 00 00 00 00 00
       -6.925546e-05 -1.07163214e-16 0.0 0.0
000280 c2 00 e2 b7 ea ec cc b7 00 00 00 00 00 00 00 00
       -2.6941652e-05 -2.4429017e-05 0.0 0.0
000290 04 00 00 00 49 ce 85 39 a4 3d b8 b9 e9 22 a1 b9
       6e-45 0.0002552143 -0.0003514114 -0.00030734323
0002a0 00 00 00 00 f3 fa f0 b9 00 00 00 00 00 00 00 00
       0.0 -0.0004596334 0.0 0.0
0002b0 42 7f 1b ab 48 64 4d b9 42 26 13 ba 83 e9 80 af
       -5.524367e-13 -0.00019587681 -0.0005613306 -2.3448984e-10
0002c0 00 00 00 00 00 00 00 00 62 46 d5 38 8f 4b ac 38
       0.0 0.0 0.00010169741 8.215673e-05
0002d0 00 00 00 00 5e 73 2e 39 04 00 00 00 cf c5 01 a4
       0.0 0.00016636911 6e-45 -2.8139966e-17
0002e0 52 1a 24 ba ab 56 22 ba 42 26 13 ba ad 89 f3 b1
       -0.00062600255 -0.0006192724 -0.0005613306 -7.0878827e-09
0002f0 00 00 00 00 00 00 00 00 11 4a d5 38 bc 7b bf 38
       0.0 0.0 0.000101704274 9.130637e-05
000300 00 00 00 00 d4 bd 17 39 04 00 00 00 26 22 23 a3
       0.0 0.00014471199 6e-45 -8.843479e-18
000310 ef 6c 1e ba 5b ea 1c ba 42 26 13 ba 21 a3 37 27
       -0.0006043454 -0.00059858494 -0.0005613306 2.5484784e-15
000320 00 00 00 00 00 00 00 00 43 46 d5 38 03 17 c5 38
       0.0 0.0 0.00010169719 9.397978e-05
000330 00 00 00 00 00 00 00 00 04 00 00 80 43 39 f7 b9
       0.0 0.0 -6e-45 -0.00047154175
000340 7e c9 47 37 ab 12 91 b8 00 00 00 00 12 24 5f b9
       1.1908238e-05 -6.917616e-05 0.0 -0.00021280374
000350 00 00 00 00 00 00 00 00 ac 71 3f ac 98 b3 61 ba
       0.0 0.0 -2.7205833e-12 -0.00086098304
000360 58 e6 01 ba 0f a9 46 b1 00 00 00 00 00 00 00 00
       -0.00049552834 -2.890889e-09 0.0 0.0
000370 12 3b 94 39 3e 5a 69 39 00 00 00 00 88 22 2f 3b
       0.0002827277 0.0002225423 0.0 0.0026723463
000380 04 00 00 00 6b e2 03 a4 ca 14 3d bb 19 06 36 bb
       6e-45 -2.859788e-17 -0.0028851503 -0.002777463
000390 58 e6 01 ba 3e 60 57 b3 00 00 00 00 00 00 00 00
       -0.00049552834 -5.014612e-08 0.0 0.0
0003a0 69 41 94 39 bf 76 83 39 00 00 00 00 1a 9a 19 3b
       0.00028277494 0.0002507474 0.0 0.00234378
0003b0 04 00 00 00 0b 96 63 a3 5d 8c 27 bb 52 6e 21 bb
       6e-45 -1.23374675e-17 -0.002556584 -0.0024632406
0003c0 58 e6 01 ba a4 01 49 27 00 00 00 00 00 00 00 00
       -0.00049552834 2.7895243e-15 0.0 0.0
0003d0 ae 3a 94 39 4a c4 87 39 00 00 00 00 00 00 00 00
       0.0002827248 0.00025895453 0.0 0.0
0003e0 04 00 00 80 b2 09 04 bb e2 2e ec 3a bc 7b be 3a
       -6e-45 -0.002014738 0.0018019343 0.0014532725
0003f0 00 00 00 00 ea 62 25 bb 00 00 00 00 00 00 00 00
       0.0 -0.002523596 0.0 0.0

exp_avg_sq f4 [128, 42]
000000 00 00 00 00 58 5a 5f 36 00 00 00 00 00 00 00 00
       0.0 3.3282176e-06 0.0 0.0
000010 0b d8 6d 36 32 0d 74 36 31 61 97 36 74 69 1e 36
       3.5441506e-06 3.6366514e-06 4.5114652e-06 2.3605216e-06
000020 00 00 00 00 00 00 00 00 a5 c5 64 31 f9 c8 a8 34
       0.0 0.0 3.3290715e-09 3.1438665e-07
000030 00 00 00 00 73 42 16 36 21 9b 83 2b 4c 9c ae 35
       0.0 2.239042e-06 9.351167e-13 1.3009499e-06
000040 f4 57 69 36 46 6e 69 36 9a 4f c3 36 c0 b8 80 35
       3.47709e-06 3.4783893e-06 5.8207197e-06 9.590512e-07
000050 00 00 00 00 00 00 00 00 80 81 bd 33 7e 29 4c 34
       0.0 0.0 8.824554e-08 1.9014075e-07
000060 00 00 00 00 62 8a c5 35 e4 14 7b 2a 82 ae 1d 36
       0.0 1.4717918e-06 2.2300526e-13 2.34964e-06
000070 94 7b 54 36 21 ce 54 36 19 8c c2 36 e0 fc 7a 35
       3.1662394e-06 3.1710445e-06 5.79796e-06 9.350024e-07
000080 00 00 00 00 00 00 00 00 f1 01 1f 34 5a 4e 58 34
       0.0 0.0 1.4808735e-07 2.0145072e-07
000090 00 00 00 00 00 00 00 00 dd 7b 9c 2e a4 32 a7 36
       0.0 0.0 7.116061e-11 4.982883e-06
0000a0 32 8f 09 36 c0 b2 0b 36 00 00 00 00 5a 3f 07 38
       2.0497941e-06 2.081666e-06 0.0 3.224551e-05
0000b0 00 00 00 00 00 00 00 00 c4 5f e2 37 c8 a6 f2 37
       0.0 0.0 2.6985894e-05 2.8926312e-05
0000c0 f6 60 22 38 c3 fb a6 37 00 00 00 00 00 00 00 00
       3.871411e-05 1.9905978e-05 0.0 0.0
0000d0 e3 ac c4 33 3c 9b ba 35 00 00 00 00 60 8e 27 37
       9.158409e-08 1.3903259e-06 0.0 9.987125e-06
0000e0 6c e3 3a 2f 1f 37 ea 35 bc 3c 4a 38 35 3f 4a 38
       1.6997398e-10 1.7450401e-06 4.8217116e-05 4.821942e-05
0000f0 96 ab 47 38 b1 a0 38 37 00 00 00 00 00 00 00 00
       4.76051e-05 1.10046685e-05 0.0 0.0
000100 96 53 c8 34 64 65 5d 35 00 00 00 00 4e 80 9d 36
       3.731372e-07 8.247646e-07 0.0 4.6939012e-06
000110 df b8 d9 2c 36 79 26 37 43 ee 3a 38 cd 33 3b 38
       6.1880358e-12 9.922593e-06 4.4567754e-05 4.4632518e-05
000120 ac fe 53 38 64 57 fd 36 00 00 00 00 00 00 00 00
       5.0543502e-05 7.550161e-06 0.0 0.0
000130 11 7c 6b 35 c9 50 96 35 00 00 00 00 00 00 00 00
       8.772486e-07 1.1199382e-06 0.0 0.0
000140 07 ca 13 30 68 f4 29 38 66 f3 a0 37 2e fa a4 37
       5.3765387e-10 4.052036e-05 1.9186828e-05 1.9666822e-05
000150 00 00 00 00 f3 80 42 38 00 00 00 00 00 00 00 00
       0.0 4.6373298e-05 0.0 0.0
000160 27 5f 87 37 96 3f 99 37 82 d9 44 38 a8 e2 6e 37
       1.6137563e-05 1.826863e-05 4.693261e-05 1.4238678e-05
000170 00 00 00 00 00 00 00 00 39 12 eb 32 8c da 80 35
       0.0 0.0 2.7365887e-08 9.600349e-07
000180 00 00 00 00 e6 9a ac 37 69 7b 0b 2d 88 2c 1e 36
       0.0 2.0576128e-05 7.928638e-12 2.3569755e-06
000190 9e 08 2a 38 2f 32 2a 38 57 61 61 38 70 14 00 37
       4.0539184e-05 4.0577896e-05 5.3734835e-05 7.634153e-06
0001a0 00 00 00 00 00 00 00 00 89 36 dc 34 ce bd 40 35
       0.0 0.0 4.1017873e-07 7.1801776e-07
0001b0 00 00 00 00 eb 50 35 37 f1 02 4a 2a 05 b3 c5 36
       0.0 1.0807281e-05 1.7942225e-13 5.891898e-06
0001c0 63 09 41 38 3f 20 41 38 31 54 6a 38 1c fc 92 36
       4.6023528e-05 4.6044817e-05 5.5868357e-05 4.3804885e-06
0001d0 00 00 00 00 00 00 00 00 34 c6 a8 35 e6 2c bf 35
       0.0 0.0 1.257466e-06 1.4243676e-06
0001e0 00 00 00 00 00 00 00 00 16 bf d6 2e a2 57 04 38
       0.0 0.0 9.765537e-11 3.1552867e-05
0001f0 91 7a 04 38 e6 22 06 38 00 00 00 00 f2 63 f7 36
       3.15854e-05 3.198059e-05 0.0 7.372809e-06
000200 00 00 00 00 00 00 00 00 f0 4d ea 36 96 47 f8 36
       0.0 0.0 6.9828166e-06 7.3993097e-06
000210 da ea 12 37 c0 d0 b8 36 00 00 00 00 00 00 00 00
       8.756959e-06 5.507929e-06 0.0 0.0
000220 1b 81 2f 33 4b a4 f7 34 00 00 00 00 47 72 19 36
       4.0862783e-08 4.6126874e-07 0.0 2.2865295e-06
000230 58 41 10 2d f3 51 8d 35 89 1a 38 37 56 29 38 37
       8.1999615e-12 1.0529169e-06 1.0973433e-05 1.0976879e-05
000240 e1 2d 31 37 92 18 74 36 00 00 00 00 00 00 00 00
       1.0560704e-05 3.6373135e-06 0.0 0.0
000250 00 17 c1 33 bd b3 7b 34 00 00 00 00 c5 24 bb 35
       8.9914465e-08 2.3441585e-07 0.0 1.3943287e-06
000260 4b 83 3d 2a 81 cf 61 36 c1 aa 1b 37 3b 1e 1c 37
       1.6832124e-13 3.3648396e-06 9.278477e-06 9.305363e-06
000270 3c 3f 48 37 60 5f 05 36 00 00 00 00 00 00 00 00
       1.1935652e-05 1.987406e-06 0.0 0.0
000280 c6 87 46 34 78 7b 8f 34 00 00 00 00 00 00 00 00
       1.8489581e-07 2.672566e-07 0.0 0.0
000290 bb 29 01 2e d4 9b 2e 37 82 e6 81 36 9e ea 85 36
       2.9368268e-11 1.040749e-05 3.8713342e-06 3.991022e-06
0002a0 00 00 00 00 d3 c1 3b 36 00 00 00 00 00 00 00 00
       0.0 2.7977992e-06 0.0 0.0
0002b0 f6 89 24 37 7e 0b 29 37 8d d0 c8 36 dd 3f e3 36
       9.807283e-06 1.0075861e-05 5.984743e-06 6.772562e-06
0002c0 00 00 00 00 00 00 00 00 f0 c6 ef 32 c5 e2 38 35
       0.0 0.0 2.7913728e-08 6.8875335e-07
0002d0 00 00 00 00 f7 0f ee 34 42 2e 59 30 9b 5b 24 36
       0.0 4.434257e-07 7.9009876e-10 2.4491226e-06
0002e0 56 a3 26 37 d4 9e 26 37 28 2b f9 36 d9 32 ae 36
       9.932401e-06 9.931351e-06 7.4258023e-06 5.1915235e-06
0002f0 00 00 00 00 00 00 00 00 fb f0 51 33 c7 2a 87 34
       0.0 0.0 4.8880775e-08 2.5176834e-07
000300 00 00 00 00 39 d8 9e 33 00 96 08 2c c3 88 94 36
       0.0 7.396779e-08 1.941003e-12 4.426665e-06
000310 a0 1c 08 37 7b 97 08 37 f3 ca 17 37 93 28 74 36
       8.1128965e-06 8.141501e-06 9.047554e-06 3.638245e-06
000320 00 00 00 00 00 00 00 00 5e 9c 87 33 83 6a 46 34
       0.0 0.0 6.3148704e-08 1.8478936e-07
000330 00 00 00 00 00 00 00 00 ca 35 ee 2f 26 34 45 37
       0.0 0.0 4.3330167e-10 1.1754257e-05
000340 19 7c 8b 35 80 43 9b 35 00 00 00 00 3c 02 88 38
       1.0392424e-06 1.1568045e-06 0.0 6.4854015e-05
000350 00 00 00 00 00 00 00 00 46 93 22 38 8d af 30 38
       0.0 0.0 3.876097e-05 4.2125164e-05
000360 5b e7 a3 38 14 bc d1 37 00 00 00 00 00 00 00 00
       7.815539e-05 2.5002322e-05 0.0 0.0
000370 c0 7b 15 35 a3 d4 4a 36 00 00 00 00 ba 25 cc 37
       5.5686905e-07 3.0224116e-06 0.0 2.4336263e-05
000380 cc c2 35 31 5a 65 d7 36 3e 79 9c 38 e8 8b 9c 38
       2.6449696e-09 6.419298e-06 7.461243e-05 7.464719e-05
000390 17 e9 b3 38 93 7f 85 37 00 00 00 00 00 00 00 00
       8.5788015e-05 1.5914242e-05 0.0 0.0
0003a0 2b d6 c1 35 69 e3 14 36 00 00 00 00 c4 ad 51 37
       1.4441952e-06 2.2186089e-06 0.0 1.2497829e-05
0003b0 14 5c ca 2d 9c ad 6d 37 80 ec a1 38 1c 0c a2 38
       2.3005632e-11 1.4166722e-05 7.72113e-05 7.7270175e-05
0003c0 c6 40 bd 38 3c 75 24 37 00 00 00 00 00 00 00 00
       9.024287e-05 9.8024575e-06 0.0 0.0
0003d0 ec 9d 29 36 68 7c 46 36 00 00 00 00 00 00 00 00
       2.5274885e-06 2.9576713e-06 0.0 0.0
0003e0 ca 07 3c 31 85 b1 86 38 e9 f7 2b 38 e7 ee 2e 38
       2.7362028e-09 6.4226835e-05 4.100046e-05 4.1707328e-05
0003f0 00 00 00 00 ab 1b 63 38 00 00 00 00 00 00 00 00
       0.0 5.4146785e-05 0.0 0.0

exp_avg f4 [128]
000000 bd 69 ed b9 50 96 7f ba 96 30 07 3a 60 bd c9 b8
       -0.00045282944 -0.00097498763 0.0005157081 -9.619701e-05
000010 f3 fa f0 b9 12 24 5f b9 ea 62 25 bb 70 bf 9c b9
       -0.0004596334 -0.00021280374 -0.002523596 -0.0002989727
000020 49 ad 70 3a 3d 29 cb 39 2d 4c 32 b7 27 1c 08 39
       0.0009181095 0.00038749902 -1.0627363e-05 0.00012980458
000030 5f 92 14 b9 ba 38 74 39 f3 d0 86 3a 21 a5 15 b8
       -0.00014168907 0.00023290786 0.001028566 -3.5678157e-05
000040 b1 46 45 b9 bf 1e f9 b9 cf 24 fa b9 8e aa 33 b9
       -0.00018813719 -0.0004751589 -0.0004771114 -0.00017134307
000050 88 ce 11 39 fa 8b 9f 39 4f bf d7 34 3a a0 78 ba
       0.00013905216 0.00030431134 4.0186066e-07 -0.0009484325
000060 0d 82 13 b9 bf 57 9f 3a ba 08 e7 b8 f1 2c 46 bb
       -0.0001406746 0.0012156888 -0.00011016564 -0.003023919
000070 88 c1 8e 3a 68 74 a5 ba f1 ce 87 ba b5 3b 73 b9
       0.0010891417 -0.0012623193 -0.0010361356 -0.00023196528
000080 86 74 5f 38 97 34 20 ba 74 35 eb 39 58 94 1a b9
       5.3275864e-05 -0.0006111352 0.0004486252 -0.00014741847
000090 c4 8e 8c 37 18 5c 8a 39 80 42 80 39 0b 07 17 ba
       1.6755781e-05 0.00026390026 0.0002446361 -0.00057612424
0000a0 8f e1 c9 ba 29 f3 13 39 a5 d8 a9 ba 67 73 66 b7
       -0.0015402305 0.00014109597 -0.0012958242 -1.37359375e-05
0000b0 21 15 48 ba cd cb bb b9 c2 d4 5c 38 1e 73 a6 ba
       -0.0007632543 -0.00035819263 5.2650234e-05 -0.0012699103
0000c0 0e 5a e3 b9 22 27 72 39 89 f0 13 bb 44 04 83 39
       -0.0004336391 0.00023093497 -0.002257379 0.00024989445
0000d0 f3 2a 0d 3a 57 e9 55 3a 5d 1c 57 ba 67 5c 44 3a
       0.0005385123 0.00081600755 -0.00082058256 0.00074905757
0000e0 72 d2 de b8 22 73 25 3a ce 8b 23 ba e6 fe 8f b7
       -0.000106249834 0.00063114066 -0.0006238789 -1.7165625e-05
0000f0 61 68 d3 ba 3b 03 22 b9 8e 33 34 38 12 80 a1 b9
       -0.001612913 -0.00015450727 4.296336e-05 -0.00030803733
000100 0e 90 28 bb a8 3a 0a ba 09 40 fd b8 a6 dc 11 38
       -0.002572063 -0.00052730227 -0.000120759076 3.477619e-05
000110 d9 08 d1 b9 41 24 aa ba c8 d2 4b b9 1d 28 d5 ba
       -0.00039870178 -0.0012980775 -0.00019438111 -0.0016262565
000120 9c f7 99 3a d5 e4 03 3a 77 fd af b8 50 25 42 3a
       0.0011746767 0.0005031352 -8.391862e-05 0.00074060727
000130 c8 28 4d 37 a3 f7 a5 b9 72 82 11 ba 63 e9 90 37
       1.2228447e-05 -0.00031655756 -0.0005550749 1.7274817e-05
000140 20 02 82 3a 61 cf 42 3a 58 12 29 3a 85 77 84 ba
       0.0009918846 0.00074314146 0.0006449572 -0.001010642
000150 2f 2f 11 3a ff 00 c1 b9 5a c9 d2 38 eb 50 ed b8
       0.0005538342 -0.0003681257 0.00010051085 -0.00011316113
000160 c0 3d b4 ba 5c e9 b6 b9 87 b2 d3 36 f0 30 a4 39
       -0.0013751313 -0.0003488761 6.3090733e-06 0.0003131698
000170 43 37 3f bb d7 ed 9e ba 88 25 1a 3a 32 e2 8e 39
       -0.0029177226 -0.0012125325 0.00058802264 0.0002725288
000180 68 69 f0 b9 69 12 52 bb 2b e8 a8 b9 88 42 43 ba
       -0.000458549 -0.003205443 -0.00032216436 -0.00074485736
000190 b4 ed 8a b8 0e 49 4c bb f1 d2 96 ba a1 6d 91 38
       -6.6246284e-05 -0.0031171474 -0.0011506957 6.934559e-05
0001a0 d6 9c f2 b8 0d b6 32 bb 14 0f 02 bb 5c 0e 5d ba
       -0.00011568672 -0.0027269155 -0.0019845413 -0.00084326207
0001b0 1c e1 ae 39 00 b0 8f 3a 26 cf ba b9 c2 28 fa 39
       0.00033355586 0.0010962486 -0.00035631022 0.00047714083
0001c0 a3 37 08 ba 93 70 bf 39 53 fa 0b 38 e7 6d 5a ba
       -0.0005196279 0.00036514233 3.3373315e-05 -0.0008332417
0001d0 25 2d a6 b8 3c 29 bb ba b1 1f da 39 a3 09 19 39
       -7.923906e-05 -0.0014279257 0.00041603812 0.00014594807
0001e0 cc e4 89 ba 8c a5 fc 39 c3 36 23 b9 0e 6b 0b ba
       -0.0010520457 0.00048188528 -0.00015565292 -0.00053183816
0001f0 ec ce 20 ba 41 d6 58 b8 b2 b0 ca ba d8 bd 1f 39
       -0.00061343494 -5.1697953e-05 -0.0015464036 0.00015234144

exp_avg_sq f4 [128]
000000 18 b3 e6 36 62 b9 77 38 96 54 82 38 45 f8 6d 37
       6.8753834e-06 5.906204e-05 6.2146384e-05 1.4184106e-05
000010 14 4e 56 37 69 ea d8 38 13 9b e1 38 30 bc cf 36
       1.2773573e-05 0.00010343345 0.00010757721 6.1909886e-06
000020 28 32 bd 37 b1 81 12 37 21 ac 6b 35 a8 8d b8 36
       2.2553912e-05 8.732474e-06 8.77948e-07 5.5001183e-06
000030 61 ef 80 37 bc a3 a1 36 63 b7 25 39 c2 80 9e 37
       1.5370259e-05 4.817235e-06 0.00015803943 1.8895025e-05
000040 bb 71 90 37 e9 13 4c 36 ed d2 9d 37 e0 9e 61 37
       1.7219098e-05 3.0409958e-06 1.8814078e-05 1.3448036e-05
000050 12 27 dc 35 16 08 ee 37 11 cc 09 38 0d be 5e 39
       1.6402648e-06 2.8375576e-05 3.2853397e-05 0.00021242369
000060 de 66 93 35 82 b3 6b 38 87 b5 c6 36 47 d8 9c 38
       1.0982292e-06 5.6195546e-05 5.9219924e-06 7.4789445e-05
000070 f0 98 d2 38 d1 37 1d 39 e4 1e 21 38 69 74 25 37
       0.00010042067 0.0001499348 3.841416e-05 9.86187e-06
000080 c2 90 65 36 88 e4 cd 38 ac 77 a7 37 03 b5 a3 37
       3.420792e-06 9.817729e-05 1.9963678e-05 1.9515404e-05
000090 4a 4a d1 36 a7 c7 a1 36 34 a5 95 35 95 d0 48 38
       6.2373338e-06 4.8214165e-06 1.1149446e-06 4.7877973e-05
0000a0 45 6c 8d 38 d6 3a 05 35 7b 93 ea 38 dc 1b c8 37
       6.743571e-05 4.963198e-07 0.0001118546 2.3854831e-05
0000b0 e0 39 fb 36 6d cb 6d 37 b4 0b 65 35 89 2d a5 38
       7.4871205e-06 1.4173665e-05 8.532618e-07 7.876295e-05
0000c0 7a 96 88 38 8e a6 39 37 99 b3 c1 38 cd 6f 85 37
       6.513014e-05 1.1065638e-05 9.23641e-05 1.5906897e-05
0000d0 f4 59 2d 38 94 ef c3 37 ee ce 28 37 1b 1f 34 37
       4.133019e-05 2.3357374e-05 1.006176e-05 1.0736078e-05
0000e0 8f 69 3d 38 95 a3 97 37 33 24 e3 36 b9 df dc 38
       4.515942e-05 1.8076777e-05 6.7693413e-06 0.00010532089
0000f0 be 19 f1 38 98 02 2b 36 b1 ed 28 35 26 b5 2a 36
       0.000114965704 2.5482495e-06 6.2930764e-07 2.5437416e-06
000100 95 f1 0f 39 e1 a9 f1 36 fa a3 cf 35 de 9b 44 39
       0.00013727539 7.202136e-06 1.5470425e-06 0.00018750082
000110 e9 71 1d 37 b9 f2 8b 38 c8 17 e4 36 af 3b 08 39
       9.384451e-06 6.673247e-05 6.797698e-06 0.00012992205
000120 34 4f 29 38 8a bc 1c 37 ca e8 32 35 52 90 81 38
       4.0366504e-05 9.342222e-06 6.664892e-07 6.178081e-05
000130 60 ea 86 37 f3 10 09 38 fe 15 69 38 b2 bb 49 35
       1.6083184e-05 3.267913e-05 5.557201e-05 7.515147e-07
000140 d1 35 90 38 75 31 d4 36 93 66 9b 38 b6 dc b3 38
       6.876479e-05 6.32385e-06 7.410082e-05 8.576496e-05
000150 86 37 69 38 91 18 ae 36 38 87 5f 36 4a 1d a5 36
       5.560324e-05 5.188464e-06 3.3308297e-06 4.920793e-06
000160 a1 c7 22 38 31 bc d6 36 8a 29 7f 36 51 e5 b7 37
       3.880973e-05 6.3996054e-06 3.802214e-06 2.1922084e-05
000170 99 0a 2a 39 cd 09 7a 38 73 81 41 38 e5 ea 1a 36
       0.00016216411 5.9613772e-05 4.6135345e-05 2.3084515e-06
000180 f6 36 73 38 46 15 45 38 02 1a 2a 37 0b 91 13 38
       5.79869e-05 4.6988273e-05 1.0138845e-05 3.5182613e-05
000190 dd 49 47 37 57 78 99 39 cc 17 f9 38 ab cf e1 36
       1.1878522e-05 0.00029272094 0.00011877678 6.7296983e-06
0001a0 23 e9 16 38 61 4e ac 38 4c 63 12 39 c2 14 aa 38
       3.5979912e-05 8.216198e-05 0.00013960636 8.110098e-05
0001b0 9a a1 67 38 40 9f b1 38 98 36 10 38 b7 8b 00 39
       5.5225195e-05 8.46968e-05 3.438312e-05 0.00012259079
0001c0 41 14 fc 36 4c e1 ad 37 e0 9d b5 36 a3 23 f8 36
       7.512543e-06 2.072812e-05 5.4125994e-06 7.3951246e-06
0001d0 fb e2 1e 37 aa 58 77 38 c2 61 e6 38 be 2e 4f 37
       9.470382e-06 5.8971964e-05 0.000109854635 1.23490445e-05
0001e0 b5 cf 09 39 c0 91 04 39 e7 85 92 37 d2 d6 1e 37
       0.00013142715 0.00012642797 1.746691e-05 9.467551e-06
0001f0 2c a3 14 38 2c 10 f5 36 51 ab 03 39 f4 92 bb 37
       3.5437915e-05 7.3034516e-06 0.00012556954 2.2360568e-05
