Assets/results/JumperAgentTest/JumperAgent/JumperAgent-2176.pt (torch, 546980 bytes, 33 tensors)

network_body._body_endoder.seq_layers.0.weight f4 [128, 42]
0	0xbea40d52	-0.32041413
1	0x3d8966ff	0.06709098
2	0xbdb283b4	-0.08716527
3	0x3daf2852	0.08552612
4	0x3ec32fa2	0.38122278
5	0xbe263272	-0.16230181
6	0x3c5c0452	0.013428764
7	0xbe80db67	-0.2516739
8	0xbe1d7b52	-0.15379074
9	0xbd8413aa	-0.06449063
10	0x3e9ac5f9	0.30229166
11	0x3e45db38	0.19321907
12	0x3b9458af	0.0045271735
13	0xbd19d4ea	-0.037556566
14	0x3d4140e3	0.04718102
15	0xbbf06a01	-0.0073368554
16	0xbd83b152	-0.064303055
17	0x3dcbe8c9	0.099565096
18	0x39dead55	0.00042472282
19	0x3e0ef88c	0.13962
20	0xbd3f223f	-0.04666352
21	0xbe8f1eed	-0.27953282
22	0x3df2ce07	0.11855703
23	0x3e3228e1	0.17398407
24	0x3d1c48e1	0.03815544
25	0x3d9ca113	0.0764791
26	0x3cb36870	0.021900386
27	0xbe4b587d	-0.19857974
28	0x3d49bd14	0.049252585
29	0x3d3aef67	0.045638468
30	0x3e8dfee0	0.27733517
31	0x3e613422	0.21992543
32	0xbe9d5901	-0.30731967
33	0x3e5afffe	0.21386716
34	0xbe92d4f3	-0.28678092
35	0xbddda975	-0.10823337
36	0x3e4b9240	0.19880009
37	0xbd8b39a4	-0.067981035
38	0x3da04259	0.07825155
39	0x3d844e2c	0.064602226
40	0x3dd0d93f	0.101976864
41	0x3db5a7b6	0.08869879
42	0xbe6c9169	-0.23102345
43	0xbe3e11c6	-0.18561468
44	0xbe167c14	-0.1469577
45	0x3eb2e815	0.3494269
46	0x3c808d0b	0.015692255
47	0x3e30a136	0.17248997
48	0xbbab9cb6	-0.0052371873
49	0xbda8c11d	-0.082399584
50	0x392c000a	0.00016403213
51	0x3e07be6b	0.13256232
52	0xbda3709f	-0.07980465
53	0xbdc03821	-0.09385706
54	0x3a91b066	0.0011115193
55	0xbe4d3bf7	-0.20042406
56	0x3d9fecda	0.07808848
57	0x3e020f58	0.12701166
58	0xbd8e1a3f	-0.069386
59	0xbdb17098	-0.08664054
60	0x3de0f454	0.10984102
61	0xbe32c6b3	-0.1745861
62	0x3db18743	0.08668377
63	0xbe54d663	-0.20784907
64	0x3c98e207	0.018662466
65	0xbd0dd1d6	-0.034623943
66	0x3e94a672	0.29033238
67	0xbdcb8c2e	-0.099388465
68	0x3ba13d02	0.004920603
69	0x3e59babc	0.2126264
70	0xbe244568	-0.16042101
71	0x3db7ef8c	0.08981237
72	0x3d42f4d8	0.047596782
73	0x3d72e222	0.05929769
74	0xbe717605	-0.23580177
75	0x3e18b61c	0.14913219
76	0x3cdf5c61	0.02726573
77	0x3d070aa9	0.03296915
78	0xbd66678c	-0.056251094
79	0xbddfce0e	-0.10927974
80	0x3e597950	0.21237683
81	0xbe06f058	-0.13177621
82	0xbd192232	-0.037386127
83	0xbe1d22c9	-0.153453
84	0x3da9a88b	0.082841
85	0xbca0fe66	-0.019652557
86	0x3e36651f	0.17812012
87	0xbdd37b7d	-0.10326288
88	0x3e990e49	0.2989371
89	0x3d978756	0.0739886
90	0x3ce00656	0.027346771
91	0xbc2b2892	-0.010446684
92	0x3cb760f7	0.022385104
93	0xbeb3249b	-0.34988865
94	0x3e693b3c	0.22776502
95	0x3e25f5fd	0.16207118
96	0x3dc6e21a	0.09711094
97	0x3dfe5541	0.12418605
98	0xbc760363	-0.015015456
99	0x3ec7240e	0.38894695
100	0x3e327a25	0.17429407
101	0xbd38de62	-0.045133956
102	0xbd91ecb8	-0.07125229
103	0x3da5b94c	0.08091983
104	0xbb7982b2	-0.0038072285
105	0xbe843143	-0.25818834
106	0xbd9f9718	-0.07792491
107	0x3d520264	0.05127181
108	0x3d8f385c	0.069931716
109	0xbe587eb3	-0.21142082
110	0x3e757372	0.2396982
111	0x3dac8186	0.08423142
112	0xbead9ebf	-0.33910176
113	0xbe6f1eb1	-0.23351552
114	0xbe7be4de	-0.24599025
115	0xbdeba28a	-0.11505611
116	0xbe1299ab	-0.14316432
117	0xbd8f566d	-0.06998906
118	0x3e12fc7d	0.14354129
119	0xbd77cd17	-0.060498323
120	0x3d23f1bd	0.04002546
121	0xbe4cecc5	-0.20012195
122	0x3dbc6179	0.09198279
123	0xbe09372f	-0.13399957
124	0xbdc5e776	-0.09663288
125	0x3cbc3a6d	0.022977078
126	0x3daaa358	0.083319366
127	0xbe80cfc8	-0.25158525
128	0x3c925dd9	0.017867016
129	0xbdb72b58	-0.08943814
130	0x3d9feedb	0.0780923
131	0xbd14f32f	-0.03636473
132	0xbd0df78c	-0.034659907
133	0x3caa731b	0.02080684
134	0xbd678bee	-0.05652993
135	0xbe958a43	-0.29207048
136	0x3e043052	0.12909058
137	0x3ce78f91	0.0282667
138	0x3daf86bb	0.0857062
139	0xbd702f32	-0.05863876
140	0xbde0236e	-0.10944258
141	0xbe44d5d1	-0.1922219
142	0xbd487d52	-0.04894764
143	0xbe56ae34	-0.2096489
144	0xbe4bf61e	-0.19918105
145	0xbe44129c	-0.19147724
146	0x3c395ef2	0.011314141
147	0x3e2c729b	0.16840594
148	0xbd44300a	-0.047897376
149	0xbe61f5cd	-0.22066422
150	0xbd30f539	-0.043202613
151	0x3e5c06ed	0.21487017
152	0x3dcc5da6	0.099787995
153	0x3d0d6abf	0.03452563
154	0xbd7c735d	-0.061633456
155	0xbea4bebc	-0.3217677
156	0xbe7d81f2	-0.24756601
157	0x3e267d78	0.162588
158	0xbd50a3a4	-0.05093731
159	0x3e1bda86	0.15220079
160	0x3e32c48b	0.17457788
161	0xbe73a56a	-0.23793569
162	0xbcaeb7fa	-0.021327961
163	0xbe16defb	-0.14733498
164	0xbc577243	-0.013149801
165	0xbea7ca26	-0.32771415
166	0x3d50eab2	0.051005073
167	0xbe47431e	-0.19459197
168	0xbe66a659	-0.22524394
169	0xbdb31efe	-0.08746146
170	0xbe21525e	-0.15754077
171	0xbd142f59	-0.036177967
172	0xbe061065	-0.13092192
173	0xbe918c08	-0.28427148
174	0x3cdb01cd	0.026734257
175	0xbe653133	-0.2238205
176	0x3e8d5524	0.2760402
177	0xbd4969da	-0.049173214
178	0xbdb85bc5	-0.09001879
179	0xbbc6e144	-0.006069334
180	0x3d0a0f42	0.033705957
181	0x3c3e3d6d	0.011611325
182	0xbe296e6c	-0.16546029
183	0xbcdf56bb	-0.027263036
184	0xbdaa19bd	-0.083056904
185	0x3e974d51	0.29551175
186	0x3df985e6	0.12183742
187	0xbd944c97	-0.07241171
188	0xbeb40e9d	-0.351674
189	0xbdc7c70b	-0.09754761
190	0x3b823276	0.0039733006
191	0x3c7d6507	0.015465981
192	0x3d2a7f07	0.04162505
193	0xbc1d7558	-0.009610496
194	0xbcda8f39	-0.026679622
195	0xbd875e81	-0.06609822
196	0x3d90b3b5	0.070655264
197	0x3da082de	0.07837461
198	0x3d32088d	0.043465186
199	0x3cfd852a	0.030947287
200	0xbe1c943b	-0.1529092
201	0x3e205e6c	0.15661019
202	0x3d727f10	0.059203207
203	0x3d14e1fe	0.036348335
204	0x3cd66e40	0.026175618
205	0x3e1693dd	0.14704843
206	0xbcf16dba	-0.029471267
207	0xbe4296a7	-0.19002782
208	0xbddda30a	-0.10822113
209	0x3e137655	0.14400609
210	0xbd0888ce	-0.033333592
211	0x3d00b7c0	0.031425238
212	0x3eaf1b87	0.3420069
213	0x3d8ca08f	0.068665616
214	0x3da02c64	0.07820967
215	0x3e903bf3	0.28170738
216	0x3db7df14	0.08978096
217	0x3c8408d0	0.016117483
218	0xbd7a3633	-0.061086845
219	0xbbe06e05	-0.006849053
220	0xbd7be325	-0.06149592
221	0xba63f1b2	-0.0008695378
222	0xbd64c26e	-0.055849485
223	0xbe5d384e	-0.2160351
224	0x3d65b6d3	0.056082558
225	0x3ef40cf0	0.4766612
226	0x3cc68d4d	0.0242373
227	0x3e38493e	0.1799669
228	0xbdbd88a1	-0.092545755
229	0xbec24c9e	-0.3794908
230	0xbdfbb881	-0.12291051
231	0x3db36964	0.08760336
232	0x3d0c99e2	0.03432644
233	0x3e83ad90	0.25718355
234	0x3caace48	0.020850316
235	0x3e079b6e	0.13242885
236	0x3c8296f6	0.015941124
237	0xbe1e437c	-0.15455431
238	0x3d9f44d5	0.077768005
239	0x3e8dcc35	0.2769486
240	0xbd865907	-0.06559949
241	0x3e7d85c9	0.24758066
242	0xbe07e79d	-0.13271947
243	0xbb33cab8	-0.0027434062
244	0xbe054f78	-0.13018596
245	0x3c514734	0.012773324
246	0xbdc0ef01	-0.094205864
247	0x3e6902c4	0.22754961
248	0x3e1879a3	0.1489015
249	0xbdef733b	-0.116919
250	0xbe000d8a	-0.12505165
251	0x3d8e4d0e	0.06948291
252	0xbd4a6b07	-0.049418475
253	0xbe0f90ce	-0.14020082
254	0xbd7f9dd3	-0.062406372
255	0xbdc82191	-0.09772027

network_body._body_endoder.seq_layers.0.bias f4 [128]
0	0xbb2fdced	-0.0026834563
1	0x3bc8a0ce	0.006122685
2	0x3c5b0419	0.013367676
3	0xbc91959d	-0.017771536
4	0xbc6f190b	-0.014593373
5	0xb9a9a8f5	-0.00032360075
6	0x39cd4bc2	0.0003915709
7	0x3b93f8ea	0.004515757
8	0x3b885b1e	0.0041612526
9	0x3bded140	0.006799847
10	0x3bcf9474	0.0063348357
11	0xbb26e881	-0.0025468173
12	0x3a8d0cba	0.0010761239
13	0x3c7c9ae0	0.015417784
14	0x3c05fc51	0.008177833
15	0x3bb48d77	0.005510028
16	0x3a7659d0	0.00093975384
17	0xbb8643a7	-0.0040974203
18	0xba35e979	-0.0006939392
19	0xbc070d66	-0.0082429405
20	0x3b00dc82	0.0019662683
21	0x3996e435	0.00028780257
22	0xbb2561a6	-0.0025235205
23	0xbc8381e5	-0.01605315
24	0xbb41f96a	-0.0029598125
25	0xbac5675c	-0.0015060711
26	0xbc487b94	-0.012236495
27	0xbb8b9c34	-0.004260564
28	0xbc04c3a3	-0.008103284
29	0xbc98f92e	-0.018673506
30	0xbb1a265a	-0.0023521394
31	0xbb8d2d41	-0.004308373
32	0x3c4d4f47	0.012531108
33	0xbb5eb584	-0.0033982703
34	0xbb9c3302	-0.004766823
35	0x3c5711d0	0.013126805
36	0xbac94c21	-0.0015357771
37	0x3b9ceca9	0.0047889543
38	0xbbc1dcd0	-0.0059162155
39	0xbc1aa940	-0.009439766
40	0xbc5f5cb1	-0.013632939
41	0x3c001fda	0.007820094
42	0x3ba715b0	0.005099021
43	0x3c0f8daa	0.008761803
44	0x3ccd53fe	0.025064465
45	0x3b4bb637	0.003108395
46	0x3b08455e	0.00207933
47	0xbbbd9d00	-0.005786538
48	0xbb696001	-0.0035610201
49	0x3ae35434	0.001734382
50	0xbc1c0701	-0.009523154
51	0xbc935495	-0.017984668
52	0xbc4fc151	-0.012680368
53	0x3ab57e51	0.0013846849
54	0xbbf5700f	-0.007490165
55	0x3aa01577	0.0012213428
56	0x3b2feaab	0.0026842754
57	0xba12d240	-0.00056007877
58	0x3a367260	0.0006959792
59	0x3b3335bb	0.0027345258
60	0x3afb87af	0.0019190217
61	0x3c3041ee	0.010757906
62	0xbbadd98c	-0.0053054746
63	0x3bfbb118	0.0076810233
64	0x3c2d876c	0.010591369
65	0x3c04f261	0.008114428
66	0x3c1d08ee	0.009584649
67	0x3aa08227	0.001224582
68	0xbc345b69	-0.011008122
69	0xbb80d8c9	-0.003932093
70	0x3cb2243e	0.021745797
71	0xbabc884b	-0.001438388
72	0xbb84d782	-0.004054011
73	0x3c0e2ebb	0.008678134
74	0x3c93b7c7	0.018031968
75	0xbb2f8d86	-0.0026787235
76	0xbad64206	-0.0016346581
77	0x3aadd058	0.0013260944
78	0xba8356ce	-0.0010020377
79	0x3ba2d528	0.004969258
80	0xbb6c865d	-0.003609083
81	0x3bdb727b	0.0066969967
82	0xbab35379	-0.0013681493
83	0xbc601ecb	-0.013679217
84	0x3c7fa21e	0.015602617
85	0x3b21cb91	0.0024687985
86	0xbc07c382	-0.008286359
87	0x3b49984c	0.0030760942
88	0x3c999570	0.018748015
89	0xbb698eb6	-0.003563804
90	0x3a19038f	0.0005837017
91	0xbc9f04e8	-0.01941152
92	0xbbdf85fe	-0.006821393
93	0xba94ca7d	-0.001135185
94	0x3b85af53	0.004079738
95	0x3c1190b8	0.008884601
96	0x3a8e5737	0.0010859732
97	0xbc09d168	-0.008411743
98	0x3bd143e2	0.006386266
99	0x3b65cc90	0.0035064556
100	0xbb6694db	-0.003518394
101	0xbb431083	-0.002976448
102	0x3cb46d0d	0.022024656
103	0x3b1064ec	0.002203281
104	0x3b8d25ef	0.0043075006
105	0x3bc5f077	0.0060406285
106	0xbbf6540f	-0.007517345
107	0xbc2592ad	-0.010105771
108	0xbb47152b	-0.0030377607
109	0xbb7e3689	-0.003878983
110	0x3b09dcbe	0.0021036114
111	0x3c0c8004	0.008575443
112	0x3aa398eb	0.0012481486
113	0xbc38bc7f	-0.01127541
114	0x3bbdd0c6	0.00579271
115	0x3bc3a8e1	0.0059710597
116	0x3b5a5dfe	0.0033320184
117	0x3c0ae7b1	0.008478091
118	0xbae6dd56	-0.0017613571
119	0x3b9f8a27	0.004868764
120	0x3ba7ef03	0.005124928
121	0x3a045e1a	0.00050494226
122	0xbb58b5c5	-0.0033067327
123	0xbc92eb5b	-0.017934492
124	0x3b0aaa3f	0.0021158603
125	0x3c8a84f3	0.016909098
126	0x3b000a51	0.00195374
127	0xbc7d515b	-0.015461291

network_body._body_endoder.seq_layers.2.weight f4 [128, 128]
0	0xbc87faeb	-0.01659914
1	0xbd658b5e	-0.056041114
2	0xbc46622d	-0.012108368
3	0x3d036889	0.032082114
4	0x3d24a7a2	0.04019893
5	0xbda76d65	-0.08175162
6	0x3d4638c5	0.048393983
7	0xbd5f5641	-0.054525618
8	0x3cd58b7d	0.02606749
9	0xbcc84821	-0.024448456
10	0xbd2ebabe	-0.04265856
11	0x3ca87f5d	0.020568544
12	0x3d5c8e15	0.053846437
13	0x3dd9ab97	0.10628431
14	0xbe3a7e53	-0.18212251
15	0x3e3f4e03	0.18682103
16	0x3d5313a7	0.051532414
17	0xbd200b0f	-0.039073046
18	0x3d9bd1da	0.076083854
19	0xbdf6b3d8	-0.12046021
20	0xbd56c44f	-0.05243331
21	0x3cd75416	0.026285212
22	0xbd79accf	-0.06095582
23	0x3cd0fa59	0.02551
24	0xbe04cc0d	-0.12968464
25	0x3d9dc9a3	0.07704475
26	0xbc86fc71	-0.016477795
27	0xbb8ea1b1	-0.004352771
28	0x3de4ab8c	0.111655325
29	0x3dd52f2e	0.104093894
30	0xbd337ae4	-0.04381837
31	0xba9112cb	-0.0011068223
32	0x3c5e5c71	0.013571844
33	0xbcb0d10a	-0.021584053
34	0xbd6cacee	-0.057782106
35	0xbce7d439	-0.028299438
36	0xbdfa1db0	-0.12212694
37	0x3de3828d	0.11108885
38	0xbd80024a	-0.062504366
39	0x3cb29999	0.021801757
40	0xbd8ceea9	-0.06881458
41	0xbc6ff43c	-0.014645632
42	0x3d4d8700	0.050177574
43	0xbe3e1884	-0.1856404
44	0xbbdce278	-0.0067408644
45	0x3d939ac1	0.07207251
46	0xbdb3b542	-0.087748066
47	0x3db849a9	0.089984246
48	0xbc997f4d	-0.01873746
49	0xbdc43941	-0.09581233
50	0x3a91ae71	0.001111461
51	0xbdac68bd	-0.08418415
52	0xbdac418a	-0.08410938
53	0x3d84e1ad	0.06488357
54	0xbe09c3f3	-0.13453655
55	0xbd208eb6	-0.0391986
56	0xbe2fe64f	-0.171777
57	0xbd1b9cd5	-0.037991364
58	0xbc8deb4a	-0.017324109
59	0xbd17623f	-0.03695893
60	0x3ce835a0	0.028345883
61	0xbe1b99ed	-0.15195437
62	0xbe597169	-0.21234669
63	0xbd1dfb5b	-0.03856979
64	0xbd743e25	-0.05962958
65	0x3d519201	0.05116463
66	0x3cbff8c8	0.023434058
67	0xbcf7df73	-0.030257916
68	0x3d3f9fbf	0.046783205
69	0x3e052523	0.13002448
70	0xbd92e557	-0.07172649
71	0x3d2972a8	0.04136911
72	0xbda5c2ea	-0.080938175
73	0xbe099154	-0.13434345
74	0xbd5ee7d8	-0.054420322
75	0x3dbbd298	0.09171027
76	0xbc153fde	-0.009109465
77	0xbca5c34a	-0.020234723
78	0x3d1d4b81	0.038402084
79	0x3d0a430f	0.03375536
80	0x3e5ea49f	0.21742485
81	0x3d040e60	0.03224027
82	0x3d6ba623	0.057531487
83	0xbe4540e3	-0.19263034
84	0x3df7c627	0.120983414
85	0x3ce11f32	0.027480695
86	0xbbe54952	-0.006997266
87	0xbd329083	-0.04359485
88	0xbd03982e	-0.03212755
89	0x3e5b06c3	0.21389298
90	0xbd5bb1d8	-0.053636402
91	0xbd781f84	-0.06057693
92	0x3cfa5c50	0.030561596
93	0xbd71cd52	-0.0590337
94	0x3dd20621	0.10255075
95	0xba3a35ca	-0.0007103352
96	0x3b227f96	0.0024795285
97	0x3bfbd9c9	0.007685874
98	0x3d6b8df6	0.05750843
99	0x3d7e2a78	0.06205222
100	0xbe429dc2	-0.19005492
101	0x3e4db873	0.20089893
102	0x3d878cfc	0.066186875
103	0xbdcc1208	-0.09964377
104	0xbbd2bc4f	-0.0064311395
105	0xbd97eb39	-0.07417912
106	0xbe181ded	-0.14855166
107	0xba2cf590	-0.0006597871
108	0x3e1a2d16	0.15056261
109	0x3d7e50ba	0.062088706
110	0x3c631db2	0.01386206
111	0x3d975a74	0.073902994
112	0xbdda1adc	-0.10649654
113	0xbdb70b61	-0.08937717
114	0x3d4da822	0.050209172
115	0x3d460aab	0.048350018
116	0xba13734e	-0.0005624787
117	0xbd8cf043	-0.06881764
118	0x3d852f71	0.06503189
119	0x3d27bb6a	0.040950216
120	0x3e0c501c	0.13702434
121	0xbe266898	-0.16250837
122	0xbd0887f9	-0.0333328
123	0xbd315746	-0.04329612
124	0x3daff8ab	0.085923515
125	0xbd7c867f	-0.061651703
126	0xbd593607	-0.05303004
127	0xbd034c5c	-0.032055244
128	0x3db99999	0.090624996
129	0x3d1c09ab	0.038095158
130	0x3cb80484	0.02246309
131	0xbcc94416	-0.024568599
132	0x3d9f64dd	0.0778291
133	0x3d5c6d80	0.053815365
134	0xbd9d4920	-0.07679963
135	0x3e1d27e1	0.15347244
136	0x3cd41056	0.025886696
137	0xbdcce385	-0.100043334
138	0x3d2f1661	0.04274595
139	0x3ca937ff	0.020656584
140	0xbd09d40b	-0.033649486
141	0x3d30afca	0.043136396
142	0x3e10167f	0.14071082
143	0xbd3ba20d	-0.04580884
144	0x3de5ab4a	0.112143114
145	0x3ccc70e1	0.024956169
146	0x3bf74132	0.0075456137
147	0x3de42f88	0.11141878
148	0x3d872c65	0.066002645
149	0x3df1558e	0.117838964
150	0xbd9bac6f	-0.076012485
151	0x3d116ba4	0.035503045
152	0xbcd01384	-0.02539993
153	0xbd3a3ba7	-0.045467045
154	0xbc2f3a52	-0.010695057
155	0x3dced657	0.10099476
156	0xbdbd71f8	-0.092502534
157	0x3dc1d90d	0.09465227
158	0x3bc7f7c4	0.006102534
159	0xbcfdcfa1	-0.030982794
160	0xbdbe1975	-0.09282199
161	0xbc400978	-0.0117210075
162	0xbd8abba7	-0.06774073
163	0x3ddc1ef1	0.10748089
164	0x3c6d541d	0.014485386
165	0x3e0abdd0	0.1354897
166	0xbcff146a	-0.031137664
167	0x3d89375b	0.06700011
168	0x3c8f9c89	0.017530696
169	0x3d16a836	0.036781512
170	0x3bf6683f	0.0075197513
171	0x3c25446b	0.010087113
172	0x3e1ab3c0	0.15107632
173	0xbd8d5e81	-0.06902791
174	0x3e4932ab	0.19648235
175	0xbdb67736	-0.089094564
176	0x3cfdd2b8	0.030984268
177	0xbcaaadf2	-0.020834897
178	0xbdb8effc	-0.090301484
179	0xbd7dfc10	-0.062007964
180	0xbd02cb26	-0.03193202
181	0xbc5a0553	-0.013306933
182	0x3dc633c8	0.09677845
183	0xbd548237	-0.051881995
184	0x3be86a76	0.0070927693
185	0xbdd49699	-0.10380287
186	0x3e20e2cd	0.15711518
187	0x3d54df97	0.051971044
188	0x3bdde3aa	0.0067715244
189	0xbdaa0afd	-0.08302877
190	0x3d0c4f58	0.034255356
191	0x3d910b9c	0.070822924
192	0x3d2b4d3b	0.0418217
193	0x3d0b8895	0.0340658
194	0xbcf0dffa	-0.029403675
195	0xbcefed69	-0.02928801
196	0x3c212bb0	0.009837076
197	0xbbed6bd8	-0.007245522
198	0xbd124553	-0.035710644
199	0x3cd55cbb	0.026045194
200	0xbc98962a	-0.018626291
201	0x3dc8d315	0.09805886
202	0xbc5e5273	-0.013569462
203	0xbd529a04	-0.051416412
204	0x3d73eaef	0.059550222
205	0x3c83a34e	0.01606908
206	0x3d92827b	0.071537934
207	0x3c96d4c3	0.018412
208	0x3d1bd238	0.038042277
209	0xbc8a5923	-0.016888207
210	0x3a5a5f9e	0.0008330288
211	0xbc15f60b	-0.0091528995
212	0x3df29635	0.11845056
213	0x3dd3f04d	0.10348568
214	0x3da90fda	0.082549766
215	0xbc745283	-0.01491225
216	0x3d94e848	0.07270867
217	0x3bd2de4e	0.006435192
218	0xbe0640f8	-0.13110721
219	0x3d8f530a	0.0699826
220	0x3dcf59fc	0.10124585
221	0xbc2c93c4	-0.010533277
222	0xbba9042a	-0.005157967
223	0xbd03f6b7	-0.032217707
224	0x3d3e99ab	0.046533268
225	0x3b961d42	0.0045811245
226	0x3dd7e0e7	0.105409436
227	0xbe24b9e3	-0.16086535
228	0x3d56689c	0.052345857
229	0xbd8b97fc	-0.06816098
230	0xbde5ff6b	-0.11230358
231	0xbdff43eb	-0.12464126
232	0xbae3e923	-0.0017388206
233	0xbd14ec20	-0.036358
234	0x3c9080b4	0.017639495
235	0xbe2b7ac5	-0.16746052
236	0xbe145ce9	-0.14488567
237	0x3da56512	0.08075918
238	0x3d809564	0.06278494
239	0x3e1e8da8	0.15483725
240	0xbd480c82	-0.048840053
241	0xbdcc651f	-0.09980225
242	0xbd2971d2	-0.041368313
243	0xbd81d73f	-0.06339883
244	0x3d8a2d20	0.06746888
245	0xbdb699d5	-0.0891606
246	0xbe26f825	-0.16305597
247	0x3db9838b	0.09058293
248	0xbc90d215	-0.0176783
249	0x3d3ee1c5	0.04660203
250	0x3d4d2372	0.05008263
251	0xbe09bded	-0.13451357
252	0xbe14cfe3	-0.14532427
253	0x3de6814c	0.1125513
254	0xbd44008d	-0.047852088
255	0x3b3216b9	0.0027174188

network_body._body_endoder.seq_layers.2.bias f4 [128]
0	0xbb53d9fa	-0.003232597
1	0x3c1b0ef7	0.009464017
2	0x3808a3e7	3.2577573e-05
3	0x3b72e256	0.0037061176
4	0xba785885	-0.00094736397
5	0xbb8dc89e	-0.004326894
6	0x3b08e0d7	0.0020885968
7	0x3a9bf72c	0.0011899224
8	0x3b459aea	0.003015215
9	0xbaa62d13	-0.0012678228
10	0xbaae1884	-0.0013282453
11	0x3cb5a761	0.022174539
12	0x3b50a63f	0.0031837372
13	0x3b80c269	0.0039294255
14	0x3b70e991	0.003676031
15	0x3c100089	0.00878919
16	0x3afad15e	0.0019135883
17	0x396b0e00	0.00022416562
18	0xbc6f65f3	-0.014611709
19	0xbb6d89a6	-0.0036245375
20	0x3c85bca6	0.016325306
21	0x3b5c2df5	0.0033596728
22	0x3beaf13d	0.007169871
23	0x3b61e31f	0.003446765
24	0x3c94ec58	0.018179104
25	0x3b63dd74	0.0034769448
26	0x3b30945e	0.0026943902
27	0x3be11d26	0.00686993
28	0xbb76079b	-0.0037541154
29	0xba60781a	-0.00085628184
30	0xbabc088e	-0.0014345811
31	0xba08a602	-0.00052127254
32	0xb93d5b4d	-0.00018058457
33	0x3a12e79e	0.00056039717
34	0x3b741dff	0.0037249324
35	0xbb8d8c72	-0.004319721
36	0x3a2ae89b	0.0006519646
37	0xb9d47348	-0.00040521682
38	0xb8471fac	-4.7474794e-05
39	0xba3d91c9	-0.00072315015
40	0xbb1d9786	-0.0024046614
41	0x3aaecb2c	0.0013335696
42	0xbb1ce653	-0.0023940995
43	0x3b691708	0.0035566706
44	0x3bc0d85b	0.0058851666
45	0x3b844381	0.0040363674
46	0x3abf2135	0.001458204
47	0xba6522d8	-0.0008740849
48	0x3ab7ac9e	0.0014013236
49	0xbb02f324	-0.001998135
50	0x3b5d2d94	0.003374909
51	0x3a585837	0.0008252891
52	0xbbe504bb	-0.0069890893
53	0x3aeec46f	0.0018216501
54	0xbbfd0a24	-0.007722156
55	0x3c2215b9	0.009892874
56	0xbac3ba48	-0.0014932835
57	0xbc4541d3	-0.0120396195
58	0xbb6b1ffa	-0.0035877214
59	0x386ea71e	5.6899262e-05
60	0x3a0368c9	0.00050128676
61	0xbc78ce36	-0.015185883
62	0xbb6d9b90	-0.0036256053
63	0x3a0ebebe	0.0005445293
64	0xba9a0699	-0.0011751234
65	0xb94aa9cb	-0.00019327474
66	0xbc6190c9	-0.01376743
67	0x3b3396d2	0.0027403128
68	0xbba749a5	-0.0051052147
69	0xbb92c715	-0.004479299
70	0xbac7cf7e	-0.0015244333
71	0x3c05bcaa	0.008162657
72	0x3b4365be	0.0029815282
73	0x3901b7ac	0.00012370822
74	0xbb08424b	-0.0020791467
75	0x3ad8d3e0	0.0016542636
76	0xbaed33e5	-0.0018097131
77	0x3ad9e0e2	0.0016622806
78	0xba375881	-0.0006994084
79	0x3a3053cc	0.0006726354
80	0xbab4a5e4	-0.0013782349
81	0x3c0f7b3d	0.00875741
82	0xbbebc170	-0.0071946904
83	0x3b4904ec	0.00306731
84	0xbbb2bb6e	-0.0054544723
85	0xb96627ef	-0.00021949386
86	0x3a3a8723	0.0007115474
87	0x3bbd1823	0.0057706996
88	0x3c889b16	0.016675513
89	0xbb0cd346	-0.0021488233
90	0x3b86d4e1	0.0041147326
91	0x3ad30caf	0.0016101802
92	0xba56eb13	-0.0008198481
93	0xbc1eb264	-0.009686086
94	0xb9876365	-0.0002582326
95	0xba7700ce	-0.0009422422
96	0x3be26329	0.0069087935
97	0xbb922f90	-0.0044612363
98	0xba191903	-0.0005840214
99	0xbc2a4cdc	-0.010394301
100	0x3bfacafb	0.0076535917
101	0xbb811e07	-0.003940347
102	0x3ab6560e	0.0013911144
103	0xba9d1a50	-0.0011985991
104	0x3abf942f	0.0014616306
105	0x3b51ea84	0.0032030651
106	0x3a0d2c4f	0.00053853256
107	0xbb11b0e1	-0.0022230672
108	0xbaaa3097	-0.0012984452
109	0x3a2b6b1d	0.00065390934
110	0xbb75fef9	-0.0037536009
111	0xbc26fd65	-0.01019225
112	0x3b2fca79	0.0026823564
113	0x3bdc1d24	0.006717341
114	0x393dd1fa	0.00018102667
115	0x3bb1d53c	0.005427031
116	0xba927e4f	-0.0011176559
117	0x33b5b000	8.4604835e-08
118	0xbaee657f	-0.0018188207
119	0xbb4e6a03	-0.0031496293
120	0xbc71bbd4	-0.014754254
121	0xbbe0944f	-0.0068536173
122	0xb9a5c9ff	-0.0003162175
123	0x39d61718	0.00040834467
124	0x3a00fce9	0.0004920499
125	0x3c6ae9b0	0.014337942
126	0xbace7056	-0.0015750031
127	0x3c1ddff3	0.009635913

action_model._discrete_distribution.branches.0.weight f4 [2, 128]
0	0xbc1884d9	-0.009309017
1	0xbb75a2ba	-0.0037481026
2	0xbc2f204b	-0.010688852
3	0x3cbdd7d9	0.023174213
4	0xbc0c43aa	-0.008561054
5	0x3c33e426	0.010979688
6	0x3cb9df61	0.022689523
7	0xbc3dea20	-0.011591464
8	0xbc0fd336	-0.008778384
9	0x3a0e9507	0.0005439077
10	0x3bce8936	0.006302978
11	0xbc0ef73a	-0.008725936
12	0xba406902	-0.0007339866
13	0x3cd2cd89	0.025732772
14	0x3bbb3011	0.005712517
15	0x3c9a6879	0.018848645
16	0x3c02dff4	0.007987965
17	0x3be9efcf	0.007139183
18	0xbac04fb4	-0.0014672191
19	0x3b96ea64	0.0046055783
20	0xbc957253	-0.01824299
21	0x3a57ba22	0.0008229335
22	0xbc898bb5	-0.01679025
23	0xb9fc8559	-0.00048164537
24	0xbc47bf80	-0.012191653
25	0x3c1f1bc8	0.009711213
26	0xbc2e9973	-0.010656702
27	0x3c210f7c	0.009830352
28	0xbc2c4331	-0.010514067
29	0xbb960bb3	-0.0045790314
30	0x3bf0273f	0.0073288972
31	0xbc66ff4f	-0.014098956
32	0xbc4682e1	-0.012116165
33	0xbcc1b9e6	-0.023648214
34	0x3d0fd2c7	0.035113122
35	0x3b2dd108	0.0026522297
36	0x3b8041a5	0.0039140754
37	0xbbf5c41c	-0.0075001847
38	0x3bde31af	0.006780825
39	0x3ca0dfef	0.01963803
40	0x3c0894b8	0.008336239
41	0xbba87201	-0.0051405434
42	0xbbd0b47d	-0.006369172
43	0x3c69421a	0.014236951
44	0xbc1eab9e	-0.009684471
45	0x3ccee983	0.025257831
46	0xb9da1940	-0.00041599013
47	0xbc6e57a0	-0.014547259
48	0x3c35431b	0.0110633625
49	0xbada8874	-0.0016672746
50	0x3c95eb5b	0.018300703
51	0x3c123c52	0.008925514
52	0x3aac2a7f	0.0013135223
53	0x3c86d75c	0.016460113
54	0xbc0294b3	-0.007970023
55	0xbc5b92f4	-0.013401736
56	0x3b987181	0.0046522026
57	0x3c1ef747	0.00970251
58	0xbc36bae9	-0.011152961
59	0x3c454dba	0.012042457
60	0xbc11dc81	-0.00890267
61	0xbafdb487	-0.001935617
62	0xbc4ab37b	-0.012371893
63	0x3bcf41f9	0.006325003
64	0xbb36f8d7	-0.0027919316
65	0x3c4ee433	0.012627649
66	0xbb39fecc	-0.002838063
67	0x3b026183	0.0019894547
68	0xbad7b5f6	-0.0016457427
69	0xbbcf1401	-0.0063195233
70	0xbc3d4c08	-0.011553772
71	0xbba3898d	-0.0049907626
72	0xbc2ade72	-0.010429012
73	0xbc20faba	-0.009825403
74	0xbc1eb41b	-0.009686495
75	0xbbd19891	-0.006396361
76	0xbbda49ac	-0.0066616144
77	0xbb7eb993	-0.0038867935
78	0x3ba003dc	0.0048832726
79	0x3cb5462b	0.022128185
80	0x3b648ae6	0.003487283
81	0xbcfae3ac	-0.03062614
82	0x3bf95cc8	0.0076099373
83	0xbc8e3ba0	-0.017362416
84	0xbc57518e	-0.013142003
85	0xbbb7f601	-0.0056140427
86	0xbc0ed19c	-0.008716967
87	0x3b1082da	0.002205065
88	0x3be460fe	0.00696957
89	0xbc07d5fd	-0.008290765
90	0x3c271a91	0.010199205
91	0xbd097048	-0.033554345
92	0xb97fe637	-0.00024404457
93	0x3c4b494c	0.012407612
94	0xbc907da8	-0.017638043
95	0x3c1c447c	0.009537812
96	0xbcd91233	-0.026497936
97	0x3b35de53	0.0027750924
98	0x3b9517ad	0.0045499415
99	0x3bf12f5d	0.0073603825
100	0xbb18d5c4	-0.0023320774
101	0xbc8f06b5	-0.017459253
102	0x3988a68a	0.00026064023
103	0xbb693576	-0.0035584844
104	0x3bc53857	0.006018679
105	0x3be34fd9	0.006937009
106	0xbcc9fa45	-0.02465547
107	0xbc5b6266	-0.013390159
108	0x3ca30dbc	0.01990401
109	0xbae4198c	-0.0017402633
110	0xbbee3fc7	-0.0072707864
111	0xba178116	-0.0005779428
112	0x3cacebb6	0.02110849
113	0xbca16bb9	-0.019704686
114	0x3b02de49	0.0019968918
115	0xbcc52317	-0.024064584
116	0x3c28729e	0.010281233
117	0xbbab7b60	-0.0052332133
118	0xbb934a18	-0.0044949166
119	0xbb7be631	-0.0038436765
120	0x3c2839e0	0.010267705
121	0x3bed79f6	0.007247205
122	0xbc050a12	-0.008120077
123	0x3bb4541a	0.0055031898
124	0xba877a16	-0.0010336067
125	0x3c049d59	0.008094155
126	0x3ba0b70b	0.004904633
127	0x3b80f729	0.003935714
128	0xbb9c1c48	-0.0047641136
129	0x3c44eaeb	0.012018899
130	0x3c37247f	0.011178135
131	0xbccdc57f	-0.025118588
132	0x3c325129	0.010883608
133	0xbc26d612	-0.010182874
134	0xbce1ac43	-0.027547961
135	0x3bb0dc30	0.005397342
136	0x3b066e45	0.0020512503
137	0x3becaa8d	0.0072224797
138	0x3c9b6b2f	0.018972008
139	0x3c59d99b	0.01329651
140	0x3a9d807c	0.0012016441
141	0xbc34085a	-0.010988319
142	0x3bc5821d	0.0060274736
143	0xbc02ee1f	-0.007991343
144	0xbafec810	-0.0019438285
145	0x3c31b902	0.010847332
146	0x3b13a406	0.0022528186
147	0x3c164bbf	0.009173333
148	0xba585951	-0.0008253055
149	0xbacfb11b	-0.0015845628
150	0x3c275157	0.010212264
151	0x3c3f519f	0.011677175
152	0x3bbde2f0	0.0057948753
153	0xbcd65abd	-0.026166314
154	0x3cb07b9c	0.021543317
155	0x3acb1647	0.001549431
156	0xbc1d007e	-0.009582637
157	0x3c46038e	0.012085808
158	0xbc6d79ec	-0.0144944005
159	0x3a00c8c7	0.00049127307
160	0x3c32aaed	0.01090501
161	0x3cb5555b	0.022135427
162	0xbd09d61e	-0.033651464
163	0xbc333960	-0.010938972
164	0x3ab5af3b	0.0013861427
165	0x3bc21fc7	0.0059241983
166	0x3bd54c27	0.006509322
167	0xbc7860d5	-0.015159805
168	0xbb3198b6	-0.002709908
169	0x3c242e09	0.010020741
170	0xbba59822	-0.005053536
171	0xbc19c7b9	-0.0093859965
172	0xbc92e94d	-0.017933512
173	0xbc8166d1	-0.015796097
174	0xbbd11514	-0.0063806865
175	0x3be57df1	0.007003539
176	0xbc86d307	-0.016458048
177	0x3af8f2cb	0.0018993256
178	0xbc89717b	-0.016777745
179	0xbc687966	-0.0141891
180	0x3c1469bf	0.009058415
181	0xbce3a212	-0.027787242
182	0x3c8fa985	0.017536888
183	0x3bf53e95	0.007484267
184	0x3bc16e25	0.005903023
185	0x3c0c38df	0.008558481
186	0x3cc35e6a	0.023848731
187	0xb94fa745	-0.00019803371
188	0xbbe69269	-0.0070364964
189	0xbbcd375f	-0.0062627043
190	0xb985b210	-0.00025500404
191	0xbc1e1043	-0.009647432
192	0x3b5d6c19	0.0033786355
193	0xbc24bd3c	-0.010054883
194	0x3ca114d5	0.019663254
195	0xbc4a3f31	-0.012344168
196	0xba420700	-0.0007401556
197	0xbbcb74d5	-0.006208996
198	0xbb17c898	-0.0023160335
199	0x3ca01383	0.019540554
200	0x3c762158	0.015022598
201	0x3b687e36	0.0035475618
202	0x3b4af7cc	0.0030970452
203	0xbb371489	-0.0027935824
204	0xbb815b83	-0.0039476766
205	0xbb249ab9	-0.0025116636
206	0x3be5707d	0.007001935
207	0x3c086dc3	0.0083269505
208	0x3bec9680	0.0072200894
209	0x3bb65737	0.005564596
210	0xbc431c44	-0.0119085945
211	0x3c9f2673	0.019427514
212	0xbc1ef023	-0.009700808
213	0x3bbd9813	0.005785951
214	0x3c4e9cb4	0.012610603
215	0x393f2faa	0.00018232936
216	0xbc81099a	-0.015751649
217	0x3b0573a5	0.002036312
218	0x3c2fb335	0.010723879
219	0x3cbd48b0	0.02310595
220	0x3c823a0c	0.01589682
221	0xbc3da3ae	-0.011574669
222	0xbbc9a8ba	-0.006154147
223	0xbbb94d0b	-0.005654936
224	0x3c7bc7f4	0.015367497
225	0x3c2f624e	0.01070459
226	0x3c01b8d4	0.007917602
227	0x3c8e131d	0.017343098
228	0x3cc8648a	0.024462003
229	0x3be80259	0.007080358
230	0x3ae68fa8	0.001759042
231	0x3aebb618	0.0017983345
232	0x3c922574	0.017840125
233	0x3bca5518	0.0061746947
234	0x3b4c7c50	0.0031202026
235	0x3ba448b9	0.005013552
236	0xbc9cb1ad	-0.019127691
237	0x3c6aea6b	0.014338116
238	0x3c5a87bb	0.013338025
239	0x3bf38867	0.007432032
240	0xbcddd2ae	-0.027077999
241	0x3c16a0f6	0.0091936495
242	0x3c825ffb	0.015914908
243	0x3ca60550	0.020266205
244	0xbbc43396	-0.005987595
245	0x3c5d8d9d	0.013522533
246	0x3c6c39b2	0.0144180525
247	0x3b8146e2	0.0039452175
248	0x3bb4f338	0.005522158
249	0xbaa6df2e	-0.0012731308
250	0xbc39974c	-0.011327576
251	0xbb10a19d	-0.0022068985
252	0x3b93cf36	0.0045107855
253	0xba77c61f	-0.00094518246
254	0xbc39dbe5	-0.011343931
255	0x3c580812	0.013185518

action_model._discrete_distribution.branches.0.bias f4 [2]
0	0xbaad84ab	-0.0013238391
1	0x3aad84a9	0.0013238388

exp_avg f4 [128, 42]
0	0x00000000	0.0
1	0x397f7501	0.00024362282
2	0x00000000	0.0
3	0x00000000	0.0
4	0xb50f2ffb	-5.334147e-07
5	0x38b822e2	8.780301e-05
6	0x397ee4f7	0.00024308624
7	0x315955f4	3.1626515e-09
8	0x00000000	0.0
9	0x00000000	0.0
10	0xa898e5cb	-1.6975047e-14
11	0x35d295a7	1.5689774e-06
12	0x00000000	0.0
13	0xb90bb1c3	-0.00013322294
14	0x110e192a	1.1209579e-28
15	0xa2216b75	-2.1876456e-18
16	0x39c54bcb	0.00037631238
17	0x39c31da2	0.00037215377
18	0x397ee5d1	0.00024308941
19	0xa690d4a2	-1.0049641e-15
20	0x00000000	0.0
21	0x00000000	0.0
22	0xa898e5cb	-1.6975047e-14
23	0x3560199e	8.348378e-07
24	0x00000000	0.0
25	0xb9093de9	-0.00013088401
26	0x102c3dd2	3.3968644e-29
27	0xa2ba2b9a	-5.0461566e-18
28	0x39c411dc	0.0003739734
29	0x39c141fb	0.00036860988
30	0x397ee5d1	0.00024308941
31	0xa4d14f97	-9.077413e-17
32	0x00000000	0.0
33	0x00000000	0.0
34	0xa8a1d6bd	-1.7967719e-14
35	0x35265549	6.1963925e-07
36	0x00000000	0.0
37	0x00000000	0.0
38	0x10927d56	5.7779957e-29
39	0xb83901c0	-4.4109067e-05
40	0x39969321	0.0002871985
41	0x39925cef	0.0002791653
42	0x00000000	0.0
43	0x37fe3a87	3.0306413e-05
44	0x00000000	0.0
45	0x00000000	0.0
46	0xb4545309	-1.9774247e-07
47	0x376c86c2	1.4098072e-05
48	0x37fc9282	3.0108964e-05
49	0xafa0e9b1	-2.9269878e-10
50	0x00000000	0.0
51	0x00000000	0.0
52	0x23dd8a82	2.4019528e-17
53	0x34a3bda7	3.0499106e-07
54	0x00000000	0.0
55	0xb81564dd	-3.5618305e-05
56	0x900e5f47	-2.807796e-29
57	0xa234b275	-2.4489023e-18
58	0x3889d6e6	6.572697e-05
59	0x3887261b	6.444399e-05
60	0x37fc91e0	3.010867e-05
61	0xa40b02d8	-3.014323e-17
62	0x00000000	0.0
63	0x00000000	0.0
64	0x23dd8a82	2.4019528e-17
65	0x342e3fc9	1.6228218e-07
66	0x00000000	0.0
67	0xb80bd3c8	-3.333742e-05
68	0x8f1c7c22	-7.715301e-30
69	0xa29f7bbb	-4.322804e-18
70	0x38850e5c	6.344609e-05
71	0x3882317e	6.208102e-05
72	0x37fc91e0	3.010867e-05
73	0xa391f8c4	-1.5826288e-17
74	0x00000000	0.0
75	0x00000000	0.0
76	0xa2d51dea	-5.776544e-18
77	0x3401551e	1.2045027e-07
78	0x00000000	0.0
79	0x00000000	0.0
80	0x8fb9c360	-1.8317664e-29
81	0xb687c4ef	-4.0462396e-06
82	0x380f418d	3.4154906e-05
83	0x380c287c	3.3416305e-05
84	0x00000000	0.0
85	0x38716058	5.7548605e-05
86	0x00000000	0.0
87	0x00000000	0.0
88	0xb5a05148	-1.1944585e-06
89	0x3875983a	5.8554324e-05
90	0x386c5ce8	5.635331e-05
91	0x3065455e	8.340829e-10
92	0x00000000	0.0
93	0x00000000	0.0
94	0xa8a5b9cc	-1.8399256e-14
95	0x355af061	8.1561126e-07
96	0x00000000	0.0
97	0xb968f10c	-0.00022215041
98	0x8fbffbc5	-1.8931032e-29
99	0xa3d3bb35	-2.2955951e-17
100	0x39920440	0.00027850457
101	0x398e0b38	0.0002709271
102	0x386c5dd1	5.6354158e-05
103	0xa73b4336	-2.5987898e-15
104	0x00000000	0.0
105	0x00000000	0.0
106	0xa8a5b9cc	-1.8399256e-14
107	0x34e8fd8b	4.3397844e-07
108	0x00000000	0.0
109	0xb9624a45	-0.00021580707
110	0x8fc7b0df	-1.9691043e-29
111	0xa4280129	-3.6430176e-17
112	0x398eb0dc	0.0002721612
113	0x398a0e67	0.00026332142
114	0x386c5dd1	5.6354158e-05
115	0xa4c61248	-8.589978e-17
116	0x00000000	0.0
117	0x00000000	0.0
118	0xa8bd2816	-2.10006e-14
119	0x34acee89	3.2211054e-07
120	0x00000000	0.0
121	0x00000000	0.0
122	0x9015cb7f	-2.9541836e-29
123	0xb7b693d3	-2.1764927e-05
124	0x38a3d3da	7.811906e-05
125	0x389b8510	7.415761e-05
126	0x00000000	0.0
127	0x381da70e	3.75873e-05
128	0x00000000	0.0
129	0x00000000	0.0
130	0x3283717e	1.5302017e-08
131	0x36a34237	4.865487e-06
132	0x381db772	3.7602564e-05
133	0x2e294266	3.8485125e-11
134	0x00000000	0.0
135	0x00000000	0.0
136	0x268e1979	9.860134e-16
137	0x3434ee03	1.6850395e-07
138	0x00000000	0.0
139	0x37b65dbc	2.173974e-05
140	0x0c30aa3a	1.3609773e-31
141	0x22ce4c76	5.591737e-18
142	0x3785113b	1.5862859e-05
143	0x378b9c8c	1.6642989e-05
144	0x381db77b	3.7602596e-05
145	0x26c2cf17	1.3517586e-15
146	0x00000000	0.0
147	0x00000000	0.0
148	0x268e1979	9.860134e-16
149	0x33c08aa6	8.965917e-08
150	0x00000000	0.0
151	0x37b0cedd	2.1077163e-05
152	0x8ef187e4	-5.9541945e-30
153	0x238470e8	1.4359286e-17
154	0x378aa01a	1.6525435e-05
155	0x3791df89	1.7389439e-05
156	0x381db77b	3.7602596e-05
157	0x23492907	1.090492e-17
158	0x00000000	0.0
159	0x00000000	0.0
160	0x2728257d	2.3335006e-15
161	0x338ee8dc	6.654747e-08
162	0x00000000	0.0
163	0x00000000	0.0
164	0x8feb9d4f	-2.3233382e-29
165	0xb62e00e6	-2.5928543e-06
166	0x38289789	4.019545e-05
167	0x38269e97	3.9725182e-05
168	0x00000000	0.0
169	0xb9ca859e	-0.00038627995
170	0x00000000	0.0
171	0x00000000	0.0
172	0x354964f5	7.5025247e-07
173	0xb8fa4848	-0.000119343924
174	0xb9ca20d6	-0.00038552907
175	0xb02976a1	-6.1650424e-10
176	0x00000000	0.0
177	0x00000000	0.0
178	0x2805f614	7.436343e-15
179	0xb6315830	-2.6426387e-06
180	0x00000000	0.0
181	0x39121e5d	0.00013934956
182	0x100310f9	2.584827e-29
183	0x210ba8ac	4.7318267e-19
184	0xba09980d	-0.00052487926
185	0xba0857f8	-0.00052010966
186	0xb9ca20eb	-0.00038552968
187	0x25b61bcb	3.15908e-16
188	0x00000000	0.0
189	0x00000000	0.0
190	0x2805f614	7.436343e-15
191	0xb5bcb9e6	-1.4061195e-06
192	0x00000000	0.0
193	0x3909349a	0.00013084934
194	0x0f23651f	8.055996e-30
195	0x21df5f62	1.5136315e-18
196	0xba075d9c	-0.000516379
197	0xba05f5fb	-0.00051102013
198	0xb9ca20eb	-0.00038552968
199	0x248e1f87	6.163609e-17
200	0x00000000	0.0
201	0x00000000	0.0
202	0x280ba7b7	7.752417e-15
203	0xb58c13e2	-1.04366e-06
204	0x00000000	0.0
205	0x00000000	0.0
206	0x0f92a62d	1.446072e-29
207	0x386d5e5f	5.6593093e-05
208	0xb9e7ccb6	-0.00044212275
209	0xb9e269e4	-0.00043184974
210	0x00000000	0.0
211	0x39a6cd34	0.00031814876
212	0x00000000	0.0
213	0x00000000	0.0
214	0xb5d2ce3a	-1.5706239e-06
215	0x38cbd4df	9.719445e-05
216	0x39a5fa18	0.00031657587
217	0x311a89a7	2.2488196e-09
218	0x00000000	0.0
219	0x00000000	0.0
220	0xa914a45c	-3.300516e-14
221	0x361164cb	2.1665353e-06
222	0x00000000	0.0
223	0xb8e00694	-0.000106823776
224	0x1104d277	1.0477818e-28
225	0xa39dfcc9	-1.7129033e-17
226	0x39ddfc0a	0.00042340189
227	0x39dbf5e4	0.00041954138
228	0x39a5fa66	0.00031657814
229	0xa6a26f0c	-1.1271107e-15
230	0x00000000	0.0
231	0x00000000	0.0
232	0xa914a45c	-3.300516e-14
233	0x359ab999	1.152791e-06
234	0x00000000	0.0
235	0xb8cfbdd8	-9.90589e-05
236	0x100084cf	2.534586e-29
237	0xa4201356	-3.4710848e-17
238	0x39d9e9dd	0.00041563707
239	0x39d7c917	0.0004115782
240	0x39a5fa66	0.00031657814
241	0xa556b317	-1.8622219e-16
242	0x00000000	0.0
243	0x00000000	0.0
244	0xa919adf5	-3.4123708e-14
245	0x3565aea7	8.55633e-07
246	0x00000000	0.0
247	0x00000000	0.0
248	0x10783508	4.895023e-29
249	0xb804038c	-3.1474556e-05
250	0x39b67ad7	0.00034805268
251	0x39b37cfe	0.00034234667
252	0x00000000	0.0
253	0x3a5b650b	0.00083692436
254	0x00000000	0.0
255	0x00000000	0.0

exp_avg_sq f4 [128, 42]
0	0x00000000	0.0
1	0x3629444c	2.5222716e-06
2	0x00000000	0.0
3	0x00000000	0.0
4	0x33299ab4	3.948908e-08
5	0x3456b7a6	1.9997114e-07
6	0x361f47e9	2.3734704e-06
7	0x343e8367	1.7742933e-07
8	0x00000000	0.0
9	0x00000000	0.0
10	0x334dd2b0	4.79219e-08
11	0x336327ca	5.2888744e-08
12	0x00000000	0.0
13	0x35137c96	5.4943064e-07
14	0x33cd0191	9.546341e-08
15	0x315c5606	3.2063112e-09
16	0x3601a06d	1.9315878e-06
17	0x3602e144	1.9502631e-06
18	0x36283222	2.5063132e-06
19	0x32a52e9f	1.9229729e-08
20	0x00000000	0.0
21	0x00000000	0.0
22	0x334dd2b0	4.79219e-08
23	0x33543ad1	4.941359e-08
24	0x00000000	0.0
25	0x34778a8d	2.3054072e-07
26	0x32febfca	2.9656707e-08
27	0x31d6ff5d	6.257251e-09
28	0x361b4834	2.3138828e-06
29	0x361b68a8	2.3157718e-06
30	0x3627ebdb	2.5022225e-06
31	0x324b5a66	1.1836709e-08
32	0x00000000	0.0
33	0x00000000	0.0
34	0x334ea57f	4.811363e-08
35	0x335280c4	4.9011547e-08
36	0x00000000	0.0
37	0x00000000	0.0
38	0x335fdfab	5.212466e-08
39	0x356f878b	8.923168e-07
40	0x35c04a0f	1.4326669e-06
41	0x35c806a9	1.49031e-06
42	0x00000000	0.0
43	0x33425d0d	4.5253774e-08
44	0x00000000	0.0
45	0x00000000	0.0
46	0x31484c03	2.9147038e-09
47	0x31d6076a	6.2290626e-09
48	0x332a775f	3.9689777e-08
49	0x321aac51	9.00316e-09
50	0x00000000	0.0
51	0x00000000	0.0
52	0x2fa7873f	3.047322e-10
53	0x300710f6	4.9136817e-10
54	0x00000000	0.0
55	0x325d940f	1.2897558e-08
56	0x31aa55e0	4.957414e-09
57	0x2fb333b3	3.2596645e-10
58	0x33033b05	3.0554492e-08
59	0x33062ebf	3.124182e-08
60	0x33496298	4.688863e-08
61	0x30922114	1.06323e-09
62	0x00000000	0.0
63	0x00000000	0.0
64	0x2fa7873f	3.047322e-10
65	0x2fc31d67	3.5491185e-10
66	0x00000000	0.0
67	0x31fdc959	7.3861597e-09
68	0x30c90ebf	1.4628866e-09
69	0x30980f79	1.1063853e-09
70	0x33234f9e	3.8023806e-08
71	0x3323fa48	3.8179024e-08
72	0x33490b62	4.6809312e-08
73	0x3070fa6c	8.766736e-10
74	0x00000000	0.0
75	0x00000000	0.0
76	0x2fa86469	3.0630368e-10
77	0x2fb93466	3.3688535e-10
78	0x00000000	0.0
79	0x00000000	0.0
80	0x31b236fe	5.1867337e-09
81	0x32c2d48d	2.268123e-08
82	0x32918d7c	1.6944561e-08
83	0x329cf2b0	1.8271152e-08
84	0x00000000	0.0
85	0x34440595	1.8255953e-07
86	0x00000000	0.0
87	0x00000000	0.0
88	0x33a4303e	7.64562e-08
89	0x33b95fb4	8.632142e-08
90	0x342e3f17	1.6227965e-07
91	0x33933d77	6.856401e-08
92	0x00000000	0.0
93	0x00000000	0.0
94	0x32877a52	1.5771693e-08
95	0x32c332b0	2.2724038e-08
96	0x00000000	0.0
97	0x33cc4d5d	9.5135626e-08
98	0x31291c10	2.4608688e-09
99	0x3299d4cf	1.7908318e-08
100	0x34183a86	1.4177394e-07
101	0x34190927	1.4252565e-07
102	0x3439b48a	1.7295147e-07
103	0x3378432f	5.7803103e-08
104	0x00000000	0.0
105	0x00000000	0.0
106	0x32877a52	1.5771693e-08
107	0x3292f173	1.7106435e-08
108	0x00000000	0.0
109	0x339a1c2a	7.176307e-08
110	0x3260f80a	1.3094914e-08
111	0x3377c4cd	5.768816e-08
112	0x33f8efc3	1.1592012e-07
113	0x33f9f497	1.1639457e-07
114	0x344635b9	1.8459731e-07
115	0x33596ca0	5.0623044e-08
116	0x00000000	0.0
117	0x00000000	0.0
118	0x32929796	1.706557e-08
119	0x3299d70d	1.7909338e-08
120	0x00000000	0.0
121	0x00000000	0.0
122	0x3281406b	1.504687e-08
123	0x33ed05a4	1.10371985e-07
124	0x340b0ecb	1.2950765e-07
125	0x340db955	1.3199072e-07
126	0x00000000	0.0
127	0x32ef180b	2.7834195e-08
128	0x00000000	0.0
129	0x00000000	0.0
130	0x31b42090	5.2423914e-09
131	0x31ca74d2	5.8922547e-09
132	0x32a513ff	1.9217621e-08
133	0x325bc8d6	1.27931425e-08
134	0x00000000	0.0
135	0x00000000	0.0
136	0x2f4873f8	1.8231094e-10
137	0x3045ede1	7.200623e-10
138	0x00000000	0.0
139	0x329a4f90	1.796414e-08
140	0x2f10102f	1.3102473e-10
141	0x3092f274	1.0691807e-09
142	0x325e4f3b	1.2940116e-08
143	0x325f77a0	1.3007508e-08
144	0x32f117fb	2.8066998e-08
145	0x31936a60	4.2903565e-09
146	0x00000000	0.0
147	0x00000000	0.0
148	0x2f4873f8	1.8231094e-10
149	0x2f92161d	2.6572958e-10
150	0x00000000	0.0
151	0x3292d856	1.7095015e-08
152	0x2fb206a0	3.238272e-10
153	0x319ada24	4.5067896e-09
154	0x322df300	1.0125177e-08
155	0x322f077c	1.0188042e-08
156	0x32ef902e	2.7888827e-08
157	0x31af2b19	5.09807e-09
158	0x00000000	0.0
159	0x00000000	0.0
160	0x2f9e2ae8	2.877052e-10
161	0x2fb6f4f2	3.327965e-10
162	0x00000000	0.0
163	0x00000000	0.0
164	0x32090445	7.97542e-09
165	0x3261cce1	1.3143308e-08
166	0x323f0ae0	1.1120136e-08
167	0x324898fb	1.1676316e-08
168	0x00000000	0.0
169	0x34b12ed7	3.30029e-07
170	0x00000000	0.0
171	0x00000000	0.0
172	0x31bad144	5.437103e-09
173	0x32db6dca	2.5544882e-08
174	0x34ae4a35	3.2464018e-07
175	0x322151ea	9.3900585e-09
176	0x00000000	0.0
177	0x00000000	0.0
178	0x322c8b49	1.00433875e-08
179	0x3235fe81	1.0593454e-08
180	0x00000000	0.0
181	0x3382757d	6.074968e-08
182	0x318c2bbc	4.0795083e-09
183	0x2eeaee47	1.06834146e-10
184	0x349c083c	2.9063256e-07
185	0x349bee5d	2.9044432e-07
186	0x34b086d5	3.2880658e-07
187	0x30b890ca	1.3428914e-09
188	0x00000000	0.0
189	0x00000000	0.0
190	0x322c8b49	1.00433875e-08
191	0x322f0a96	1.0188748e-08
192	0x00000000	0.0
193	0x33050d64	3.0978654e-08
194	0x30b41926	1.3103871e-09
195	0x2f91948b	2.6480892e-10
196	0x34aa80f1	3.1758785e-07
197	0x34aa4cbb	3.1720796e-07
198	0x34b024e9	3.280941e-07
199	0x313906e4	2.692496e-09
200	0x00000000	0.0
201	0x00000000	0.0
202	0x322dc867	1.01154916e-08
203	0x322f1eb1	1.0193319e-08
204	0x00000000	0.0
205	0x00000000	0.0
206	0x311ca7c2	2.2796347e-09
207	0x338b5a11	6.489075e-08
208	0x3491ce63	2.715852e-07
209	0x349280f9	2.728846e-07
210	0x00000000	0.0
211	0x362e2c74	2.5953896e-06
212	0x00000000	0.0
213	0x00000000	0.0
214	0x343185d3	1.6533095e-07
215	0x34c3c7c2	3.6466923e-07
216	0x362a73e3	2.539943e-06
217	0x3454807c	1.9790781e-07
218	0x00000000	0.0
219	0x00000000	0.0
220	0x33b42988	8.389458e-08
221	0x33d0c8b3	9.722262e-08
222	0x00000000	0.0
223	0x34a2e454	3.0340982e-07
224	0x33a183c5	7.5211155e-08
225	0x3298f63b	1.7807102e-08
226	0x36203ff8	2.3879093e-06
227	0x36214106	2.4028718e-06
228	0x362f521e	2.612483e-06
229	0x3390dff5	6.74626e-08
230	0x00000000	0.0
231	0x00000000	0.0
232	0x33b42988	8.389458e-08
233	0x33bb3268	8.717035e-08
234	0x00000000	0.0
235	0x33fd9074	1.18075064e-07
236	0x321f3fe3	9.269544e-09
237	0x333ca94a	4.392613e-08
238	0x362e8cd2	2.6009989e-06
239	0x362eb3b1	2.6032615e-06
240	0x362eaf36	2.6030007e-06
241	0x33c61a5e	9.22489e-08
242	0x00000000	0.0
243	0x00000000	0.0
244	0x33b54be9	8.442277e-08
245	0x33b95cad	8.6315914e-08
246	0x00000000	0.0
247	0x00000000	0.0
248	0x330b06e3	3.2369723e-08
249	0x356b7fbf	8.7730217e-07
250	0x35e998fd	1.7404378e-06
251	0x35ef8cbc	1.7847847e-06
252	0x00000000	0.0
253	0x36bf3123	5.697964e-06
254	0x00000000	0.0
255	0x00000000	0.0

exp_avg f4 [128]
0	0x397ee5d1	0.00024308941
1	0x37fc91e0	3.010867e-05
2	0x386c5dd1	5.6354158e-05
3	0x381db77b	3.7602596e-05
4	0xb9ca20eb	-0.00038552968
5	0x39a5fa66	0.00031657814
6	0x3a5a9d09	0.000833944
7	0x3a3aad32	0.0007121145
8	0xb9ba5b38	-0.00035544648
9	0x383416ad	4.2936463e-05
10	0x37dea2e3	2.6540312e-05
11	0x38364a72	4.3461514e-05
12	0x377a56db	1.4921384e-05
13	0x38079be1	3.233168e-05
14	0x392785ee	0.00015976254
15	0xb98b0b6b	-0.00026520653
16	0x3880d00b	6.142267e-05
17	0x380589ab	3.1837884e-05
18	0xba32f2e4	-0.00068263547
19	0x37d8500b	2.578648e-05
20	0xb9bbb6cf	-0.00035803622
21	0xba278d5d	-0.0006391609
22	0x3a23b515	0.000624494
23	0x38aa9984	8.134826e-05
24	0xb86efdf7	-5.6980145e-05
25	0x38a6f014	7.960215e-05
26	0x394eb6ae	0.00019713744
27	0xb8773090	-5.8934616e-05
28	0x3800190d	3.054091e-05
29	0xb8baf968	-8.915627e-05
30	0xb8830725	-6.2478975e-05
31	0xb8dcfa7d	-0.000105370746
32	0xb8a42687	-7.827306e-05
33	0xb9e5d012	-0.00043833308
34	0xb8ec062d	-0.00011254507
35	0xb675ce0a	-3.6627775e-06
36	0xb7e41e1c	-2.7193739e-05
37	0x376197d6	1.3446397e-05
38	0xba2ad3b4	-0.00065165316
39	0x3a7de7a9	0.0009685704
40	0xb94e9527	-0.00019701254
41	0x39e1b927	0.00043053293
42	0x399c299f	0.0002978565
43	0x3818daaa	3.644327e-05
44	0x391deeeb	0.0001506169
45	0xba2332e8	-0.0006225542
46	0x39fbe747	0.00048046766
47	0xb91ad554	-0.00014766055
48	0x3a3c6631	0.00071868586
49	0xb8e27eed	-0.000108001615
50	0xb82b3bbd	-4.0825213e-05
51	0xb9451e74	-0.00018798729
52	0xb7bbbd97	-2.2380422e-05
53	0xb9e3f1f0	-0.0004347707
54	0xb888f70b	-6.531001e-05
55	0xb9757036	-0.00023406823
56	0x39aecf36	0.0003334225
57	0xb9c1b27a	-0.00036944804
58	0xb9f10cbe	-0.00045976596
59	0xba2d1c58	-0.000660365
60	0x3825c562	3.9522893e-05
61	0x380409f9	3.148054e-05
62	0xb9946aa1	-0.00028308204
63	0xba6faf82	-0.0009143279
64	0x3980277b	0.00024443478
65	0x3750ffc2	1.2457314e-05
66	0x39114f60	0.00013857847
67	0x3a369654	0.00069651497
68	0x38d099a4	9.946831e-05
69	0x3910377b	0.00013753578
70	0x3994ed5e	0.00028405612
71	0xb8dd6d40	-0.000105584506
72	0x3a741b53	0.0009311933
73	0x39093489	0.00013084909
74	0xb7ac27b6	-2.052249e-05
75	0x3933f998	0.00017163751
76	0x384b4c1a	4.8469847e-05
77	0x3a59fb54	0.0008315344
78	0x395deb6e	0.00021163907
79	0xb84e9a34	-4.925784e-05
80	0x3a48d9f1	0.00076618703
81	0xb9c67045	-0.0003784915
82	0x396e1412	0.00022704926
83	0x39260b86	0.00015835286
84	0x37f6a9e1	2.9404591e-05
85	0x39bf4920	0.0003648484
86	0x390a1d1b	0.00013171548
87	0x391c8527	0.00014926922
88	0xb734a07c	-1.0766202e-05
89	0xb710bfa5	-8.62769e-06
90	0x3755fe82	1.2755047e-05
91	0x39b64e69	0.00034772165
92	0x39d630f0	0.00040853722
93	0x3902ed8b	0.00012486258
94	0x393179a1	0.00016925346
95	0xba03fc5e	-0.0005034859
96	0xb822e90e	-3.884086e-05
97	0x37c9665d	2.4008734e-05
98	0xb9551e67	-0.00020324589
99	0xb95c309b	-0.00020998942
100	0xb960676b	-0.00021400831
101	0x3996c1a0	0.0002875449
102	0xb8c520f2	-9.3998286e-05
103	0xb744cfa0	-1.1730852e-05
104	0x37b3dd31	2.1441463e-05
105	0x37a2ea92	1.9421135e-05
106	0x38995c86	7.312842e-05
107	0xb9dc2da7	-0.00041995684
108	0x38ddaa23	0.000105697916
109	0x380f9ac7	3.4238004e-05
110	0xba20f3ae	-0.0006139827
111	0x38e31c32	0.00010829455
112	0xb8c9c096	-9.620299e-05
113	0xba0ae2cb	-0.0005298077
114	0x38dc8871	0.00010515832
115	0x3a2ceebb	0.0006596853
116	0x3a63cde5	0.00086900435
117	0x39a68c0a	0.00031766325
118	0xb9088148	-0.00013018132
119	0xb9a518a1	-0.00031489602
120	0xb9e5fb18	-0.00043865363
121	0xb8edef54	-0.00011345619
122	0x3a6a46b8	0.00089369295
123	0x3996a172	0.00028730516
124	0x399cdf31	0.0002992093
125	0x3a370110	0.00069810543
126	0xb9a73175	-0.0003188957
127	0x379a1ac6	1.8370698e-05

exp_avg_sq f4 [128]
0	0x362c1e2a	2.5647555e-06
1	0x334f8097	4.8312895e-08
2	0x348b1948	2.5909162e-07
3	0x330dbe13	3.3001992e-08
4	0x34b4f4af	3.3705643e-07
5	0x363aefda	2.7855772e-06
6	0x36d29f4c	6.2770323e-06
7	0x36812b70	3.8495564e-06
8	0x33fe1c47	1.183294e-07
9	0x3347d2c5	4.6524992e-08
10	0x32cad96f	2.3614772e-08
11	0x34b904c6	3.4462408e-07
12	0x330a1001	3.2145184e-08
13	0x34851fb2	2.4796242e-07
14	0x34b50761	3.3719246e-07
15	0x34fd4efc	4.718239e-07
16	0x350b90ed	5.199243e-07
17	0x34279785	1.560821e-07
18	0x35b12ad3	1.3199991e-06
19	0x33cb4406	9.4652975e-08
20	0x3547e203	7.446217e-07
21	0x36207f43	2.3915934e-06
22	0x36a9b8e4	5.0581166e-06
23	0x346f71c9	2.2300004e-07
24	0x363ed563	2.8436414e-06
25	0x34b5d013	3.386527e-07
26	0x34b9d586	3.4614294e-07
27	0x3516088b	5.5891786e-07
28	0x33564ab2	4.9893693e-08
29	0x34a16a39	3.0065874e-07
30	0x33583c77	5.034641e-08
31	0x355bd1a3	8.188892e-07
32	0x34e03d3c	4.1767805e-07
33	0x361d60fa	2.345127e-06
34	0x34012f15	1.203119e-07
35	0x32dbfe2a	2.5610536e-08
36	0x33dde673	1.0333033e-07
37	0x33b5f7db	8.473554e-08
38	0x362bb626	2.558701e-06
39	0x368e190f	4.234847e-06
40	0x34ce6ff6	3.8451952e-07
41	0x35cb446b	1.5144591e-06
42	0x35d3da95	1.5784341e-06
43	0x335f06b7	5.192734e-08
44	0x34a46895	3.0623474e-07
45	0x3555bfe2	7.962791e-07
46	0x35dab816	1.6295842e-06
47	0x34a02df0	2.9835746e-07
48	0x3664d595	3.4098969e-06
49	0x34b874d5	3.4357677e-07
50	0x3395356d	6.948071e-08
51	0x348b2d86	2.592389e-07
52	0x34cb2056	3.7835224e-07
53	0x368e75e7	4.2456554e-06
54	0x34614c14	2.0982435e-07
55	0x34da1b33	4.0625454e-07
56	0x35bd0369	1.408259e-06
57	0x35225dc8	6.048617e-07
58	0x351d56f9	5.861362e-07
59	0x35e7cf75	1.7271219e-06
60	0x335ff63b	5.214518e-08
61	0x33785acb	5.7824575e-08
62	0x34bf84db	3.5673187e-07
63	0x35bc396a	1.4023801e-06
64	0x34adbdcd	3.236186e-07
65	0x34726f56	2.257851e-07
66	0x34891856	2.5535945e-07
67	0x36ab899c	5.112217e-06
68	0x35f3772a	1.8139592e-06
69	0x353265cd	6.6458307e-07
70	0x3527ff52	6.258389e-07
71	0x344768f7	1.8571505e-07
72	0x36502057	3.101324e-06
73	0x35f1aed1	1.8006778e-06
74	0x32ad10a0	2.014741e-08
75	0x347fa928	2.3810264e-07
76	0x337e5796	5.9218642e-08
77	0x3690132e	4.2937672e-06
78	0x36275806	2.4936176e-06
79	0x34b64f02	3.3957627e-07
80	0x366c556b	3.521646e-06
81	0x35aca829	1.286394e-06
82	0x3659b62b	3.2441556e-06
83	0x351c5fde	5.8254034e-07
84	0x35a9cb6d	1.2650686e-06
85	0x349101c6	2.7009645e-07
86	0x340887b2	1.2715353e-07
87	0x34c342fd	3.637032e-07
88	0x32c4ebab	2.2924572e-08
89	0x3547393c	7.4216564e-07
90	0x35332f91	6.6751915e-07
91	0x358d5b62	1.0531915e-06
92	0x36532601	3.1463571e-06
93	0x33de5a4d	1.0354106e-07
94	0x34885a23	2.5397557e-07
95	0x35b88fb5	1.3750893e-06
96	0x33ce5dac	9.609661e-08
97	0x32f71221	2.8762829e-08
98	0x34145dbf	1.3817679e-07
99	0x342b039e	1.5926932e-07
100	0x3512fce4	5.475724e-07
101	0x35d35f34	1.5748433e-06
102	0x337c78fc	5.8783357e-08
103	0x339aca99	7.208036e-08
104	0x3380f095	6.004226e-08
105	0x34c13d53	3.599367e-07
106	0x33c53a91	9.1841805e-08
107	0x34d1a721	3.9050886e-07
108	0x338de6b4	6.607789e-08
109	0x33e558e2	1.0679811e-07
110	0x3580a02a	9.583357e-07
111	0x34518393	1.9512508e-07
112	0x34faff4b	4.675188e-07
113	0x354e7d04	7.69229e-07
114	0x352e87dd	6.501776e-07
115	0x35b8fb87	1.3782272e-06
116	0x3685ab2a	3.983635e-06
117	0x354b12b8	7.565063e-07
118	0x3533b616	6.6947666e-07
119	0x35241166	6.112008e-07
120	0x34d798ef	4.0158145e-07
121	0x3542d69d	7.2582935e-07
122	0x36a8e4f1	5.0334424e-06
123	0x35500ec3	7.750752e-07
124	0x356147d7	8.392357e-07
125	0x36e55227	6.8342956e-06
126	0x34956346	2.7825644e-07
127	0x333d8d29	4.4133376e-08
