Assets/results/JumperAgentTest/JumperAgent/JumperAgent-17088.pt (torch, 546980 bytes, 33 tensors)

network_body._body_endoder.seq_layers.0.weight f4 [128, 42]
000000 a8 70 1c bd 63 69 41 3e 0b 21 45 3c 66 26 95 bd
       -0.038193375 0.18887858 0.012031804 -0.072827145
000010 00 e1 6c bc 8a 3a 4e 3e e7 b7 09 3e e7 0b 88 bd
       -0.014457941 0.20139518 0.1344906 -0.06642895
000020 59 f0 5a 3e ae 7a 29 3e 2f 13 a3 3d ca 19 07 3d
       0.21380748 0.16550705 0.07962643 0.03298358
000030 f2 5d b1 3d 75 11 22 3e ae bd 44 3e 1a ab 1c 3a
       0.08660497 0.15826972 0.19212982 0.0005976424
000040 e1 8c 98 3e d2 65 25 3e a4 6b a2 39 7f 15 46 be
       0.29794982 0.16152123 0.00030979246 -0.19344138
000050 83 bc 0a 3e 14 04 0f bb ea db b8 3b f5 8f 65 bd
       0.13548474 -0.00218225 0.00564145 -0.05604549
000060 7f 6d 81 be aa 93 17 3e ee 32 c7 3d 38 1a ab 3c
       -0.2527885 0.14802423 0.09726511 0.020886526
000070 08 0b 77 bd cb cb 69 3e be ee 21 be 29 53 cb bd
       -0.060313255 0.22831647 -0.15813729 -0.09927971
000080 a4 7e 0f be f4 60 39 3d cd 93 c6 3e 26 55 e5 3c
       -0.14013153 0.045258477 0.38784638 0.027994704
000090 ae ec 25 3d ee 6f 4b be cc fd 4c bd ea 56 54 3e
       0.04050892 -0.19866917 -0.050046727 0.2073628
0000a0 cc d6 36 3d 73 61 96 be ae d5 cf 3e 51 18 bd be
       0.04463844 -0.29371223 0.40592712 -0.36932614
0000b0 6c 52 8b bd 29 31 00 be 7f 72 fe bd 9e 04 76 be
       -0.0680283 -0.12518753 -0.12424182 -0.24025199
0000c0 37 02 fb be ab 9e 88 3d 0b d0 e5 bd 03 a3 d5 bd
       -0.49025127 0.066708885 -0.11221322 -0.10431483
0000d0 df 1c ab bc b6 ba 94 bd 84 f4 7e bd de c8 c7 3e
       -0.02088779 -0.07262175 -0.062244907 0.39020437
0000e0 ff 11 47 be da c8 5a 3e c6 ee 2e bd 48 3a 04 be
       -0.19440459 0.21365681 -0.04270818 -0.12912858
0000f0 92 55 25 3e a5 89 1e 3d 26 51 89 3e db 93 55 be
       0.16145924 0.038705487 0.26819724 -0.20857184
000100 75 97 27 bb be f5 43 3e 7a ff db bd b9 32 be be
       -0.0025572453 0.19136712 -0.10742088 -0.37148073
000110 94 aa 0b bd 29 7a b3 bd 63 ac 4c be 0b 67 27 be
       -0.034098223 -0.087635346 -0.19987635 -0.16347902
000120 19 26 7c bb 27 fc ec 3d b4 9a b3 bd 69 26 ae bd
       -0.0038474856 0.11571532 -0.08769742 -0.0850342
000130 75 40 b8 be 82 5f 5f be 59 a4 d4 be 45 3b 2f 3e
       -0.35986677 -0.21813777 -0.41531637 0.17112453
000140 8a fe 28 bd b6 ac f7 3d df df c3 be 5f a6 19 3e
       -0.041258372 0.12093489 -0.38256738 0.15004872
000150 dc 27 95 bd 39 c6 2f bd 1e 25 94 bd 36 c6 dc bd
       -0.07282993 -0.04291365 -0.07233642 -0.10779993
000160 00 96 86 3d d0 06 79 3d 10 cb 48 be 13 3d 25 bd
       0.06571579 0.060797513 -0.19608712 -0.040341448
000170 b8 b8 8b be fe 79 ab bd d9 f5 2e 3e 4d 0b c8 bd
       -0.27289367 -0.083728775 0.17085971 -0.097677805
000180 47 87 e5 bd 29 cb e6 3d c5 13 37 3e 61 79 6c 3e
       -0.11207443 0.112692185 0.17878635 0.23093177
000190 29 57 18 bd 5b 18 7c bd 1c 48 ff bd be e2 1d be
       -0.037192497 -0.061546665 -0.12464926 -0.15418527
0001a0 12 3e 2a be 16 3c 5a be 08 be 2e 3e 74 2f 8d bd
       -0.1662524 -0.21311983 0.17064679 -0.068938166
0001b0 21 5d 33 be 6d 18 f0 bd 7c 24 b3 bd 19 68 7e 3d
       -0.17515995 -0.11723409 -0.08747193 0.062110994
0001c0 ac 2a 9d bd 19 29 d0 be ef 21 7f be 83 3f 8a 3c
       -0.07674155 -0.40656355 -0.24915288 0.016875988
0001d0 60 7d 6c 3e 9f f7 92 3d 33 ff 8d bd f2 94 20 3e
       0.23094702 0.07176136 -0.06933441 0.15681818
0001e0 17 27 fb 3d 89 34 45 bc c3 b2 d1 3c 01 41 10 3e
       0.12263315 -0.012036451 0.025597936 0.14087297
0001f0 c9 2c 40 3d 62 08 47 be 03 dd 9b 3d 3b ba 66 3e
       0.04691771 -0.19436792 0.07610514 0.22531979
000200 a8 e8 50 bd 7b ec 04 3e 80 7c ec bc 19 0f 83 3d
       -0.05100313 0.12980835 -0.02886796 0.06399364
000210 ac 67 2c be e2 bf 3f be 52 2b ce bb 30 4b 91 3d
       -0.16836423 -0.18725541 -0.0062917853 0.07094419
000220 8d d7 ae bd 6b 2b 56 be 62 9a 28 be 1c 81 e7 bd
       -0.08537207 -0.20915 -0.16465142 -0.113039225
000230 bd 0f 12 bb 91 39 5b 3c e7 48 00 be 64 cb bf bc
       -0.0022287213 0.013380424 -0.1252781 -0.023412414
000240 68 37 38 3e 9b 93 e0 bd c4 43 b9 bc 04 c2 57 be
       0.17989886 -0.109656535 -0.022615321 -0.21070105
000250 42 41 b6 bd 62 6b ef 3d db c4 91 3c ba 70 95 bc
       -0.08899166 0.116904035 0.017794063 -0.018242229
000260 38 9e d8 bd 1e 0f 8c be 8b 86 b1 bd ff 38 1c 3d
       -0.10577053 -0.27355283 -0.0866824 0.038140293
000270 68 1f 1a 3e ef ef 57 3e 0d e0 80 3d ff c7 90 ba
       0.15051043 0.21087621 0.06292734 -0.0011045932
000280 93 86 8f bb 55 8e 90 bd d4 61 3b be 07 a0 10 be
       -0.004380056 -0.07058398 -0.18299037 -0.14123546
000290 9f b5 2a 3e 93 7a 0a bd 37 6c 5b be 32 57 93 be
       0.16670845 -0.033808302 -0.21428 -0.28777462
0002a0 83 16 1a 3e 46 43 71 3e c3 81 5f 3d 20 9f be bd
       0.1504765 0.23560819 0.05456711 -0.093076944
0002b0 1f db cf 3d 2c 90 ac ba a1 21 a8 bd 89 e1 e5 bd
       0.10149216 -0.0013165525 -0.08209539 -0.11224658
0002c0 c6 5f 26 3e f5 97 18 be 23 03 08 be fb 57 95 be
       0.16247472 -0.14901717 -0.13282447 -0.29168686
0002d0 a2 ec 07 3e 1d 0e 72 be 0e bb 9f bd 41 26 d6 bc
       0.13273862 -0.23638196 -0.0779935 -0.026141288
0002e0 40 72 31 3d dc 73 88 3e 07 a8 91 3d 57 de 50 be
       0.043321848 0.26650894 0.07112127 -0.20397316
0002f0 8a 92 64 be bd 70 05 3d 8e 80 53 be 58 8b cb bd
       -0.22321525 0.03257822 -0.20654508 -0.09938687
000300 fa be 9e bd d1 71 8a be fd 09 9e bc 6c 89 eb bd
       -0.0775127 -0.2703996 -0.019291872 -0.115008205
000310 a9 1f b6 bd f2 1d 27 be e0 5c ed bd 75 89 ac 3d
       -0.088927574 -0.16320017 -0.1158998 0.08424655
000320 ce c4 1c bd 15 98 2f be 36 f6 d5 3d 62 4b a9 bd
       -0.038273625 -0.17147858 0.10447352 -0.08266331
000330 89 11 4f be 3a cd 18 be d5 b3 8d 3d 2a 54 81 3e
       -0.20221533 -0.14922038 0.06919066 0.25259525
000340 ef 22 37 3d 5a 00 03 be 72 48 13 bd 0c c8 13 be
       0.04471105 -0.12793103 -0.03595776 -0.1443178
000350 09 04 e7 3c 0d d4 00 3e 74 3d c9 bd ca 04 17 be
       0.028200166 0.12580891 -0.098261744 -0.1474792
000360 37 f3 0c 3d 00 aa 36 be cd ac 83 3c 85 66 d9 3b
       0.034411635 -0.17838287 0.016073609 0.0066345357
000370 78 29 08 bd 47 f8 13 3e bd 74 63 bd cf a8 b6 be
       -0.033242673 0.14450179 -0.055531252 -0.35675666
000380 1a 0a 1b be 0c f8 7a bd d7 46 9f 3e c4 17 c7 bd
       -0.15140572 -0.061271712 0.31108734 -0.0972133
000390 7a fe 0c be c4 55 25 3d 0d c2 0e 3c 38 d6 18 be
       -0.1376895 0.040364996 0.0087132575 -0.14925468
0003a0 d6 01 1b bd 10 4f 11 3e 00 22 fb 3c 7d 87 97 3e
       -0.037843548 0.14190316 0.03065586 0.29595557
0003b0 8d d0 e5 3d f3 5a 5c 3e 8d 1d 78 3e 15 15 18 3e
       0.112214185 0.2151907 0.24230023 0.14851792
0003c0 f3 a4 2f bc 4c 90 d9 3c 39 0d 0c be 3e 0e 0c 3e
       -0.010720479 0.026558064 -0.13676919 0.13677308
0003d0 a5 79 13 3d 4c ea 05 3d 1e 14 3c 3d 74 9a 21 3e
       0.03600468 0.032694146 0.045917623 0.15781575
0003e0 fa bf 86 3d fc da 8c 3e c7 93 62 be e6 17 17 be
       0.065795854 0.27510822 -0.22126685 -0.1475521
0003f0 ee 28 d4 3c 3d 44 18 3d 53 b3 9b be c5 98 2e be
       0.025898423 0.037174452 -0.3041025 -0.17050464

network_body._body_endoder.seq_layers.0.bias f4 [128]
000000 bd b6 0d 3c 33 cf 76 bd 71 91 0e bd 7d e0 18 bd
       0.008649525 -0.060256194 -0.034806672 -0.037323464
000010 42 49 97 bc e1 e5 82 ba 27 f5 f9 bb 69 86 ec 3c
       -0.01846755 -0.0009986722 -0.0076281014 0.028872686
000020 21 57 87 3c 2c fa 9b bc 92 dc c2 3c 5f 19 86 3c
       0.016521038 -0.01904019 0.023786817 0.01636952
000030 7f 3c 8f 3c 3e 10 06 3d eb 52 08 38 e3 83 6f bc
       0.017484901 0.032730334 3.250215e-05 -0.014618847
000040 37 7e af 3c 39 cd 74 bc b8 87 65 bd c2 00 1e bb
       0.021422489 -0.014941507 -0.056037635 -0.0024109338
000050 0d 66 c0 bc bf 63 a7 3b 13 86 10 bd 99 1f 38 bc
       -0.023486162 0.005108326 -0.035284113 -0.011238002
000060 1e 14 99 3c b0 39 24 3d 21 59 13 bb 51 a2 84 bc
       0.01868635 0.040094078 -0.0022483545 -0.01619068
000070 ec 66 e2 bc b0 9d 51 3c bc 70 03 3d e8 d5 ea bc
       -0.027636968 0.012793943 0.032089934 -0.028666452
000080 5f 53 fd 3c ae ba 23 3d 33 89 59 bc dc 18 0e bd
       0.030923543 0.039972953 -0.01327734 -0.034691676
000090 ac 69 b7 3c b9 ea b0 3c 1e 29 d3 bc dd 37 67 bc
       0.022389255 0.0215963 -0.025776442 -0.01411244
0000a0 11 33 09 bc 38 84 b1 3c 14 01 b8 bc e6 6f c9 3c
       -0.008373992 0.021669492 -0.022461452 0.02458949
0000b0 a2 14 2c bc 96 87 84 3d fe fc ce 3c 2a a4 01 3d
       -0.010502966 0.064711735 0.02526712 0.0316507
0000c0 bb 64 ef bb 82 99 83 bd ce 32 fc bb e2 0e d3 bc
       -0.007305709 -0.06425764 -0.007696486 -0.025763933
0000d0 21 0b 28 bc b1 f5 47 3d e2 f2 74 bc cf 7f d8 3b
       -0.01025656 0.048818294 -0.014950486 0.006607033
0000e0 b3 fd 2c bd 9b c2 10 bc 29 d0 dd bc a8 51 80 bc
       -0.042234134 -0.00883546 -0.027076798 -0.015663937
0000f0 93 a3 4c 3c 16 74 3e 3d be e6 04 3d f7 a5 75 3d
       0.012490171 0.046497427 0.032446615 0.05997273
000100 22 b7 05 bc af 6c 81 bc e2 52 09 bb 9d 58 5e 3d
       -0.008161338 -0.015798895 -0.0020953943 0.054283727
000110 9a 72 9c 3b be 63 64 3c 0a fa f6 3c a1 ef 1c 3b
       0.0047744038 0.013939796 0.030148525 0.002394654
000120 b6 4e d4 bc a7 c1 2e 3c 40 ed 70 bd 16 fb 3d bd
       -0.025916439 0.0106662875 -0.05882001 -0.046382032
000130 20 6e 40 3d 25 7a 23 3b f8 f1 2b 3c 53 d2 6c 3c
       0.046980023 0.002494463 0.010494702 0.014454442
000140 57 ec 21 3d a0 a7 87 3c d5 aa dc 3c 86 45 72 bc
       0.039532032 0.016559422 0.026936928 -0.0147870835
000150 90 9c 54 3c ed 92 6b 3c ca 66 c8 3c 6a 3f 35 3d
       0.0129767805 0.014378292 0.024463076 0.04424993
000160 08 c5 16 3d 4c cb 05 3b 23 f7 5a 3d cb 5e c6 bb
       0.036808997 0.0020415364 0.053458344 -0.0060537807
000170 f6 5a cf 3c 40 a8 8d bb 79 56 97 bc e1 2b 20 bc
       0.025311928 -0.0043230355 -0.01847385 -0.009776087
000180 1b d5 23 bc 52 c6 01 bb c7 f4 d5 3c 8a 62 b1 bc
       -0.009999539 -0.0019802046 0.026117695 -0.021653432
000190 ab e2 eb 3c d7 96 1e bc f1 16 62 bc 06 dc dc 3b
       0.028794607 -0.009679518 -0.013799415 0.006740096
0001a0 71 ec 9a 3c 4b fc 8b bb 5a a7 09 3d b7 61 fb bb
       0.018911572 -0.004272019 0.033606865 -0.0076715606
0001b0 48 fc e2 3b d2 36 3a bc ad 00 1c 3d 5e 7f 53 bc
       0.006927047 -0.011365609 0.038086582 -0.012908785
0001c0 99 22 83 bb 9f 01 0b 3c fb e7 0d 3d d5 94 d6 3c
       -0.004001927 0.008484273 0.034645062 0.026194016
0001d0 b7 01 d9 3c 00 35 c5 bb 9b 88 07 3d f8 63 4c 3b
       0.026490076 -0.006018281 0.03308926 0.0031187516
0001e0 94 db df 3b 24 1f 38 bc b7 22 81 3c 89 66 58 3b
       0.0068315957 -0.011237893 0.015763624 0.00330201
0001f0 e1 2c f4 3c 96 38 a6 3c 27 14 31 3d 7a ee 2f 3d
       0.029806556 0.020290654 0.04323211 0.04295204

network_body._body_endoder.seq_layers.2.weight f4 [128, 128]
000000 2a 02 66 3d b1 23 38 be 4b 9f 01 be 3a d1 da 3c
       0.056154408 -0.17982365 -0.12658422 0.026711095
000010 2d 6c 66 bd c0 ef 79 bd 00 6a fb 3c b4 19 7d 3e
       -0.05625551 -0.06101966 0.030690193 0.24716836
000020 bb 95 08 be 40 9b 3f bd 8e 71 10 3c 22 ee 34 bd
       -0.13338368 -0.046778917 0.008816136 -0.044172414
000030 ed a1 96 3d e6 a7 a5 3d 4d b2 42 3e ad d2 bb bc
       0.07355104 0.08088665 0.19013329 -0.022927606
000040 c8 78 2f 3d 08 23 37 3d 26 41 e6 3d aa c9 6b bc
       0.042839795 0.044711143 0.11242895 -0.014391342
000050 5d a1 c4 3d 8c 35 e1 3d 34 a6 7b bd a6 e5 8f bd
       0.0960109 0.109965414 -0.0614378 -0.07026224
000060 40 5a 34 bd 40 c5 92 bd 3a 30 34 be 7c d6 62 bd
       -0.04403138 -0.07166529 -0.17596522 -0.05538033
000070 62 6d a6 3d 86 e8 08 3e 2f 17 b1 3c 6f 9f 53 be
       0.08126332 0.1336995 0.0216175 -0.20666288
000080 68 d4 63 3c 9e 9a cb 3d 0b 36 df 3c d1 48 15 3e
       0.013905622 0.099416 0.02724745 0.14578559
000090 d6 c8 fa 3d 8c 25 10 3c 2a 21 6a bc de 50 fa bd
       0.12245338 0.008798014 -0.0142901335 -0.122224554
0000a0 61 47 4a be 4b 9c 9a 3c 0b 94 54 bd f1 7d 9d bd
       -0.19753791 0.018873354 -0.051898997 -0.07690037
0000b0 09 56 9b 3c ae 1f cd 3d 18 fc 00 bc fe a3 db bd
       0.018961923 0.10015808 -0.007872604 -0.107246384
0000c0 f7 89 9f 3c 58 55 fa bc b6 dd 73 3d 85 f4 be bd
       0.019474966 -0.030558273 0.059537612 -0.09323982
0000d0 79 1f 3d bd 86 3a 81 3d 72 b2 65 be 24 81 26 be
       -0.046172593 0.063099906 -0.22431353 -0.162602
0000e0 7f 2c ce 3d 43 2e 03 3e 60 49 b7 bd d8 d3 64 3c
       0.10067081 0.12810616 -0.08949542 0.013966523
0000f0 1e 8b 3c bc c4 8d c5 3d 3a ff 97 bc 0b e2 14 bb
       -0.0115077775 0.0964618 -0.018554319 -0.002271774
000100 80 c4 ee bd c9 c2 95 3d 0c 4c 8f 3d 49 1f de 3c
       -0.11658573 0.07312543 0.06996927 0.027114527
000110 45 b5 95 3d 3e b8 54 be bc 5a 60 bd 6f 7c 09 be
       0.07309965 -0.20773408 -0.05477403 -0.13426374
000120 15 d1 90 bc 51 d3 40 3d 55 ac c1 3c 5e 66 e3 bc
       -0.017677823 0.047076527 0.023641745 -0.027758773
000130 65 98 7e 3e 8a 5b ac bc 4a bb d1 3c 30 3b cb bc
       0.24862821 -0.021039743 0.025602002 -0.024808496
000140 c4 08 4f 3c 64 19 33 3c 6d 5a b5 3d 30 f8 b6 3d
       0.012636367 0.010931347 0.08855138 0.08934057
000150 e8 0f 4d 3e 8e ad a1 3b a6 ab 85 3d b8 2e 31 3d
       0.20025599 0.0049340194 0.0652688 0.043257445
000160 85 1d e6 3d 54 d4 18 3d ea ea 3a 3e 27 aa a0 3b
       0.11236099 0.037311867 0.18253675 0.0049030962
000170 bf 58 9b 3c 56 21 3a be 3d 29 a0 bc 6a a0 2b 3d
       0.018963216 -0.18176779 -0.019550914 0.04190103
000180 f5 f4 5a ba ed 3e 8f 3d dc 3e 79 3d 6f 5a fa bd
       -0.00083525415 0.06994424 0.060850963 -0.1222428
000190 cc d8 03 3c 2e 71 6f 3d 52 4a 28 3e 77 96 72 3d
       0.008047294 0.058457546 0.16434601 0.059225526
0001a0 15 c7 02 3e c5 b7 9b bd 09 0a 4b bd b8 76 10 3d
       0.12771256 -0.07603411 -0.049570117 0.03526947
0001b0 43 5e 49 3d a9 45 35 bd a5 56 33 bb 66 aa 09 3e
       0.04916216 -0.044255886 -0.0027364877 0.13443908
0001c0 9b b6 7b 3d a7 a8 b4 3c d5 24 7c bc d3 4d 93 3d
       0.061453443 0.022053076 -0.015389641 0.07192578
0001d0 bd 95 ec 3d b9 19 1a bd ed 34 a3 3d 4a 5f ee bd
       0.11551998 -0.037622187 0.07969079 -0.11639269
0001e0 5c f2 b6 3d c9 53 50 be 6c b9 1c 3e 72 eb e5 bd
       0.08932945 -0.20344462 0.15305108 -0.11226548
0001f0 e7 2f 49 bd 64 84 4e 3e 0d 29 60 bd 78 d9 03 3e
       -0.04911795 0.2016769 -0.05472665 0.12875926
000200 b9 76 90 3d 46 c7 0b 3e 05 f1 20 bd 13 80 b9 bc
       0.070538945 0.13650236 -0.039292354 -0.022644078
000210 8b ec 45 be cc 29 58 bd 16 0d de 3d 62 b0 12 bd
       -0.19328515 -0.052774236 0.1084234 -0.035812743
000220 66 28 05 3c 7e bc 64 bd 8c 98 6e 3d 18 57 b1 3c
       0.0081273075 -0.055843823 0.05825095 0.021647975
000230 c6 32 b1 3d ee 8b ab 3d 69 3a ab 3c 52 50 91 3d
       0.086522624 0.08376299 0.020901876 0.07095398
000240 ee b6 06 bd 99 1b a9 3c a3 29 35 3e ab f2 60 3a
       -0.0328893 0.020643042 0.17691664 0.0008581082
000250 c8 c0 4d bc 76 11 3c be 38 1d 32 bd 2f fb a4 bc
       -0.01255817 -0.18366036 -0.043484896 -0.020139305
000260 46 14 16 3e 54 d2 8a bd 0c d4 be bd b6 c4 08 bd
       0.14656171 -0.06778398 -0.093177885 -0.033390723
000270 94 1b 0c 3d 57 db e8 3d c5 96 28 ba e6 c2 50 bc
       0.034205988 0.11369961 -0.0006431158 -0.01274178
000280 06 49 97 3c 79 ba a7 3d ac 9f 48 3e 3f cb 37 be
       0.018467437 0.08189864 0.1959216 -0.17948626
000290 e4 4e da bc 5f cc 9a bc 29 2d 05 3b d2 1f 05 be
       -0.026648946 -0.01889628 0.0020321107 -0.1300042
0002a0 83 25 56 bd 20 54 87 3d 41 47 64 3a 13 21 30 3d
       -0.052281868 0.066078424 0.00087081274 0.043000292
0002b0 86 24 85 3c 2c e8 72 3e 82 9f b3 bd ad 27 92 3c
       0.016252767 0.23721379 -0.08770658 0.017841185
0002c0 e0 4b 04 3e 98 4c b1 3d fc 53 ab bc d7 65 df bd
       0.12919569 0.08657187 -0.02091407 -0.10908096
0002d0 53 86 8d bb 16 26 d3 3d 6a b4 11 bd 95 19 03 be
       -0.004318991 0.10309999 -0.035572447 -0.12802728
0002e0 24 36 c4 bd 37 cb ab 3d 98 a0 f6 3d 91 2d 96 bd
       -0.09580639 0.083883695 0.120423496 -0.0733291
0002f0 c3 dd b0 bd 87 de 36 3e 25 f8 de 3d c2 d0 40 3e
       -0.08636048 0.17858325 0.108871736 0.18829635
000300 8f 3b d2 bd db 74 e9 bd 78 b3 72 3c a8 f0 df bc
       -0.10265266 -0.113992415 0.0148132965 -0.027336434
000310 c2 43 58 3e 20 98 72 3d 5e 1d ba ba 08 35 eb bd
       0.21119598 0.05922711 -0.0014199426 -0.11484724
000320 e7 a9 7a be af 49 ae 3d f1 e2 d2 bd a1 3f ab bd
       -0.24478875 0.08510148 -0.10297192 -0.083617456
000330 5b 3e 27 3e ce fd ea bd 69 f0 b4 3b 0c 79 20 3e
       0.1633238 -0.11474191 0.005521823 0.15671176
000340 28 25 aa 3b c3 17 cb bd 31 eb 9e 3d 97 7f 87 3d
       0.0051924177 -0.099166416 0.07759703 0.06616133
000350 07 19 07 3e d7 68 30 3e 8c bf 49 bc 1e d8 19 bd
       0.13193141 0.17227493 -0.012313735 -0.03755962
000360 5e a9 06 3d 6b 61 da bc 00 05 4e 3c cf 3a bf 3d
       0.032876365 -0.02665778 0.012574434 0.09337389
000370 18 54 60 3e 12 db 30 bd ef c3 d8 bd db d6 b0 bc
       0.21907079 -0.04317767 -0.10584246 -0.021586826
000380 66 ca 94 bd 8b f3 e7 3c 7e 92 9c 3d 42 31 23 be
       -0.07265167 0.028314373 0.07645129 -0.15936759
000390 5e cf 1b be 09 70 9d bd 67 94 b7 3d 0a 23 e3 3d
       -0.15215823 -0.07687385 0.089638524 0.110906675
0003a0 65 f9 f4 bd 3c 6e ca 3c 62 3b 7f 3d ac f0 9a 3d
       -0.11961631 0.024710767 0.06231249 0.07565436
0003b0 e3 7e f8 3c ec 9f c5 bd b7 12 eb 3d 24 af 81 3d
       0.030333942 -0.09649643 0.11478179 0.063322335
0003c0 89 97 36 be 54 fc 07 3d 14 46 ed bd c3 dd 60 bd
       -0.17831244 0.033199623 -0.11585632 -0.05489899
0003d0 87 d5 45 3d 20 3f de bc e1 57 ad bd a8 c1 f1 bd
       0.04829934 -0.02712971 -0.08464027 -0.11804515
0003e0 22 a8 32 3e 2a 76 ef 3c 10 f3 b3 bc 7e 74 ce bc
       0.1744695 0.02923115 -0.021966487 -0.025202032
0003f0 f8 56 84 bd 36 4d bf bd 9b 54 d6 bc 3b 5a 09 3e
       -0.064619005 -0.09340899 -0.02616339 0.13413326

network_body._body_endoder.seq_layers.2.bias f4 [128]
000000 45 9f 0e 3d ed cf 0f 3d 09 3d 2e 3c 81 24 a3 bc
       0.03481986 0.035110403 0.010634669 -0.019914867
000010 75 80 82 b9 90 e5 57 bc 4e 78 d5 3c e0 81 cc bc
       -0.0002489124 -0.013177291 0.026058342 -0.024964273
000020 a7 6c 26 3a 81 14 03 3d dd 15 2c 3c 4a 5f 9d bc
       0.0006348588 0.032001976 0.0105032595 -0.019210476
000030 03 2d e8 3c a1 ef 41 3c 13 48 45 3c 0c 19 2c 3d
       0.028341776 0.011836917 0.01204111 0.042016074
000040 7e e3 7a bc 7a 35 b7 bc 1e 87 23 3d d8 7e c6 bc
       -0.015313027 -0.022364367 0.03992378 -0.024230406
000050 3c 71 8f bb 05 ed a1 3b 36 83 28 3c 7f 7b cc bc
       -0.0043775123 0.004941585 0.010285189 -0.024961231
000060 88 73 1d 3d e6 52 e4 3c 52 7a cc bc 01 61 bc 3c
       0.038440257 0.02787156 -0.02496067 0.022995474
000070 cb be 76 bc 89 3c d2 3c 31 a2 1b 3d d7 0d fc 3c
       -0.015060137 0.025663631 0.037996475 0.030768318
000080 2b 1c c1 bc 84 a5 63 bb c7 a4 ea 3c df 32 31 bc
       -0.023573002 -0.0034736106 0.028643025 -0.010815351
000090 a5 9d 87 bb 59 f3 2a bc 78 36 1a bc b3 b6 b6 bc
       -0.0041386657 -0.010433995 -0.0094124 -0.022303915
0000a0 b6 75 8f 3c f1 2e eb bc c8 71 03 3d b3 43 c8 bc
       0.017512184 -0.028708907 0.032090932 -0.024446344
0000b0 bc d9 08 3d 56 32 25 bc 18 e8 3c 37 43 1a d8 3c
       0.033410773 -0.010082802 1.1259712e-05 0.02637971
0000c0 de fb 06 bd d1 3c 29 3c fd 0b 3e 3d 19 7a 75 bc
       -0.032955043 0.010329441 0.04639815 -0.014982724
0000d0 44 08 d4 3c a6 8d 5e 3c c0 50 dc bc d6 23 d7 bc
       0.025882848 0.013583576 -0.026893973 -0.026262205
0000e0 2b 3e 07 3d 79 6c f9 bc 1d c1 93 bc 69 96 bc bc
       0.033018272 -0.030447232 -0.01803642 -0.02302094
0000f0 f1 aa f4 bc 62 00 8f 3c 5e d3 24 bc c3 21 27 bd
       -0.029866667 0.017456237 -0.0100601595 -0.040803682
000100 72 5c 1f 3d 2e 3b 7c 3c 1a 3a 81 3b 3b 01 02 3d
       0.038906522 0.015394969 0.003943694 0.031739455
000110 fb e1 6a bc 5e b4 40 3c 79 03 88 bc f2 53 2b 3c
       -0.0143361045 0.011761753 -0.016603218 0.010457026
000120 0d 14 cb 3c 63 f8 b6 3c be d8 12 3d 68 48 99 bb
       0.024789834 0.022335237 0.035851233 -0.004677821
000130 40 54 fd bc 95 42 4a bb be a7 5d bc 8c e5 0e 3d
       -0.030923963 -0.003086244 -0.013528762 0.03488688
000140 61 06 3d 3d 3a cb 03 bd 15 c8 14 3d e8 3f 7f bc
       0.04614866 -0.032176234 0.036323626 -0.015579201
000150 b1 8d f0 3c 4a ad 23 bc e1 85 22 3d 75 c4 a5 bc
       0.029364439 -0.009990046 0.039678458 -0.02023528
000160 23 4b 8f 3a a2 bb 64 bc ba a8 1f 3d 3d a7 7f 3b
       0.0010932427 -0.013960751 0.03897927 0.0039009594
000170 56 c4 73 bc a5 f8 90 3c e3 79 a2 3c 13 f6 84 3b
       -0.014878353 0.017696688 0.01983351 0.0040576546
000180 dc 2c 02 bc 53 c7 31 3c 8c 53 c4 3c 73 e0 c9 3c
       -0.007945266 0.010850745 0.02396562 0.024643159
000190 36 8e a9 bc cc 74 a4 bc 25 45 9b bc 45 77 37 bc
       -0.020697694 -0.020075224 -0.01895387 -0.01119787
0001a0 6a 0a 27 3d f3 d0 af 3b ca 6d 59 bc a9 d8 03 3b
       0.040781416 0.005365485 -0.013270805 0.0020118153
0001b0 bc 4e d3 3c 16 f2 e8 bc ca 28 a3 bc f4 7a 43 bc
       0.02579438 -0.028435748 -0.01991691 -0.01193117
0001c0 1b 13 b9 bc fe a8 86 3c d2 c8 0b 3d c2 b0 d4 3b
       -0.022592118 0.016438004 0.034127064 0.0064907977
0001d0 8f e4 b7 3c a2 dc 4a 3b 89 cc bf bc 5e dd 04 3d
       0.022447852 0.0030954261 -0.02341296 0.032437675
0001e0 23 2a 17 bc c2 cd b4 3a 5c fb 14 3d e2 c7 cb 3c
       -0.009226355 0.0013794231 0.036372527 0.024875585
0001f0 0e b5 92 3c 73 36 37 3d 27 7a 1f 3d 03 d1 2f 3d
       0.0179086 0.04472966 0.038934853 0.04292394

action_model._discrete_distribution.branches.0.weight f4 [2, 128]
000000 51 98 6d 3d e5 17 14 3d 3a 3e 2b bc 40 bb 36 bd
       0.05800659 0.0361556 -0.010451848 -0.04461217
000010 e8 15 4c 3c 30 a8 1d bd 8e ac 05 3d f8 c7 46 bd
       0.012456395 -0.038490474 0.032635264 -0.04853055
000020 18 55 81 bc d1 99 4c 3d 20 fb 83 3a 82 e6 ef bc
       -0.015787646 0.04995138 0.0010069348 -0.02928472
000030 63 7d e5 3c e1 8b e2 3c c0 40 b9 3c c1 2b 35 3d
       0.02801389 0.02765459 0.022613883 0.04423118
000040 d2 6b 8b ba 21 c6 08 bd 70 9e 81 3d fb e7 c7 bc
       -0.0010636991 -0.033392075 0.06329048 -0.02440261
000050 73 5b e0 bc 36 68 31 bc 68 b2 b9 3c 97 aa 26 bd
       -0.027387356 -0.0108280685 0.022668079 -0.04069003
000060 bd e0 56 3d 67 8f f6 3c 74 b5 02 bd b8 74 9a 3c
       0.05246042 0.030097676 -0.03191133 0.018854484
000070 93 e6 33 bd 79 2b 72 3d 4b 2e 74 3d 75 ad d8 3c
       -0.043921065 0.05912349 0.05961446 0.026449898
000080 dc 23 f6 bc 26 fb 0f bd 2d e3 09 3d 11 6b 40 bd
       -0.030046396 -0.035151623 0.033663917 -0.046977106
000090 84 12 2d bc bd 17 12 bd 1e f5 21 bd 97 e4 29 bd
       -0.0105634965 -0.03566717 -0.039540403 -0.041477766
0000a0 97 3d 02 bb 4e 3e df bc be e0 31 3d 40 b8 08 bd
       -0.0019873136 -0.027251389 0.04342722 -0.03337884
0000b0 39 08 1b 3d 7e 44 80 bc 65 1e 3b bd 56 b8 b8 3c
       0.03784964 -0.01565766 -0.045683283 0.022548836
0000c0 82 61 e8 bc 4c 25 7c 3b a9 8b 91 3d 3a 3d a8 bc
       -0.028366808 0.003847438 0.07106716 -0.020537008
0000d0 99 81 87 3c 73 2a b0 3c c5 a0 f0 bc 96 90 30 bd
       0.01654129 0.021504616 -0.029373536 -0.043106638
0000e0 1a b9 08 3d ed 87 b5 bc b5 46 30 bd 15 fe 40 bd
       0.03337965 -0.022159541 -0.04303618 -0.04711731
0000f0 39 ae ce bc ea 48 dc 3c c4 3f 60 bd bb 35 eb bc
       -0.02522956 0.026890237 -0.05474831 -0.028712144
000100 5e f9 76 3d b6 72 ca 3c 50 7a 04 3c 70 ce 47 3d
       0.06029641 0.024712902 0.008085802 0.04878086
000110 a9 80 01 bd 12 6e f5 3c 7e 69 d3 bc c5 aa 4f 3b
       -0.03161684 0.029959712 -0.025807139 0.003168748
000120 94 f4 ce 3c 9f 1e 86 3c 55 93 28 3d cd b8 ce bc
       0.025263108 0.016372023 0.04115613 -0.025234604
000130 e5 33 3e bd 1d ec c5 3c 11 4a fe bc ea 33 30 3d
       -0.04643621 0.02416044 -0.031041177 0.04301826
000140 26 50 5f 3d 94 59 fb bc 67 21 65 3d ff 19 bb bc
       0.054519795 -0.030682363 0.055940058 -0.022839544
000150 c3 f9 3e 3d de 3d b8 bb 9d 06 41 3d 53 44 8a bc
       0.04662491 -0.0056226095 0.047125448 -0.016878283
000160 5d 2f 19 3d c2 46 0e bd fc b1 7d 3d 1c ea 92 ba
       0.037398685 -0.03473545 0.061937317 -0.0011208686
000170 00 55 d4 bc 36 0e 7e 3c 5d 30 20 3d 7b 07 0b 3d
       -0.025919437 0.015506318 0.039108623 0.03394268
000180 54 2d 88 bc aa 48 37 bc e5 57 9e 3c 40 4d 46 3c
       -0.016623177 -0.011186758 0.01932902 0.012103379
000190 d8 3f 18 bd 8d c0 66 bd 07 66 cb bc 2b d3 3b bc
       -0.03717026 -0.056335974 -0.024828924 -0.011463921
0001a0 d8 ab 5c 3d af 01 e2 3b c9 ea 45 bd c4 e9 bd 3c
       0.05387482 0.0068971734 -0.04831961 0.023182757
0001b0 27 18 a1 bb ea 69 99 bb 20 a8 c1 bb 75 ed f0 bc
       -0.0049162093 -0.0046818154 -0.0059099346 -0.029410103
0001c0 2a 1a 50 bd b7 a1 d6 3c 4e 14 27 3c 3e ea 78 3c
       -0.050806202 0.026200159 0.010197712 0.015192566
0001d0 3c f9 29 3d d9 3b 4e 3c 9e 4e 59 bd f7 7c fa 3c
       0.041497454 0.012587511 -0.05305349 0.030577166
0001e0 12 dc b5 ba 39 a5 f3 bc 1b f7 3e 3d 30 28 50 3c
       -0.001387479 -0.02974187 0.046622377 0.012704894
0001f0 e5 5e 11 3d bc 89 69 3d a9 6c 54 3d 4a c5 9b 3d
       0.03549089 0.05701612 0.05186144 0.07605989
000200 47 24 39 bd 66 07 36 bd 02 32 6d 3c 18 b3 41 3d
       -0.045200612 -0.04444065 0.014477255 0.047289938
000210 f5 7c 9b bb 6d 0c d8 3c 3e 47 0c bd 56 ad 37 3d
       -0.0047451206 0.026373113 -0.03424763 0.04484304
000220 f5 68 09 3d 4e a5 0d bd 42 a4 08 bc c3 78 8b 3c
       0.03354736 -0.034581475 -0.008339943 0.017025357
000230 c2 36 d8 bc 50 3d b9 bc 73 32 3c bc e4 04 5a bd
       -0.026393298 -0.022612244 -0.011486637 -0.05322732
000240 9d bc cb 3c a3 dc 28 3d 77 db 92 bd a0 8b 8f 3c
       0.024870211 0.04122604 -0.07170766 0.017522633
000250 e0 d5 b0 3c c7 b8 7a 3c ab 5c 43 bc d1 77 5a 3d
       0.021586359 0.015302843 -0.011923949 0.053336922
000260 09 25 3e bd f3 d8 f8 bc 6d 2c 05 3d b8 c1 ea bc
       -0.04642204 -0.030376887 0.03251307 -0.028656825
000270 2c 02 08 3d 66 63 1f bd 63 4e 5a bd 19 22 19 bd
       0.033205196 -0.038913153 -0.05329741 -0.037386034
000280 43 66 ee 3c 7a 2b a8 3c 75 ce 0d bd 8c bc 1b 3d
       0.029101497 0.020528544 -0.03462072 0.03802161
000290 85 c3 01 3d a1 34 e0 3c a5 2f ec 3c 5f ed aa 3c
       0.031680603 0.027368845 0.028831312 0.02086514
0002a0 fb fd 24 bb 2e 04 78 3c f8 97 e4 bc 35 0b d0 3c
       -0.0025175798 0.015137715 -0.027904496 0.025395969
0002b0 73 3c 07 bd 62 24 a6 3c 7b 7c 20 3d 76 7e 03 bd
       -0.033016633 0.02028102 0.039181214 -0.032103024
0002c0 fb 6f de 3c 61 0a 95 bc 02 d4 89 bd 08 44 68 3c
       0.027153006 -0.018193426 -0.067298904 0.014176376
0002d0 f4 c8 1f bc 2d 7b d8 bc 14 8f 1a 3d 20 7f 1e 3d
       -0.009752501 -0.026425922 0.037734106 0.038695455
0002e0 10 47 72 bd c8 88 1c 3d ae d0 52 3d d6 8d 37 3d
       -0.0591498 0.038216382 0.051468544 0.044813
0002f0 8d 52 e6 3c 03 8b 2d bd 68 59 63 3d c3 58 94 3c
       0.028115535 -0.0423689 0.055505186 0.018108731
000300 55 5d 6b bd 57 94 d5 bc f5 09 32 bc 51 8b 07 bd
       -0.057462055 -0.02607171 -0.010866632 -0.033091847
000310 54 49 b0 3c a3 b2 f5 bc 6c 72 e4 3c c5 54 7b bb
       0.02151934 -0.029992407 0.027886592 -0.0038350087
000320 a9 ec e9 bb 2b d3 6f bc 16 39 37 bd c8 df 0c bc
       -0.007138808 -0.014637749 -0.044732176 -0.0085982755
000330 02 e5 0d 3d f1 aa 7f bc 8f a7 ac 3c 75 5f 66 bd
       0.034642227 -0.01560472 0.021075992 -0.05624338
000340 7a cc 7b bd 42 a0 0b 3d 70 8b 3b bd 4f d9 01 3d
       -0.0614743 0.03408838 -0.045787275 0.031701382
000350 bd 5f 29 bd df f3 21 3a 6c c0 7e bd db f6 36 3b
       -0.04135107 0.0006178002 -0.062195227 0.0027918133
000360 62 05 a3 bc 8e 37 46 3c 51 cb 60 bd f2 3a 9d bb
       -0.019900028 0.012098206 -0.054881398 -0.0047982866
000370 7c c4 c0 3c 92 9d 0f bc 5f 46 df bc 1e 93 a0 bc
       0.023531191 -0.008765595 -0.027255235 -0.019601401
000380 5c 10 ba 3c 86 30 e9 3a 33 f3 ea bc a6 25 b9 bc
       0.022712879 0.001779095 -0.02868042 -0.02260096
000390 01 4a 01 3d ce 57 2b 3d bb e0 a1 3c 64 bc 78 3c
       0.031564716 0.041831784 0.01976048 0.015181635
0003a0 76 69 4b bd 88 0e ce 3c 56 c7 0e 3d e3 09 f4 bc
       -0.049661122 0.025153413 0.03485807 -0.02978987
0003b0 dd 6f 6d bc 4c 82 68 3c ed 54 54 3d eb d4 df 3c
       -0.014492002 0.014191221 0.051838804 0.027323207
0003c0 42 09 4b 3d 44 f0 8d bc 2a 78 49 bc 29 79 8e bc
       0.049569376 -0.017326482 -0.012296716 -0.017391758
0003d0 41 5a 21 bd 15 d8 3c bc 50 20 4f 3d b9 f5 f4 bc
       -0.039392713 -0.011526127 0.050567925 -0.029902326
0003e0 5c 2b 0a bb 3a b0 b6 3c 7f 8b 73 bd 93 51 7a bc
       -0.0021082973 0.022300828 -0.059459206 -0.015278238
0003f0 20 4d 95 bc 97 17 82 bd dc 74 12 bd 8f 72 6b bd
       -0.018225253 -0.06352156 -0.035755977 -0.0574823

action_model._discrete_distribution.branches.0.bias f4 [2]
000000 a7 05 c1 3c a9 05 c1 bc
       0.023562266 -0.02356227

exp_avg f4 [128, 42]
000000 00 00 00 00 ef cf 25 38 00 00 00 00 00 00 00 00
       0.0 3.953272e-05 0.0 0.0
000010 ab 16 b3 34 47 ba 8b b8 9f c4 8d b9 76 ec 81 b8
       3.335784e-07 -6.662733e-05 -0.0002704011 -6.1952436e-05
000020 00 00 00 00 00 00 00 00 81 26 c3 39 ea 62 c0 39
       0.0 0.0 0.00037221986 0.0003669479
000030 00 00 00 00 f8 96 b0 b8 04 00 00 00 04 00 00 80
       0.0 -8.420454e-05 6e-45 -6e-45
000040 01 19 02 39 99 8d f4 38 9f c4 8d b9 8c 2b 30 b7
       0.00012407081 0.00011661201 -0.0002704011 -1.05005565e-05
000050 00 00 00 00 00 00 00 00 bf 2c a8 39 a2 f6 a7 39
       0.0 0.0 0.00032076795 0.00032036478
000060 00 00 00 00 8c 2b 30 b7 04 00 00 00 04 00 00 80
       0.0 -1.05005565e-05 6e-45 -6e-45
000070 fc 40 53 38 dd 78 51 38 9f c4 8d b9 04 00 00 00
       5.036684e-05 4.9942046e-05 -0.0002704011 6e-45
000080 00 00 00 00 00 00 00 00 61 ab a2 39 8c ad a2 39
       0.0 0.0 0.00031026735 0.0003102835
000090 00 00 00 00 00 00 00 00 04 00 00 00 04 00 00 00
       0.0 0.0 6e-45 6e-45
0000a0 17 36 27 38 17 36 27 38 00 00 00 00 57 fb 58 38
       3.9866278e-05 3.9866278e-05 0.0 5.173249e-05
0000b0 00 00 00 00 00 00 00 00 5b 1f a1 32 c0 31 84 b7
       0.0 0.0 1.8757126e-08 -1.5758793e-05
0000c0 f2 cb 65 b8 e9 df c9 37 00 00 00 00 00 00 00 00
       -5.4787793e-05 2.4065333e-05 0.0 0.0
0000d0 ba f5 ac 38 33 92 b1 38 00 00 00 00 f3 7a 0f 38
       8.247369e-05 8.4672494e-05 0.0 3.4208362e-05
0000e0 04 00 00 80 04 00 00 00 0b 29 93 37 a5 aa ad 37
       -6e-45 6e-45 1.7542878e-05 2.070267e-05
0000f0 f2 cb 65 b8 fb 57 15 36 00 00 00 00 00 00 00 00
       -5.4787793e-05 2.2253942e-06 0.0 0.0
000100 f6 c2 da 38 3d f8 da 38 00 00 00 00 fb 57 15 36
       0.00010431364 0.00010441288 0.0 2.2253942e-06
000110 04 00 00 80 04 00 00 00 f8 b9 4f 38 a3 1a 50 38
       -6e-45 6e-45 4.9525843e-05 4.9615872e-05
000120 f2 cb 65 b8 04 00 00 80 00 00 00 00 00 00 00 00
       -5.4787793e-05 -6e-45 0.0 0.0
000130 b4 6d df 38 60 71 df 38 00 00 00 00 00 00 00 00
       0.000106539024 0.000106545864 0.0 0.0
000140 04 00 00 80 04 00 00 80 7d 0f 59 38 7d 0f 59 38
       -6e-45 -6e-45 5.1751256e-05 5.1751256e-05
000150 00 00 00 00 86 fa 83 b8 00 00 00 00 00 00 00 00
       0.0 -6.2932304e-05 0.0 0.0
000160 5c 5a f4 34 c8 29 c6 b7 d9 08 86 b6 e2 19 34 38
       4.5514287e-07 -2.3622895e-05 -3.994541e-06 4.293945e-05
000170 00 00 00 00 00 00 00 00 8e b2 d4 b8 41 32 cd b8
       0.0 0.0 -0.00010142206 -9.784522e-05
000180 00 00 00 00 37 07 3b 38 04 00 00 80 04 00 00 80
       0.0 4.4590994e-05 -6e-45 -6e-45
000190 c8 89 e0 b8 de b3 d8 b8 d9 08 86 b6 91 eb 15 37
       -0.00010706816 -0.000103331855 -3.994541e-06 8.935939e-06
0001a0 00 00 00 00 00 00 00 00 10 63 8d b8 f7 a0 8c b8
       0.0 0.0 -6.741856e-05 -6.705702e-05
0001b0 00 00 00 00 91 eb 15 37 04 00 00 80 04 00 00 80
       0.0 8.935939e-06 -6e-45 -6e-45
0001c0 9e c3 95 b8 77 01 95 b8 d9 08 86 b6 04 00 00 00
       -7.14131e-05 -7.1051465e-05 -3.994541e-06 6e-45
0001d0 00 00 00 00 00 00 00 00 3a 4b 75 b8 50 4b 75 b8
       0.0 0.0 -5.8482612e-05 -5.8482692e-05
0001e0 00 00 00 00 00 00 00 00 04 00 00 80 04 00 00 80
       0.0 0.0 -6e-45 -6e-45
0001f0 2c 06 83 b8 2c 06 83 b8 00 00 00 00 9c 64 5c 39
       -6.2477164e-05 -6.2477164e-05 0.0 0.00021018315
000200 00 00 00 00 00 00 00 00 47 5a 59 b5 ec ab fa 38
       0.0 0.0 -8.097017e-07 0.00011952952
000210 e1 d6 89 39 68 96 3e 38 00 00 00 00 00 00 00 00
       0.00026290774 4.5439607e-05 0.0 0.0
000220 30 90 cf b8 8e 55 c7 b8 00 00 00 00 fd 97 ab 38
       -9.897386e-05 -9.504995e-05 0.0 8.1822254e-05
000230 04 00 00 80 04 00 00 00 42 bf 05 39 9b 94 0d 39
       -6e-45 6e-45 0.00012755117 0.00013502168
000240 e1 d6 89 39 28 59 e0 36 00 00 00 00 00 00 00 00
       0.00026290774 6.6860994e-06 0.0 0.0
000250 1e 95 7c b8 ef 87 7b b8 00 00 00 00 28 59 e0 36
       -6.0220358e-05 -5.996966e-05 0.0 6.6860994e-06
000260 04 00 00 80 04 00 00 00 7a 88 54 39 15 d1 54 39
       -6e-45 6e-45 0.00020268737 0.00020295785
000270 e1 d6 89 39 04 00 00 80 00 00 00 00 00 00 00 00
       0.00026290774 -6e-45 0.0 0.0
000280 f9 89 60 b8 cb 99 60 b8 00 00 00 00 00 00 00 00
       -5.353426e-05 -5.3548993e-05 0.0 0.0
000290 04 00 00 80 04 00 00 80 3e 8b 5b 39 3e 8b 5b 39
       -6e-45 -6e-45 0.0002093734 0.0002093734
0002a0 00 00 00 00 0a 6a 90 39 00 00 00 00 00 00 00 00
       0.0 0.00027544826 0.0 0.0
0002b0 7f b4 c8 b5 bd f3 68 39 b4 bb 01 3a 75 1f 37 38
       -1.4953692e-06 0.00022216044 0.00049489294 4.3659897e-05
0002c0 00 00 00 00 00 00 00 00 08 ba 8a b9 2f d5 88 b9
       0.0 0.0 -0.00026460015 -0.00026098776
0002d0 00 00 00 00 ae 91 9a 38 04 00 00 80 04 00 00 00
       0.0 7.370427e-05 -6e-45 6e-45
0002e0 cd f9 51 39 c2 da 58 39 b4 bb 01 3a 56 bf 11 37
       0.00020024851 0.00020680859 0.00049489294 8.687222e-06
0002f0 00 00 00 00 00 00 00 00 28 c8 70 b9 e8 70 70 b9
       0.0 0.0 -0.00022962748 -0.00022930244
000300 00 00 00 00 57 bf 11 37 04 00 00 80 04 00 00 00
       0.0 8.687223e-06 -6e-45 6e-45
000310 59 13 8b 39 87 42 8b 39 b4 bb 01 3a 04 00 00 80
       0.0002652656 0.00026561713 0.00049489294 -6e-45
000320 00 00 00 00 00 00 00 00 32 ac 67 b9 79 b1 67 b9
       0.0 0.0 -0.00022094024 -0.0002209599
000330 00 00 00 00 00 00 00 00 04 00 00 80 04 00 00 80
       0.0 0.0 -6e-45 -6e-45
000340 53 a1 8f 39 53 a1 8f 39 00 00 00 00 43 21 ba b9
       0.0002739528 0.0002739528 0.0 -0.00035501466
000350 00 00 00 00 00 00 00 00 2f b0 06 35 d0 1d 6d 38
       0.0 0.0 5.017527e-07 5.653297e-05
000360 04 8e ed 39 6a fc bc 38 00 00 00 00 00 00 00 00
       0.00045309972 9.011554e-05 0.0 0.0
000370 85 55 6b ba 45 44 69 ba 00 00 00 00 b1 0c f6 38
       -0.0008977282 -0.00088984176 0.0 0.00011732558
000380 04 00 00 00 04 00 00 80 17 61 f7 b9 13 d9 f1 b9
       6e-45 -6e-45 -0.0004718385 -0.00046128835
000390 04 8e ed 39 49 28 4c 37 00 00 00 00 00 00 00 00
       0.00045309972 1.2168727e-05 0.0 0.0
0003a0 99 e6 56 ba f2 c6 56 ba 00 00 00 00 49 28 4c 37
       -0.0008197814 -0.00081930973 0.0 1.2168727e-05
0003b0 04 00 00 00 04 00 00 80 2b 3f c0 b9 11 fd bf b9
       6e-45 -6e-45 -0.00036668158 -0.00036618908
0003c0 04 8e ed 39 04 00 00 00 00 00 00 00 00 00 00 00
       0.00045309972 6e-45 0.0 0.0
0003d0 f9 b5 53 ba 00 b7 53 ba 00 00 00 00 00 00 00 00
       -0.0008076127 -0.00080762804 0.0 0.0
0003e0 04 00 00 00 04 00 00 00 e9 dd b9 b9 e9 dd b9 b9
       6e-45 6e-45 -0.00035451286 -0.00035451286
0003f0 00 00 00 00 69 34 93 b9 00 00 00 00 00 00 00 00
       0.0 -0.00028077074 0.0 0.0

exp_avg_sq f4 [128, 42]
000000 00 00 00 00 9a b2 b7 37 00 00 00 00 00 00 00 00
       0.0 2.1898468e-05 0.0 0.0
000010 2e 17 a6 34 b0 51 01 36 94 90 87 37 8e 47 3e 36
       3.0936775e-07 1.9270046e-06 1.6160579e-05 2.8353857e-06
000020 00 00 00 00 00 00 00 00 6e 9e 62 36 3b 65 63 36
       0.0 0.0 3.3768843e-06 3.388456e-06
000030 00 00 00 00 23 b6 9d 36 f5 1d 47 2e cf b9 fa 31
       0.0 4.700168e-06 4.527397e-11 7.2970816e-09
000040 6a ea 94 37 89 e8 94 37 df 23 88 37 ac 28 09 36
       1.7752132e-05 1.7751257e-05 1.6229167e-05 2.0438265e-06
000050 00 00 00 00 00 00 00 00 d5 89 89 36 e2 b8 89 36
       0.0 0.0 4.098964e-06 4.1044414e-06
000060 00 00 00 00 4f 1a 47 36 c2 b8 a6 2e 16 ea 7a 32
       0.0 2.9668624e-06 7.5816256e-11 1.460514e-08
000070 16 84 a2 37 16 7e a2 37 88 2c 88 37 ef 47 b4 32
       1.9373412e-05 1.9370618e-05 1.62332e-05 2.098747e-08
000080 00 00 00 00 00 00 00 00 c5 e3 cd 36 2e ea cd 36
       0.0 0.0 6.135992e-06 6.136738e-06
000090 00 00 00 00 00 00 00 00 f2 3b 97 2f b2 fe c1 34
       0.0 0.0 2.7509334e-10 3.6134367e-07
0000a0 de ee b6 37 3c 02 b7 37 00 00 00 00 86 f6 26 35
       2.1807322e-05 2.181634e-05 0.0 6.219856e-07
0000b0 00 00 00 00 00 00 00 00 60 17 e1 31 34 a6 01 33
       0.0 0.0 6.5510193e-09 3.0186314e-08
0000c0 86 7d d6 34 f5 04 4e 34 00 00 00 00 00 00 00 00
       3.9951937e-07 1.9187048e-07 0.0 0.0
0000d0 57 22 04 33 08 80 07 33 00 00 00 00 6a 2a df 34
       3.0764877e-08 3.154858e-08 0.0 4.1567847e-07
0000e0 c5 1f 60 2a ae 22 95 30 4b 2a 52 34 1b 84 55 34
       1.9906219e-13 1.0851033e-09 1.957316e-07 1.988523e-07
0000f0 f2 7e e5 34 85 43 c6 33 00 00 00 00 00 00 00 00
       4.274694e-07 9.232375e-08 0.0 0.0
000100 d4 bf dd 33 35 fd dd 33 00 00 00 00 92 47 58 34
       1.0326008e-07 1.03371725e-07 0.0 2.0142605e-07
000110 fb 17 19 2f 1e 09 af 30 37 f1 e4 34 b3 0d e5 34
       1.3923789e-10 1.2735517e-09 4.2643816e-07 4.266454e-07
000120 80 b3 e5 34 ba fe 0e 30 00 00 00 00 00 00 00 00
       4.2785177e-07 5.202129e-10 0.0 0.0
000130 31 c5 4d 34 9b d2 4d 34 00 00 00 00 00 00 00 00
       1.916385e-07 1.916873e-07 0.0 0.0
000140 36 c5 a4 2f 1f da 1f 33 49 6c 1e 35 5a b0 1e 35
       2.9971553e-10 3.7218452e-08 5.901716e-07 5.911621e-07
000150 00 00 00 00 b1 0f 10 35 00 00 00 00 00 00 00 00
       0.0 5.3667014e-07 0.0 0.0
000160 3e e9 f4 32 f4 77 25 33 f5 97 62 33 16 48 d4 34
       2.8511405e-08 3.8526153e-08 5.275793e-08 3.9540527e-07
000170 00 00 00 00 00 00 00 00 71 93 f8 33 8c 96 fd 33
       0.0 0.0 1.15752194e-07 1.1808615e-07
000180 00 00 00 00 08 c2 e2 34 8c 63 64 2c 2e 3a 2f 32
       0.0 4.2236957e-07 3.2456008e-12 1.0199569e-08
000190 75 5f 04 34 57 a9 05 34 76 16 84 33 a0 4d ae 34
       1.2328185e-07 1.2448196e-07 6.1508146e-08 3.2466505e-07
0001a0 00 00 00 00 00 00 00 00 56 ad 3f 34 1f 00 41 34
       0.0 0.0 1.785132e-07 1.797457e-07
0001b0 00 00 00 00 3b 7d bf 34 54 50 ea 2b 53 22 4b 32
       0.0 3.566764e-07 1.6648996e-12 1.182396e-08
0001c0 44 79 4b 34 c5 40 4c 34 6a 23 87 33 a6 89 8c 31
       1.8949964e-07 1.9022544e-07 6.292869e-08 4.090185e-09
0001d0 00 00 00 00 00 00 00 00 91 78 06 35 06 91 06 35
       0.0 0.0 5.009434e-07 5.0129927e-07
0001e0 00 00 00 00 00 00 00 00 59 34 88 2c 9b 84 9e 32
       0.0 0.0 3.8711642e-12 1.8453923e-08
0001f0 ef 9b 11 35 23 a7 11 35 00 00 00 00 19 04 ad 36
       5.424362e-07 5.4259925e-07 0.0 5.156279e-06
000200 00 00 00 00 00 00 00 00 a6 93 5e 33 5d ac ec 34
       0.0 0.0 5.182269e-08 4.4083836e-07
000210 c1 dd a2 36 9f 24 c6 34 00 00 00 00 00 00 00 00
       4.853792e-06 3.690702e-07 0.0 0.0
000220 de 92 9d 33 7b a8 a2 33 00 00 00 00 80 f2 bb 35
       7.337597e-08 7.574359e-08 0.0 1.4003163e-06
000230 a3 c3 15 2e e6 df 80 31 93 3f 84 36 a6 13 84 36
       3.4052438e-11 3.7507446e-09 3.9413076e-06 3.936194e-06
000240 56 f2 a3 36 b7 26 84 34 00 00 00 00 00 00 00 00
       4.88599e-06 2.4615085e-07 0.0 0.0
000250 63 ce 37 34 90 b8 38 34 00 00 00 00 03 b8 40 35
       1.7118286e-07 1.7203479e-07 0.0 7.1793346e-07
000260 7f 6f 2f 2f b2 b3 9d 31 08 96 98 36 eb 86 98 36
       1.5955769e-10 4.5897304e-09 4.547419e-06 4.5456595e-06
000270 3e fb a3 36 21 f4 8d 31 00 00 00 00 00 00 00 00
       4.887027e-06 4.1313943e-09 0.0 0.0
000280 2a 99 de 34 7f b2 de 34 00 00 00 00 00 00 00 00
       4.1462164e-07 4.1480595e-07 0.0 0.0
000290 b4 07 95 30 ca 42 eb 33 32 b6 aa 36 c0 d0 aa 36
       1.0843366e-09 1.0955189e-07 5.087605e-06 5.0906965e-06
0002a0 00 00 00 00 57 58 91 37 00 00 00 00 00 00 00 00
       0.0 1.7326483e-05 0.0 0.0
0002b0 7b 60 73 34 b3 70 ec 35 2b 1f 8f 37 69 d6 9f 34
       2.2666238e-07 1.761617e-06 1.7061442e-05 2.9772062e-07
0002c0 00 00 00 00 00 00 00 00 a4 9e b0 34 b2 ef b1 34
       0.0 0.0 3.289798e-07 3.314322e-07
0002d0 00 00 00 00 f9 94 61 35 51 b2 07 2c ee 3f 4b 30
       0.0 8.4035815e-07 1.928364e-12 7.394182e-10
0002e0 4d 73 8f 37 d2 32 8f 37 1e 38 8f 37 ca 89 81 34
       1.710062e-05 1.7070593e-05 1.707306e-05 2.4128377e-07
0002f0 00 00 00 00 00 00 00 00 40 6c ce 34 ae 06 cf 34
       0.0 0.0 3.8449252e-07 3.8561615e-07
000300 00 00 00 00 54 eb e8 34 08 a9 ad 2e 99 ad 05 31
       0.0 4.338459e-07 7.897155e-11 1.9452726e-09
000310 b2 41 90 37 32 3a 90 37 bc 38 8f 37 0b c2 d2 30
       1.719673e-05 1.7193237e-05 1.7073347e-05 1.5334661e-09
000320 00 00 00 00 00 00 00 00 54 db 2a 35 90 e2 2a 35
       0.0 0.0 6.36491e-07 6.3659627e-07
000330 00 00 00 00 00 00 00 00 48 10 a2 2f 11 8d 5b 33
       0.0 0.0 2.9479197e-10 5.111821e-08
000340 cd 9a 92 37 6a 9d 92 37 00 00 00 00 d7 b6 61 37
       1.7476641e-05 1.7477858e-05 0.0 1.3453616e-05
000350 00 00 00 00 00 00 00 00 84 18 26 35 da 9c ef 35
       0.0 0.0 6.1875494e-07 1.7852537e-06
000360 51 5f 30 37 30 aa 00 35 00 00 00 00 00 00 00 00
       1.051261e-05 4.793137e-07 0.0 0.0
000370 c2 5a 61 36 b6 65 62 36 00 00 00 00 b6 64 17 35
       3.358044e-06 3.3735828e-06 0.0 5.639844e-07
000380 5e c4 4f 2d e6 78 ca 32 b2 bb 65 37 75 4b 65 37
       1.181019e-11 2.3570873e-08 1.3693165e-05 1.3667032e-05
000390 b9 32 31 37 01 8d 98 34 00 00 00 00 00 00 00 00
       1.0561832e-05 2.84148e-07 0.0 0.0
0003a0 bb 4e 6e 36 78 a9 6e 36 00 00 00 00 41 d8 87 34
       3.551059e-06 3.5563407e-06 0.0 2.5303055e-07
0003b0 e5 71 c7 2b 16 8f 17 33 ab bb 65 37 4f bc 65 37
       1.4171413e-12 3.5287563e-08 1.36931585e-05 1.3693308e-05
0003c0 64 74 31 37 5e 6a 70 33 00 00 00 00 00 00 00 00
       1.0577121e-05 5.5976095e-08 0.0 0.0
0003d0 2a 33 80 36 30 40 80 36 00 00 00 00 00 00 00 00
       3.8206535e-06 3.8221697e-06 0.0 0.0
0003e0 80 1f 38 2e d1 20 ac 34 8f e5 64 37 fa 04 65 37
       4.1864734e-11 3.2061374e-07 1.3643307e-05 1.3650622e-05
0003f0 00 00 00 00 06 83 6d 37 00 00 00 00 00 00 00 00
       0.0 1.4156807e-05 0.0 0.0

exp_avg f4 [128]
000000 17 36 27 38 7d 0f 59 38 2c 06 83 b8 3e 8b 5b 39
       3.9866278e-05 5.1751256e-05 -6.2477164e-05 0.0002093734
000010 53 a1 8f 39 e9 dd b9 b9 6a 76 92 b9 19 65 a4 ba
       0.0002739528 -0.00035451286 -0.00027935515 -0.0012542336
000020 2c 23 61 38 2c 1e 06 ba b0 56 36 39 55 49 52 b8
       5.3676937e-05 -0.00051161903 0.00017389166 -5.0136197e-05
000030 5a 50 90 b9 c9 fd 24 b9 52 0d c0 b9 9f bc 88 b9
       -0.00027525687 -0.00015734801 -0.00036631018 -0.00026080475
000040 06 07 96 b9 51 9e b8 39 7f ce cb 38 1d 9e d9 37
       -0.00028615462 0.0003521317 9.718257e-05 2.5942043e-05
000050 4f bf fb 38 a2 5e 62 b9 21 f4 6c 38 8a c6 bb 37
       0.00012004247 -0.00021588293 5.6494147e-05 2.238459e-05
000060 9f b9 b0 38 7e 2d 7e b8 53 55 88 b9 e2 82 7a 39
       8.4269086e-05 -6.0600687e-05 -0.00026003513 0.00023890616
000070 96 21 61 b8 79 6d f3 b7 c7 7c c9 b7 7a df 72 39
       -5.367546e-05 -2.9018835e-05 -2.4019171e-05 0.0002316217
000080 44 45 80 b8 b8 2e 9b b9 04 e5 10 38 5a 76 f3 b4
       -6.116417e-05 -0.00029598712 3.4545563e-05 -4.534839e-07
000090 c7 ee 04 ba 99 4b ae 38 e9 9b 38 38 c8 22 b1 39
       -0.0005070981 8.311048e-05 4.401422e-05 0.00033785985
0000a0 d3 55 5b 39 32 51 e9 b9 39 24 d1 b7 7c 04 67 b9
       0.0002091744 -0.00044501718 -2.4931609e-05 -0.00022031547
0000b0 fc 4a 15 b9 72 7f 86 b9 88 de 02 ba 6c 9f b1 b7
       -0.00014237681 -0.00025653426 -0.0004992266 -2.117428e-05
0000c0 ae e1 79 b5 8c 34 f6 37 f1 d8 a5 39 e8 bb 90 b7
       -9.3088136e-07 2.9349954e-05 0.00031632886 -1.7253638e-05
0000d0 14 0b 0f 38 80 12 63 b8 72 0d de b7 51 94 f8 38
       3.4104174e-05 -5.4138247e-05 -2.6470723e-05 0.000118531876
0000e0 3b ae 08 b9 9d 16 d4 b9 dd 13 ed 37 7f 1f 29 38
       -0.00013034877 -0.0004045264 2.8261851e-05 4.0322073e-05
0000f0 0a 48 6a b8 d1 8b 24 ba 2f 7d 66 39 7d 0b ac b9
       -5.585704e-05 -0.0006276938 0.00021981144 -0.00032814956
000100 0a e1 a1 39 e1 80 01 39 64 5f a9 b9 62 80 f3 b9
       0.0003087598 0.0001235041 -0.00032305263 -0.00046444224
000110 6c 3f bc 37 d2 7a 99 b9 70 f0 f5 b9 10 52 0e 39
       2.244088e-05 -0.00029273942 -0.0004690918 0.00013572746
000120 9c 2f 5f 39 4b 22 38 ba 09 db 4e b8 e6 d3 b3 b8
       0.00021284673 -0.0007024153 -4.931822e-05 -8.574854e-05
000130 36 eb b5 ba db bb cf b8 29 7c c4 b3 ce 33 6e ba
       -0.0013879302 -9.90552e-05 -9.149546e-08 -0.0009086699
000140 b2 97 fb b9 4f 33 c2 b8 dc aa 51 37 bb 02 d6 b8
       -0.00047987472 -9.260198e-05 1.2497152e-05 -0.00010204824
000150 52 1d 7c ba 90 87 16 ba f5 30 0c 39 7d b8 d1 b9
       -0.0009617406 -0.0005742246 0.00013369678 -0.0004000104
000160 2b 22 35 b9 8b 0e 66 b7 9b 4d 9c ba 25 9a f8 b7
       -0.00017274234 -1.3712454e-05 -0.0011924984 -2.9635683e-05
000170 d4 12 cc 38 25 4e 4e b9 77 ab e3 39 36 4a ea b8
       9.730985e-05 -0.00019674802 0.00043424565 -0.000111718124
000180 1b 45 a7 b6 95 77 d6 b7 28 03 cb b9 e6 9a 50 b8
       -4.985033e-06 -2.5566473e-05 -0.0003872153 -4.9735325e-05
000190 6f aa ad 37 da a4 da b8 cc a2 9c b8 b5 96 1b b9
       2.0702571e-05 -0.00010425756 -7.468983e-05 -0.00014838095
0001a0 ab 5b 19 ba c5 b2 a4 37 a1 9e d3 b7 6a de 35 b8
       -0.00058501464 1.963357e-05 -2.5227027e-05 -4.3360902e-05
0001b0 63 be e0 b8 c8 53 d4 38 05 a5 19 b8 ea 8a 7f 38
       -0.000107166146 0.00010124553 -3.663173e-05 6.092611e-05
0001c0 e1 f4 f6 b8 3a 78 21 39 37 e6 9c 38 8a 12 40 b9
       -0.00011775806 0.00015398944 7.4815405e-05 -0.00018317453
0001d0 d2 94 0c ba c3 30 bd 39 e0 a7 e6 b9 f7 37 a5 38
       -0.0005362752 0.0003608522 -0.00043994095 7.8782374e-05
0001e0 5d b4 16 ba 34 87 0f b8 dc 01 03 39 6f 94 33 39
       -0.0005748922 -3.4219775e-05 0.00012493826 0.00017126066
0001f0 6e e6 ac 39 16 59 9c b8 7f bc f2 b9 71 45 61 b9
       0.0003297808 -7.455253e-05 -0.00046298277 -0.00021483541

exp_avg_sq f4 [128]
000000 2c f6 b9 37 63 61 28 35 71 a2 16 35 da 75 ae 36
       2.2168351e-05 6.2726593e-07 5.611574e-07 5.199324e-06
000010 95 07 93 37 84 63 6a 37 bf b6 75 37 97 19 0e 39
       1.7527296e-05 1.3970657e-05 1.4645687e-05 0.00013551708
000020 3e 6f c3 36 3b 43 dd 36 95 29 12 38 b8 47 98 37
       5.824403e-06 6.59414e-06 3.484784e-05 1.8153209e-05
000030 ef 79 49 38 76 5a ae 35 b8 ae 51 37 50 dd 04 37
       4.8035694e-05 1.2990338e-06 1.2498051e-05 7.919341e-06
000040 c8 81 61 37 ad 9e 9a 37 f0 88 81 36 8e a0 d2 33
       1.3441262e-05 1.843212e-05 3.860441e-06 9.808092e-08
000050 9d 6d 86 37 f1 dc 85 36 59 6f 51 36 49 07 ce 35
       1.6025087e-05 3.98943e-06 3.120824e-06 1.5350316e-06
000060 69 be 4b 37 35 07 db 35 94 d9 1d 37 8d 25 ba 36
       1.2144076e-05 1.6318869e-06 9.408588e-06 5.5476035e-06
000070 10 df e6 35 b9 b1 66 37 3a cc f9 38 ef f8 19 37
       1.7201255e-06 1.3750448e-05 0.000119112854 9.17747e-06
000080 5c 83 bf 34 48 d8 85 38 3f 81 d5 35 64 78 d0 36
       3.56721e-07 6.38222e-05 1.5907352e-06 6.2128984e-06
000090 99 54 a4 37 81 62 a7 35 42 65 08 35 a7 7a da 38
       1.9589717e-05 1.2471138e-06 5.08113e-07 0.00010417896
0000a0 7b 4c a0 38 2f a1 cc 37 87 5b 15 36 44 27 5d 37
       7.64364e-05 2.4393752e-05 2.2256006e-06 1.3181769e-05
0000b0 eb 26 8b 36 52 44 16 39 ad f6 eb 37 15 63 95 35
       4.1470535e-06 0.00014330566 2.812905e-05 1.1130202e-06
0000c0 e6 40 dd 34 f5 6b e3 33 bb 69 3e 37 2e 09 4f 38
       4.1211678e-07 1.05901485e-07 1.13495e-05 4.9361195e-05
0000d0 eb 2e ef 35 7a ac 99 38 e2 91 8a 38 76 29 5b 36
       1.7820543e-06 7.327735e-05 6.6075256e-05 3.2657676e-06
0000e0 13 72 49 37 c7 e8 f6 36 83 84 47 37 9e 52 20 38
       1.2007094e-05 7.35847e-06 1.1892177e-05 3.8223916e-05
0000f0 42 23 14 36 02 bc 99 39 4c 7b 83 38 50 21 75 37
       2.2074241e-06 0.0002932251 6.2695326e-05 1.4610894e-05
000100 2b a5 38 38 d5 38 39 38 9d 1b 24 37 98 70 5e 38
       4.4022843e-05 4.4160366e-05 9.781591e-06 5.3033786e-05
000110 39 89 a7 35 8a b0 2d 37 db e6 d8 38 4b 33 bb 35
       1.2482407e-06 1.0352707e-05 0.00010342683 1.3947514e-06
000120 0d 48 19 37 61 a1 37 38 92 bc 9b 35 87 5d ce 34
       9.136286e-06 4.3780896e-05 1.1603281e-06 3.843854e-07
000130 fd 17 9f 39 57 31 9b 35 07 59 90 36 88 c2 dd 38
       0.00030344716 1.156276e-06 4.3018986e-06 0.000105743355
000140 59 17 5b 39 36 fb a7 34 8a 56 82 38 1a 6a d4 36
       0.00020894165 3.1288954e-07 6.215002e-05 6.330444e-06
000150 73 8a 1d 39 08 fa c4 37 9e 04 a2 38 8c b2 1d 37
       0.00015024263 2.348145e-05 7.725622e-05 9.3995e-06
000160 1a 70 a8 38 41 71 6b 35 bd d2 7a 39 66 41 ca 36
       8.031745e-05 8.770913e-07 0.00023920364 6.0276825e-06
000170 b1 42 51 38 fe 42 4a 39 a2 06 25 39 7d 3d 94 38
       4.9891594e-05 0.00019289178 0.00015738097 7.068643e-05
000180 7b 97 f7 37 6a 52 54 36 92 33 56 38 1e b6 a0 38
       2.9515233e-05 3.1638433e-06 5.1069605e-05 7.6633165e-05
000190 ff 87 1a 38 b8 c1 92 37 db f6 f8 37 6d 81 23 38
       3.6843117e-05 1.7494764e-05 2.9678855e-05 3.8982766e-05
0001a0 bd 0d e5 37 8c 2a 51 35 f3 31 e0 38 69 11 77 36
       2.7305325e-05 7.792048e-07 0.00010690456 3.6816002e-06
0001b0 bc 1e a9 36 c3 09 f4 37 df c4 51 39 cf e0 f7 35
       5.0401704e-06 2.9091612e-05 0.00020005133 1.8468362e-06
0001c0 e3 b9 cc 34 e5 57 a0 36 b0 9c 59 36 9f 68 cc 36
       3.8133211e-07 4.778604e-06 3.2426724e-06 6.0918533e-06
0001d0 59 96 59 38 4d 1e 73 38 80 3d 93 37 65 43 c4 38
       5.1876854e-05 5.7963935e-05 1.7552404e-05 9.3585615e-05
0001e0 30 12 f7 37 19 03 88 35 01 e5 09 37 5b c7 bc 38
       2.9453164e-05 1.0133691e-06 8.2191555e-06 9.0016714e-05
0001f0 42 bf f7 37 5a a3 ae 34 19 20 a0 37 5b e6 17 38
       2.9533756e-05 3.252888e-07 1.9088433e-05 3.621574e-05
