Assets/results/JumperAgentTest/JumperAgent/JumperAgent-14080.onnx (onnx, 91980 bytes, 6 tensors)

network_body._body_endoder.seq_layers.0.weight f4 [128, 42]
0	0xbcdf027b	-0.027222862
1	0x3c6031dc	0.013683762
2	0xbe7d6bef	-0.24748205
3	0xbdac2546	-0.08405547
4	0x3cc9c4f1	0.024630042
5	0xbd999122	-0.07498385
6	0x3d81d5bf	0.06339597
7	0xbe24e1d7	-0.16101776
8	0x3e842fe5	0.2581779
9	0xbdecbc2c	-0.115593284
10	0x3df4a2bd	0.11945102
11	0xbde91757	-0.11381405
12	0x3cabb855	0.02096192
13	0x3e40b35c	0.1881842
14	0x3ce96f4d	0.028495455
15	0x3e61d4e4	0.22053868
16	0xbd948efd	-0.07253835
17	0xbe3700db	-0.1787142
18	0x3d817bad	0.063224174
19	0xbe27498d	-0.16336651
20	0xbe36a8eb	-0.17837875
21	0x3d431f87	0.04763749
22	0x3c1c7f45	0.009551828
23	0xbe4f5d8a	-0.20250526
24	0x3da13038	0.07870525
25	0xbd793e8d	-0.06085067
26	0x3da9b989	0.08287341
27	0xbe50b8b3	-0.20382957
28	0xbd564de9	-0.052320395
29	0x3d15190d	0.036400843
30	0x3cee5a1a	0.029095698
31	0xbc9207e2	-0.017826024
32	0x3eb94234	0.3618332
33	0x3e0443f8	0.12916553
34	0x3c3edf4f	0.011649921
35	0xbd64566d	-0.055746485
36	0x3cdb976d	0.026805604
37	0xbee0ebbf	-0.4392986
38	0xbe23c8e5	-0.15994604
39	0xbd8109ef	-0.06300723
40	0x3d3ae643	0.04562975
41	0x3c95d404	0.018289573
42	0x3ac043be	0.0014668626
43	0x3d609a25	0.054834504
44	0x3c74d2f7	0.014942876
45	0xbe1c5fef	-0.15270971
46	0x3c38917e	0.011265157
47	0x3d5e60ba	0.054291464
48	0xbea3ace5	-0.31967846
49	0x3d54a879	0.05191848
50	0x3e2285ff	0.15871428
51	0xbdf658af	-0.12028634
52	0x3d5b3d71	0.053525392
53	0xbe5bcc5e	-0.21464679
54	0xbe6a5c75	-0.22886832
55	0xbce9edba	-0.02855574
56	0x3d338a55	0.043833096
57	0xbdd267ac	-0.1027368
58	0xbe85f573	-0.26163825
59	0x3e7b341e	0.245316
60	0xbe6f6dd5	-0.23381741
61	0xbda9f19c	-0.082980365
62	0xbe156c3b	-0.14592068
63	0xbd324170	-0.043519437
64	0xbdaf9d56	-0.08574931
65	0x3e263cda	0.1623415
66	0x3dab62be	0.08368443
67	0xbed26bb8	-0.41097808
68	0xbd484359	-0.048892353
69	0x3d5d98e1	0.054100875
70	0x3e853c97	0.2602279
71	0xbd236d63	-0.03989924
72	0x3df88252	0.121342316
73	0x3e0910f8	0.1338538
74	0xbd2171c1	-0.039415125
75	0xbd2787af	-0.040900882
76	0x3e69c384	0.2282849
77	0x3c372608	0.011178501
78	0x3e6773e3	0.22602801
79	0x3eade0a4	0.3396045
80	0xbd9d4316	-0.07678811
81	0x3d22aafc	0.039713845
82	0xbda32db4	-0.079677016
83	0x3dad0eae	0.084500656
84	0x3dd5ebf8	0.10445398
85	0xbe5010b3	-0.2031887
86	0xbe1187b5	-0.14211924
87	0x3e11fa1f	0.1425557
88	0xbe01e580	-0.12685204
89	0xbd3fd7c3	-0.046836626
90	0x3df919bd	0.12163112
91	0x3def7dec	0.116939396
92	0xbe3a3887	-0.18185626
93	0x3b20becf	0.0024527793
94	0x3edd8fa6	0.43273658
95	0x3c828b06	0.015935432
96	0xbd15c554	-0.03656514
97	0xbe7983db	-0.24366705
98	0x3e81b923	0.2533656
99	0xbc8aa7e2	-0.016925756
100	0xbd9ab5a1	-0.07554174
101	0xbc13896f	-0.009004935
102	0xbda60f66	-0.08108406
103	0xbd1dee7d	-0.03855752
104	0x3e391eb3	0.18078117
105	0xbec8d0bf	-0.3922176
106	0x3e9073b4	0.28213274
107	0xbd9c7388	-0.07639223
108	0x3e258b57	0.16166435
109	0xbd9f8101	-0.077882774
110	0x3da491a2	0.0803559
111	0xbd8f5b23	-0.06999805
112	0xbe4e69c8	-0.2015754
113	0x3dc5e79b	0.09663316
114	0xbdfbd139	-0.122957654
115	0x3d4cf082	0.050034054
116	0x3daa244c	0.08307704
117	0x3da02ac5	0.07820658
118	0x3c66af26	0.014079845
119	0x3da89481	0.0823145
120	0x3d626b3a	0.05527804
121	0xbb19da86	-0.0023476197
122	0xbe60d314	-0.2195552
123	0xbdb6cf57	-0.08926266
124	0x3d145d5d	0.03622185
125	0x3dcb1856	0.09916751
126	0xbdbe74aa	-0.09299596
127	0xbd8b11af	-0.06790482
128	0x3debe508	0.115182936
129	0xbdd5e29d	-0.10443614
130	0xbd916b89	-0.07100589
131	0xbe147671	-0.14498307
132	0x3e86b882	0.26312643
133	0xbd818ddc	-0.06325886
134	0x3d6fc794	0.058539942
135	0x3df32b13	0.1187345
136	0xbdecd9e4	-0.11564997
137	0xbedf0db3	-0.4356514
138	0xbddd469d	-0.10804484
139	0x3cb7b7f0	0.022426575
140	0xbdbc769a	-0.09202309
141	0x3dcf58d4	0.101243645
142	0xbd8f33fa	-0.069923356
143	0xbe970831	-0.29498437
144	0x3e357871	0.17721726
145	0xbe91b5c5	-0.28458992
146	0x3d832bcc	0.06404838
147	0x3e49cdf7	0.19707476
148	0x3c9c7497	0.019098563
149	0xbe8943a1	-0.2680941
150	0xbddb5b50	-0.10710776
151	0xbe4d6b2a	-0.20060411
152	0xbe06528b	-0.13117425
153	0xbe84fe25	-0.25975147
154	0x3d89f96c	0.067370266
155	0x3d25e447	0.040500905
156	0xbc32ff7c	-0.01092517
157	0x3e969282	0.29408652
158	0xbe1c8020	-0.15283251
159	0x3e049d18	0.12950552
160	0xbe188dcc	-0.14897841
161	0xbdc6042b	-0.09668764
162	0xbdaf0678	-0.08546156
163	0xbe3bc81d	-0.18338056
164	0xbd9da3d7	-0.076972656
165	0x3e3bd529	0.18343033
166	0x3ddf3471	0.10898674
167	0x3c8321e8	0.016007379
168	0x3c7780c9	0.015106388
169	0x3e09ac09	0.13444532
170	0xbe20ae8a	-0.15691581
171	0xbe327daf	-0.17430757
172	0x3ea0569e	0.31316084
173	0x3dc101e7	0.09424191
174	0xbe693b74	-0.22776586
175	0xbe204e53	-0.15654878
176	0xbd20d144	-0.03926207
177	0xbcc0dfab	-0.023544153
178	0xbc4a5ffa	-0.012351984
179	0xbd6153f9	-0.055011723
180	0x3eaade91	0.3337293
181	0xbd96fd6e	-0.073725566
182	0x3e5fef38	0.21868598
183	0xbe97414c	-0.29542005
184	0x3e32536f	0.1741464
185	0xbd9107bd	-0.07081554
186	0xbc00cd41	-0.007861436
187	0xbd9a22e5	-0.07526187
188	0xbe166e6d	-0.14690562
189	0x3e84c824	0.25933945
190	0xbcd62138	-0.026138887
191	0xbdb92730	-0.090406775
192	0x3ed8da87	0.42354223
193	0x3cfa372b	0.030543884
194	0x3e0f32f1	0.13984276
195	0xbea238ed	-0.31684056
196	0xbdebb624	-0.1150935
197	0xbd909156	-0.07058971
198	0x3d722b17	0.059123125
199	0xbe11eee1	-0.14251281
200	0xbe7a5a54	-0.2444852
201	0x3e011b55	0.12608083
202	0x3ed23603	0.41056833
203	0x3db331dd	0.08749745
204	0xbe8600b0	-0.261724
205	0xbe70958c	-0.23494548
206	0x3e68c39f	0.22730874
207	0x3d8b53c5	0.06803087
208	0xbd568f71	-0.05238289
209	0x3e4f0fb2	0.20220831
210	0xbd6650fb	-0.056229573
211	0x3bb5b90e	0.005545742
212	0xbcc1d580	-0.023661375
213	0x3d0cbc71	0.0343594
214	0xbe0469c4	-0.12930971
215	0x3dc11db2	0.09429492
216	0xbcfaa610	-0.030596763
217	0x3e28dc97	0.16490398
218	0xbcae14bf	-0.021250127
219	0x3d284511	0.04108149
220	0x3e17c406	0.14820871
221	0x3e1f194a	0.15536991
222	0xbe5843c9	-0.21119608
223	0x3ccd13a8	0.025033787
224	0xbe4d4e20	-0.20049334
225	0xbccaead3	-0.024770176
226	0x3d5f45ed	0.054510046
227	0x3dc3c63e	0.09559296
228	0xbdcbd4f5	-0.09952728
229	0xbd2ee0f3	-0.042694997
230	0xbd6d0ad4	-0.057871655
231	0x3dfb4852	0.122696534
232	0xbda39abe	-0.07988499
233	0x3d8bee06	0.06832509
234	0x3dbe8ba6	0.093039796
235	0xbdc996d0	-0.09843218
236	0x3d50b06a	0.05094949
237	0xbe0ae18f	-0.13562606
238	0xbe2de4d0	-0.16981816
239	0xbd8313d5	-0.06400267
240	0x3d8e729f	0.06955456
241	0x3ca46ccc	0.02007141
242	0xbe609917	-0.21933399
243	0x3e8209da	0.2539814
244	0xbd4493ae	-0.0479924
245	0xbe1b0f7b	-0.15142624
246	0xbe5740f1	-0.21020867
247	0xbd1189ad	-0.03553169
248	0x3e4c826c	0.19971627
249	0x3d54abfc	0.05192183
250	0x3cf77a6d	0.030209744
251	0x3c4c9524	0.01248673
252	0x3e2382a0	0.15967798
253	0x3e823951	0.25434354
254	0x3e0f9846	0.14022931
255	0xbeafc7f3	-0.34332237

network_body._body_endoder.seq_layers.0.bias f4 [128]
0	0xbbcdfa96	-0.0062859757
1	0x3b2b4579	0.0026133938
2	0x3ce912c2	0.028451327
3	0x3bbc0bcb	0.0057387105
4	0x3ba734a3	0.0051027103
5	0x3c206dae	0.009791775
6	0x3c0ea607	0.008706576
7	0x3c72eac1	0.0148264775
8	0xbc301c91	-0.010748998
9	0xbccc4a73	-0.024937844
10	0x3c1416ea	0.009038666
11	0xbcbc2031	-0.022964569
12	0x3c5faa57	0.013651452
13	0x3c65efac	0.014034193
14	0x388712c5	6.440798e-05
15	0x3c7015df	0.014653652
16	0x3c86896c	0.01642295
17	0x3bb750fe	0.005594372
18	0x3b925571	0.004465752
19	0x3c8b2bbe	0.016988631
20	0xbcab0e14	-0.020880736
21	0x3bf924d5	0.0076032677
22	0xbbe9fe9e	-0.0071409484
23	0x3ca8ee7b	0.020621529
24	0xbc196533	-0.009362507
25	0x3c68f81f	0.014219313
26	0x3c8de1b9	0.017319547
27	0xbc2e5b21	-0.010641844
28	0x3c0c0a82	0.008547427
29	0x3c8fbec7	0.017547024
30	0x3b9a0215	0.004699955
31	0xbc98da6d	-0.018658841
32	0xbc874949	-0.016514437
33	0x3cf898e1	0.030346336
34	0xbc9467b2	-0.018115852
35	0xbc95ae00	-0.018271446
36	0x3c13d52e	0.009022994
37	0x3c4ce5e3	0.012505981
38	0x3bda4670	0.006661229
39	0xbcebf09a	-0.028801251
40	0xbc583b62	-0.013197752
41	0xbc6e9165	-0.014561032
42	0x3be55984	0.0069991965
43	0xbd0ef949	-0.034905706
44	0x39f4f1a2	0.00046719337
45	0xbc8d6832	-0.017261598
46	0x3b1c6f9d	0.0023870238
47	0x3c81a6a0	0.015826523
48	0x3c50c9c9	0.012743422
49	0xbc8a6ceb	-0.01689764
50	0x3bf265a9	0.0073973727
51	0x3c0f0f5f	0.008731692
52	0xb851044a	-4.9833478e-05
53	0xbbeedaea	-0.00728928
54	0xbcf8a0f3	-0.030350184
55	0x3aaaa0ee	0.0013017931
56	0x3c08ddd7	0.008353672
57	0xbc48a9ab	-0.012247483
58	0xbd06ecf5	-0.032940824
59	0xbbb1ebd5	-0.0054297247
60	0x3bb7a049	0.0056038243
61	0xbae98248	-0.0017815316
62	0xbca3a0d0	-0.019974142
63	0xbcb54d31	-0.022131534
64	0xbbf0e585	-0.0073515796
65	0x3cc40b33	0.023931121
66	0xbce3b734	-0.027797319
67	0x3cdc253e	0.026873227
68	0xbb066ad0	-0.0020510443
69	0xbae8211e	-0.0017710065
70	0xbbff2e43	-0.0077874972
71	0x3bbc2aba	0.005742398
72	0x3b292722	0.0025810678
73	0x3c43727e	0.0119291525
74	0xbbc9e1f4	-0.006160969
75	0x3c654bcc	0.013995122
76	0x3c319d4e	0.010840727
77	0x3c0f9fae	0.008766098
78	0xbb9c7680	-0.0047748685
79	0x3b9acd2f	0.004724167
80	0x3c7b7f54	0.015350182
81	0x3ba77d54	0.005111376
82	0x3acd92bf	0.0015683993
83	0x3c48466c	0.012223821
84	0x3d0e76eb	0.034781378
85	0xbd1e6254	-0.03866799
86	0x390258b2	0.00012430808
87	0xbcac496f	-0.02103111
88	0x3c848229	0.016175346
89	0x3c375343	0.011189285
90	0xbb9f8b58	-0.004868906
91	0x3d519b91	0.05117375
92	0xbbc24575	-0.00592869
93	0xbc1be2f8	-0.009514563
94	0x3b433911	0.0029788653
95	0xbcdfd963	-0.027325338
96	0xbc207407	-0.009793288
97	0xbb71d660	-0.003690146
98	0xb8df6a3a	-0.00010653255
99	0xbd030eb8	-0.03199646
100	0x3c427a9a	0.011870051
101	0xbca83259	-0.02053182
102	0x3be80cc2	0.007081599
103	0x3c6dfb57	0.014525256
104	0x3c406e89	0.011745104
105	0xbc4d934e	-0.012547327
106	0x3ce133fd	0.02749061
107	0x3c0eb304	0.008709673
108	0xbc1184cd	-0.00888176
109	0xbc8bbbec	-0.017057382
110	0x3ca086f9	0.01959561
111	0x3bafebc2	0.0053686807
112	0xbb74cded	-0.0037354187
113	0x3b63835a	0.0034715743
114	0xbce85846	-0.028362405
115	0x3beaae96	0.0071619255
116	0xbcacfc01	-0.021116259
117	0x3b8b1de0	0.0042455047
118	0xbc34daa6	-0.011038458
119	0xbc9334fa	-0.017969597
120	0x3c0b216f	0.008491858
121	0xbaaf2487	-0.0013362326
122	0x3c37df02	0.011222603
123	0x3b67c369	0.0035364276
124	0xbb708d8f	-0.003670547
125	0x3c67b59d	0.014142421
126	0x3ca2aaf9	0.019856917
127	0xbc79ef0d	-0.015254748

network_body._body_endoder.seq_layers.2.weight f4 [128, 128]
0	0xbd67137a	-0.05641506
1	0x3da59050	0.08084166
2	0x3df29ed6	0.11846702
3	0x3c3613fd	0.011113164
4	0xbcc0f7ac	-0.0235556
5	0x3de1cf89	0.11025912
6	0x3d56b1fa	0.052415825
7	0xbdde0b89	-0.10842044
8	0x3c803dd2	0.015654478
9	0xbe0da788	-0.1383344
10	0xbcc96bd6	-0.024587553
11	0xbe463b09	-0.19358458
12	0x3bc33cea	0.0059581893
13	0xbd03283c	-0.032020792
14	0x3c84c177	0.016205532
15	0x3db0e214	0.08636871
16	0x3d6a8a1b	0.057260614
17	0x3e0fd2b0	0.14045215
18	0x3d0b0b9a	0.03394661
19	0x3e472342	0.19447044
20	0x3d9705c6	0.07374148
21	0xbc6cd7c1	-0.014455737
22	0xbe025a5c	-0.12729782
23	0xbda623aa	-0.08112271
24	0x3dce90c4	0.100862056
25	0xbd6f0a24	-0.05835928
26	0xbddc4079	-0.10754485
27	0xbd04b36d	-0.032397676
28	0x3d2daa76	0.042398892
29	0x3cc3bb6c	0.02389308
30	0xbcecea9c	-0.028920464
31	0xbd31ce0f	-0.043409403
32	0xbe362c06	-0.17790231
33	0xbd157c8b	-0.036495727
34	0x3dabb840	0.08384752
35	0x3bce5795	0.0062970617
36	0xbe07ea16	-0.1327289
37	0x3d3bc2af	0.04583996
38	0xbd9e6d3a	-0.07735677
39	0xbbba63ec	-0.005688181
40	0xbd9ba9ba	-0.07600732
41	0x3d8a7929	0.06761391
42	0x3d0518e7	0.03249445
43	0xbbdcfdf1	-0.0067441394
44	0x3d226c20	0.039653897
45	0xbd96d4eb	-0.0736483
46	0xbd27fc7f	-0.041012283
47	0x3e295fc7	0.16540442
48	0x3d129000	0.03578186
49	0x3e2e0305	0.1699334
50	0x3dee5e26	0.11639051
51	0xbdaa759c	-0.083232135
52	0xbd805040	-0.062653065
53	0x3d801250	0.06253493
54	0xbc5196e8	-0.0127923265
55	0x3d94b74e	0.07261525
56	0xbd96243c	-0.0733113
57	0xbd9c6ca3	-0.07637908
58	0x3c88f0d9	0.016716408
59	0xbdb5c76f	-0.088759296
60	0x3ca26e1b	0.019827893
61	0xbda4503a	-0.080231145
62	0x3dcae029	0.099060364
63	0xbcfec9cc	-0.031102084
64	0x3d203405	0.03911211
65	0x3cb9c013	0.022674596
66	0xbe0ca452	-0.13734558
67	0xbda10732	-0.078627005
68	0x3a73ab7e	0.00092952687
69	0x3cfc0579	0.030764328
70	0x3d83a534	0.06427994
71	0x3cac8be6	0.021062803
72	0xbd92509e	-0.07144283
73	0x3c06c44e	0.008225514
74	0xbd52453d	-0.051335562
75	0xbdc2c2aa	-0.095097855
76	0xbc3f9347	-0.0116928285
77	0xbd1fb41a	-0.038990118
78	0xbd453294	-0.04814394
79	0xbe0af0fa	-0.13568488
80	0x3bc9edf7	0.006162401
81	0x3d96a6e2	0.07356049
82	0xbd968d20	-0.07351136
83	0x3bdea7c6	0.0067949025
84	0x3dc759de	0.09733938
85	0x3d85518d	0.06509695
86	0x3d117881	0.035515312
87	0x3e5d4f50	0.21612287
88	0xbc180a48	-0.009279795
89	0x3d22f268	0.039781958
90	0x3c3d65ec	0.011559945
91	0x3e483550	0.19551587
92	0x3d79f94f	0.061028775
93	0x3df599d5	0.11992232
94	0x3c4f979f	0.012670427
95	0xbcf6cce7	-0.030127002
96	0x3c8606f0	0.01636073
97	0x3d15b3b5	0.036548335
98	0x3d30b293	0.04313905
99	0x3db9542c	0.09049258
100	0x3e045dc9	0.12926401
101	0xbd5a488f	-0.053291854
102	0xbddcec42	-0.1078725
103	0x3db74ec4	0.0895057
104	0x3cd98e32	0.026557062
105	0x3dadc8d8	0.084855735
106	0xbd0df700	-0.034659386
107	0xbd1a3562	-0.037648566
108	0x3e1c2903	0.1525002
109	0x3dcf6078	0.10125822
110	0xbd3cbee6	-0.046080492
111	0x3e24b626	0.16085109
112	0x3ad8034e	0.0016480477
113	0xbc7994d1	-0.0152332345
114	0xbcdc116d	-0.026863778
115	0x3dbec071	0.09314049
116	0xbd009ef7	-0.0314016
117	0x3dc1016c	0.09424099
118	0xbe320f84	-0.17388731
119	0xbd05c9b2	-0.032663055
120	0x3cbe674e	0.023242619
121	0xbdd2ade8	-0.10287076
122	0xbc6e8a15	-0.0145592885
123	0x3e02f9c0	0.12790585
124	0xbe6d4815	-0.23172028
125	0x3e4fe13a	0.20300761
126	0x3daead57	0.08529156
127	0x3cd5c50c	0.026094936
128	0x3d4c4d2c	0.049878284
129	0xbdb99e9b	-0.09063455
130	0x3e05056b	0.12990348
131	0xbdaa9b6d	-0.08330426
132	0xbc838ff0	-0.016059846
133	0xbb95bf07	-0.0045698914
134	0xbd159b7b	-0.03652523
135	0x3d944618	0.07239932
136	0xbd6cf613	-0.057851862
137	0x3dcbd779	0.099532075
138	0xbcb940c8	-0.022613898
139	0x3cb179a8	0.021664456
140	0x3cd750ac	0.026283585
141	0x3d9f35d7	0.07773941
142	0x3d429e29	0.047514115
143	0x3d61d631	0.05513591
144	0xbdb9af8b	-0.09066685
145	0xbdd32b76	-0.10311024
146	0xbd105f4b	-0.03524713
147	0x3c5407ac	0.012941282
148	0x3cb200d0	0.021728903
149	0x3e04ecb7	0.12980925
150	0x3df64c77	0.12026303
151	0xbc547867	-0.012968159
152	0x3d0fe43f	0.03512978
153	0x3d1d7140	0.03843808
154	0x3de2e5dc	0.110789984
155	0x3ddc3737	0.10752719
156	0xbd1ec6d8	-0.03876385
157	0xbcee5e1c	-0.02909761
158	0x3ddcfd5d	0.10790513
159	0x3d467853	0.048454594
160	0xbddbc331	-0.10730589
161	0x3dc4576c	0.09586987
162	0x3dc2f348	0.095190585
163	0xbd3c45f1	-0.04596514
164	0x3e213c9e	0.1574578
165	0xbcdcdba6	-0.026960205
166	0x3e13db98	0.14439237
167	0x3e09a712	0.13442639
168	0x3e27a246	0.16370496
169	0x3d4f9db8	0.05068752
170	0xbe2394d7	-0.15974747
171	0xbd38c8fe	-0.045113556
172	0x3dc3cbaf	0.09560334
173	0xbdd3e863	-0.103470586
174	0xbc9552a0	-0.018227875
175	0x3e81e3c1	0.25369075
176	0x3d984bbf	0.074363224
177	0xbca931de	-0.020653661
178	0xbcbbfaef	-0.022946803
179	0xbcfd7efd	-0.030944342
180	0x3e5e2be8	0.21696436
181	0x3c93f470	0.018060893
182	0x3e602cb4	0.21892053
183	0xbd11e659	-0.035620067
184	0xbdf86d7c	-0.121302575
185	0x3dd9d0b7	0.10635512
186	0xbda2dd6f	-0.07952391
187	0x3ca67457	0.020319147
188	0xbd21960e	-0.039449744
189	0xbde38348	-0.11109024
190	0xbd2a205c	-0.041534767
191	0x3d8e2ad2	0.06941761
192	0xbcce20ad	-0.025162065
193	0x3d330c84	0.043713108
194	0x3dba41a7	0.090945534
195	0x3dab2731	0.083570845
196	0x3b5d9448	0.0033810306
197	0xbd3b4829	-0.045723114
198	0xbd3d510f	-0.04621988
199	0xbdb185a3	-0.08668067
200	0x3dca564d	0.09879742
201	0x3cee32a5	0.029076884
202	0x3d8423b8	0.06452125
203	0xbda26715	-0.079298176
204	0x3c192fe6	0.009349799
205	0xbd2f1aeb	-0.04275028
206	0xbcd60575	-0.026125649
207	0xbd914f94	-0.070952564
208	0xbd93c159	-0.072146125
209	0x3e35bc32	0.17747572
210	0xbd3cf4c3	-0.04613186
211	0x3c4b204e	0.012397839
212	0x3dfe3ea8	0.124142945
213	0x3bc962fa	0.006145832
214	0x3d4dfbfd	0.050289143
215	0x3c2f284f	0.010690763
216	0xbcd38ec7	-0.025824917
217	0x3e2078a8	0.15671027
218	0xbd99f2a9	-0.07516987
219	0xbe009363	-0.12556224
220	0xbdb5f93d	-0.08885429
221	0xba83f385	-0.0010067081
222	0xbc0df079	-0.00866329
223	0x3d13be41	0.036070112
224	0x3db488bf	0.08815145
225	0x3cea9a23	0.028637951
226	0x3d13e7ee	0.036109857
227	0x3da39907	0.07988172
228	0x3e3e422e	0.18579933
229	0x3e356f19	0.17718162
230	0x3e45b958	0.19308984
231	0xbdbb868e	-0.09156524
232	0x3e353021	0.17694141
233	0xbd9df04d	-0.07711849
234	0xbdcbf1af	-0.09958207
235	0x3d33765e	0.043814056
236	0xbd2ca6f4	-0.042151406
237	0xbdee75ef	-0.11643588
238	0x3dd004a0	0.10157132
239	0x3d953b7e	0.07286738
240	0xbe3b5f0a	-0.18297973
241	0xba9727b9	-0.0011532224
242	0xbd9c6ade	-0.07637571
243	0xbdb84fd4	-0.08999601
244	0xbe220fee	-0.15826389
245	0x3d30572e	0.04305189
246	0xbe28c3a0	-0.16480875
247	0xbe21c79c	-0.15798801
248	0x3d88f541	0.066874035
249	0xbd2b197b	-0.041772347
250	0x3d30dace	0.04317742
251	0x3e1b59d8	0.15170991
252	0xbddb81d5	-0.10718123
253	0x3d68b7c4	0.056815878
254	0xbe04a183	-0.12952237
255	0xbd750f07	-0.059828784

network_body._body_endoder.seq_layers.2.bias f4 [128]
0	0x3bb18315	0.0054172375
1	0x3c670bd7	0.014101944
2	0x3cbc9d9d	0.023024375
3	0xbbe6b675	-0.0070407935
4	0x3c4658a0	0.012106091
5	0x3c889c10	0.016675979
6	0xbbdfb474	-0.0068269316
7	0xbca6b683	-0.0203507
8	0x3c4d5182	0.01253164
9	0x3c26add4	0.01017328
10	0x3cbbc7da	0.022922445
11	0xbc605d92	-0.013694184
12	0xbca6d09e	-0.020363148
13	0xba6cb74d	-0.00090299995
14	0x3c1bea3f	0.009516298
15	0x3bccf922	0.006255285
16	0x3c842563	0.016131109
17	0x3ba2cc2c	0.004968187
18	0x3c984951	0.018589647
19	0xbcdc3a30	-0.026883215
20	0xbae372cf	-0.0017352941
21	0xbc4de3d7	-0.012566528
22	0xbbeeba0c	-0.007285362
23	0xbc8ca72b	-0.017169556
24	0xbc0cdd1c	-0.008597638
25	0xbca823dd	-0.020524913
26	0xbc88f487	-0.016718162
27	0xbcc35412	-0.023843799
28	0x3c40ec0f	0.011775031
29	0x3c2b1235	0.010441353
30	0xbc514fe3	-0.012775394
31	0xbc2dfe0f	-0.010619654
32	0xbc7f1508	-0.015568979
33	0xbccdb20c	-0.025109313
34	0x3c96fcb4	0.018431045
35	0xbc4f4632	-0.012651013
36	0xbb43c7b9	-0.0029873683
37	0x3c9b0290	0.01892212
38	0xbbd6fee5	-0.0065611475
39	0xbcc6e1d7	-0.02427761
40	0x3c431fd3	0.011909443
41	0x3c67adfd	0.014140603
42	0xba17b2a1	-0.00057868107
43	0x3c6fb594	0.014630694
44	0x3c947833	0.018123722
45	0xbcea0afe	-0.028569695
46	0xbcb24c5a	-0.021764923
47	0xbc054644	-0.008134428
48	0x3b72e683	0.0037063665
49	0x3af20d77	0.0018467148
50	0x3b8e6f35	0.004346753
51	0xbbd8d3f8	-0.0066170655
52	0xbc4588d7	-0.012056551
53	0x3ce8e0f5	0.02842758
54	0x3c353626	0.011060273
55	0x3c2a3933	0.010389614
56	0xbcbe088b	-0.023197433
57	0x3bb40472	0.005493694
58	0xbc9d1e61	-0.019179525
59	0x3c362d8b	0.011119257
60	0x3c16d3af	0.009205743
61	0x3ba719ad	0.0050994963
62	0x3b27a9d0	0.0025583394
63	0x3b0f5c6d	0.0021875158
64	0xbb25de6c	-0.0025309576
65	0x3c154f83	0.009113195
66	0xbb272fbd	-0.0025510632
67	0xbc2082fb	-0.009796853
68	0x3c17e886	0.0092717465
69	0x3c863d33	0.016386604
70	0x3c189e24	0.009315047
71	0xba1f1dd9	-0.00060698163
72	0xbc33af87	-0.010967142
73	0xbc011230	-0.007877871
74	0xbb00a0e2	-0.0019627144
75	0xbc83766e	-0.016047683
76	0x3bd3d489	0.006464545
77	0xbc000b9c	-0.007815268
78	0xbbed4235	-0.0072405585
79	0xbc0b3fb9	-0.008499079
80	0x3c9b34dd	0.018946106
81	0xbb2f3318	-0.0026733335
82	0xbb980486	-0.004639211
83	0xbc431327	-0.011906422
84	0xbc4f8c2d	-0.012667698
85	0xba24203d	-0.00062609074
86	0x3c1e446c	0.009659868
87	0x3c3d5dce	0.011558009
88	0x3c0a6866	0.008447742
89	0xbbce7ec1	-0.0063017313
90	0x3c047ad2	0.008085923
91	0xbc7507d2	-0.014955478
92	0xba37edac	-0.0007016312
93	0xbcd19cf1	-0.02558753
94	0xbce9ab37	-0.028524024
95	0xbcb3effc	-0.02196502
96	0x3c87da48	0.016583577
97	0x3b912ed4	0.004430631
98	0x3b64853d	0.0034869455
99	0xbca17622	-0.01970965
100	0xbbd0cc76	-0.00637203
101	0x3c6575ec	0.014005166
102	0xbd0802a4	-0.033205643
103	0x3cb9f58b	0.022700092
104	0x3c73a28f	0.0148703
105	0x3c8218f8	0.015881047
106	0xbc6194cb	-0.013768385
107	0xbcc67076	-0.024223547
108	0x3b0060d9	0.0019588976
109	0x3bc75091	0.0060826023
110	0x3b8261db	0.0039789504
111	0x3b8465d4	0.004040459
112	0x3bb61f1b	0.0055579073
113	0xbc12c27c	-0.0089575015
114	0xbc5cf912	-0.013487117
115	0xbcc9997c	-0.02460932
116	0xbbd27772	-0.0064229304
117	0x3c01969a	0.007909441
118	0x3be45bc8	0.006968949
119	0x3b66f62a	0.003524194
120	0xbc69234c	-0.014229607
121	0x3c547724	0.012967858
122	0x3c892571	0.016741486
123	0xbbb39d93	-0.005481431
124	0xbb88d14d	-0.004175341
125	0x3ce34d07	0.02774669
126	0xbcd5f2a7	-0.026116682
127	0x3c96145f	0.01832026

action_model._discrete_distribution.branches.0.weight f4 [2, 128]
0	0x39812efd	0.00024639806
1	0x3ccc3ae0	0.024930418
2	0x3cc04b48	0.023473397
3	0x3a2a6c18	0.00065010926
4	0x3cb3eadf	0.021962581
5	0x3c80c4d8	0.015718862
6	0xbc111b2c	-0.008856576
7	0xbcb5dfa4	-0.022201367
8	0x3c94970d	0.018138433
9	0x3d0ff6d2	0.035147496
10	0xbb802112	-0.0039101923
11	0xbcb82dc4	-0.02248276
12	0xbcba1aa4	-0.022717781
13	0xbbd56faf	-0.006513558
14	0x3ba7666e	0.005108646
15	0x3baab095	0.0052090385
16	0x3c5f524d	0.013630462
17	0x3b4c5389	0.003117772
18	0xba9305de	-0.0011216959
19	0xbcd5817a	-0.026062716
20	0x3b7d3e54	0.0038641887
21	0x3b48ecab	0.0030658643
22	0xbca6d3e5	-0.020364711
23	0xbceb7437	-0.028741939
24	0xbc471e81	-0.012153269
25	0xbcaa8b88	-0.020818487
26	0xbcaae590	-0.020861417
27	0xbc029442	-0.007969918
28	0x3c6b0b26	0.01434592
29	0x3bc98f2a	0.0061510997
30	0xbca78e41	-0.020453574
31	0xbc2c52df	-0.010517805
32	0xbc81baf9	-0.015836226
33	0xbcad329e	-0.0211423
34	0x3c147bb3	0.009062695
35	0xbcdc3fea	-0.026885945
36	0xbc2fd609	-0.010732182
37	0x3c771a24	0.015081916
38	0xbcdc9e82	-0.026931051
39	0xbc979a8f	-0.018506316
40	0x3c3e36a3	0.011609706
41	0x3ca33770	0.019923896
42	0xbc046766	-0.008081293
43	0xba8ca5d9	-0.0010730579
44	0x3ca0173c	0.019542329
45	0xbcbf3984	-0.023342855
46	0xbc312fdc	-0.010814633
47	0x3b8675aa	0.004103382
48	0xbc434bf3	-0.011919963
49	0xbcd01efd	-0.025405401
50	0xbc48da45	-0.012259071
51	0xbc597df0	-0.013274655
52	0xbcf75cbb	-0.030195585
53	0x3c8045fa	0.015658367
54	0x3c589d69	0.013221123
55	0x3ccee1f0	0.02525422
56	0xbce2becc	-0.02767887
57	0x3d0364ee	0.032078676
58	0xbc424185	-0.011856441
59	0x3b6e9dbd	0.0036409937
60	0x3c7dc51d	0.01548889
61	0x3c44d3bb	0.012013371
62	0x3c85e466	0.01634426
63	0x3b6aec31	0.0035846347
64	0xbbfbbb7c	-0.007682262
65	0x3c5571ce	0.013027621
66	0xbc1ba6a4	-0.009500179
67	0x3c0c771a	0.008573318
68	0x3c8b174f	0.016978888
69	0x3c71d0ce	0.014759256
70	0xbc483fed	-0.012222272
71	0xba8441b4	-0.0010090382
72	0xbc46232e	-0.012093348
73	0xbc9d80e7	-0.019226504
74	0xbba59926	-0.005053657
75	0xbcb9258a	-0.022600908
76	0x3cac14e6	0.021006059
77	0xbc653d95	-0.013991733
78	0xbc4b6270	-0.012413606
79	0xbd099f68	-0.033599287
80	0x3ca712a1	0.020394625
81	0xbbfd6ca2	-0.0077338973
82	0xbc834f9f	-0.016029177
83	0xbcc9e809	-0.024646776
84	0xba9d2536	-0.0011989239
85	0x3c916941	0.017750384
86	0x3c66b85b	0.01408204
87	0xbbeefc8b	-0.007293289
88	0x3aa9f544	0.0012966772
89	0xbcaf34d2	-0.021387491
90	0x3c6e1fd8	0.014533959
91	0xbbf5ec1c	-0.007504953
92	0xbca4c8d0	-0.020115286
93	0xbc7c2355	-0.015389283
94	0xbc8c4baa	-0.017125923
95	0xbd031578	-0.032002896
96	0x3ca9dae4	0.020734258
97	0x3c0ef9e8	0.0087265745
98	0xbb51ee18	-0.0032032784
99	0xbca6e709	-0.020373838
100	0x3b78ad9e	0.003794528
101	0x3c8b0ecd	0.016974831
102	0xbcb63526	-0.02224214
103	0x3cabd441	0.020975234
104	0x3cd4b1ba	0.025963653
105	0x3c1ec194	0.009689707
106	0x3c228efb	0.0099217845
107	0xbcbd15cc	-0.023081683
108	0xba5d57ca	-0.00084435625
109	0xbc40ec0b	-0.011775027
110	0xbcc97749	-0.024593012
111	0x3c84c9d3	0.016209519
112	0x3ba2d106	0.004968765
113	0xbbdc4ae7	-0.0067227962
114	0xbccf9e38	-0.025344
115	0x3bcab7eb	0.0061864755
116	0x3c82abf2	0.01595113
117	0x3ba09b5f	0.004901334
118	0x3c980256	0.018555801
119	0x3cb9a421	0.02266127
120	0xbc9e09fe	-0.019291874
121	0x3cc7997d	0.024365181
122	0x3bfc77d9	0.0077047166
123	0xbb2f1238	-0.002671374
124	0xbcf4c441	-0.029878737
125	0x3bf9acda	0.0076194825
126	0xbcc51da3	-0.024061983
127	0x3a99aa82	0.0011723789
128	0x3b632917	0.0034661943
129	0xbceab95d	-0.028652841
130	0xbc19142c	-0.009343188
131	0xbc5203a3	-0.01281825
132	0xbc430263	-0.0119024245
133	0xbcbca9ea	-0.02303024
134	0x3cb2604c	0.021774434
135	0x3c6c9d64	0.014441822
136	0xbb865319	-0.0040992615
137	0xbca7f3da	-0.02050202
138	0xbc1631a8	-0.009167112
139	0x3d0ad446	0.033893846
140	0x3c92d26a	0.017922599
141	0xbc3a2a7c	-0.011362668
142	0xbc95eaef	-0.018300502
143	0xbcf9d0ba	-0.030495036
144	0xbc872f6c	-0.016502105
145	0xbc94a29b	-0.018143943
146	0xbc5b81c2	-0.013397636
147	0x3ba70e8e	0.0050981706
148	0xbc32fa34	-0.010923911
149	0x3cd35daa	0.025801498
150	0x3c814bec	0.015783273
151	0x3ca62122	0.02027947
152	0x3bdcaa18	0.006734144
153	0x3c838197	0.016053004
154	0x3c025dad	0.007956904
155	0x3ce681e4	0.028138109
156	0xbce27919	-0.027645634
157	0xbd18281c	-0.037147626
158	0x3c515baf	0.012778207
159	0xbb3338d3	-0.0027347102
160	0x3bd947c2	0.0066308687
161	0x3cbecf69	0.02329226
162	0xbc80bb58	-0.015714332
163	0x3cc24fa8	0.023719624
164	0x3c27f247	0.0102506345
165	0xbc5de1ca	-0.013542602
166	0x3c1ef566	0.009702062
167	0x3cd1dda7	0.025618387
168	0xbc239a80	-0.009985566
169	0xbcc9f107	-0.024651064
170	0x3b8503c3	0.0040592863
171	0xbcb24ce7	-0.021765186
172	0xbc2a4f60	-0.010394901
173	0x3c80fc06	0.015745174
174	0xbb479d7a	-0.0030458854
175	0xbc7a430b	-0.015274773
176	0x3c87cc43	0.016576892
177	0x3c53da3c	0.012930449
178	0x3c9a06cb	0.018802067
179	0xbb92e86e	-0.004483274
180	0x3ceee33a	0.029161084
181	0xbc927cfd	-0.017881865
182	0xbc1ee303	-0.0096976785
183	0xbca57db3	-0.02020154
184	0x3c0f396c	0.008741718
185	0xbc92e2b7	-0.017930372
186	0x3bf55d50	0.0074879304
187	0xbc8d0d6c	-0.017218314
188	0xbc9ebb42	-0.0193764
189	0xbbe6c1a8	-0.0070421286
190	0xbc21911a	-0.009861255
191	0xbd139fe4	-0.036041155
192	0x3ac99347	0.0015378975
193	0xbc3b25c8	-0.011422582
194	0x3c804205	0.01565648
195	0x3cb00978	0.02148889
196	0xbcd4ead4	-0.025990881
197	0xbcaa33d5	-0.020776669
198	0x3b96fefc	0.004608033
199	0xba55508b	-0.0008137307
200	0x3bc81208	0.006105665
201	0x3cb5643f	0.022142528
202	0x3c1942bb	0.009354289
203	0x3c71667f	0.01473391
204	0xbca0a145	-0.01960815
205	0x3d1d1d0a	0.038357772
206	0x3c91186e	0.017711844
207	0x3cc0c9e8	0.023533776
208	0xbc0f1c49	-0.008734771
209	0x3c564dee	0.013080103
210	0x3cadd2cc	0.02121868
211	0x3c96a9b5	0.01839147
212	0x3c83b528	0.016077593
213	0xbb970857	-0.0046091485
214	0xbceae83c	-0.028675191
215	0x3c375187	0.011188871
216	0xba5d62a3	-0.0008445179
217	0x3bf13785	0.007361355
218	0xbc79c549	-0.01524479
219	0x3c422e87	0.011851913
220	0x3b2ac3b6	0.0026056594
221	0x3ca4d9f4	0.02012346
222	0x3c5ef8fd	0.013609168
223	0x3cde0e6d	0.027106488
224	0xbbf10f96	-0.0073565943
225	0x3b0d9924	0.0021606172
226	0xbc53aead	-0.012920064
227	0x3cee9a20	0.029126227
228	0x3c1663be	0.009179054
229	0xbcfea23f	-0.031083224
230	0x3bff81b7	0.0077974456
231	0xbcadd6e2	-0.021220628
232	0xbd1002e3	-0.035159003
233	0xbc21e404	-0.009881023
234	0x3c230c23	0.009951624
235	0x3c832e9e	0.01601344
236	0xbba82224	-0.005131023
237	0x3befdb0f	0.007319815
238	0x3c4358ef	0.011923059
239	0x3c79c46a	0.015244583
240	0xbc86e0b8	-0.016464576
241	0x3d07c847	0.033149984
242	0x3c836495	0.016039172
243	0x3cae6d65	0.021292398
244	0xbbf7cc79	-0.007562217
245	0xbc3640ff	-0.011123895
246	0xbbf0211a	-0.0073281648
247	0x3c35a08e	0.0110856425
248	0x3ccb7e13	0.02484039
249	0xbcd856c0	-0.026408553
250	0xbb206bdb	-0.002447835
251	0x3c093d7c	0.008376475
252	0x3c89079b	0.01672726
253	0xbc5913fb	-0.013249393
254	0x3c2e7529	0.01064805
255	0xbcd5973c	-0.02607309

action_model._discrete_distribution.branches.0.bias f4 [2]
0	0x3c4390c4	0.01193637
1	0xbc4390c3	-0.011936369
