Assets/results/JumperAgentTest/JumperAgent/JumperAgent-4736.pt (torch, 546980 bytes, 33 tensors)

network_body._body_endoder.seq_layers.0.weight f4 [128, 42]
0	0x3dfac945	0.1224542
1	0xbdc61473	-0.09671869
2	0x3daacc2c	0.08339724
3	0xbd167cbf	-0.03674006
4	0x3ccd95fa	0.025095928
5	0xbe44ad89	-0.19206823
6	0xbd3506b8	-0.04419586
7	0x3ea86639	0.3289049
8	0xbc5e90b6	-0.013584306
9	0x3e83913d	0.25696746
10	0x3e594eac	0.21221417
11	0xbe061267	-0.13092957
12	0xbe273487	-0.16328631
13	0xbe672f22	-0.22576573
14	0x3d1e6fee	0.038680963
15	0x3dedbaf8	0.11607927
16	0xbd78f07f	-0.06077623
17	0xbdf5dc17	-0.120048694
18	0x3d8bdb62	0.06828953
19	0x3dad1070	0.08450401
20	0x3da862ab	0.082219444
21	0x3e692273	0.22767048
22	0xbcdc4d6a	-0.026892383
23	0xbe1646b2	-0.14675406
24	0x3c7eb1ff	0.015545367
25	0xbc940a75	-0.018071393
26	0xbda63af6	-0.08116715
27	0x3dc838f1	0.09776486
28	0x3c94f731	0.018184276
29	0xbe01dd1d	-0.12682004
30	0x3e4baafb	0.19889443
31	0xbeb8a5f1	-0.36064103
32	0xbe945732	-0.28972775
33	0x3db2e9b9	0.08735985
34	0xbe735e01	-0.23766328
35	0xbe5846c0	-0.21120739
36	0xbd7823d5	-0.060581047
37	0xbe2a3126	-0.16620311
38	0x3d0f37cc	0.03496532
39	0xbe549edd	-0.20763727
40	0x3db2a68a	0.08723171
41	0x3b9654ef	0.0045877616
42	0x3daecb35	0.085348524
43	0xbe5fadd8	-0.2184366
44	0xbd0580aa	-0.032593407
45	0xbcb2ce37	-0.021826847
46	0xbe58c05a	-0.21167126
47	0xbdf7165e	-0.12064813
48	0xbdf4ade6	-0.11947231
49	0xbe212148	-0.15735352
50	0x3e821585	0.25407043
51	0xbc909d9d	-0.01765328
52	0x3e354f92	0.17706135
53	0x3e421dc2	0.18956664
54	0xbe1de945	-0.15421017
55	0xbd855952	-0.06511177
56	0x3d72b81a	0.059257604
57	0xbd91f7d9	-0.07127351
58	0xbe26888f	-0.1626303
59	0x3d9f221c	0.07770178
60	0x3d908615	0.07056824
61	0xbdb90577	-0.090342455
62	0xbe2c8d26	-0.16850719
63	0x3b730e9f	0.0037087572
64	0xbd8ff90a	-0.07029922
65	0x3c2a1f02	0.010383369
66	0xbdf89e13	-0.12139525
67	0x3de24cef	0.1104983
68	0xbde80a23	-0.113300584
69	0xbe0db512	-0.13838604
70	0xbe48c62e	-0.1960685
71	0x3d1020d3	0.035187554
72	0xbc9052f5	-0.017617682
73	0x3e37e6bd	0.17959113
74	0xbe425257	-0.18976723
75	0xbe8d949e	-0.27652448
76	0x3db8eeb9	0.09029908
77	0x3dc431a3	0.0957978
78	0xbc954568	-0.018221572
79	0xbd4408c8	-0.047859937
80	0x3e71aec7	0.23601829
81	0xbc72e3f0	-0.014824852
82	0x3dd88642	0.10572483
83	0xbd9076a4	-0.07053879
84	0xbe09af92	-0.13445881
85	0x3e870abb	0.26375374
86	0xbd2cc436	-0.04217931
87	0xbd7472a8	-0.059679657
88	0x3d3b1d16	0.045682035
89	0x3d928442	0.071541324
90	0x3de0ea7b	0.109822236
91	0x3d493020	0.04911816
92	0xbeabab39	-0.3352907
93	0xbd24241e	-0.040073507
94	0x3e1fdd6b	0.15611808
95	0xbe5f498c	-0.218054
96	0x3d90cdf3	0.07070532
97	0xbe88b0ac	-0.2669729
98	0x3b8839f4	0.004157299
99	0x3e875c0d	0.26437417
100	0xbda709e3	-0.081561826
101	0x3e5bad97	0.21452938
102	0xbd49b14f	-0.04924136
103	0xbd4b11ed	-0.049577642
104	0xbdac73a3	-0.084204935
105	0x3d813ae0	0.06310058
106	0xbe947247	-0.28993437
107	0x3d226ad6	0.039652668
108	0x3d5c07f0	0.053718507
109	0xbd75f6da	-0.06004987
110	0x3c979259	0.018502401
111	0xbd81199a	-0.06303711
112	0x3e8f187d	0.2794837
113	0xbe2c00b6	-0.16797146
114	0xbe008916	-0.12552294
115	0x3e0b2523	0.13588385
116	0x3ddd3e95	0.10802952
117	0xbe0aa6a9	-0.13540138
118	0x3e5f491f	0.21805237
119	0x3e184a0a	0.14871994
120	0x3d8ac01a	0.06774922
121	0x3d183297	0.03715762
122	0x3e11607d	0.14196964
123	0x3e136d1f	0.14397095
124	0xbe545ccb	-0.20738523
125	0xbe235f86	-0.15954408
126	0xbe8b0dd5	-0.2715899
127	0xbde33534	-0.11094132
128	0xbe96a039	-0.29419115
129	0x3db993ca	0.09061392
130	0xbe3c2457	-0.18373238
131	0xbd1b6c1e	-0.037944905
132	0x3ceb3fe0	0.028716981
133	0xbbedd93b	-0.007258562
134	0x3e5e57a2	0.21713117
135	0xbadc84bb	-0.0016824225
136	0x3b892bf7	0.004186149
137	0x3de8e577	0.11371892
138	0x3e658db3	0.22417335
139	0xbbb875e8	-0.00562929
140	0x3e2278ac	0.15866345
141	0xbe51a3c7	-0.20472632
142	0x3ddaed49	0.1068979
143	0x3ca54d70	0.020178527
144	0xbdb1514a	-0.08658083
145	0xbe08eaef	-0.1337087
146	0xbe574568	-0.2102257
147	0x3dffea9c	0.1249592
148	0xbe5354b8	-0.20637786
149	0x3de6ab9d	0.112632014
150	0xbe69dd0c	-0.22838229
151	0x3dd80285	0.105473556
152	0xbb890f3e	-0.004182725
153	0x3d7b1580	0.0612998
154	0xbd4340ac	-0.047669098
155	0x3e26afd2	0.16278008
156	0x3e09bb4c	0.13450354
157	0x3ecfbfa7	0.40575907
158	0x3d1a0f39	0.037612174
159	0xbe21f64d	-0.15816613
160	0x3db1c459	0.086800285
161	0x3d13aed5	0.036055405
162	0x3e256053	0.16150026
163	0xbdb44bba	-0.08803506
164	0x3e96cdcc	0.29453886
165	0xbda6d92f	-0.08146893
166	0xbe8e87c7	-0.27837965
167	0xbe187eaf	-0.14892076
168	0xbdc62803	-0.096756004
169	0xbe11cd4e	-0.14238474
170	0xbe21aeb0	-0.15789294
171	0xbe26707d	-0.16253848
172	0x3ea6a2dc	0.32546127
173	0xbe2e6f1d	-0.17034574
174	0xbc807b98	-0.015683934
175	0x3d4900da	0.049073078
176	0xbd9267cc	-0.07148704
177	0xbe92dcb0	-0.28683996
178	0xbdf66f4f	-0.12032949
179	0x3d64ce24	0.055860654
180	0x3bdf11bb	0.0068075336
181	0x3e0028c1	0.12515546
182	0xbe186c1a	-0.14884987
183	0xbcc78186	-0.024353754
184	0xbb911b66	-0.004428315
185	0xbd6d3939	-0.0579159
186	0xbd7594fa	-0.05995653
187	0xbc96cfe3	-0.018409675
188	0x3e909746	0.28240412
189	0x3d3b4354	0.045718506
190	0x3e4fc04f	0.20288204
191	0x3e5bda2d	0.21469946
192	0x3e527a6a	0.2055451
193	0x3d910e92	0.07082857
194	0x3d9ad180	0.0755949
195	0x3db28ccd	0.08718262
196	0x3d2865a1	0.041112546
197	0x3d529f7a	0.05142162
198	0xbe4572df	-0.19282101
199	0x3cff17d4	0.031139292
200	0x3e115444	0.14192301
201	0xbe11bc3a	-0.14231959
202	0xbe8210c1	-0.25403407
203	0x3ce9db52	0.028546963
204	0xbde8c2fa	-0.11365314
205	0x3ea0d30b	0.31411013
206	0xbe5bb599	-0.21455993
207	0xbdd281e8	-0.10278684
208	0x3e1e37e0	0.15451002
209	0xbe0ce902	-0.1376076
210	0x3dbea7b8	0.093093336
211	0xbdb6e09d	-0.0892956
212	0xbe2c38f0	-0.16818595
213	0x3c8f1399	0.0174654
214	0x3e54bc51	0.20774962
215	0xbd454735	-0.04816361
216	0x3e4b2806	0.19839486
217	0x3eaaa13e	0.33326143
218	0xbdaa216b	-0.08307155
219	0xbe79d846	-0.24398908
220	0xbdbe1e93	-0.09283175
221	0x3caf3cb1	0.021391245
222	0xbc07fab7	-0.008299521
223	0xbdbb8734	-0.09156647
224	0xbd6242b5	-0.055239398
225	0x3e3b0744	0.1826449
226	0xbc826b61	-0.015920343
227	0xbe4e218d	-0.20129986
228	0x3e3cd434	0.18440324
229	0xbde5e0ac	-0.112244934
230	0xbd905450	-0.07047331
231	0xbebe6894	-0.37189162
232	0x3dadc0f4	0.084840685
233	0xbe1902d7	-0.1494249
234	0xbe2d2e22	-0.1691213
235	0xbcd09a8a	-0.025464315
236	0x3dd0ea66	0.10200958
237	0xbe818444	-0.25296223
238	0x3d8bad65	0.06820182
239	0xbe5a445f	-0.21315144
240	0x3c8c9a79	0.017163502
241	0xbe519797	-0.20467983
242	0x3e229218	0.15876043
243	0x3e0bfbc3	0.13670258
244	0x3d97d3c1	0.07413436
245	0x3ef764f4	0.4831921
246	0xbe067fd5	-0.13134702
247	0x3e152e3e	0.14568421
248	0xbea677de	-0.32513326
249	0x3dbdf657	0.09275501
250	0x3c7ffada	0.0156237725
251	0xbd1bd2e4	-0.038042918
252	0xbd92c021	-0.07165552
253	0xbd50cd0b	-0.050976794
254	0x3e9f9e24	0.3117534
255	0x3ebc085b	0.36725125

network_body._body_endoder.seq_layers.0.bias f4 [128]
0	0xbc3daf69	-0.011577466
1	0xbb669748	-0.0035185385
2	0x3c2840c6	0.010269349
3	0x3bda4359	0.0066608605
4	0x39ae1146	0.00033200736
5	0xbc57ce38	-0.013171725
6	0x3b7a7431	0.0038216228
7	0xbbe7a2a5	-0.0070689493
8	0x3c1e5fe4	0.009666417
9	0xbc0a5381	-0.00844276
10	0xbc11c63a	-0.008897359
11	0x3c207bff	0.009795188
12	0x3b415948	0.0029502679
13	0x3c3fa397	0.011696718
14	0xbaa80568	-0.0012818994
15	0x3c8fae9a	0.017539311
16	0x39251e62	0.00015746945
17	0xbb3aeb2f	-0.0028521528
18	0x3b81de3d	0.0039632604
19	0xbb9b2e0b	-0.0047357134
20	0x3b2b1a94	0.002610837
21	0x3ba58032	0.0050506825
22	0xbcd1a74b	-0.025592467
23	0x3cb46214	0.022019424
24	0x3d3f0cef	0.046643194
25	0x3c4f9faf	0.012672349
26	0xbbada8eb	-0.0052996776
27	0x3bb9e72c	0.00567331
28	0xbc8d6146	-0.017258298
29	0x38f8a8a3	0.000118569726
30	0x3c132f7e	0.008983491
31	0x3c88719d	0.016655738
32	0xb9cbc828	-0.00038868305
33	0x3c832c29	0.016012268
34	0xbbcc5279	-0.0062354174
35	0x3bb5a60c	0.005543476
36	0xbb3bca66	-0.0028654574
37	0xbc329429	-0.010899582
38	0xba540965	-0.0008088558
39	0x3a98e481	0.0011664779
40	0xbc65a88b	-0.014017235
41	0x3b98805e	0.0046539744
42	0x3c46ad79	0.01212632
43	0xbbaa6313	-0.005199799
44	0xbb11da61	-0.0022255408
45	0x3bd0c3f9	0.006371018
46	0x3c795eab	0.0152203245
47	0xbc456ca6	-0.01204983
48	0x3c171aca	0.009222696
49	0xbc5578e5	-0.013029312
50	0xbbaa7465	-0.0052018636
51	0x3baf41e5	0.0053484314
52	0xbb638bb2	-0.0034720716
53	0x3983ba40	0.00025125034
54	0x3c95cb2a	0.018285353
55	0xbc8d04ae	-0.017214146
56	0xbc3525bd	-0.011056361
57	0x3b044c5c	0.0020187115
58	0xbac8ed00	-0.001532942
59	0x39baacef	0.0003560553
60	0x3c373b67	0.011183596
61	0x3c1b7e3a	0.009490544
62	0x3ca4ccd4	0.0201172
63	0x3c752ad6	0.014963826
64	0xbc02a291	-0.007973329
65	0xbbcf3de4	-0.0063245166
66	0xbbfe6d7f	-0.007764518
67	0x3bbfb76b	0.0058507225
68	0x3cf8529f	0.030312834
69	0xbb871c52	-0.004123249
70	0xbc00db49	-0.007864782
71	0xbc3a98b8	-0.01138895
72	0x3d289f0c	0.041167304
73	0x3a8c85f3	0.0010721072
74	0x3c408490	0.011750355
75	0xbc3d3f99	-0.011550807
76	0xbc8f576c	-0.01749774
77	0x3c3271a9	0.0108913565
78	0x3ba9e135	0.0051843175
79	0x3b75f1e1	0.0037528204
80	0x3c2594b3	0.010106253
81	0x3c1e99a7	0.009680188
82	0xbc61dfc0	-0.013786256
83	0xbb887c3e	-0.0041652014
84	0x3c5f3a20	0.013624698
85	0xbc87d95d	-0.01658314
86	0x3b6bdb7f	0.0035988984
87	0x3b09bd92	0.0021017534
88	0x3c9c6838	0.019092664
89	0xbb37082b	-0.0027928452
90	0x3bb3a413	0.0054822057
91	0xbb8d5f20	-0.0043143183
92	0xbb92b4ce	-0.00447712
93	0xbbbd3b7a	-0.0057749124
94	0xbbd0e4d6	-0.0063749356
95	0xbc7174ed	-0.01473735
96	0x3c84fdec	0.01623436
97	0x3be33f53	0.006935039
98	0xbbcf661f	-0.0063293125
99	0x3b1f5522	0.0024312218
100	0x3c1267d2	0.0089358855
101	0x3aa9354c	0.001290956
102	0xbb212c7b	-0.0024593163
103	0x3bcedf50	0.006313242
104	0x3bb52484	0.0055280346
105	0x3c8ad344	0.016946442
106	0x3c228ae6	0.009920811
107	0x3c210cf0	0.009829745
108	0x3c98c268	0.018647388
109	0xbb95af3c	-0.0045680087
110	0xbb4543b3	-0.0030100166
111	0xbaf87737	-0.0018956427
112	0x3a85bddc	0.0010203677
113	0x3c082e9e	0.008311896
114	0x3b98d251	0.0046637435
115	0xbb611298	-0.0034343358
116	0x3c3061db	0.010765518
117	0xbbd059dc	-0.0063583683
118	0xbb2c3bd5	-0.002628078
119	0xbc8208b7	-0.015873296
120	0x3c782ec4	0.015147869
121	0xbbecff54	-0.007232586
122	0xbc8c5bec	-0.017133676
123	0xbc2054e1	-0.009785862
124	0xbbc95a40	-0.006144792
125	0x397102a1	0.0002298453
126	0x3ba35fb8	0.004985776
127	0xbc655136	-0.013996413

network_body._body_endoder.seq_layers.2.weight f4 [128, 128]
0	0x3dd742b1	0.10510767
1	0x3d8619bc	0.06547877
2	0x3cef1459	0.029184507
3	0x3d704b22	0.058665402
4	0xbe1c280a	-0.15249649
5	0xbbd333d2	-0.0064453864
6	0x3d53e8d7	0.051735725
7	0x3d046caf	0.03233021
8	0xbd2f96fe	-0.042868607
9	0xbcc3412d	-0.02383479
10	0x3bdcef7e	0.006742417
11	0x3d12c295	0.0358301
12	0xbd53d5c4	-0.051717535
13	0x3d841eaa	0.06451161
14	0xbd077493	-0.03307016
15	0xbd046670	-0.032324255
16	0x3e2672e6	0.16254768
17	0xbe54c3b2	-0.20777777
18	0x3d8a5089	0.06753642
19	0xbe343bed	-0.17600985
20	0x3e1eda4a	0.15512958
21	0xbd288afd	-0.041148175
22	0x3d339a92	0.04384858
23	0x3d4b6904	0.049660698
24	0xbe627042	-0.22113135
25	0x3cca2a10	0.02467826
26	0xbc01e508	-0.00792814
27	0x3e10f3fe	0.14155576
28	0x3d00c6ef	0.031439718
29	0x3c3076a3	0.010770473
30	0xbdea15c4	-0.11429933
31	0xbdbe6551	-0.09296668
32	0xbd2a51f5	-0.041582067
33	0x3daf4977	0.08558934
34	0xbd88a672	-0.06672372
35	0xbd99d58d	-0.07511435
36	0x3d8f97ec	0.07011399
37	0xbd9b427f	-0.075810425
38	0xbd754762	-0.05988253
39	0x3dfcad7a	0.123377755
40	0x3e27ff7f	0.16406058
41	0xbe110aab	-0.14164226
42	0x3c6e10f1	0.014530406
43	0x3d462bf1	0.04838175
44	0xbd2959da	-0.041345455
45	0xbdda492e	-0.10658489
46	0xbbe25967	-0.0069076302
47	0x3c4664cd	0.012108994
48	0xbdb746f0	-0.08949077
49	0x3e86b8f2	0.26312977
50	0x3d15dc61	0.036587123
51	0x3d81a2db	0.0632989
52	0x3cf5af43	0.029990798
53	0x3d4e2a08	0.050333053
54	0x3b40336f	0.0029327532
55	0xbd7934e1	-0.060841445
56	0x3e65c08c	0.22436732
57	0x3d1d8d0b	0.038464587
58	0x3e4f55dc	0.20247597
59	0x3dacfaa7	0.08446246
60	0x3b076cfd	0.0020664327
61	0xbd2fa995	-0.042886335
62	0x3da32940	0.07966852
63	0x3d7b1d57	0.061307278
64	0x3db02c62	0.08602215
65	0xbdabf8c7	-0.0839706
66	0x3d75231b	0.059847932
67	0x3cdbf89f	0.02685195
68	0x3d22670d	0.039649058
69	0x3d87d1d2	0.06631817
70	0x3d22102d	0.039566208
71	0xbcb6c778	-0.022311911
72	0x3e4c7b87	0.19968997
73	0xbdb37e56	-0.08764331
74	0x3d945294	0.07242313
75	0x3dfefc9c	0.12450525
76	0x3bff356a	0.00778835
77	0x3defc357	0.1170718
78	0xbcb0d71d	-0.021586949
79	0x3dcc10ac	0.099641174
80	0x3df85e1d	0.12127326
81	0x3e38baae	0.18039963
82	0xbd9bf314	-0.07614723
83	0x3d986085	0.07440285
84	0xbda2027c	-0.0791063
85	0xbc8b3354	-0.016992249
86	0x3dea5747	0.11442428
87	0x3d79ac7a	0.060955502
88	0xbd8a6f78	-0.06759542
89	0x3d6e77f8	0.05821988
90	0xbd9a344e	-0.075295076
91	0xbd5b3e8a	-0.05352644
92	0x3d348109	0.04406837
93	0x3e16b72b	0.1471831
94	0x3c9b76fb	0.018977633
95	0x3c890bc2	0.01672924
96	0x3d4dd0e7	0.050248053
97	0x3c8fd214	0.017556228
98	0xbac3369b	-0.0014893593
99	0x3caf61ca	0.021408934
100	0x3d207019	0.039169405
101	0xbd9e7b4f	-0.07738363
102	0x3d01734a	0.03160409
103	0x3d9b95bf	0.07596921
104	0xbd0f13b9	-0.03493092
105	0x3dc316c0	0.095258236
106	0xbdad96c6	-0.084760234
107	0xbdc95f43	-0.09832623
108	0xbde9e3b7	-0.11420386
109	0x3d214e62	0.039381392
110	0x3db77f5e	0.0895984
111	0xbe0b067a	-0.1357669
112	0xbda1d63b	-0.07902189
113	0x3d94a1c0	0.07257414
114	0x3d4f9005	0.050674457
115	0x3cbd6a7a	0.023122061
116	0x3c641fa7	0.013923562
117	0xbdbc7857	-0.092026405
118	0xbd45d552	-0.04829914
119	0x3e388a80	0.18021584
120	0x3da82f78	0.08212179
121	0x3db9f73f	0.090803616
122	0xbe1f7777	-0.15572916
123	0xbd96741a	-0.07346363
124	0x3d8e91f5	0.06961433
125	0x3dcaa0f5	0.09893981
126	0xbce99316	-0.028512519
127	0xbe229426	-0.15876827
128	0xbd908564	-0.07056692
129	0xbcaff91d	-0.021481091
130	0xbc6d0723	-0.014467034
131	0x3dd302dd	0.103032805
132	0x3b48b030	0.0030622594
133	0x3c58fcc2	0.013243856
134	0x3c3da8eb	0.011575918
135	0xbdd061d7	-0.101749115
136	0x3d8deba9	0.06929714
137	0xbc33d702	-0.010976555
138	0x3ddf2147	0.10895019
139	0xbd1c4e14	-0.0381604
140	0x3c9272c3	0.017876988
141	0xbdbf9ef2	-0.09356488
142	0x3dbd1945	0.092333354
143	0xbe52c4fd	-0.20582958
144	0x3ddefe52	0.108883515
145	0x3d270021	0.040771607
146	0x3db169a1	0.08662725
147	0x3df952f3	0.121740244
148	0x3cc9778c	0.024593137
149	0xbcb0e16e	-0.021591868
150	0xb9ae69e6	-0.00033266767
151	0xbb885442	-0.004160435
152	0x3d23d03d	0.039993513
153	0x3ba04b65	0.0048918
154	0xbc844c41	-0.016149642
155	0xbd3638a3	-0.044487607
156	0x3d9763c2	0.07392074
157	0x3d0d081d	0.034431566
158	0xbdd03ebb	-0.10168215
159	0x3d4f4ad9	0.05060849
160	0xbd48dc13	-0.049038004
161	0x3d27c479	0.040958855
162	0xbd0f4b64	-0.034984007
163	0xbd4b1c00	-0.04958725
164	0xbe22a7f0	-0.15884376
165	0x3d3fdb54	0.046840027
166	0xbd7e3a77	-0.062067475
167	0x3d51c850	0.051216424
168	0xbd489037	-0.04896566
169	0xbda842d2	-0.0821587
170	0x3dc24375	0.09485523
171	0x3d6254b5	0.055256564
172	0xbd382320	-0.044955373
173	0xbd28167f	-0.04103708
174	0xbd9c408c	-0.07629499
175	0x3b0774d8	0.002066901
176	0x3d9c1aab	0.07622274
177	0x3d4d98af	0.05019444
178	0x3d889513	0.06669059
179	0x38b2f24c	8.532833e-05
180	0x3d62a329	0.055331383
181	0xbe532a29	-0.20621552
182	0xbdbc4a81	-0.09193898
183	0x3e526a7b	0.20548432
184	0xbdae19c7	-0.085010104
185	0x3c736188	0.014854796
186	0x3d0f03d7	0.03491577
187	0x3d242f1c	0.04008399
188	0x3d95e149	0.0731836
189	0xbdd44d30	-0.10366285
190	0xbc1818ac	-0.009283226
191	0x3b58e25b	0.0033093903
192	0xbd346dde	-0.04405009
193	0x3d1321ee	0.03592103
194	0x3b74e2d1	0.0037366638
195	0x3dc217e8	0.09477216
196	0x3d3ad5d3	0.045614075
197	0xbd2c0f87	-0.042006996
198	0xbdde892c	-0.10866007
199	0xba69ee18	-0.00089237234
200	0xbdcd1ef5	-0.1001567
201	0xbd847908	-0.064683974
202	0x3c91eac8	0.017812148
203	0xbae6c93f	-0.0017607583
204	0x3db52f6d	0.088469364
205	0xbe6884bb	-0.22706883
206	0xbd14fe92	-0.03637559
207	0xbe10d1e2	-0.14142564
208	0xbe472de4	-0.194511
209	0x3df19434	0.11795846
210	0xbddbe994	-0.10737911
211	0x3d10e596	0.0353752
212	0xbc39126f	-0.011295899
213	0xbd32dd12	-0.04366786
214	0xbd1fd70c	-0.039023444
215	0x3dda7967	0.10667687
216	0x3e1889bc	0.14896291
217	0xbd6f262f	-0.058386024
218	0xbe512def	-0.20427679
219	0xbb5e04e5	-0.003387743
220	0xbe0693b6	-0.13142285
221	0xbcfa93bd	-0.030588025
222	0x3d341477	0.04396483
223	0xbe6c82fc	-0.23096842
224	0x3ca05367	0.01957102
225	0x3da87615	0.08225647
226	0x3e45df17	0.19323383
227	0xbce11c9e	-0.027479466
228	0xbdfb103c	-0.12258956
229	0xbceb9807	-0.028759016
230	0xbd2aafdc	-0.04167162
231	0x3d91c45d	0.071175314
232	0x3d61af92	0.055099078
233	0xbd23df21	-0.040007714
234	0xbe3e8c4f	-0.18608211
235	0xbca0b252	-0.01961628
236	0x3cf74e7f	0.030188797
237	0x3d0d725d	0.034532893
238	0xbda4dd76	-0.08050053
239	0x3d1d3c7a	0.038387753
240	0x3dbed25f	0.09317469
241	0x3d041bd6	0.03225311
242	0xbd0623e0	-0.032749057
243	0xbdc85552	-0.097818986
244	0xbdc29302	-0.09500696
245	0x3d6fbd8b	0.05853037
246	0xbc47551e	-0.01216629
247	0x3d6745bf	0.056463
248	0x3e18a686	0.14907274
249	0xbcea17ab	-0.028575739
250	0x3e1eb1a5	0.15497454
251	0x3dabbd3a	0.083857015
252	0x3d82fbe2	0.06395699
253	0x3daca274	0.08429423
254	0xbca48d09	-0.020086782
255	0xbdae38be	-0.085069165

network_body._body_endoder.seq_layers.2.bias f4 [128]
0	0x3ab12032	0.0013513623
1	0xba8288c4	-0.0009958972
2	0x3bccdd0a	0.006251936
3	0x3b3b4298	0.0028573629
4	0xbbd426b7	-0.0064743417
5	0xbb9a4bfc	-0.004708765
6	0x3b461125	0.0030222621
7	0xbc1d6d83	-0.009608629
8	0xbb857b9d	-0.0040735737
9	0xbb9c308b	-0.004766529
10	0x3a6da9e5	0.0009066149
11	0xbb28dda4	-0.0025766874
12	0xbab8e1bb	-0.0014105359
13	0x3bc7c52f	0.006096504
14	0x3c18946e	0.009312732
15	0xb9d8b94a	-0.00041336782
16	0x3af1c64a	0.0018445936
17	0xbb1dd92c	-0.0024085743
18	0xbc10d20e	-0.008839143
19	0xbc735d97	-0.0148538565
20	0xba9e9117	-0.0012097684
21	0xbc0550dd	-0.008136955
22	0xbbb91773	-0.0056485473
23	0xbba840e4	-0.0051346887
24	0xbba9be50	-0.0051801577
25	0x3b957979	0.0045616
26	0x3c41d460	0.011830419
27	0xbbba83a3	-0.005691962
28	0xbbc6cddf	-0.006067022
29	0xbbc431a5	-0.0059873634
30	0x3bd550ab	0.0065098605
31	0x3c07e422	0.008294137
32	0x3b64130f	0.00348014
33	0xbab44b95	-0.0013755435
34	0xbac46d27	-0.0014986143
35	0xbad1e627	-0.0016014025
36	0xbb6bc138	-0.0035973322
37	0x3b8f8aa9	0.0043805433
38	0xbadc8f77	-0.0016827424
39	0xb90219fc	-0.00012407446
40	0xbc9bae62	-0.01900405
41	0x3c0ad3c7	0.008473343
42	0xbba01221	-0.0048849736
43	0xbabcee17	-0.0014414218
44	0xbb7c9f64	-0.0038547153
45	0xba6dea0d	-0.0009075709
46	0xbbd2c21d	-0.0064318315
47	0x3c66e65b	0.014093007
48	0xbbada1d3	-0.005298832
49	0x3c1f6c26	0.009730374
50	0xbc85cc1b	-0.016332677
51	0x3c3e5240	0.01161629
52	0x3c789ca5	0.015174066
53	0x3b42e4a5	0.0029738334
54	0xbb8c39a6	-0.004279333
55	0xbc5b3ad7	-0.013380728
56	0xbb801ed7	-0.0039099264
57	0x3b260037	0.0025329718
58	0x3b01d602	0.0019811396
59	0xbb793b5a	-0.003802976
60	0x3b3e5902	0.0029044752
61	0x3be52d08	0.0069938935
62	0x3bed1899	0.0072355983
63	0x3a2ec8da	0.00066675025
64	0xbbdf26dc	-0.0068100523
65	0x3cb5054c	0.022097252
66	0xbb64eabb	-0.003492995
67	0x3b8c81bd	0.004287927
68	0x3c718c09	0.01474286
69	0x3bed0bfa	0.0072340937
70	0xbb6b1a54	-0.0035873847
71	0xbb796875	-0.0038056646
72	0xbbdd566e	-0.006754688
73	0x3c52bb24	0.012862001
74	0xbba606e7	-0.005066741
75	0x3bd14b56	0.0063871546
76	0x3b8ca42a	0.004292031
77	0x3c28c3b9	0.01030057
78	0xbbeabd9f	-0.007163718
79	0xbbe833b3	-0.007086241
80	0x3bcd9ee0	0.006275043
81	0xbbef0ea4	-0.0072954465
82	0xbc192e3f	-0.009349405
83	0x3bec37cf	0.0072088013
84	0xbbeeb226	-0.0072844205
85	0x3c02013e	0.0079348665
86	0xbc0f98d9	-0.008764469
87	0xbb63eec4	-0.0034779767
88	0x3ba01a4a	0.0048859464
89	0xbbe982af	-0.0071261744
90	0xbb79b90c	-0.0038104681
91	0xbb5dadb9	-0.003382547
92	0xbb9e60ca	-0.0048333155
93	0xbc1d6e76	-0.0096088555
94	0x3c09a29d	0.008400586
95	0x3d03b140	0.03215146
96	0xbb8efccb	-0.0043636314
97	0xbbce5858	-0.0062971525
98	0xbb4d58d0	-0.0031333454
99	0xbc0f2264	-0.008736227
100	0x3c86ac8b	0.016439697
101	0x3b9aa9c6	0.0047199456
102	0xba988f83	-0.001163945
103	0x3b79db30	0.003812503
104	0x3bf5a1b2	0.007496082
105	0x3b803807	0.003912929
106	0x3b988868	0.0046549328
107	0xbc3f8212	-0.011688726
108	0x3b50a6e4	0.0031837756
109	0xbc48b23d	-0.012249527
110	0xbb62f77e	-0.003463238
111	0xbca1335f	-0.019677816
112	0x3c203c91	0.009780065
113	0xbbef2e21	-0.0072992
114	0xbbc02e93	-0.005864927
115	0xbb852c56	-0.004064123
116	0x3b2378dc	0.0024943864
117	0xbc7d6ce9	-0.015467861
118	0xbb6b75ea	-0.0035928437
119	0xbc414525	-0.0117962705
120	0xbbfc6cf1	-0.0077034165
121	0xbca1a6e6	-0.019732904
122	0xbba3445c	-0.0049825143
123	0x3b777019	0.0037756024
124	0x3c398634	0.0113235
125	0x3c47e621	0.012200863
126	0xbbf497d8	-0.0074643902
127	0xbc643d54	-0.013930637

action_model._discrete_distribution.branches.0.weight f4 [2, 128]
0	0xbc1d03f9	-0.009583467
1	0x3c239779	0.009984844
2	0xbb1ca945	-0.0023904603
3	0x3c673ca4	0.014113579
4	0xba2be33c	-0.0006556993
5	0x3bcb3fbc	0.006202666
6	0xbc3e83ac	-0.011628073
7	0x3bb79366	0.005602288
8	0xbbe1a726	-0.0068863807
9	0xbc08cc94	-0.0083495565
10	0x3cf9bbd9	0.03048508
11	0x3c8168a0	0.01579696
12	0x3c9b0ca6	0.01892693
13	0x3c00005c	0.007812586
14	0xbbe33a91	-0.006934472
15	0xbbdb93fb	-0.0067009903
16	0xbb7b2994	-0.0038324343
17	0x3b089bd8	0.0020844843
18	0xbc2cac49	-0.010539123
19	0xbc096b8c	-0.008387458
20	0x3c1f58ab	0.00972573
21	0x3b49c581	0.0030787888
22	0x3b5a7904	0.003333629
23	0x3cc0439b	0.023469737
24	0xbc1e7f25	-0.009673868
25	0x3c8c4f5b	0.017127683
26	0xbc2f371b	-0.0106942905
27	0xbc96186c	-0.018322192
28	0x3c336ce3	0.010951254
29	0x3b86b4fe	0.0041109314
30	0xbcaae260	-0.020859897
31	0x3cdb2889	0.026752727
32	0x3c264cf5	0.010150184
33	0x3bce3ac0	0.0062936246
34	0x3c90a52c	0.017656885
35	0xbc844463	-0.01614589
36	0xbc81c9f2	-0.015843365
37	0x3c4b4d70	0.012408599
38	0x3bd52980	0.0065051913
39	0xbc416ed2	-0.011806207
40	0x3c218fdc	0.009860959
41	0x396cf3a7	0.00022597481
42	0xbbc2ff1c	-0.0059508216
43	0xbc2f91fc	-0.010715958
44	0x3c4fd7c7	0.012685723
45	0x3c849f8f	0.016189365
46	0x3b6e6a22	0.0036379178
47	0x3caa46eb	0.02078577
48	0x3b9c39ce	0.004767633
49	0x3cb1ee83	0.021720177
50	0xbc31497c	-0.010820743
51	0xbb8808b0	-0.0041514263
52	0xbc68346b	-0.014172654
53	0xbc9c456e	-0.019076075
54	0xbb03820f	-0.0020066535
55	0xbb298d6b	-0.0025871645
56	0xb98f0a76	-0.0002728288
57	0xbd093e5b	-0.033506732
58	0xbcb60fc8	-0.022224322
59	0xbc935335	-0.017984012
60	0x3b8150d2	0.003946402
61	0xbbf7a404	-0.007557394
62	0x3ca58dd6	0.020209234
63	0xbc27591b	-0.0102141155
64	0xbb537a08	-0.0032268781
65	0xbc64ae47	-0.013957567
66	0xbc3b104b	-0.011417459
67	0xbc71dec4	-0.014762584
68	0xbb82e69b	-0.0039947755
69	0x3b373719	0.0027956425
70	0xbb86b25e	-0.0041106185
71	0xbc65fe1b	-0.014037634
72	0x3c223c65	0.0099020945
73	0x3b86ca31	0.0041134586
74	0x3b15db84	0.0022866437
75	0x3cc46829	0.023975449
76	0xbb0275b3	-0.001990658
77	0xbb92ba11	-0.0044777473
78	0xba82af06	-0.0009970374
79	0x3c09bc43	0.0084067015
80	0xbb5c4bf0	-0.0033614598
81	0xbba2484f	-0.0049524675
82	0xbbf3a70d	-0.0074356855
83	0xbc82fb90	-0.015989095
84	0xbb64ac5c	-0.0034892773
85	0xbc0e2427	-0.008675612
86	0xbb8b1d94	-0.0042454693
87	0xbc3b7595	-0.011441608
88	0x3ae35c1c	0.0017346176
89	0x3b0ac0dc	0.0021172082
90	0xbc8a4fdc	-0.016883783
91	0x39882765	0.00025969293
92	0x3c7da366	0.015480852
93	0x3c55dea5	0.013053571
94	0xbb3e9958	-0.00290831
95	0x3c22dfa8	0.009941019
96	0xbb7a0f4c	-0.003815609
97	0x3c413fa6	0.01179496
98	0xbc89a966	-0.016804408
99	0xbc20258a	-0.009774575
100	0x3b0ce55c	0.0021499014
101	0x3bdfeda4	0.006833749
102	0xbc642d49	-0.013926812
103	0x3bc0134f	0.0058616768
104	0x3c297536	0.010342887
105	0xbb973dbb	-0.004615513
106	0x3b593b84	0.0033147046
107	0xbc84e673	-0.016223168
108	0x3b8de9aa	0.0043308334
109	0x3bce807b	0.006301937
110	0x3c01ad28	0.007914819
111	0x3b1c56e8	0.002385551
112	0x3c8791a6	0.016548943
113	0x3ca335f6	0.019923192
114	0x3b03e309	0.0020124337
115	0xbaecc9dc	-0.001806553
116	0x3c1cb8ed	0.009565574
117	0x3a3b483e	0.0007144249
118	0xbc50dbaa	-0.0127476845
119	0xbc28ef3e	-0.010310946
120	0xbc71aebc	-0.014751133
121	0xbce8640f	-0.028368024
122	0xbc531997	-0.012884519
123	0x3c92bde3	0.01791281
124	0x3c450b91	0.012026683
125	0xbb60d2de	-0.0034305374
126	0x3b83d097	0.0040226686
127	0x3b03ef3f	0.0020131615
128	0xbb936fed	-0.0044994266
129	0xbc2a3e5e	-0.010390846
130	0xbc8dc68b	-0.017306587
131	0xbc43c8ad	-0.0119497
132	0xbbaed80e	-0.0053358143
133	0x3bccd1ec	0.0062506106
134	0xbc897822	-0.016780917
135	0x3b184cfa	0.002323924
136	0xba8b92db	-0.0010648625
137	0xbb6eb4a3	-0.0036423586
138	0xbc9c5291	-0.01908234
139	0xbc1e1d90	-0.009650603
140	0xbb6565b9	-0.0035003258
141	0x3bb85c15	0.0056262114
142	0x3b0e6b57	0.002173146
143	0x3c091405	0.008366589
144	0x3aa5e56e	0.0012656876
145	0xbbae6db2	-0.0053231353
146	0x3aec01ff	0.0018005966
147	0xbbaa5036	-0.00519755
148	0xbaddb873	-0.0016915932
149	0x3b3ffaf7	0.0029293874
150	0x3b8ec2d7	0.004356723
151	0xbb12a1a1	-0.002237417
152	0x3c0b3f05	0.008498912
153	0x3a0f526b	0.00054672983
154	0x3c82e8fb	0.015980234
155	0x3c133564	0.008984897
156	0x3b1bf2dd	0.002379588
157	0x3c5dec87	0.013545162
158	0xb9d19f48	-0.0003998226
159	0xbb6863e5	-0.0035459932
160	0xba1edde6	-0.0006060287
161	0xbc8b9637	-0.017039401
162	0x3b8aaca5	0.0042320066
163	0x3c3d2d48	0.01154644
164	0x3c771545	0.015080755
165	0xbce59518	-0.028025195
166	0xbbc2abe3	-0.0059409006
167	0x3a941a19	0.0011299282
168	0xbc20d128	-0.009815492
169	0x3be2507e	0.006906568
170	0x3b878adf	0.004136428
171	0x3b4e65b3	0.0031493723
172	0xbc8de116	-0.017319243
173	0xbc272b75	-0.010203232
174	0x3b9fbf34	0.004875088
175	0xbcae82ed	-0.021302665
176	0x3c0ccbb2	0.008593487
177	0xbb33b6f2	-0.0027422276
178	0x3b989a05	0.0046570324
179	0x3c2ab754	0.010419685
180	0x3c4ed59d	0.012624172
181	0x3c9702da	0.018433977
182	0x3c8aecc4	0.016958602
183	0x3c237a8b	0.009977947
184	0x3b58fe24	0.0033110464
185	0xbb92fdbb	-0.0044858134
186	0x3cb5dc6a	0.022199828
187	0x3bf54d79	0.007486042
188	0xbc2994a9	-0.010350385
189	0xbc00f55e	-0.007871
190	0xbc5d8759	-0.013521039
191	0xbb4906c5	-0.00306742
192	0x3c1ed6b4	0.009694744
193	0x3c9675e5	0.018366763
194	0x3a6b50c3	0.0008976573
195	0x3cc62ad5	0.024190346
196	0x3c3a06d0	0.011354163
197	0xbc1e00b7	-0.009643725
198	0x3c986ed2	0.01860753
199	0x3b8dc9c4	0.004327031
200	0xbb411ca6	-0.0029466539
201	0xbc8d5e85	-0.017256984
202	0x3b910360	0.004425451
203	0xbb8247d2	-0.003975847
204	0xbc2fb347	-0.010723895
205	0x3bf25192	0.007394978
206	0xbc192b0b	-0.009348641
207	0xbb4984bf	-0.003074929
208	0xbc04dcc9	-0.00810928
209	0xbb454332	-0.0030099866
210	0xbb8f94e6	-0.0043817637
211	0xba87980e	-0.0010344998
212	0x3b52b5dc	0.0032151854
213	0x3c7490f9	0.014927142
214	0x3b20f3a6	0.0024559288
215	0xbbcef965	-0.0063163512
216	0x3b4ad8db	0.003095201
217	0x3c019116	0.007908126
218	0xba85f4ab	-0.0010220011
219	0x3bd7d280	0.006586373
220	0x3b8b9af5	0.0042604157
221	0xbaf66444	-0.0018798192
222	0x39cd6d3b	0.0003918203
223	0xbcf30c3d	-0.029668922
224	0x3bac1909	0.005252008
225	0x3b7debe2	0.0038745333
226	0xbc2b4c93	-0.010455268
227	0x3bfcc71d	0.007714166
228	0xbc172f3a	-0.009227568
229	0xbb7fa29e	-0.003900684
230	0xbbcc0385	-0.0062260055
231	0x3af30e31	0.0018543658
232	0x3ac5d4e0	0.0015093349
233	0xbbfd93e7	-0.0077385786
234	0xbbdbaeda	-0.0067041935
235	0x3b994c13	0.004678258
236	0x3baa507b	0.0051975823
237	0x3b2c04a7	0.002624789
238	0xbb5b8886	-0.0033498122
239	0xbb2bdd3a	-0.002622439
240	0xbcedeb70	-0.02904293
241	0xbc8fcfa8	-0.017555073
242	0x3b360572	0.0027774242
243	0x3c818cb9	0.015814172
244	0x3c332eb8	0.010936432
245	0x3bb3b1bc	0.005483834
246	0x3bbe0ff4	0.0058002416
247	0x3c8424f1	0.016130896
248	0x3ca10775	0.019656876
249	0xbc1b0378	-0.009461276
250	0x3c1483bc	0.009064611
251	0xbb48b146	-0.0030623241
252	0xbc579100	-0.013157129
253	0x3c4e35f7	0.012586108
254	0xbc82c2f0	-0.015962094
255	0xbb890ec1	-0.004182667

action_model._discrete_distribution.branches.0.bias f4 [2]
0	0x3b4775e8	0.0030435268
1	0xbb4775e2	-0.0030435254

exp_avg f4 [128, 42]
0	0x00000000	0.0
1	0xb9a6ed04	-0.00031838578
2	0x00000000	0.0
3	0x00000000	0.0
4	0x34d21bea	3.9135858e-07
5	0xb870be77	-5.7397843e-05
6	0xb9a7822b	-0.00031949705
7	0xac0b1ffc	-1.9770843e-12
8	0x00000000	0.0
9	0x00000000	0.0
10	0x35c9ae14	1.502633e-06
11	0x35dbb1db	1.6368534e-06
12	0x00000000	0.0
13	0xb9a150ca	-0.00030768506
14	0x97ba3c8e	-1.2035254e-24
15	0x00000000	0.0
16	0xb72cf651	-1.0309349e-05
17	0xb84404af	-4.6734403e-05
18	0xb9a78229	-0.000319497
19	0xadd31d27	-2.4000869e-11
20	0x00000000	0.0
21	0x00000000	0.0
22	0x35c9ae14	1.502633e-06
23	0x35d343e9	1.574049e-06
24	0x00000000	0.0
25	0x38de6cf7	0.00010606081
26	0x162d2a56	1.3988188e-25
27	0x00000000	0.0
28	0xb9de53b9	-0.00042405518
29	0xb9dc136e	-0.00041976146
30	0xb9a78229	-0.000319497
31	0x00000000	0.0
32	0x00000000	0.0
33	0x00000000	0.0
34	0x35c9ad3e	1.5026087e-06
35	0x35d0ca93	1.5556164e-06
36	0x00000000	0.0
37	0x00000000	0.0
38	0x9a146da5	-3.0694253e-23
39	0x2eff4bf7	1.16095515e-10
40	0xb9a6b87f	-0.00031799448
41	0xb9a6b87f	-0.00031799448
42	0x00000000	0.0
43	0x381b0143	3.6956055e-05
44	0x00000000	0.0
45	0x00000000	0.0
46	0xb2c3db46	-2.2800702e-08
47	0x36e7f958	6.913364e-06
48	0x381e4cb6	3.7741578e-05
49	0x2ce2b50e	6.4434074e-12
50	0x00000000	0.0
51	0x00000000	0.0
52	0xb558fbf8	-8.0832933e-07
53	0xb56d513f	-8.840761e-07
54	0x00000000	0.0
55	0x38275a54	3.9900027e-05
56	0x18395442	2.3953229e-24
57	0x00000000	0.0
58	0xb64718f1	-2.9667829e-06
59	0x362c53c0	2.5678746e-06
60	0x381e4cb6	3.7741578e-05
61	0x2cd6197b	6.0850747e-12
62	0x00000000	0.0
63	0x00000000	0.0
64	0xb558fbf8	-8.0832933e-07
65	0xb563cda5	-8.486334e-07
66	0x00000000	0.0
67	0xb7de616d	-2.650983e-05
68	0x17d1be91	1.3554414e-24
69	0x00000000	0.0
70	0x38850cbf	6.344308e-05
71	0x3882cc78	6.236968e-05
72	0x381e4cb6	3.7741578e-05
73	0x00000000	0.0
74	0x00000000	0.0
75	0x00000000	0.0
76	0xb558fb92	-8.0832353e-07
77	0xb5610345	-8.382379e-07
78	0x00000000	0.0
79	0x00000000	0.0
80	0x1a9e77a1	6.554054e-23
81	0xad3e089e	-1.0802163e-11
82	0x381ae8ca	3.6933263e-05
83	0x381ae8ca	3.6933263e-05
84	0x00000000	0.0
85	0x3918e385	0.00014580607
86	0x00000000	0.0
87	0x00000000	0.0
88	0xb4a13b59	-3.0031768e-07
89	0x38118cd5	3.4701854e-05
90	0x391e36f7	0.0001508853
91	0xad93c088	-1.6797466e-11
92	0x00000000	0.0
93	0x00000000	0.0
94	0xb6b481cc	-5.3795284e-06
95	0xb6b560e3	-5.4054995e-06
96	0x00000000	0.0
97	0x39054def	0.00012712901
98	0x9946af01	-1.0271702e-23
99	0x00000000	0.0
100	0x379a27b6	1.8376722e-05
101	0x380b025f	3.314239e-05
102	0x391e36f5	0.00015088527
103	0x2dc7542d	2.2661062e-11
104	0x00000000	0.0
105	0x00000000	0.0
106	0xb6b481cc	-5.3795284e-06
107	0xb6b4f87d	-5.393346e-06
108	0x00000000	0.0
109	0xb8250a29	-3.9348528e-05
110	0x984b1303	-2.6246734e-24
111	0x00000000	0.0
112	0x3941d570	0.00018485426
113	0x394029d7	0.00018326133
114	0x391e36f5	0.00015088527
115	0x00000000	0.0
116	0x00000000	0.0
117	0x00000000	0.0
118	0xb6b48196	-5.379504e-06
119	0xb6b4d9b3	-5.3897616e-06
120	0x00000000	0.0
121	0x00000000	0.0
122	0x9af5b9a4	-1.01629544e-22
123	0xaf9111da	-2.638803e-10
124	0x391892f9	0.00014550601
125	0x391892f7	0.00014550598
126	0x00000000	0.0
127	0x38c2f6b1	9.296591e-05
128	0x00000000	0.0
129	0x00000000	0.0
130	0xb403ff75	-1.229326e-07
131	0x37a0c7af	1.9166471e-05
132	0x38c6208a	9.4474366e-05
133	0xacfade26	-7.130091e-12
134	0x00000000	0.0
135	0x00000000	0.0
136	0xb5daf611	-1.631388e-06
137	0xb5e19cfc	-1.6809495e-06
138	0x00000000	0.0
139	0x38c18feb	9.229764e-05
140	0x171ccaa5	5.066209e-25
141	0x00000000	0.0
142	0x351261c0	5.4531483e-07
143	0x37414a0b	1.1520936e-05
144	0x38c62088	9.447435e-05
145	0x2b5479a1	7.5486324e-13
146	0x00000000	0.0
147	0x00000000	0.0
148	0xb5daf611	-1.631388e-06
149	0xb5de8025	-1.6577584e-06
150	0x00000000	0.0
151	0xb808af57	-3.2588225e-05
152	0x143d2f42	9.5513815e-27
153	0x00000000	0.0
154	0x3903862e	0.0001254312
155	0x390223fc	0.00012411171
156	0x38c62088	9.447435e-05
157	0x00000000	0.0
158	0x00000000	0.0
159	0x00000000	0.0
160	0xb5daf609	-1.6313871e-06
161	0xb5dd9691	-1.6509604e-06
162	0x00000000	0.0
163	0x00000000	0.0
164	0x1ab5f79e	7.525989e-23
165	0xae3470ad	-4.1027338e-11
166	0x38c2b4b6	9.284301e-05
167	0x38c2b4b6	9.284301e-05
168	0x00000000	0.0
169	0x37bc8989	2.2475391e-05
170	0x00000000	0.0
171	0x00000000	0.0
172	0xb2a7c01e	-1.9528724e-08
173	0x367eb74d	3.7955645e-06
174	0x37b5b4d8	2.1661093e-05
175	0xac80480a	-3.6459767e-12
176	0x00000000	0.0
177	0x00000000	0.0
178	0x3555584b	7.9477167e-07
179	0x3558192b	8.0502895e-07
180	0x00000000	0.0
181	0x37df8e33	2.6649888e-05
182	0x180d96fd	1.8300052e-24
183	0x00000000	0.0
184	0xb68cba6f	-4.194029e-06
185	0xb5d15e83	-1.559922e-06
186	0x37b5b4dd	2.1661102e-05
187	0xad831c44	-1.4905528e-11
188	0x00000000	0.0
189	0x00000000	0.0
190	0x3555584b	7.9477167e-07
191	0x3556cf4b	8.0022863e-07
192	0x00000000	0.0
193	0xb586248f	-9.994418e-07
194	0x179874b0	9.852226e-25
195	0x00000000	0.0
196	0x37c4c1e2	2.3455304e-05
197	0x37c46a97	2.3414656e-05
198	0x37b5b4dd	2.1661102e-05
199	0x00000000	0.0
200	0x00000000	0.0
201	0x00000000	0.0
202	0x35555744	7.947567e-07
203	0x35566da3	7.9880755e-07
204	0x00000000	0.0
205	0x00000000	0.0
206	0x1a08e2aa	2.830724e-23
207	0x2e663b6e	5.234873e-11
208	0x37bc5f7a	2.2455806e-05
209	0x37bc5f7f	2.2455815e-05
210	0x00000000	0.0
211	0xb8f4de8f	-0.000116762814
212	0x00000000	0.0
213	0x00000000	0.0
214	0x340ad7ea	1.29308e-07
215	0xb7984b9b	-1.8155019e-05
216	0xb8f9e0a7	-0.0001191509
217	0xada21481	-1.8426373e-11
218	0x00000000	0.0
219	0x00000000	0.0
220	0x3628f099	2.5173997e-06
221	0x362b4f39	2.55271e-06
222	0x00000000	0.0
223	0xb8ee64fd	-0.00011367535
224	0x17854fce	8.615069e-25
225	0x00000000	0.0
226	0xb64684a3	-2.9581504e-06
227	0xb7885f96	-1.6256974e-05
228	0xb8f9e0a2	-0.00011915086
229	0xae587230	-4.9214133e-11
230	0x00000000	0.0
231	0x00000000	0.0
232	0x3628f099	2.5173997e-06
233	0x362a335f	2.5361876e-06
234	0x00000000	0.0
235	0x3819e4ab	3.6691006e-05
236	0x96ec3431	-3.8160794e-25
237	0x00000000	0.0
238	0xb920c5bd	-0.00015332452
239	0xb91f3702	-0.00015183914
240	0xb8f9e0a2	-0.00011915086
241	0x00000000	0.0
242	0x00000000	0.0
243	0x00000000	0.0
244	0x3628efc2	2.5173508e-06
245	0x3629df54	2.5312956e-06
246	0x00000000	0.0
247	0x00000000	0.0
248	0x997a64a1	-1.2945019e-23
249	0x2f4af3b7	1.8458378e-10
250	0xb8f4993d	-0.000116633695
251	0xb8f4993b	-0.00011663368
252	0x00000000	0.0
253	0xba8ec0e4	-0.0010891226
254	0x00000000	0.0
255	0x00000000	0.0

exp_avg_sq f4 [128, 42]
0	0x00000000	0.0
1	0x3553cbde	7.890029e-07
2	0x00000000	0.0
3	0x00000000	0.0
4	0x33969386	7.011754e-08
5	0x33d11537	9.73618e-08
6	0x35573538	8.0171185e-07
7	0x32d2f5a2	2.4558918e-08
8	0x00000000	0.0
9	0x00000000	0.0
10	0x311e2c04	2.3017046e-09
11	0x313aadfb	2.7165459e-09
12	0x00000000	0.0
13	0x3492ecdc	2.7366957e-07
14	0x31828820	3.7989736e-09
15	0x00000000	0.0
16	0x3511c7ef	5.430765e-07
17	0x351218ca	5.442531e-07
18	0x355e67c2	8.285243e-07
19	0x3055b672	7.774822e-10
20	0x00000000	0.0
21	0x00000000	0.0
22	0x3127e082	2.4429316e-09
23	0x31300f1a	2.5619955e-09
24	0x00000000	0.0
25	0x34442b76	1.8269733e-07
26	0x30ce9091	1.5029561e-09
27	0x00000000	0.0
28	0x35272500	6.226619e-07
29	0x3527776d	6.2386135e-07
30	0x355e67c2	8.285243e-07
31	0x00000000	0.0
32	0x00000000	0.0
33	0x00000000	0.0
34	0x315d4e20	3.2204142e-09
35	0x3156b399	3.1243188e-09
36	0x00000000	0.0
37	0x00000000	0.0
38	0x311396b6	2.1476985e-09
39	0x331d448f	3.6616765e-08
40	0x35543f45	7.9068224e-07
41	0x35546540	7.912349e-07
42	0x00000000	0.0
43	0x3441b84d	1.8041574e-07
44	0x00000000	0.0
45	0x00000000	0.0
46	0x30ff76a8	1.8587416e-09
47	0x31cddb76	5.991235e-09
48	0x343c2bd9	1.7524816e-07
49	0x31390c58	2.692806e-09
50	0x00000000	0.0
51	0x00000000	0.0
52	0x32218f38	9.403998e-09
53	0x322247f9	9.446006e-09
54	0x00000000	0.0
55	0x340d53e6	1.316217e-07
56	0x32aafd63	1.9905832e-08
57	0x00000000	0.0
58	0x3313d53a	3.4420033e-08
59	0x331df677	3.677857e-08
60	0x343c9627	1.756349e-07
61	0x30c68a9d	1.4445792e-09
62	0x00000000	0.0
63	0x00000000	0.0
64	0x3223bfd1	9.531463e-09
65	0x32240cb7	9.548947e-09
66	0x00000000	0.0
67	0x340793b4	1.2626589e-07
68	0x313400ab	2.6193827e-09
69	0x00000000	0.0
70	0x33816fc5	6.0273614e-08
71	0x33828103	6.077064e-08
72	0x343c9627	1.756349e-07
73	0x00000000	0.0
74	0x00000000	0.0
75	0x00000000	0.0
76	0x323c912c	1.09760485e-08
77	0x323c8d41	1.0975158e-08
78	0x00000000	0.0
79	0x00000000	0.0
80	0x32d23e3f	2.4475524e-08
81	0x320d9c6c	8.242846e-09
82	0x34393425	1.7248438e-07
83	0x3435d6f9	1.6935145e-07
84	0x00000000	0.0
85	0x368e7a9a	4.2462025e-06
86	0x00000000	0.0
87	0x00000000	0.0
88	0x349d3ed1	2.9289234e-07
89	0x35159af4	5.573231e-07
90	0x3690566c	4.3015953e-06
91	0x33915e41	6.769233e-08
92	0x00000000	0.0
93	0x00000000	0.0
94	0x3422ea12	1.517258e-07
95	0x34251fb2	1.5378353e-07
96	0x00000000	0.0
97	0x351b3e84	5.783297e-07
98	0x34e0b3da	4.185411e-07
99	0x00000000	0.0
100	0x366ce982	3.530266e-06
101	0x366f94f8	3.5700486e-06
102	0x36920536	4.3517457e-06
103	0x31ae3c7d	5.070943e-09
104	0x00000000	0.0
105	0x00000000	0.0
106	0x342d5cf8	1.6145702e-07
107	0x342db6b1	1.6178343e-07
108	0x00000000	0.0
109	0x34d3c618	3.9445945e-07
110	0x328a72c2	1.61175e-08
111	0x00000000	0.0
112	0x3689b163	4.1035687e-06
113	0x3689d201	4.107366e-06
114	0x36920536	4.3517457e-06
115	0x00000000	0.0
116	0x00000000	0.0
117	0x00000000	0.0
118	0x3432cee0	1.6652803e-07
119	0x3432af53	1.6641324e-07
120	0x00000000	0.0
121	0x00000000	0.0
122	0x343231aa	1.659561e-07
123	0x352780c4	6.2399727e-07
124	0x3684d470	3.9586375e-06
125	0x36840fd6	3.93575e-06
126	0x00000000	0.0
127	0x3525cc2d	6.1764405e-07
128	0x00000000	0.0
129	0x00000000	0.0
130	0x3298e9b8	1.7801412e-08
131	0x33585bfd	5.0375082e-08
132	0x3528b1b2	6.284346e-07
133	0x322151ee	9.390062e-09
134	0x00000000	0.0
135	0x00000000	0.0
136	0x318ec7dd	4.1554657e-09
137	0x319bd579	4.5353628e-09
138	0x00000000	0.0
139	0x34123e5d	1.3619997e-07
140	0x32a6b3f3	1.9406775e-08
141	0x00000000	0.0
142	0x35005200	4.780304e-07
143	0x3501705a	4.821974e-07
144	0x352a1d72	6.3372784e-07
145	0x2f154a74	1.3577922e-10
146	0x00000000	0.0
147	0x00000000	0.0
148	0x31bbf1b9	5.469897e-09
149	0x31be2e46	5.5349885e-09
150	0x00000000	0.0
151	0x33d9d154	1.01429265e-07
152	0x31b59b7c	5.28547e-09
153	0x00000000	0.0
154	0x3511a53d	5.425716e-07
155	0x3511d393	5.432459e-07
156	0x352a1d72	6.3372784e-07
157	0x00000000	0.0
158	0x00000000	0.0
159	0x00000000	0.0
160	0x31c09c09	5.6056746e-09
161	0x31c18234	5.6318417e-09
162	0x00000000	0.0
163	0x00000000	0.0
164	0x32d64a99	2.4946802e-08
165	0x340a6030	1.2887244e-07
166	0x3508545d	5.078671e-07
167	0x35087290	5.083066e-07
168	0x00000000	0.0
169	0x347e1d3d	2.366623e-07
170	0x00000000	0.0
171	0x00000000	0.0
172	0x329f30e8	1.8532276e-08
173	0x32f6b8b2	2.8722159e-08
174	0x34825992	2.4279558e-07
175	0x32243fff	9.560607e-09
176	0x00000000	0.0
177	0x00000000	0.0
178	0x32009780	7.485028e-09
179	0x32035416	7.6443225e-09
180	0x00000000	0.0
181	0x33dbef86	1.0241551e-07
182	0x32535075	1.230011e-08
183	0x00000000	0.0
184	0x34181d1a	1.416669e-07
185	0x341a17d2	1.4351033e-07
186	0x34859e83	2.4888513e-07
187	0x2faec62f	3.1791234e-10
188	0x00000000	0.0
189	0x00000000	0.0
190	0x323c71e9	1.096894e-08
191	0x323cdb79	1.0992943e-08
192	0x00000000	0.0
193	0x3392fc94	6.8445985e-08
194	0x3205433f	7.756909e-09
195	0x00000000	0.0
196	0x3449b025	1.8783665e-07
197	0x344a3ce1	1.8834864e-07
198	0x34859e83	2.4888513e-07
199	0x00000000	0.0
200	0x00000000	0.0
201	0x00000000	0.0
202	0x3241e820	1.1286858e-08
203	0x32416845	1.1257787e-08
204	0x00000000	0.0
205	0x00000000	0.0
206	0x318e5806	4.142751e-09
207	0x32a900d8	1.9674573e-08
208	0x34805b37	2.3908225e-07
209	0x347ffbea	2.3840371e-07
210	0x00000000	0.0
211	0x3488db11	2.5491366e-07
212	0x00000000	0.0
213	0x00000000	0.0
214	0x339ebf3b	7.392233e-08
215	0x33af1615	8.153089e-08
216	0x3491ffe5	2.7194542e-07
217	0x3327dda5	3.9084302e-08
218	0x00000000	0.0
219	0x00000000	0.0
220	0x32135284	8.575288e-09
221	0x3224d671	9.594815e-09
222	0x00000000	0.0
223	0x34050569	1.2388558e-07
224	0x321aa097	9.000494e-09
225	0x00000000	0.0
226	0x34446af2	1.8292829e-07
227	0x34455453	1.8377732e-07
228	0x34a25eb1	3.0243748e-07
229	0x319318a3	4.281064e-09
230	0x00000000	0.0
231	0x00000000	0.0
232	0x321f0285	9.255591e-09
233	0x3223d477	9.536158e-09
234	0x00000000	0.0
235	0x339f10ec	7.4070925e-08
236	0x313ecf42	2.7766451e-09
237	0x00000000	0.0
238	0x347ce38a	2.3552107e-07
239	0x347ce611	2.3553027e-07
240	0x34a25eb1	3.0243748e-07
241	0x00000000	0.0
242	0x00000000	0.0
243	0x00000000	0.0
244	0x32688ed5	1.3536654e-08
245	0x3263b0cb	1.3253337e-08
246	0x00000000	0.0
247	0x00000000	0.0
248	0x30e523f2	1.6672159e-09
249	0x339427be	6.899016e-08
250	0x3482f0ab	2.4389496e-07
251	0x34832906	2.44305e-07
252	0x00000000	0.0
253	0x374c1e7e	1.2166447e-05
254	0x00000000	0.0
255	0x00000000	0.0

exp_avg f4 [128]
0	0xb9a6b87c	-0.0003179944
1	0x381ae8c8	3.6933256e-05
2	0x391892e8	0.00014550576
3	0x38c2b4b2	9.284298e-05
4	0x37bc5f9a	2.2455864e-05
5	0xb8f49924	-0.00011663351
6	0xba8ea7ea	-0.0010883783
7	0x39c17864	0.00036901527
8	0xb9520d31	-0.00020032075
9	0xb958961f	-0.0002065529
10	0x384e12ab	4.9131613e-05
11	0xb941ba2b	-0.00018475267
12	0xb76d58b6	-1.4146955e-05
13	0xb7220056	-9.656031e-06
14	0x3988e1a8	0.00026108068
15	0x39ddb7a1	0.0004228922
16	0x37d4539f	2.5311308e-05
17	0xb8a7f982	-8.009655e-05
18	0xb978747a	-0.00023694514
19	0x3793b017	1.7605764e-05
20	0xb89e6925	-7.553612e-05
21	0x395051aa	0.00019866848
22	0xb89fbf80	-7.6173805e-05
23	0x38434d87	4.6563826e-05
24	0x375b4ba9	1.3071033e-05
25	0xb95cb0ed	-0.00021046745
26	0xb67b5bf9	-3.745545e-06
27	0x36225db2	2.419442e-06
28	0x3996521e	0.00028671412
29	0xba03f419	-0.0005033627
30	0xb90f14af	-0.00013645248
31	0x37a8f8df	2.014305e-05
32	0x390eea61	0.00013629488
33	0x3927c36c	0.00015999161
34	0x38e095cd	0.00010709055
35	0x383d8ed7	4.519414e-05
36	0xba10c5ef	-0.00055226585
37	0xb9e9acdb	-0.0004457001
38	0x370180a2	7.718949e-06
39	0xb9837f35	-0.00025081044
40	0x392d5c9f	0.0001653307
41	0x37e1ba81	2.6908938e-05
42	0x390fd9e3	0.00013718712
43	0x398ce4c3	0.00026873322
44	0xb925fcc3	-0.00015829787
45	0xb9810a46	-0.00024612452
46	0x37056c5f	7.95265e-06
47	0x392a97de	0.00016269038
48	0x390eaff3	0.00013607721
49	0x394ea1be	0.00019705945
50	0x37e60396	2.7419806e-05
51	0xb8188cd1	-3.637077e-05
52	0xb7fea684	-3.03567e-05
53	0xb6cd7f3a	-6.124287e-06
54	0x3813a716	3.5203142e-05
55	0xb9d68d2c	-0.00040922442
56	0xb98e7c69	-0.00027177043
57	0xb68dd9ed	-4.2274974e-06
58	0xb7963c2b	-1.7909411e-05
59	0x384e09c2	4.9123315e-05
60	0x39b54b8d	0.000345793
61	0xb89b17fa	-7.395442e-05
62	0xb9bff5a1	-0.00036613367
63	0xb89f3367	-7.591285e-05
64	0x3856a473	5.117473e-05
65	0xb818a0e0	-3.638945e-05
66	0x393311c7	0.00017077393
67	0xb8634d0c	-5.4192773e-05
68	0x39d06307	0.00039746633
69	0xb96714a0	-0.0002203756
70	0x38afafda	8.377405e-05
71	0xb5af7a3c	-1.3074091e-06
72	0x39d45734	0.00040500762
73	0xb7d5d18b	-2.5489155e-05
74	0x3890a3b9	6.896951e-05
75	0xb90ce39f	-0.00013436236
76	0xb9b03b47	-0.000336135
77	0xb9b49b2c	-0.00034447887
78	0x38bae4d4	8.911794e-05
79	0xb85a5552	-5.205471e-05
80	0x38a64554	7.92841e-05
81	0xba8db411	-0.001081111
82	0xba219ba1	-0.0006164853
83	0x396042c5	0.00021387178
84	0xb9111e68	-0.00013839605
85	0xb9d8527e	-0.00041260192
86	0xb7d1d784	-2.5015099e-05
87	0xb9a52084	-0.00031495478
88	0xb6e017ef	-6.6785065e-06
89	0x38fc3524	0.000120261946
90	0x378d87f0	1.687181e-05
91	0x373259ca	1.0630532e-05
92	0x38e7bb29	0.000110498
93	0x352a46a4	6.343273e-07
94	0xb8a85496	-8.0266196e-05
95	0x37bc9d12	2.2484488e-05
96	0x3921c02e	0.00015425749
97	0xb9cc7413	-0.00038996394
98	0xb97754a1	-0.00023587282
99	0x394b57d7	0.00019392312
100	0x39ed4775	0.00045257402
101	0xb957b219	-0.00020570344
102	0xb9cd0c4d	-0.00039109812
103	0xb92b1825	-0.00016316825
104	0xb9636577	-0.00021686206
105	0xb900718f	-0.00012249335
106	0xb9afd3ce	-0.00033536408
107	0x39d21203	0.0004006774
108	0x399b403d	0.00029611765
109	0x391e244f	0.0001508158
110	0x38abdfd0	8.195604e-05
111	0xb91c4687	-0.00014903593
112	0xb99cd669	-0.00029914387
113	0xb981ea14	-0.000247792
114	0x3898d6ab	7.28791e-05
115	0x378d7e2e	1.6867267e-05
116	0xb9fb0461	-0.00047877713
117	0xba13ee88	-0.0005643149
118	0xba4076ca	-0.00073419197
119	0x3908057e	0.00012972017
120	0xb8d635c7	-0.00010214332
121	0x373ff476	1.1441405e-05
122	0x393d5e5b	0.00018059595
123	0xb973cd5e	-0.00023250791
124	0x39818fa2	0.00024711812
125	0xb875843e	-5.8535712e-05
126	0xb915c3af	-0.00014282645
127	0x397cbe09	0.00024103386

exp_avg_sq f4 [128]
0	0x355d76f3	8.250201e-07
1	0x3443fa4c	1.8251848e-07
2	0x36968385	4.4856592e-06
3	0x352aa436	6.3568893e-07
4	0x3488f4f7	2.551021e-07
5	0x34a35d8f	3.042919e-07
6	0x3755c771	1.2742225e-05
7	0x3583b71c	9.813552e-07
8	0x3501706f	4.821986e-07
9	0x347c7130	2.3510506e-07
10	0x3556f90c	8.0083623e-07
11	0x3606080f	1.9972247e-06
12	0x3617ec94	2.263846e-06
13	0x331ff19f	3.7239825e-08
14	0x34f54ce3	4.569075e-07
15	0x366b76b9	3.5086834e-06
16	0x33beadcb	8.879177e-08
17	0x3492c4d7	2.733784e-07
18	0x3488a76f	2.5453798e-07
19	0x3399e55d	7.1663386e-08
20	0x35c489ab	1.4643205e-06
21	0x35c33534	1.4544116e-06
22	0x345b9f6e	2.0453965e-07
23	0x345752c6	2.0053548e-07
24	0x343b16b7	1.7423996e-07
25	0x368ce812	4.1993417e-06
26	0x3699211a	4.563609e-06
27	0x36b09f59	5.2637592e-06
28	0x35d4dcee	1.585953e-06
29	0x35bfdeb0	1.429542e-06
30	0x36291c08	2.5199279e-06
31	0x35da0ee6	1.6246602e-06
32	0x35b8bf60	1.3764766e-06
33	0x34eaba7d	4.3721585e-07
34	0x3557f793	8.045401e-07
35	0x34cc0f53	3.800911e-07
36	0x367b922b	3.7486996e-06
37	0x368d252b	4.2064544e-06
38	0x33bf8cf1	8.919768e-08
39	0x35d47966	1.5830562e-06
40	0x34ec3452	4.3996494e-07
41	0x3648235a	2.98229e-06
42	0x34a282c0	3.0269985e-07
43	0x360b94ae	2.0799157e-06
44	0x3542d0f7	7.2574716e-07
45	0x36a36c80	4.8704096e-06
46	0x352458b2	6.122383e-07
47	0x361df526	2.3537518e-06
48	0x36054d09	1.9863385e-06
49	0x34c97d87	3.75305e-07
50	0x35bbaf62	1.3983629e-06
51	0x35226f2e	6.051149e-07
52	0x3597bea9	1.1305866e-06
53	0x321fc9ea	9.300928e-09
54	0x330c65f8	3.268903e-08
55	0x360a33e3	2.0593804e-06
56	0x35b7a866	1.3683573e-06
57	0x345681ae	1.997748e-07
58	0x3383afad	6.132118e-08
59	0x3662a98c	3.3775314e-06
60	0x36966370	4.4819244e-06
61	0x350eb7cb	5.3166576e-07
62	0x35cc5c88	1.5226115e-06
63	0x33ab578f	7.978735e-08
64	0x356740ea	8.614867e-07
65	0x34c66b11	3.6958275e-07
66	0x360fd08f	2.1430058e-06
67	0x35ca7472	1.5084063e-06
68	0x367c2376	3.7571567e-06
69	0x36cac2ca	6.0427456e-06
70	0x35471133	7.4158305e-07
71	0x367f0a08	3.80038e-06
72	0x3625c7c3	2.4703193e-06
73	0x34ac9bb4	3.2150786e-07
74	0x348bca20	2.6037833e-07
75	0x350210e1	4.8453336e-07
76	0x350ec4b9	5.318539e-07
77	0x36004e63	1.9119113e-06
78	0x34886c5a	2.541081e-07
79	0x330a0372	3.2133762e-08
80	0x34b990e0	3.4564346e-07
81	0x3696a489	4.4895028e-06
82	0x36079623	2.0203959e-06
83	0x353fb2a3	7.1412995e-07
84	0x34dd294e	4.119451e-07
85	0x35aca8cb	1.2864124e-06
86	0x35cb0ae5	1.5127849e-06
87	0x360c167a	2.0874709e-06
88	0x3417320a	1.4081175e-07
89	0x35173424	5.632776e-07
90	0x33b964f6	8.6330985e-08
91	0x33d0b685	9.718955e-08
92	0x35a95df8	1.261883e-06
93	0x32aaa739	1.9866649e-08
94	0x34c88adb	3.7353934e-07
95	0x36553950	3.1772834e-06
96	0x368d0d3f	4.2036695e-06
97	0x3584d95e	9.898029e-07
98	0x35585728	8.05931e-07
99	0x367a4c7d	3.7297425e-06
100	0x36b47487	5.3779836e-06
101	0x359c001e	1.162294e-06
102	0x35b2966c	1.3305812e-06
103	0x35cba309	1.5172128e-06
104	0x368401d0	3.9341176e-06
105	0x35992609	1.1410458e-06
106	0x348a410a	2.5751825e-07
107	0x36178257	2.2576621e-06
108	0x35ae6318	1.299285e-06
109	0x351b5994	5.7872353e-07
110	0x342490cb	1.5326366e-07
111	0x3630db71	2.6353775e-06
112	0x35b3aacc	1.3386248e-06
113	0x3499583d	2.8562673e-07
114	0x364bf5d6	3.0392453e-06
115	0x34b60dcd	3.3910183e-07
116	0x358177c1	9.646102e-07
117	0x364362aa	2.9114694e-06
118	0x35f48584	1.8218275e-06
119	0x351801ee	5.662722e-07
120	0x362d9d62	2.5870618e-06
121	0x35a9d6e8	1.2654027e-06
122	0x35d6987d	1.5988622e-06
123	0x34d43942	3.9529738e-07
124	0x36a39725	4.875374e-06
125	0x345f8bb0	2.0819311e-07
126	0x35d0da0b	1.5560666e-06
127	0x35c3dd77	1.4593087e-06
