Assets/results/JumperAgentTest/JumperAgent/JumperAgent-14082.onnx (onnx, 91980 bytes, 6 tensors)

network_body._body_endoder.seq_layers.0.weight f4 [128, 42]
00000000: c9bb 223d c6d7 53bd b3f9 213e 992b 37be
00000010: f61e 013e 5853 543e 7208 2cbc cca3 a5bd
00000020: 7b17 40be 5784 473e cd81 48bd 5d68 bc3d
00000030: 4334 c13d a347 733d be01 95ba 4d3c 91bd
00000040: a039 733c 6bde 81bd cc79 50bd c899 de3d
00000050: 0a6e 47bd 6444 0bbe ccf5 773e 87ff ce3d
00000060: 9834 343e ef59 60bd 889e 243d 60bf f23d
00000070: 5542 07be e161 bbbd dbc2 403e 1aae 673e
00000080: dd39 aa3c 0150 5d3d 417e 61be dd39 92bd
00000090: 7e74 6c3d 8882 87be b9a0 043e d0a8 983c
000000a0: 756a b7bc 9334 003e 4f3c aebd 4673 0c3d
000000b0: d15e f6bd 9a06 863b fc4f 0c3e 7bf5 533d
000000c0: b99a 0f3e a719 fa3d 4920 61be ef51 003e
000000d0: f649 33be 8c85 1b3e 93d2 ed3c 46fa 76be
000000e0: 2275 803d 593d 86bd fe87 663d 4889 993d
000000f0: c7c7 99bd 7fd9 e03d 4964 9c3d 1c58 09be
00000100: 2d30 28be 4ba1 3dbe a4fa 373e ffa3 fa3d
00000110: 3a73 403e f211 023e c859 e63d 4de8 bdbe
00000120: d356 103e 593a 143e af16 78be de35 95bd
00000130: 58e6 e13d 9f43 2b3d ab36 4f3d 0688 b9bc
00000140: d547 ccbc 9168 543c bc00 8a3d 3b67 023e
00000150: a4a8 193e cd1e 813e 5bcc a9bd 36e1 b4be
00000160: 9087 8cbe c863 3f3d 6944 3cbe 6be4 a63d
00000170: 7d64 1dbd 47fc dabb 6b4b 2a3e 4461 b73c
00000180: 3159 8f3e 6556 d83b b634 4ebe f966 b13e
00000190: 6454 e2bc d4ff 9cbd 5caa d3bc d421 12be
000001a0: c9cf 853c 2911 7fbd ba5c 353d b2ba e9bc
000001b0: 99ec d7bc e811 063e d087 e0bc f1d2 063e
000001c0: 01c9 133e ba9a d03c f7cd 3dbe 8330 13bd
000001d0: 1939 c03c 9463 18bd 666e f4bd 333a 86be
000001e0: 58c1 c03c 37e2 2e3c 8caf 4bbd 807d 293e
000001f0: 3e34 d2bd 07b9 063d d72c 29be 2b87 e6bd
00000200: ae5a 42be 0aef 5d3e 142e ec3c 958d 4b3d
00000210: 75ea 36be 17e0 7d3d 76f9 933e d742 173e
00000220: d978 0e3c 3ca5 a7be a3b2 59bd 9d3a f6bd
00000230: aeee febd bd9e 06bd 5a54 63bd 76f6 833e
00000240: bd98 02be cb8e f0bd fb33 003b 9454 853e
00000250: 75f3 3dbe 6f66 23bd 6fb0 b1bd e800 823e
00000260: b36d 083c ed66 ccbd 6fea 033d b2ff babd
00000270: a2ba d7bc 7604 9cbd 7592 34be 6de5 8c3e
00000280: 04d2 ac3e 7cd1 15be df4d 6b3d b294 a43d
00000290: b3ae 60be 4fc9 02bc bb96 99bd eb5d 203d
000002a0: 9470 98bd e975 80bb 479c a83d 5909 0e3d
000002b0: c5e6 21bd f16e d63d d719 e43d 64e9 283d
000002c0: 28a4 39be 2f82 09bd 4f93 25be 447e 2b3e
000002d0: 6f10 32be 997c cebb ba6f dfbd 4e00 17be
000002e0: 85e5 a13c 2dfe 6e3d 7e2d 0a3d c2d1 083e
000002f0: cdfe d7bd 9de6 033c 1122 193e f49d 8cbb
00000300: e55e 54be 173d 30bd c66c 4dbd f56a 223e
00000310: 3fb3 213e bf39 f7bc eb9a 1e3e f17b a7bd
00000320: 1f6b 32be 37c7 763e f18c d33d a731 ddbd
00000330: d969 8cbe a921 9f3d a69b 58be 3af0 67bd
00000340: caa8 593e 2ad3 8d3e 1ef0 193e aed1 c6be
00000350: 9928 0dbe 369e 343d 295e 013e 4a6a 063d
00000360: 54af 21be 4b33 fbbd 3e1d d8bd 35fb 65be
00000370: ab73 04bc 63e6 d93c 5eac 5e3c 1e03 0d3d
00000380: 304e 9fbe 6c9e 1cbd 62ea b73c bc5c 623d
00000390: 2c0a 65be bf4a 1e3e e997 4e3e 5ab5 68bd
000003a0: 6b5f 5dbe be5e 08bd 6942 22be aa03 16bd
000003b0: 79f0 103d b369 093e 5dfc 25be 9cdd 13be
000003c0: 8423 06be d074 303d 6e7a e63d 966d 69bd
000003d0: 830f 013d 7306 25bd 8798 cd3c b1d8 5c3c
000003e0: 8808 783d 0776 a2bd 310e 78be 9623 cfbd
000003f0: f6ef c23b be0d 063e 2e45 623e 83e3 95bd
0.039729867 -0.05171945 0.15817909 -0.17887725 0.12609467 0.20734918 -0.01050006 -0.080878824
-0.18758957 0.19484077 -0.048951913 0.09199593 0.09433796 0.05939449 -0.0011368317 -0.070915796
0.014845282 -0.06341251 -0.050897405 0.10869175 -0.048688926 -0.13600308 0.24214858 0.10107332
0.17598188 -0.054773267 0.04019025 0.11852908 -0.13208897 -0.09149528 0.18824331 0.22625008
0.020779544 0.054031376 -0.22020818 -0.07139943 0.057728283 -0.26466775 0.12951936 0.018635184
-0.02238963 0.12520055 -0.08507597 0.03428962 -0.120298035 0.0040901424 0.13702387 0.05174778
0.14023866 0.12211924 -0.21984972 0.12531255 -0.17508683 0.15187663 0.029031074 -0.24118909
0.06272341 -0.0655467 0.056282036 0.074968874 -0.07508808 0.10978984 0.076363154 -0.13412517
-0.16424628 -0.1851856 0.17966706 0.12238311 0.18793955 0.12702158 0.11247593 -0.37091294
0.14095621 0.14475383 -0.24227403 -0.07285665 0.11030263 0.041812535 0.050589245 -0.022647869
-0.024936596 0.012964384 0.06738421 0.12734692 0.15005738 0.25218812 -0.08290931 -0.35328072
-0.27447176 0.04672602 -0.18385471 0.08149036 -0.03842591 -0.006682906 0.16630332 0.022385247
0.27997735 0.006602096 -0.20137295 0.34648874 -0.027628131 -0.07665983 -0.02583807 -0.14270717
0.016334431 -0.062272225 0.044277884 -0.028531406 -0.026357936 0.13092768 -0.02740851 0.13166405
0.14432146 0.025464404 -0.185356 -0.035934936 0.023464726 -0.03720434 -0.11935119 -0.26216277
0.023529693 0.010674051 -0.04972796 0.1655178 -0.10263871 0.0328913 -0.16521011 -0.1125625
-0.18979904 0.21673217 0.028830566 0.04969557 -0.17862876 0.061981287 0.2890126 0.14771591
0.0086958045 -0.3274325 -0.053148877 -0.12022898 -0.12447868 -0.03286623 -0.055500366 0.25773972
-0.12753578 -0.117459856 0.0019562233 0.2604109 -0.18549903 -0.03989261 -0.0867623 0.25391316
0.008326936 -0.09980569 0.032205995 -0.09130801 -0.02633411 -0.07618038 -0.17633994 0.27518788
0.3375398 -0.14630693 0.05744731 0.08036174 -0.21941642 -0.007982566 -0.07499453 0.039152067
-0.074433476 -0.003920306 0.082329325 0.034676883 -0.03952672 0.10470379 0.11137741 0.041238204
-0.18129027 -0.03357142 -0.16169475 0.16747385 -0.17389081 -0.0063014743 -0.10909982 -0.1474621
0.019762764 0.05834787 0.03373479 0.13361266 -0.10546646 0.008050588 0.14954402 -0.0042912904
-0.20739324 -0.04302701 -0.050152563 0.15861113 0.15791033 -0.030178903 0.15488784 -0.08177937
-0.17423676 0.24099432 0.10329617 -0.10800486 -0.27424505 0.07770092 -0.21153125 -0.056625582
0.21255794 0.27700168 0.15033004 -0.38831848 -0.13785018 0.044096194 0.12633575 0.03281621
-0.15789539 -0.12265643 -0.105524525 -0.22459109 -0.008084218 0.026599115 0.0135909 0.0344268
-0.3111434 -0.03823702 0.02245063 0.05526422 -0.22367162 0.15458201 0.20175137 -0.056813575
-0.2161843 -0.03329348 -0.15845646 -0.036624588 0.035385583 0.13419227 -0.1620955 -0.14440006
-0.13099486 0.04308015 0.1125382 -0.056989275 0.031508934 -0.040289354 0.025097145 0.013479398
0.06055501 -0.07932668 -0.24224164 -0.10114209 0.0059490157 0.1309118 0.22096702 -0.07318785

network_body._body_endoder.seq_layers.0.bias f4 [128]
00000000: 3823 b93a 8969 c53c 81d5 e23b e3e0 b0bc
00000010: c086 ee3c 2b0b e8bc 1668 b63c a006 e4bb
00000020: 2d21 2c3c 2941 a43b c487 d4ba f638 333c
00000030: 45cb 32bc 3ffc 00bd 5e45 a83c 03ca 193c
00000040: aa11 e2bc 5aa1 7ebc 90a6 d33c 2fe4 01bd
00000050: b82e c23c 1cb5 bebc 814d a0bc f553 d3bb
00000060: 2a6c 41bd 72aa 19b9 2ec5 453c f61e e83b
00000070: 986f 14bc c872 aabc 2ba8 0c3d 09d2 a8bb
00000080: 110f 963c 4c28 93bc 408b e6bc 0fb0 103c
00000090: 9587 0ebd 24ac b43c 2800 543c a18a a9bb
000000a0: 96df 123c 3097 893c 4b78 c6bc 9df8 61bc
000000b0: 828b e9bc 362b 01bd cce3 323c ce74 55bc
000000c0: edd2 efbb b2d3 c0bc 24d0 50bc 06e6 183d
000000d0: 4973 19bd 4426 f7b9 8541 c3bb fbd3 913c
000000e0: 321a 2b3b 485d c73c 55c3 f43c fc94 263c
000000f0: bcc7 05bd b125 853c b2f6 283d b87d 86bc
00000100: 0721 8a3c b800 6e3c d78d 1ebc eba1 943c
00000110: a00c fabc b541 70bb 8578 663c cd04 73bc
00000120: 968c ed3c 6487 6dbc 3e72 183c 4167 39bd
00000130: beff d8bc e06e f8bc 8b1f 9d3b be69 c53c
00000140: c5f5 153c a1a6 353b af6c a13c 0ad6 f0ba
00000150: 6371 7cbc 779b 863c c53e b03c da51 c73c
00000160: 540f 08bd 1251 6d3a b9ff 2e3c 8ce6 11bd
00000170: 5262 d4bc 0af5 bfbc d72d 003b 69f3 863c
00000180: a00f babc 5dd8 9d3b daee 22bd 7976 4cbb
00000190: 7e3e bf3a 75f1 e9bb 1007 ac3c f6d4 833b
000001a0: d053 dc3c 6727 dfbc c7ee 11bd 9bb7 1abd
000001b0: 782f 1bbd 5e36 f6ba 8a43 7f3c 827c 443c
000001c0: 6783 c03c 6500 9cbb 9216 693b 2a5f 8c3a
000001d0: f35b 46bd 9aa6 33bd 2c31 ccbc 7e50 b13c
000001e0: 45be 70bc 56f7 a3bc eb2e 00bd 3319 b43c
000001f0: 6f6c 2fbd 7600 753c 9ebc 313b 45d6 b23c
0.0014124876 0.024098175 0.0069224243 -0.02159161 0.029116988 -0.028325638 0.022266429 -0.0069587976
0.010505957 0.0050126505 -0.0016214778 0.0109388735 -0.010912721 -0.03149056 0.02054089 0.009386542
-0.027596314 -0.015541399 0.02583626 -0.031711753 0.023703918 -0.023279719 -0.019568207 -0.0064492174
-0.047222294 -0.00014654713 0.012070937 0.007083769 -0.009059809 -0.020806685 0.034340065 -0.0051519913
0.018317731 -0.017963551 -0.028142571 0.008831038 -0.03479727 0.02205474 0.01293949 -0.0051739966
0.00896444 0.016795725 -0.024227282 -0.013792184 -0.028508905 -0.03153535 0.010918569 -0.013028337
-0.0073188455 -0.023538444 -0.012744937 0.037328742 -0.03746346 -0.0004714002 -0.0059587383 0.017801275
0.0026108143 0.024336472 0.029878298 0.010167357 -0.032661185 0.016253324 0.041250892 -0.01641737
0.016861452 0.014526539 -0.009677372 0.018143615 -0.030523598 -0.0036660258 0.01406682 -0.014832688
0.0289977 -0.014497612 0.009304581 -0.045264486 -0.026489135 -0.030326307 0.00479502 0.024098273
0.009152834 0.0027717727 0.019705145 -0.0018374335 -0.015407893 0.016431553 0.021514306 0.024331022
-0.033217743 0.0009052913 0.010681086 -0.035620257 -0.025925789 -0.023432273 0.0019558573 0.016473489
-0.022712529 0.0048170523 -0.039778568 -0.0031198545 0.0014590768 -0.0071393796 0.020999461 0.0040231897
0.026895434 -0.027240468 -0.035628106 -0.037772756 -0.037887067 -0.0018784513 0.015580067 0.011992576
0.023500158 -0.004760789 0.0035566431 0.0010709513 -0.048427533 -0.043860056 -0.02492579 0.021644827
-0.014693801 -0.0200154 -0.031294744 0.021984672 -0.04282802 0.014953723 0.0027120481 0.021830687

network_body._body_endoder.seq_layers.2.weight f4 [128, 128]
00000000: 550d 813d 414c 46bc b0fd 263e 851b 2fbe
00000010: 5532 b63c 57dd 9ebc 537f 963c 4afd c9bc
00000020: f133 92bd ce03 183d 7854 c33d 1da8 6a3d
00000030: 14ac db3d 3b7d e6bd 01cd 50be 87fb 443d
00000040: 01fc d63d 4448 e8bd adbc be3d 522e 623d
00000050: 4f4d 853d 8be7 02be 3046 b9bd 5646 2b3d
00000060: 5c25 d1bd 2bf5 903c 9aaa b73d 3c79 bf3d
00000070: 92ed 033d ee74 5ebd 68fd 713d fa75 893c
00000080: 4a07 0a3e b18e 6abc ec6a 413e 07e1 12be
00000090: 10f0 ebbd 73a0 a53d 40dd babc 5d8d f93d
000000a0: afea 5dbd 8449 963d 8d67 f43c 6a07 88bd
000000b0: 0b16 71bd 8554 f73d a8d6 bb3d 907d 333e
000000c0: 65c3 98bd 7974 ddbc a4ab 0abd c485 80bd
000000d0: d611 6e3d 2a7f d83d 603e 57bc 9636 debd
000000e0: 4e35 39bc 7cb4 f73c b7cc bdbd 036d b53a
000000f0: ec08 98bc 49d9 efbd 17ed 503c bff3 d63b
00000100: cbf7 6b3d 5848 02bd 8b03 e43d de52 f5bc
00000110: bcda 473d fd90 90bd b32e 283c 547b 303e
00000120: a234 adbd 76b8 de3c e787 003e d27e 81bd
00000130: 30db 68bd 02eb 1cbe bde6 d43d d3e9 cfbd
00000140: 1d23 a5bb e539 04be 41e9 adbd 87a6 c63c
00000150: ccef 80bd 9ea2 c83d ab95 1d3e 43b5 753a
00000160: b02d 03bc afcc 643b 0ee3 333c 0b07 da3d
00000170: c6ec 1c3d ea99 463e c135 acbc e13b 0a3e
00000180: 8fe8 683d 47de ca3d ae0e 06be 606c 61bd
00000190: c5e9 8d3d 92ee 43be f23a 893d 3017 c53c
000001a0: d9f8 513d 9c52 813d 7076 203d b49d 1abe
000001b0: dd2b 2fbd d7ef 433e a0d3 02be 098a d7bc
000001c0: 851f 82bd 819a a8bd d221 ba3c 3cff d23d
000001d0: fbf9 3abd 34cd fdba b1ae 88bd e763 95bd
000001e0: d359 dd3c 2eef 3ebd 79c2 993d 54ef c93c
000001f0: c6a1 04bd b5a2 bcbd 3237 24bd 2509 22be
00000200: 4466 163e 40a9 4839 2e6b 80bc 0f39 cb3c
00000210: ed50 7abc 1dc6 163e 2ead 1cbe 6404 3dbd
00000220: c547 b9bc 1522 9dbd a0f0 17be 89fb 55bd
00000230: 2e28 703d 9c0c c93b b2ad af3c 003d 8ebd
00000240: daeb 693e efab 933d 92e8 f3bd ffcc 283e
00000250: 28e2 8b3d 7657 8c3c 0ea8 223e c483 a03d
00000260: 7869 cdbd 2d31 5c3e 309c 48be aa4e f8ba
00000270: 7b64 8e3d 5185 383d ea6e a2bd 43f3 d33d
00000280: 81a5 ac3d 9704 c9bd 6078 d73d 8282 d23d
00000290: a88d 513e 0d8b 6dbe 8afa fabc 7d11 113d
000002a0: 031e c43d b533 30be ee49 8a3d 7a4f d93d
000002b0: 1e46 bcbd 1dec 4d3d 9b04 a53d b721 8bbd
000002c0: 3ddd b8bd 03f0 6ebd e7db 303d d724 82be
000002d0: e0f7 bebc 0a9f dc3c 8774 583d 4d7c c03d
000002e0: 89ed 823d 53b0 2abd 6583 b5bc e8fa 01be
000002f0: c82d b83d 6442 37bc bb5d 173d 9b69 8c3d
00000300: f01d 98bd 4a26 333d 7b22 09be 2aa3 af3c
00000310: 264c 123c 9731 733d 3891 c13c 4862 193e
00000320: b651 41be b6f8 7cbd 2349 21bd e68e 6c3e
00000330: b3af 093c 1c60 d93c d45f cfbb 0069 88bd
00000340: 771c 87bd 43de 883c 8df5 923d a801 b73c
00000350: 400d eabd 4efd 063e a104 b8bd ab4e 52be
00000360: 8e12 873e 1027 d43c dd8b 07be 14c2 1fbb
00000370: 867f 1e3d 4030 b23d 0e4f 603e 2dc0 a2be
00000380: 3936 0f3e 28b3 a43d 6ed4 0dbd 4e55 75bd
00000390: 8d3e 9a3d b3ac 263d 7cf4 d93d 3a05 a53d
000003a0: ef6f 9bbc fa58 7f3d b9df 9cbb de4d ad3b
000003b0: 0917 4a3d 3f27 df3c 5af8 403e 457b d8bd
000003c0: e5d8 09be 781a 0d3d d7f6 733c b5b7 bbbc
000003d0: 3fd4 af3c 4bbb 7ebc 13b5 cb3d b388 e6bc
000003e0: b017 f9bb c1e0 21bd 9f7a bfbc 70ab d8bd
000003f0: 35c4 99bc 601b aa3c 7357 a03d 9bfa 12be
0.06301371 -0.012103141 0.16307712 -0.17100342 0.022240797 -0.019392652 0.01837126 -0.02465691
-0.07138813 0.037113003 0.095375955 0.05728923 0.10726181 -0.112543546 -0.20390703 0.048091438
0.10497285 -0.113419086 0.09313331 0.055219956 0.06508886 -0.12783639 -0.0904659 0.041815124
-0.10212204 0.01769503 0.089680865 0.093492955 0.032208987 -0.05431073 0.059079558 0.016779888
0.13479343 -0.014316247 0.18888444 -0.14343654 -0.11520398 0.08087244 -0.022810578 0.12185166
-0.05417889 0.07338241 0.029834533 -0.06642039 -0.058858912 0.12076668 0.09171802 0.17528367
-0.074591435 -0.027033078 -0.033855096 -0.06275514 0.05812248 0.105711296 -0.01313743 -0.10850255
-0.011304213 0.030237429 -0.09267562 0.0013841692 -0.018558942 -0.11711366 0.012751839 0.0065598185
0.05760936 -0.031807274 0.11133488 -0.02994674 0.048792586 -0.07058904 0.01026504 0.17234546
-0.084573045 0.027187567 0.12551843 -0.06323017 -0.05684966 -0.15324023 0.10395572 -0.1015202
-0.005039586 -0.1291271 -0.08491755 0.024249328 -0.062957376 0.09796642 0.15389125 0.00093730184
-0.008006498 0.003491204 0.010979427 0.106458746 0.038311742 0.19394651 -0.021021726 0.13499404
0.05686241 0.09905677 -0.13091537 -0.055034995 0.069293536 -0.19133976 0.06700696 0.024058908
0.05126271 0.063145846 0.03917545 -0.15099221 -0.04276644 0.1913446 -0.12776041 -0.026310937
-0.06353668 -0.08232594 0.022721205 0.10302588 -0.045648556 -0.0019363523 -0.06673945 -0.072944455
0.02702037 -0.04661482 0.07507796 0.024650253 -0.03238084 -0.092107214 -0.0400917 -0.15823801
0.14687449 0.00019136537 -0.015676107 0.024807481 -0.015278083 0.14724012 -0.15300438 -0.046146765
-0.02261723 -0.07672516 -0.14837885 -0.052241836 0.05863207 0.0061355364 0.021445129 -0.069452286
0.22843876 0.07210528 -0.11909594 0.1648445 0.06830245 0.017131548 0.1588442 0.07837632
-0.10029882 0.21503134 -0.19590831 -0.0018944342 0.06952759 0.045049015 -0.079313114 0.10349133
0.08430005 -0.098153286 0.105210066 0.10278799 0.20464194 -0.23197575 -0.030637044 0.03541707
0.09576037 -0.17207225 0.06752382 0.10610862 -0.09193061 0.050274003 0.08057519 -0.0679354
-0.09026573 -0.05833436 0.043178465 -0.25418732 -0.023311555 0.026931304 0.052845504 0.093987085
0.063929625 -0.041672062 -0.02215738 -0.1269337 0.08993107 -0.011185262 0.036954623 0.0685608
-0.07427585 0.043737687 -0.1339206 0.021440107 0.008929288 0.059373464 0.023628816 0.14978898
-0.18878826 -0.061760627 -0.03937639 0.23101386 0.008403706 0.026535086 -0.0063285623 -0.06660652
-0.06597226 0.016707545 0.07175741 0.022339657 -0.114283085 0.13182566 -0.08985258 -0.20537822
0.26381344 0.025897533 -0.13236947 -0.0024377154 0.038695835 0.08700609 0.21905157 -0.31787243
0.13985528 0.08041984 -0.034626417 -0.059895806 0.07531462 0.040692043 0.10642335 0.080576375
-0.018974273 0.062340714 -0.004787412 0.0052888235 0.049338374 0.027240394 0.18844739 -0.10570387
-0.13461645 0.03444907 0.014890394 -0.022914747 0.021463512 -0.015547584 0.099466465 -0.028141355
-0.0076017007 -0.039520983 -0.0233739 -0.10579574 -0.018770317 0.020765007 0.078291796 -0.14353411

network_body._body_endoder.seq_layers.2.bias f4 [128]
00000000: 85c1 713c de01 11bd 092b 1bbd 9280 a93c
00000010: 6fb3 d93c bcbc c03c b124 43bd acf0 26bd
00000020: b8f1 a2bc 4d48 26bd 6fee bd3c 14c1 19bd
00000030: f5a8 a3bc 4410 8a3c 9223 2c3c 08df c3bc
00000040: c03e 24bc a2f4 c7bc 06ee 82bc 5051 24bc
00000050: 6b0a 80bc 7f67 3bbc d69e 3fbd 5ccc dbbc
00000060: 9022 27bd 95f7 a9bc e183 12bd 482c 35bc
00000070: 47fa 1ebd 03f4 923b be94 16bb 66f7 45bd
00000080: 18da e9bc 717e e03c 2b4e 2d3b 5b82 573c
00000090: 8a30 1bbd 0dea 153c 6ff2 563b e00c ef3c
000000a0: bc21 963c a614 2a3c 4d2c a8bb fdb4 85bc
000000b0: 1f27 d43c 6d93 c03c 95f8 863c e71f d63b
000000c0: e391 cbba 7761 43bd bc5f 36bc 0038 82ba
000000d0: c145 22bd c117 03bd 41d8 ebb9 261b 423c
000000e0: 6896 1dbc b3e8 f8bc 2db9 4e3c c292 2dbd
000000f0: a043 4fbd f0aa c4ba c5f1 13bd 38ad 25bd
00000100: 6cf1 d7bc d322 34bd 1296 d73c aa9c b13c
00000110: 143c 57bb 135e bb3c 6b46 1dbd 0f1e c53c
00000120: aa78 c83a ece7 41bd a13a 1ebd 44bf 47bc
00000130: 3fa3 0a3b 0915 01bd 696d c8bb 2ea4 2ebd
00000140: 8a2f 1b3c b8e9 c9bc 825a bd3c 4bee 34bd
00000150: c409 b2bc dc27 41bd 126d febc b284 913c
00000160: c82f 0fbd e077 16bd bbbc a63c 78cc 42bc
00000170: 2632 2cbd c8b3 703c 74c6 c53a 2ebc 20bd
00000180: 72aa 0abd 3dea f73b 9401 b93b 835d 013d
00000190: 407f d93c 6799 43bc 6f0e 9ebb 13ca da3b
000001a0: be55 19bd 942f 21bd 40ff bbba 69c3 f4bc
000001b0: 28c1 bdbc e6c7 99bc a1d1 8fbc 2adb d83c
000001c0: b335 2ebb 68eb 8d3c 8fdb 0b3c 4275 0cbd
000001d0: cfee c0bc 4b56 df3b d140 68bd 15a5 933c
000001e0: dac7 b13b ef1b 8f3c e433 3239 4c8a fcbc
000001f0: de8e 1abd 7f79 3dbc 8caa 0e3b afb3 0ebd
0.014755611 -0.03540217 -0.03788284 0.02069119 0.026574818 0.023527496 -0.047642414 -0.040756866
-0.019890651 -0.040596295 0.023184983 -0.03753765 -0.019978026 0.01685346 0.0105065275 -0.02391006
-0.010024726 -0.024408642 -0.015982639 -0.010029152 -0.015629968 -0.01143825 -0.046782337 -0.026830845
-0.040804446 -0.02074794 -0.0357703 -0.011057921 -0.0388129 0.004484655 -0.002297684 -0.04833164
-0.028546378 0.027404042 0.0026444297 0.013153638 -0.037888087 0.00915004 0.003279831 0.029180944
0.018326633 0.0103808995 -0.005132234 -0.016321654 0.02589756 0.023507798 0.016475955 0.006534565
-0.0015531149 -0.04770037 -0.011131223 -0.0009934902 -0.039617304 -0.032005075 -0.00044983815 0.011847293
-0.009618379 -0.030384397 0.0126173915 -0.042376287 -0.0506016 -0.0015004557 -0.03611924 -0.040448397
-0.026360236 -0.043978523 0.026316676 0.021681149 -0.0032842206 0.022872007 -0.038397234 0.024062185
0.001529475 -0.04734032 -0.03863013 -0.012191597 0.002115443 -0.0315142 -0.0061165583 -0.042637043
0.009471783 -0.024647579 0.023114447 -0.044172566 -0.021733172 -0.047157153 -0.031057868 0.01776347
-0.034957677 -0.036735415 0.020353666 -0.011889569 -0.042040013 0.014691301 0.0015089051 -0.039241962
-0.033853956 0.007565765 0.00564594 0.03158332 0.026549935 -0.011938429 -0.004823498 0.006676921
-0.037435286 -0.039352015 -0.0014343038 -0.029878335 -0.023163393 -0.018772077 -0.017556014 0.026471693
-0.00265823 0.017324165 0.008536234 -0.034291513 -0.023551373 0.006815707 -0.05670244 0.018023053
0.0054254355 0.017469374 0.00016994734 -0.030827664 -0.037733905 -0.011564611 0.0021769134 -0.03483933

action_model._discrete_distribution.branches.0.weight f4 [2, 128]
00000000: edfe 873b 2fe9 28bd b71d 22bd 44b4 a13c
00000010: 7d15 6f3c 4507 713c 73f7 13bd d402 27bd
00000020: bf14 b4bc b44d c8bc 4cfc ef3c 19aa 20bd
00000030: f151 1bbb 5111 273c 73b7 eb3b d99b 983b
00000040: 5593 af3b 4586 9bbc a68b e53a 45fe d2bb
00000050: 55f3 bdbb 252e 68bc 43b5 21bd 5a92 99bc
00000060: 8a77 09bd 273d afbc 4dfd f8bc 8e31 5bbc
00000070: c086 f9bc 3493 163c c40a 3e3c cb28 1abd
00000080: 837f 88bc 3331 e23c e23d 05bc 5a12 403c
00000090: c9f6 3dbd b662 bc3b 7688 9dbc ddee c53c
000000a0: e0db 4d3c 0be2 253c abbf 59bc 9f49 86bc
000000b0: 885f b13c e220 d23c aa3d ac3c 1e0e 6e3c
000000c0: 349c 7bbc b859 fbbc 055d b4bb 8a2e babb
000000d0: 6fff 29bd f542 09bd 76cf 1fbc 2972 263c
000000e0: c001 dcba 3cb4 9fbc b0be 853c 6168 1cbd
000000f0: eeaa 24bd 0fd7 87bc 08bd afbc ad14 33bd
00000100: 98c0 b6bc 29bc 0dbd 5bf4 083d 08a0 6a3c
00000110: 362a 453c 7048 0c3d 5262 8bbc 1b2f 953c
00000120: 7059 a5bb b16c 1abd baa8 39bd 7596 f9bb
00000130: 9ae8 d73b 9176 e9bc 6057 2abc 6624 09bd
00000140: 6286 7c3c e09b 78bc ab4d 9e3c 2dc0 04bd
00000150: 95be 2cbc 6648 b2bc 7e6f 11bd afc0 b93c
00000160: 39a0 15bd e9d4 1abd f1f3 073d 1140 753c
00000170: 4a6e 26bd a6f2 503c 61b3 01bc d945 0bbd
00000180: 3dda 11bd 2a74 cabc 5b94 3abc 07c8 043d
00000190: 228d db3c 63be 7bbc 6e0f 91bb 2c65 a7bc
000001a0: a6fa b0bc fdb8 3cbc 7049 7dbc b6d4 fcbc
000001b0: c38c dcbc 84e0 02bc 4dc3 28bc 3ed5 033d
000001c0: 01dd 3c3c b32b 0d3b f2b9 a73c 8fb8 b7bc
000001d0: 842a 4fbc 603d ddbb 5c00 25bd 0292 863c
000001e0: cec2 fcba 6f3e 5a3c 0931 f8ba 2947 ecbc
000001f0: 980a 02bd 81da 15bc 7d24 9a3c 9198 abbc
00000200: 2e81 29bc 71b6 1f3d 58f1 de3c b1ef 8ebc
00000210: 7955 f3bc d1a2 82bc aa7d b13c a013 253d
00000220: a6d3 5f3c fa53 0e3d f488 b9bc 35c4 353d
00000230: dedd 6e3c 201b 8dbc 0698 68bc 475d 9c3c
00000240: 1ed2 1cbb a271 a43c 0362 56bb da85 11bb
00000250: 6936 d73c 40bc 6dba 891f 123d 3524 503c
00000260: 1b48 2a3d 2cf3 f53b 547a 8a3c dbae 403c
00000270: 6e76 b83c 5673 1cbc bfcb 523b 317d 143d
00000280: 6334 f33c 118d 21bd 747c 6bbc 23de 9abc
00000290: 5974 1e3d 16b6 27bc 67b7 5abb 7ad9 01bd
000002a0: be69 acbc b7b4 f6bb 5ef5 dcba 16c4 203c
000002b0: 4843 0dbd b642 cabc 4d81 b2bb c526 bf3c
000002c0: 4239 ba3c 5e22 0a3d 2d99 0f3c d987 7bbc
000002d0: 1216 c53c fdab 203c 98d1 6b3c 914a 20bc
000002e0: 2e68 563c 64f7 183d cd88 77bc 71bb fe3c
000002f0: a7d6 873c e719 06bb e409 d43c e25c d43c
00000300: cb8b 943c 2735 223d ef6c 7fbc 1621 ffbc
00000310: 6578 07bc 837f 12bc 8836 893c 84d1 9fbc
00000320: 410c 3f3c 41b2 cd3c 2465 973c c230 10ba
00000330: c01f 953a 20a4 a93c 7ca7 343c 19ca e53c
00000340: d669 26bc 68f2 97bb ab37 8bbc ef19 0b3d
00000350: e841 713c b57a 2d3d 402e ca3c 5cb3 cbbb
00000360: 2635 d13c d957 043d 706d a8bb d367 073b
00000370: 0325 d93c f761 93bb 8b30 4d3c 8c27 ff3c
00000380: 2c00 ea3c fa88 203c 0a6d 9dbb dc19 bcbc
00000390: 3ac7 efbc ea7d 8f3b 35b6 33ba 9f05 92bb
000003a0: 7d04 c93c fa2b 2f3d 00e6 433a 6ee4 9b3c
000003b0: 8bfc 493c 38a6 923b dba0 043d 1ff5 c6bc
000003c0: dfe9 b7b9 feee ebbc b347 8abc cdc9 f83c
000003d0: 06ce 663c e234 0a3b f49b b03c 7b88 aebb
000003e0: 1b2d 4bbc a1a3 8dbc ec00 47bc 8f1a 873c
000003f0: a163 c03c 331d 933c 4a96 ec3b 46ad f43c
0.0041502626 -0.041238006 -0.03957912 0.019739278 0.014592526 0.014711206 -0.036124658 -0.04077418
-0.021982549 -0.024451114 0.02929511 -0.039224718 -0.0023699964 0.010197 0.0071934997 0.0046572504
0.0053581395 -0.018984923 0.0017512932 -0.0064390027 -0.0057968297 -0.014171158 -0.039479505 -0.018746544
-0.033561267 -0.021391464 -0.03039422 -0.013378514 -0.030459762 0.009190369 0.011599246 -0.03763656
-0.016662365 0.02761135 -0.00813243 0.011723125 -0.04637793 0.005749072 -0.019230109 0.02416175
0.012564629 0.010124694 -0.013290326 -0.016392527 0.021651998 0.025650445 0.021025497 0.014529733
-0.015357066 -0.03068243 -0.005504253 -0.0056818174 -0.041503366 -0.03351112 -0.009754052 0.010159054
-0.001678519 -0.019495122 0.016326278 -0.03818548 -0.040202074 -0.01658204 -0.021452442 -0.04372089
-0.022308633 -0.03460327 0.03343616 0.014320381 0.01203399 0.03424877 -0.017014656 0.018210938
-0.005046062 -0.037701312 -0.045326926 -0.007616813 0.0065890076 -0.02849892 -0.010396808 -0.033481978
0.015412899 -0.015173882 0.019324144 -0.032409836 -0.010543485 -0.021763038 -0.035506718 0.022674887
-0.036529753 -0.037800703 0.033191625 0.014968888 -0.040632524 0.012753164 -0.007916302 -0.03400216
-0.03560852 -0.024713594 -0.01138791 0.032417323 0.026800696 -0.015365216 -0.004426888 -0.020433985
-0.021603893 -0.011518714 -0.015459403 -0.030863147 -0.02692259 -0.007988099 -0.01030047 0.032185785
0.011527301 0.002154094 0.020474408 -0.022426872 -0.012644414 -0.0067517012 -0.040283546 0.016427044
-0.001928413 0.013320549 -0.0018935512 -0.028842526 -0.031748384 -0.009146334 0.018816227 -0.020946773
-0.01034574 0.03899235 0.027214691 -0.017448278 -0.029703842 -0.015946778 0.021666367 0.04030192
0.013661301 0.034748055 -0.022648312 0.04437657 0.014579264 -0.017224848 -0.014196401 0.019087447
-0.002392895 0.020073716 -0.0032712228 -0.0022205026 0.026271062 -0.0009068884 0.035674606 0.012703945
0.04157267 0.007505795 0.016904034 0.011760439 0.02251741 -0.009548983 0.00321649 0.036252204
0.029688066 -0.039441172 -0.014372934 -0.018904751 0.038685177 -0.010236284 -0.0033373476 -0.031701542
-0.021046516 -0.007528867 -0.0016857793 0.0098123755 -0.034487993 -0.024690013 -0.0054475428 0.023333916
0.02273238 0.03372418 0.008764547 -0.015352213 0.024058376 0.00980663 0.014393233 -0.009783403
0.013086362 0.037345305 -0.015108299 0.031095238 0.016581846 -0.0020462216 0.025883622 0.025923196
0.018133065 0.03960147 -0.015589937 -0.031143706 -0.00826845 -0.008941534 0.016749635 -0.019509085
0.011660636 0.025109412 0.018480845 -0.00055004295 0.001137726 0.020708144 0.0110262595 0.02805047
-0.010157069 -0.0046370514 -0.016994318 0.03396028 0.014725186 0.04235335 0.024680257 -0.0062164497
0.025538038 0.03231034 -0.005139999 0.002066125 0.026506906 -0.0044977623 0.012523781 0.031146787
0.028564535 0.009798283 -0.0048042582 -0.02296155 -0.029269803 0.004379024 -0.0006855459 -0.0044562365
0.024538273 0.04276655 0.00074729323 0.019029822 0.012328277 0.004475381 0.032379966 -0.024286805
-0.00035078728 -0.028800484 -0.016879892 0.030369664 0.014087206 0.002108865 0.02155874 -0.0053263283
-0.012400891 -0.017289938 -0.012146216 0.016492156 0.023485007 0.01795826 0.0072200643 0.02986778

action_model._discrete_distribution.branches.0.bias f4 [2]
00000000: 8d58 023d 8b58 02bd
0.03182273 -0.031822722
