Assets/results/JumperAgent/JumperAgent/JumperAgent-320.onnx (onnx, 78971 bytes, 5 tensors)

action_model._discrete_distribution.branches.0.weight f4 [1, 128]
000000 d5 8c 7e bc 17 72 af bc 5d 45 52 3b e3 4a 09 bc
       -0.015536507 -0.021416707 0.00320848 -0.008379671
000010 a5 71 17 3c f7 12 65 3c 83 01 ab 39 0b 2a cc 3a
       0.009243404 0.013981572 0.00032616788 0.0015576495
000020 88 43 d8 3b 20 88 66 3b e9 07 bd ba 19 3d 03 3c
       0.006599847 0.0035176352 -0.0014421913 0.008010172
000030 39 5b 2a bb 87 b1 2e bb 75 bd 51 3c 64 77 25 3c
       -0.0025994314 -0.0026656108 0.012801518 0.010099266
000040 1f b5 e9 bb cf 0b 8a bb 19 14 01 3c 9f d0 83 bb
       -0.007132187 -0.0042128335 0.007878327 -0.0040226723
000050 bf 0d 33 3c ef a9 1b 3c ba 80 64 bb 63 14 97 bc
       0.01092857 0.009500965 -0.0034866766 -0.018442338
000060 3c d0 06 bc 3f 3b f0 3a fc bf c3 bb 26 37 03 bb
       -0.008228358 0.0018328204 -0.005973814 -0.0020021885
000070 58 27 61 3c 3a b6 fc bb 29 91 8e 3b d5 30 d7 3a
       0.01374229 -0.007712153 0.0043508005 0.0016417751
000080 30 52 ba 3c 0a 97 d4 3b 6f 81 15 3c 68 54 c3 bb
       0.022744268 0.006487732 0.009125098 -0.0059609897
000090 d5 58 92 bb f0 37 19 3b 4a 19 a5 3b b2 70 63 3b
       -0.004466156 0.0023379289 0.005038415 0.0034704623
0000a0 7f b1 93 bb ca 37 be 3b e3 03 07 3c be e9 18 bc
       -0.004507243 0.0058049904 0.008240673 -0.009333072
0000b0 20 97 7c bb 34 fe 13 3c cd 5d 0b 3a 93 08 9e bb
       -0.0038542226 0.009032775 0.00053164066 -0.0048227995
0000c0 bf 7a 54 3b 5b 92 1b bc 13 55 b3 bb 55 26 b4 3b
       0.0032421795 -0.009495343 -0.005472788 0.0054977336
0000d0 5b b9 bd bc db db 44 3b 93 f2 88 bc 60 7c 36 3b
       -0.023159673 0.003003827 -0.01671723 0.002784513
0000e0 77 96 7c 3c d6 86 16 bc 6e 4c 17 bb e2 7c bd 39
       0.015416733 -0.009187421 -0.0023086327 0.00036141934
0000f0 f5 bb 3d 3c 30 42 98 bb 20 04 fa bb 7f f6 7c 3b
       0.011580457 -0.004646562 -0.0076298863 0.0038599072
000100 2a 71 69 bb 40 df b7 bb 45 82 b8 bb 2a 66 53 3b
       -0.003562043 -0.0056113303 -0.0056307637 0.003225694
000110 e1 b9 14 3c 46 9e 1f ba ff c4 1c 3c 8f 0a 4b bc
       0.00907752 -0.0006088953 0.009568452 -0.012392654
000120 04 df 37 bc 18 56 06 bc 20 2f 6b bc cb 79 32 3c
       -0.011222605 -0.008199237 -0.014354497 0.0108932955
000130 b3 ee 89 bb 6b 7c 03 3c 31 a0 43 bb 3b 25 17 bb
       -0.0042093634 0.008025269 -0.002985012 -0.0023062963
000140 9b 05 b3 3c 4a f5 fe 3b 0d 22 4f 3b 6c c8 4c bb
       0.021853259 0.0077807056 0.003160599 -0.003124739
000150 85 80 0e 3c 6d 71 a2 3c 43 9e ef 3a 2b 8a 67 bc
       0.008697634 0.019829476 0.0018281419 -0.014132063
000160 e2 60 cd bb b5 04 dd 3a c3 22 0c bc 5e 1a ca bb
       -0.006267653 0.0016862365 -0.00855321 -0.006167694
000170 fb 8b 23 3c 73 dc 3c 3b 50 a5 9b bb 73 f7 91 3c
       0.009982104 0.0028817921 -0.0047499314 0.017818188
000180 9a 13 1e bb aa 69 5d b9 6f a9 22 bc f0 ec 75 3b
       -0.002412057 -0.00021115565 -0.009928091 0.003752526
000190 aa e5 3f bc 2c 5e 1d bb 54 a2 31 3c 47 14 3c bb
       -0.011712471 -0.002401243 0.010841925 -0.002869861
0001a0 49 21 04 3c d2 41 fb ba 8f 93 b4 bb 65 8d eb ba
       0.008064576 -0.0019169396 -0.0055107544 -0.0017971216
0001b0 7e 17 29 bc 6a 4e 7c 3a 93 a7 05 3b 0b a2 1c bc
       -0.010320542 0.0009624722 0.0020394071 -0.009560118
0001c0 90 1b 42 bb 90 b4 8c 3b e5 6f e9 3a 98 e7 1a bc
       -0.002961848 0.0042939857 0.0017809836 -0.00945463
0001d0 4a 8c cc bb 0a d2 20 3c 99 d1 14 3b 76 00 44 bc
       -0.0062423097 0.009815702 0.0022707938 -0.0119630005
0001e0 2b c5 dd ba 15 70 72 3b a7 0f 0f 3c f2 e7 52 bc
       -0.0016919723 0.0036993076 0.008731759 -0.012872683
0001f0 7f f8 11 bb 4b e4 03 3b 9f dd 47 3c b2 b2 e5 bb
       -0.002227336 0.0020125087 0.012198835 -0.0070098275

network_body._body_endoder.seq_layers.0.bias f4 [128]
000000 00 00 00 00 00 00 00 00 00 00 00 00 00 00 00 00
       0.0 0.0 0.0 0.0
000010 00 00 00 00 00 00 00 00 00 00 00 00 00 00 00 00
       0.0 0.0 0.0 0.0
000020 00 00 00 00 00 00 00 00 00 00 00 00 00 00 00 00
       0.0 0.0 0.0 0.0
000030 00 00 00 00 00 00 00 00 00 00 00 00 00 00 00 00
       0.0 0.0 0.0 0.0
000040 00 00 00 00 00 00 00 00 00 00 00 00 00 00 00 00
       0.0 0.0 0.0 0.0
000050 00 00 00 00 00 00 00 00 00 00 00 00 00 00 00 00
       0.0 0.0 0.0 0.0
000060 00 00 00 00 00 00 00 00 00 00 00 00 00 00 00 00
       0.0 0.0 0.0 0.0
000070 00 00 00 00 00 00 00 00 00 00 00 00 00 00 00 00
       0.0 0.0 0.0 0.0
000080 00 00 00 00 00 00 00 00 00 00 00 00 00 00 00 00
       0.0 0.0 0.0 0.0
000090 00 00 00 00 00 00 00 00 00 00 00 00 00 00 00 00
       0.0 0.0 0.0 0.0
0000a0 00 00 00 00 00 00 00 00 00 00 00 00 00 00 00 00
       0.0 0.0 0.0 0.0
0000b0 00 00 00 00 00 00 00 00 00 00 00 00 00 00 00 00
       0.0 0.0 0.0 0.0
0000c0 00 00 00 00 00 00 00 00 00 00 00 00 00 00 00 00
       0.0 0.0 0.0 0.0
0000d0 00 00 00 00 00 00 00 00 00 00 00 00 00 00 00 00
       0.0 0.0 0.0 0.0
0000e0 00 00 00 00 00 00 00 00 00 00 00 00 00 00 00 00
       0.0 0.0 0.0 0.0
0000f0 00 00 00 00 00 00 00 00 00 00 00 00 00 00 00 00
       0.0 0.0 0.0 0.0
000100 00 00 00 00 00 00 00 00 00 00 00 00 00 00 00 00
       0.0 0.0 0.0 0.0
000110 00 00 00 00 00 00 00 00 00 00 00 00 00 00 00 00
       0.0 0.0 0.0 0.0
000120 00 00 00 00 00 00 00 00 00 00 00 00 00 00 00 00
       0.0 0.0 0.0 0.0
000130 00 00 00 00 00 00 00 00 00 00 00 00 00 00 00 00
       0.0 0.0 0.0 0.0
000140 00 00 00 00 00 00 00 00 00 00 00 00 00 00 00 00
       0.0 0.0 0.0 0.0
000150 00 00 00 00 00 00 00 00 00 00 00 00 00 00 00 00
       0.0 0.0 0.0 0.0
000160 00 00 00 00 00 00 00 00 00 00 00 00 00 00 00 00
       0.0 0.0 0.0 0.0
000170 00 00 00 00 00 00 00 00 00 00 00 00 00 00 00 00
       0.0 0.0 0.0 0.0
000180 00 00 00 00 00 00 00 00 00 00 00 00 00 00 00 00
       0.0 0.0 0.0 0.0
000190 00 00 00 00 00 00 00 00 00 00 00 00 00 00 00 00
       0.0 0.0 0.0 0.0
0001a0 00 00 00 00 00 00 00 00 00 00 00 00 00 00 00 00
       0.0 0.0 0.0 0.0
0001b0 00 00 00 00 00 00 00 00 00 00 00 00 00 00 00 00
       0.0 0.0 0.0 0.0
0001c0 00 00 00 00 00 00 00 00 00 00 00 00 00 00 00 00
       0.0 0.0 0.0 0.0
0001d0 00 00 00 00 00 00 00 00 00 00 00 00 00 00 00 00
       0.0 0.0 0.0 0.0
0001e0 00 00 00 00 00 00 00 00 00 00 00 00 00 00 00 00
       0.0 0.0 0.0 0.0
0001f0 00 00 00 00 00 00 00 00 00 00 00 00 00 00 00 00
       0.0 0.0 0.0 0.0

network_body._body_endoder.seq_layers.0.weight f4 [128, 19]
000000 07 8c 41 3e 9a 7d 06 be be 0e a3 3a 85 10 67 bd
       0.18901072 -0.1313385 0.0012440307 -0.05641224
000010 7a 58 eb 3e a5 a6 19 3e 0b 44 8d 3e 28 3f 59 be
       0.4596594 0.15004976 0.27590975 -0.21215498
000020 51 9d 82 3e 6f 3a 8c 3d 6c 0a 5a be bb 66 83 3e
       0.25510648 0.06847083 -0.21293038 0.25664315
000030 43 bf 27 3d fe 11 d7 3e 5d fa 98 bd 67 08 26 3d
       0.040953886 0.42005914 -0.07469628 0.040535357
000040 ac ea 65 3d 6f 44 f1 3e f5 e4 ef bc 95 5e 89 3d
       0.056132004 0.47122523 -0.02928398 0.06707493
000050 2d 54 ac 3d 32 15 16 be f7 28 13 3e 64 94 9f 3d
       0.08414493 -0.14656523 0.14371096 0.07791975
000060 94 4e 5d 3e 1c 44 45 bd ba 5d 2f be 7f be b1 3d
       0.21612006 -0.048160657 -0.17125598 0.08678912
000070 75 e3 1a bd 9c ae 88 bb 20 da 9c bd b8 39 4a 3e
       -0.037814576 -0.0041712057 -0.076587915 0.1974858
000080 f0 03 c0 bc e9 ff 75 3e e6 40 76 3e 2d a0 d5 3d
       -0.023439378 0.24023403 0.24048194 0.10430942
000090 3c 7b 8d 3e 1b 31 a2 be 86 f7 bc 3c 3f 48 12 be
       0.27633083 -0.3167809 0.023067247 -0.14285372
0000a0 04 d6 a6 3e c3 3a 30 bd 61 e8 2d be 7a 65 31 be
       0.32585156 -0.04302479 -0.16983177 -0.17323866
0000b0 4c f8 11 be c5 46 5f 3e 2f af 95 be 05 ba 2c be
       -0.14254874 0.2180434 -0.29235217 -0.16867836
0000c0 10 0f 33 3d 69 14 bb be c4 75 17 3d 44 67 cc 3b
       0.043715537 -0.3653901 0.036977544 0.006237896
0000d0 3d 42 bd 3e a7 87 91 bd d3 b1 13 be 37 dd d2 3e
       0.36964598 -0.07105952 -0.14423303 0.411844
0000e0 56 80 a2 3d 21 50 a1 be 5f 74 9d 3d df 9d 47 3e
       0.079346344 -0.31506446 0.07688212 0.19493817
0000f0 5a cc 32 3e cf 01 88 3e 67 0a f7 3d 44 5b 6a be
       0.17460766 0.2656388 0.12062531 -0.22886378
000100 8f 11 dd 3d 89 70 0d 3e 4a 7e a7 3e 34 f9 a7 3d
       0.10794365 0.1381246 0.32713538 0.082018286
000110 16 46 20 be 12 44 17 be 14 35 9d 3e d1 10 5b 3e
       -0.15651736 -0.1477206 0.30704558 0.21393134
000120 3f 81 f9 bc 50 94 3d bd 14 a5 47 be 25 7e eb 3d
       -0.030457137 -0.04628402 -0.19496566 0.114986695
000130 0c d9 3b be b4 a5 93 3d 78 32 1d 3e 6a 79 ab bd
       -0.18344516 0.0720934 0.15351284 -0.08372767
000140 59 fc 0f be a8 b4 2d 3e 2d f9 7d 3d 5f 76 dc 3d
       -0.14061107 0.16963446 0.06200521 0.10764765
000150 1c 24 8f be 9a 7d 07 bd d7 9e 35 bd 44 c4 5c be
       -0.27957237 -0.033078767 -0.044340935 -0.21559244
000160 cf 08 99 3e e1 6c 38 3e 5c bf c4 3d b4 43 1f bc
       0.29889533 0.18010284 0.096068114 -0.0097207315
000170 49 21 26 be 06 1f 53 be 39 e7 de 3e 68 ff 09 be
       -0.16223635 -0.20617303 0.43535784 -0.13476336
000180 34 6e 88 be 07 87 6d 3e 0b 38 23 be fb f6 44 3d
       -0.26646578 0.2319604 -0.15939347 0.0480871
000190 f4 81 22 3e a3 50 57 3e f2 dd f8 3c 65 05 b2 be
       0.15869886 0.21026854 0.03037927 -0.3476974
0001a0 3c 8c 80 be cc 1e 5b 3e c6 95 dd 3d 31 bf 20 be
       -0.2510699 0.21398467 0.10819583 -0.15697934
0001b0 ab 15 97 3e 2e 6b 15 3e ff 81 ba 3d 14 2c 6b 3d
       0.2950872 0.14591667 0.09106826 0.057415083
0001c0 58 88 94 3e ef 61 2e be c8 1b 78 3e 57 9c 78 3e
       0.29010272 -0.17029546 0.24229348 0.24278389
0001d0 8d 01 14 3d e8 7b 4f be 9d 55 cd 3e 43 71 07 bd
       0.03613429 -0.2026211 0.4010438 -0.033067
0001e0 11 fd b6 3e 4f b6 d3 3e f4 de 36 3e 02 f5 42 be
       0.3573995 0.41350028 0.17858487 -0.19038776
0001f0 c2 1d b9 be ea 89 41 3b 51 1e ef be 94 f8 ab bd
       -0.36155516 0.0029531666 -0.46702817 -0.08397022
000200 f6 56 9e 3e bf 76 e1 bd 26 a8 96 3e 77 4b af bb
       0.3092572 -0.11008977 0.29425162 -0.0053495723
000210 39 d9 47 3e 59 b9 0b 3e e4 e9 cb bd ba 9c f9 bd
       0.19516458 0.13644923 -0.099567205 -0.12188096
000220 8d eb 64 3e d0 75 b2 bd 43 9b 43 3e 93 1d bd be
       0.2235548 -0.08713877 0.19102196 -0.36936626
000230 2f 63 83 bd a3 59 01 3f c0 ed 4e 3e b1 fc f0 3d
       -0.06415402 0.505274 0.20207882 0.11766947
000240 b4 7b db 3d af 3e 47 be 61 bd 62 3e 7c ed f3 3d
       0.10716954 -0.19457506 0.22142555 0.11910531
000250 e4 2b d9 3d 1d f0 76 3e 16 9a ac 3e 35 f7 5c 3e
       0.106040746 0.24115033 0.33711308 0.21578677
000260 17 a0 ef bc 73 81 82 be f4 c1 68 3e bb 2d 60 3d
       -0.029251141 -0.25489387 0.22730237 0.054731112
000270 10 d4 46 bd ac 6a 1d 3e 82 05 8f 3e e5 4b e5 bd
       -0.048542082 0.15372723 0.2793389 -0.11196116
000280 51 ca b3 be 0c 6c 87 3d 42 75 0c 3e 6b 54 4b bd
       -0.35115293 0.06612405 0.13716605 -0.049641054
000290 e1 24 07 3f 18 30 91 3c 9f d2 cf bb f1 a0 2d be
       0.5279065 0.017723128 -0.0063422467 -0.16955926
0002a0 69 c7 c1 3c c1 8d d5 be 5a e3 55 3e b3 96 6c 3c
       0.023654656 -0.41709712 0.20887509 0.014440226
0002b0 7d 52 15 be 77 eb b6 3d 9d e8 56 3e 3f 3a 14 be
       -0.14582248 0.0893163 0.20987172 -0.14475344
0002c0 8a c0 a1 bd 30 9f ae be 95 c7 2c 3e 36 a2 3a 3e
       -0.07898052 -0.34105825 0.1687301 0.18225941
0002d0 99 34 18 be 11 5d a9 3d a5 01 5f be 5c 6a b4 be
       -0.14863814 0.08269704 -0.21777971 -0.35237396
0002e0 d3 20 a1 3d 21 c7 d4 be f8 fd 86 3e 58 b0 6e 3e
       0.07867589 -0.41558173 0.26365638 0.23309457
0002f0 da 3a 95 bd 61 67 f2 bd 74 6e 33 bc 18 73 05 be
       -0.07286616 -0.11836124 -0.010951627 -0.13032186
000300 3c 05 75 3c 0f cc 82 3e d3 9b 55 bd 63 d5 b6 3e
       0.014954861 0.2554631 -0.05215056 0.35709676
000310 94 6b 7c bd 5e bf 19 be dd 2f ad be 7c f9 0c bf
       -0.061626032 -0.15014407 -0.3382558 -0.5506818
000320 90 5d 9b be e6 6d dc bd 0f 7f 34 be fa f1 d5 3b
       -0.3034482 -0.10763149 -0.17626594 0.00652909
000330 47 55 dc be 88 8a 1b 3e 80 01 29 be 0b a7 8d bd
       -0.4303381 0.15189564 -0.16504478 -0.069166265
000340 31 12 dd 3d 48 b0 0f 3d ee 77 21 3e 47 d9 11 be
       0.10794485 0.035080224 0.15768406 -0.14243041
000350 58 fb 8a 3e 99 4a 96 3e fe 6d f8 3d 8c 84 76 3e
       0.27144885 0.29353788 0.12130354 0.24074
000360 2f bf 05 be 67 51 26 3e d5 22 ea 3d 8c 74 0c 3e
       -0.13061212 0.1624199 0.11432425 0.13716334
000370 17 b3 b9 3d de 44 ac be ab 5a 01 3f c0 49 5d 3d
       0.09067362 -0.33646291 0.50528973 0.05402541
000380 c0 c0 ba 3d fe 6a 1c 3d 57 07 8a bc 85 8d 3d 3e
       0.091187954 0.038187973 -0.016849203 0.18511017
000390 a1 89 06 3e da c3 7f 3d cc 55 8a 3d 69 f8 2c 3e
       0.13138439 0.062442638 0.06754646 0.16891636
0003a0 24 51 3e be e2 f2 f1 3d 21 08 de be 74 b4 51 be
       -0.1858564 0.11813904 -0.43365577 -0.20478994
0003b0 1a a6 9a 3d 5b 37 8b be 70 ef 9a 3e 4b 18 53 3e
       0.075512126 -0.2719067 0.302608 0.20614736
0003c0 57 4f ab be eb 36 1a be 90 9e 62 bd 64 36 f0 be
       -0.3345897 -0.15060012 -0.055327 -0.46916497
0003d0 d7 8e b2 3e b3 63 33 3e 0d 09 25 be e8 1a 07 3e
       0.34874603 0.17518501 -0.16116734 0.13193858
0003e0 f2 c0 e6 be 6c d7 55 be 23 6e 3c 3e 0e f1 f4 3c
       -0.4506908 -0.20882958 0.18401389 0.0299001
0003f0 c5 56 81 3e 3f c1 93 3e b1 d1 7c bd f5 7e 85 be
       0.25261512 0.28858373 -0.061723415 -0.26073423

network_body._body_endoder.seq_layers.2.bias f4 [128]
000000 00 00 00 00 00 00 00 00 00 00 00 00 00 00 00 00
       0.0 0.0 0.0 0.0
000010 00 00 00 00 00 00 00 00 00 00 00 00 00 00 00 00
       0.0 0.0 0.0 0.0
000020 00 00 00 00 00 00 00 00 00 00 00 00 00 00 00 00
       0.0 0.0 0.0 0.0
000030 00 00 00 00 00 00 00 00 00 00 00 00 00 00 00 00
       0.0 0.0 0.0 0.0
000040 00 00 00 00 00 00 00 00 00 00 00 00 00 00 00 00
       0.0 0.0 0.0 0.0
000050 00 00 00 00 00 00 00 00 00 00 00 00 00 00 00 00
       0.0 0.0 0.0 0.0
000060 00 00 00 00 00 00 00 00 00 00 00 00 00 00 00 00
       0.0 0.0 0.0 0.0
000070 00 00 00 00 00 00 00 00 00 00 00 00 00 00 00 00
       0.0 0.0 0.0 0.0
000080 00 00 00 00 00 00 00 00 00 00 00 00 00 00 00 00
       0.0 0.0 0.0 0.0
000090 00 00 00 00 00 00 00 00 00 00 00 00 00 00 00 00
       0.0 0.0 0.0 0.0
0000a0 00 00 00 00 00 00 00 00 00 00 00 00 00 00 00 00
       0.0 0.0 0.0 0.0
0000b0 00 00 00 00 00 00 00 00 00 00 00 00 00 00 00 00
       0.0 0.0 0.0 0.0
0000c0 00 00 00 00 00 00 00 00 00 00 00 00 00 00 00 00
       0.0 0.0 0.0 0.0
0000d0 00 00 00 00 00 00 00 00 00 00 00 00 00 00 00 00
       0.0 0.0 0.0 0.0
0000e0 00 00 00 00 00 00 00 00 00 00 00 00 00 00 00 00
       0.0 0.0 0.0 0.0
0000f0 00 00 00 00 00 00 00 00 00 00 00 00 00 00 00 00
       0.0 0.0 0.0 0.0
000100 00 00 00 00 00 00 00 00 00 00 00 00 00 00 00 00
       0.0 0.0 0.0 0.0
000110 00 00 00 00 00 00 00 00 00 00 00 00 00 00 00 00
       0.0 0.0 0.0 0.0
000120 00 00 00 00 00 00 00 00 00 00 00 00 00 00 00 00
       0.0 0.0 0.0 0.0
000130 00 00 00 00 00 00 00 00 00 00 00 00 00 00 00 00
       0.0 0.0 0.0 0.0
000140 00 00 00 00 00 00 00 00 00 00 00 00 00 00 00 00
       0.0 0.0 0.0 0.0
000150 00 00 00 00 00 00 00 00 00 00 00 00 00 00 00 00
       0.0 0.0 0.0 0.0
000160 00 00 00 00 00 00 00 00 00 00 00 00 00 00 00 00
       0.0 0.0 0.0 0.0
000170 00 00 00 00 00 00 00 00 00 00 00 00 00 00 00 00
       0.0 0.0 0.0 0.0
000180 00 00 00 00 00 00 00 00 00 00 00 00 00 00 00 00
       0.0 0.0 0.0 0.0
000190 00 00 00 00 00 00 00 00 00 00 00 00 00 00 00 00
       0.0 0.0 0.0 0.0
0001a0 00 00 00 00 00 00 00 00 00 00 00 00 00 00 00 00
       0.0 0.0 0.0 0.0
0001b0 00 00 00 00 00 00 00 00 00 00 00 00 00 00 00 00
       0.0 0.0 0.0 0.0
0001c0 00 00 00 00 00 00 00 00 00 00 00 00 00 00 00 00
       0.0 0.0 0.0 0.0
0001d0 00 00 00 00 00 00 00 00 00 00 00 00 00 00 00 00
       0.0 0.0 0.0 0.0
0001e0 00 00 00 00 00 00 00 00 00 00 00 00 00 00 00 00
       0.0 0.0 0.0 0.0
0001f0 00 00 00 00 00 00 00 00 00 00 00 00 00 00 00 00
       0.0 0.0 0.0 0.0

network_body._body_endoder.seq_layers.2.weight f4 [128, 128]
000000 7e d7 4c be 26 69 ae 3d 75 13 63 3d 29 52 21 be
       -0.20004079 0.08516149 0.055438478 -0.15753998
000010 57 e9 b5 3c 15 57 be 3d 1b cd 53 bd c7 1f 2f bd
       0.022205992 0.09293953 -0.051709276 -0.042754915
000020 61 d9 5c 3d 01 e9 78 bc 00 05 74 bd d5 7a 35 3d
       0.053918246 -0.015192271 -0.05957508 0.044306595
000030 fe 7c ad bc c3 69 12 3e 9d 70 3f 38 07 30 25 3a
       -0.021177765 0.14298157 4.5642828e-05 0.0006301407
000040 ea ce e8 3d ee 23 ac bd 76 ab 0e 3e 16 c6 27 bd
       0.11367591 -0.084052905 0.13932595 -0.040960394
000050 39 22 9f 3d a5 a6 78 3e 54 48 33 3d 8c 21 15 3d
       0.07770199 0.2428232 0.04377015 0.036408946
000060 c9 52 aa bd 5a 73 07 3e 8d eb 08 39 f8 f2 dd 3d
       -0.08316571 0.13227597 0.0001305772 0.10837358
000070 37 28 eb bc 4f 68 07 be ae 6d 5d bd 36 f0 9c 3c
       -0.0287057 -0.13223384 -0.054059677 0.01915751
000080 ea 02 31 bd 14 6d 21 be f6 98 4c bc ca 24 32 bd
       -0.04321567 -0.15764266 -0.012487641 -0.043492116
000090 19 ee 1a 3d 6e f5 09 bd 93 aa d0 bd 3f 3a 48 3c
       0.037824724 -0.033681326 -0.101887845 0.012220918
0000a0 68 14 1a 3e 47 07 42 bd 26 66 b0 3d 27 c0 ac 3c
       0.15046847 -0.04737022 0.08613233 0.02108772
0000b0 4f 7e 4d 3b 59 9c cf bb 8a 66 0a 3c 19 41 e4 3d
       0.0031355803 -0.0063357768 0.008447299 0.11145229
0000c0 ac f4 79 3b 70 71 2e bd ce 21 eb bd 80 f6 4e bd
       0.003814022 -0.04258865 -0.11481057 -0.05052805
0000d0 e0 7c 9f 3b 6f c5 87 be 52 2e 5b 3d 76 4f b0 bc
       0.004867181 -0.26517817 0.05351097 -0.021522265
0000e0 0f 4f 92 bd f8 80 76 3b dc ba 37 3b 97 a3 32 bd
       -0.071439855 0.0037613492 0.002803496 -0.043613043
0000f0 8f 16 d1 bd 8c 29 38 3d 18 23 3d bd 4b 3d a7 bd
       -0.10209381 0.044961497 -0.046176046 -0.081659876
000100 f3 44 54 3d 86 d9 90 3b e1 bc 9e bb 1a d2 ff bd
       0.051823568 0.004420462 -0.0048442935 -0.124912456
000110 8d 57 38 bc 74 91 42 bd 77 79 87 3d 18 ba b0 39
       -0.0112513425 -0.047501996 0.066149645 0.00033707987
000120 d1 90 fa 3c 89 d7 08 be 57 13 9c be 54 82 b8 3d
       0.030586632 -0.1336347 -0.30483505 0.09009233
000130 1c 69 28 3e f5 ac a9 3d 82 46 a4 3d f5 17 bf 3d
       0.16446346 0.08284942 0.08021261 0.09330741
000140 3c 20 5d be 9b 5d a5 3d b5 4f c5 3d 3d 7c 95 bd
       -0.21594328 0.080744945 0.096343435 -0.07299087
000150 5d a8 4c 3c a7 30 f2 3c f6 54 3f 3c 5d af a6 3c
       0.012491313 0.029564215 0.011677971 0.020347292
000160 df 15 e4 bd 13 ec e4 bd b9 56 d3 bd a8 6f 59 bd
       -0.11136984 -0.1117784 -0.103192754 -0.053085
000170 23 a1 db 3d 7d 70 46 bd 12 5d b4 bd 22 e7 f8 3d
       0.10724094 -0.04844712 -0.08806814 0.1215346
000180 70 48 c9 bc f6 c1 40 b9 3b 54 c0 bd 4b 15 00 be
       -0.024570674 -0.00018382803 -0.09391066 -0.12508123
000190 6d 72 fe 3b a2 c3 30 bd a0 69 df 3d 18 59 0e 3e
       0.0077651055 -0.04315532 0.10908818 0.13901174
0001a0 eb 3b 2a 3d 33 d5 00 bd e8 5a 37 3d 4b bd 42 be
       0.04156105 -0.031453323 0.04476443 -0.19017522
0001b0 66 15 78 3d ac 4d 38 3d 3a a0 39 3e 97 76 7b 3e
       0.060567282 0.04499595 0.18127528 0.24556957
0001c0 b4 05 cd 3d f1 14 0d 3e 34 15 76 bc eb 32 1e bd
       0.100108534 0.1377752 -0.015019704 -0.038622778
0001d0 38 9c a3 bb a0 9d f6 bd b9 8f 41 3e fb b4 3b bd
       -0.004992988 -0.12041783 0.18902482 -0.045826893
0001e0 e0 4a c7 bd d5 e3 f5 3d f0 8d 17 3c 4d 3b 99 bc
       -0.09731078 0.12006346 0.009250149 -0.018705035
0001f0 28 72 33 be d0 72 34 3c 64 50 b9 bd fd 60 88 bd
       -0.17524016 0.011013702 -0.090485364 -0.06659124
000200 0d ae be 3d 38 51 97 3d 2d 3d 63 3c e0 fa 88 3d
       0.09310541 0.07388538 0.013869566 0.066884756
000210 c0 86 67 bd b1 f9 b0 3c 0b ad 16 3d 0d d1 0c bd
       -0.056524992 0.021603437 0.03678612 -0.034379054
000220 65 0a 72 3d 03 ee 88 bc b3 e3 bc bd 87 2e f4 bc
       0.059091944 -0.016715055 -0.09223118 -0.029807342
000230 72 6c 87 bd e3 6f 0b be 05 e1 22 3e d9 fa 39 3d
       -0.06612481 -0.136169 0.1590615 0.045405243
000240 6e 60 0e b9 21 cd e7 3d 66 dc 30 3c 5b 1d 12 be
       -0.00013578098 0.11318422 0.010794735 -0.1426901
000250 16 a0 98 bc 86 d1 07 3e 90 17 bd 3d 18 c2 ef b9
       -0.018631022 0.1326352 0.0923301 -0.00045730243
000260 40 3d be 3c d4 a8 3c bd 3b db 5f be 04 ff 40 be
       0.023222566 -0.046059445 -0.21860974 -0.1884728
000270 79 fb 06 3d fe 63 33 3e 88 1b 41 be d4 13 fa 3d
       0.032954667 0.17518613 -0.18858159 0.12210813
000280 80 b6 89 be 96 da ec 3c 1f e0 83 3d 60 fb f0 bc
       -0.2689705 0.028912824 0.06439232 -0.02941674
000290 3f 58 42 bd 76 ab 02 3e 21 82 c7 3c 22 74 40 bd
       -0.04744744 0.1276072 0.024354042 -0.046985753
0002a0 5b 0d 11 3d 0d 4c 11 3e 6a 58 84 bd ae d7 21 3e
       0.035413127 0.14189167 -0.06462176 0.15804932
0002b0 98 9f 7b bc ac 0d 24 bd 74 01 3d 3d 52 fe 9e 3c
       -0.015357874 -0.0400521 0.046143964 0.019408379
0002c0 44 bd c6 bd f3 11 14 3e 9e ee d7 3d 8f 76 18 3e
       -0.09704068 0.14459972 0.105435595 0.14888977
0002d0 72 bb bb ba 0b 04 8a bd 8e af f1 3d 0b 8c ee bc
       -0.0014322831 -0.067390524 0.118010625 -0.029119512
0002e0 6c 0d b3 3c 59 7d 00 3d fc 46 fe bd bf a3 9c 3c
       0.021856986 0.03136954 -0.12415883 0.019121049
0002f0 0e c7 0a bd 7c fb 3f bd 2c cd 0a 3e 94 02 91 bd
       -0.03388124 -0.046870694 0.1355483 -0.0708057
000300 e3 b0 63 3d be ad f4 bd f9 99 23 3e d4 1f 7d 3d
       0.055588614 -0.11947201 0.15976705 0.06179793
000310 9e 5a d7 3b 74 e9 82 3d 1a a8 41 3e b2 b7 40 be
       0.0065720817 0.06392184 0.18911782 -0.18820074
000320 2e 58 d5 3c 05 86 cc 3c 61 14 a1 3d ff 9d 2e bd
       0.026043024 0.02496625 0.07865215 -0.042631146
000330 37 bb d3 bc cb af 1d 3d 15 08 61 bd 89 97 1c bc
       -0.025846107 0.038497727 -0.05493935 -0.009557613
000340 54 f5 36 3d 9c 5a 70 3d 3b 10 3a be c9 2c 80 be
       0.044667557 0.05868016 -0.18170254 -0.25034168
000350 19 17 0c bd 32 6b a5 bd cd 05 23 3d fe 63 93 3c
       -0.034201715 -0.080770865 0.039800454 0.017992016
000360 48 c9 69 3e 0d 66 8e 3d d1 b8 21 bb 1c ba 31 be
       0.22830689 0.069530584 -0.002467681 -0.17356151
000370 6a e4 ec bd 39 9b c0 3d 9d d8 53 bd f0 59 a5 bc
       -0.11567004 0.09404606 -0.05172025 -0.020184487
000380 bc a2 0f be 28 f1 9b bc ae 53 01 3d 00 d1 5c 3d
       -0.14026922 -0.01903589 0.031573944 0.053910255
000390 b7 11 87 bc 8a 3b 56 3d 77 63 0d 3d 82 e5 f6 bd
       -0.01648794 0.052302875 0.034518685 -0.12055494
0003a0 ac e3 ce 3c 7b af 08 3e 1d 91 04 3e 2d 52 9d 3d
       0.025255047 0.1334819 0.12945981 0.076816894
0003b0 7b 3b 1f 3e 23 3f 08 3d 8a be ba 39 d6 a1 58 3d
       0.15550034 0.033263337 0.00035618647 0.052888714
0003c0 a6 de e7 3c a3 74 6d be 04 72 e6 3d aa 3b 8a bd
       0.02830441 -0.23189025 0.112522155 -0.06749661
0003d0 63 36 e7 3d ef 1c 1b 3e 35 f6 b1 3c ef 23 48 bd
       0.1128967 0.15147756 0.021723846 -0.048862394
0003e0 5d 7b 1a bc 27 67 dc bc a0 42 1c 3d 1c e6 03 bd
       -0.009428826 -0.026904656 0.038149476 -0.03220187
0003f0 6e 72 29 bc a8 19 13 3d 0e f0 ad bd 0a aa aa bd
       -0.010342224 0.03591314 -0.084930524 -0.083332136
