Assets/results/ppo/MLAgent/MLAgent-54656.onnx (onnx, 91980 bytes, 6 tensors)

network_body._body_endoder.seq_layers.0.weight f4 [128, 42]
0.053994145 0.090011515 0.008133549 0.11495379 0.07246439 -0.032564905 -0.10996417 -0.1883199
-0.23719077 -0.07533977 0.1150897 0.0411196 -0.08812428 -0.20973533 -0.026159994 -0.12202952
-0.059356708 -0.0057937955 0.23197033 -0.25748515 0.31903127 -0.1186658 0.092188 -0.16025124
0.018181125 -0.043407198 -0.14350633 0.009008947 -0.121277966 0.09175599 -0.15631354 0.024111608
0.1777164 -0.08741851 -0.101095244 0.09642582 -0.09918757 0.058428798 -0.2809129 -0.24734087
-0.23223633 0.32949537 0.009817349 -0.28013128 -0.12602283 0.14387326 0.13934936 0.00036545834
-0.07707937 0.0058963425 -0.1520134 -0.18628961 0.072837204 -0.072009854 0.014212822 -0.1429245
0.09535804 0.30706966 0.23799703 -0.01812829 0.16084293 0.09940424 0.034905795 0.054997083
-0.14547068 0.10596996 -0.060487695 -0.10845473 -0.09680983 -0.2164839 0.16141202 -0.0281291
0.36109695 0.10843637 -0.13026567 0.18139055 -0.0316783 0.0015966808 -0.0842307 -0.49564287
0.033266775 0.011769198 0.01350711 0.28041998 -0.042274147 0.14721519 0.020985672 0.04711423
0.09753115 0.19387431 0.10077285 -0.07740639 0.1859309 -0.22470574 0.11766991 0.036447186
0.08878073 0.006807388 -0.18106765 -0.021325987 0.059006605 -0.04877046 0.16512528 -0.23895214
0.20267494 0.00056416064 -0.00048383852 -0.16267827 -0.13543747 0.13191174 -0.06461722 0.1298481
0.082657225 0.09731874 0.30755424 -0.10673752 -0.05265198 -0.037190966 0.08393924 0.05297334
0.018450093 0.18375078 0.015266537 -0.2177361 -0.21971193 0.013894103 -0.19093336 0.23269853
-0.04270133 0.030980691 0.026763678 -0.12826091 0.19302937 -0.06916243 0.1005459 -0.07788768
0.20110025 -0.20784311 0.038235273 -0.087686375 -0.13605557 -0.27439126 0.022734443 0.075682305
-0.22703984 0.06257569 -0.3121918 -0.12423714 -0.06213383 -0.23891449 -0.032684125 -0.19050278
0.062548004 -0.29141098 -0.13348502 -0.010071442 0.15501186 -0.061766177 -0.09326941 -0.073868126
-0.26536828 -0.13105078 0.09980456 -0.09107249 0.17196433 0.05176587 -0.11617253 -0.18861614
0.057138633 -0.12318784 0.13539101 -0.083910346 0.03683375 -0.069965065 -0.2513087 -0.00342297
0.07145243 -0.18048328 0.16682181 -0.1332099 -0.05464441 -0.01069951 -0.117858596 -0.2373493
-0.27495447 0.032035086 0.16717005 0.027005157 0.17078812 0.25514528 0.21190079 0.0923144
-0.06951861 -0.23906682 -0.17837316 0.065294795 0.014323676 -0.2918496 0.028452776 0.11819465
-0.06343115 -0.11976618 0.11666728 -0.07345922 0.06952464 0.08229727 0.041297346 -0.09662854
-0.1518282 0.018532604 -0.008015565 0.21028943 0.3227556 -0.10959974 -0.074627385 -0.15467595
-0.053975314 -0.27554464 0.12351047 -0.0979618 0.06534075 -0.0701568 0.06971079 0.16262239
-0.029502228 0.012584949 -0.1001984 -0.11604702 0.051259253 0.02816415 -0.017475111 0.16095035
-0.15075138 -0.19572103 0.21449265 0.020873845 -0.20815125 0.07863129 0.051471587 -0.0091810515
0.33462426 0.19718766 -0.047652263 -0.10731568 -0.039344165 -0.07070147 0.0825165 0.16163978
0.23031081 0.27404487 0.18789394 0.013171301 0.050247278 -0.13046151 0.12756553 -0.16560616
00000000: f728 5d3d f557 b83d 9442 053c e56c eb3d
00000010: 3668 943d c762 05bd e534 e1bd efd6 40be
00000020: 23e2 72be bd4b 9abd 26b4 eb3d 076d 283d
00000030: 817a b4bd dcc4 56be 7c4d d6bc 9dea f9bd
00000040: 0520 73bd e1d9 bdbb a189 6d3e 18d5 83be
00000050: 1158 a33e 0e07 f3bd 10cd bc3d e718 24be
00000060: 95f0 943c bfcb 31bd 53f3 12be 439a 133c
00000070: 9560 f8bd 91ea bb3d a810 20be b585 c53c
00000080: 4afb 353e 7a08 b3bd 060b cfbd e67a c53d
00000090: da22 cbbd 0953 6f3d d1d3 8fbe ed46 7dbe
000000a0: 5ccf 6dbe 9eb3 a83e f2d8 203c 5e6d 8fbe
000000b0: 210c 01be 8353 133e 99b1 0e3e fd9a bf39
000000c0: cadb 9dbd 1b36 c13b 67a9 1bbe b4c2 3ebe
000000d0: ac2b 953d e779 93bd e5dc 683c cd5a 12be
000000e0: 134b c33d 3c38 9d3e 7eb5 733e c881 94bc
000000f0: 02b4 243e 7394 cb3d 61f9 0e3d 9f44 613d
00000100: 44f6 14be c706 d93d f2c1 77bd 831d debd
00000110: 3b44 c6bd f5ad 5dbe 3149 253e 006f e6bc
00000120: b3e1 b83e e313 de3d 5d64 05be 72be 393e
00000130: 1bc1 01bd b847 d13a 2581 acbd e7c4 fdbe
00000140: be42 083d 98d3 403c ed4c 5d3c 3593 8f3e
00000150: a827 2dbd 94bf 163e 25ea ab3c dafa 403d
00000160: 69be c73d fd86 463e ff61 ce3d 3e87 9ebd
00000170: ab64 3e3e 4319 66be ecfc f03d a549 153d
00000180: acd2 b53d 8210 df3b cc69 39be d6b3 aebc
00000190: e9b0 713d 89c3 47bd 9a16 293e dfaf 74be
000001a0: 058a 4f3e 2ee4 133a b5ab fdb9 2295 26be
000001b0: 1fb0 0abe df13 073e 0856 84bd e6f6 043e
000001c0: 3148 a93d 0c4f c73d c077 9d3e 3399 dabd
000001d0: 9aa9 57bd 8e55 18bd 56e8 ab3d 93fa 583d
000001e0: a624 973c 2a29 3c3e 7f20 7a3c 36f6 5ebe
000001f0: 2afc 60be 17a4 633c 0984 43be 8648 6e3e
00000200: 97e7 2ebd 38cb fd3c 803f db3c d456 03be
00000210: 7ea9 453e 08a5 8dbd 02eb cd3d 9383 9fbd
00000220: 39ed 4d3e d3d4 54be 979c 1c3d ea94 b3bd
00000230: 2752 0bbe 037d 8cbe 953d ba3c 53ff 9a3d
00000240: 227d 68be af27 803d 9bd7 9fbe 0b70 febd
00000250: 0b80 7ebd 00a6 74be cadf 05bd 2913 43be
00000260: 2b19 803d d233 95be 4cb0 08be b102 25bc
00000270: 6ebb 1e3e 88fe 7cbd 0804 bfbd 2c48 97bd
00000280: 5ade 87be 2d32 06be 5566 cc3d 3784 babd
00000290: 6b17 303e 7308 543d ddeb edbd 9724 41be
000002a0: 330a 6a3d e849 fcbd f1a3 0a3e 30d9 abbd
000002b0: fcde 163d d849 8fbd 89ab 80be e853 60bb
000002c0: a755 923d 9cd0 38be 56d3 2a3e 2d68 08be
000002d0: d1d2 5fbd ff4c 2fbc d95f f1bd b20b 73be
000002e0: d5c6 8cbe 3937 033d a02e 2b3e eb39 dd3c
000002f0: 15e3 2e3e 67a2 823e 85fc 583e 550f bd3d
00000300: c65f 8ebd efcd 74be 74a7 36be 47b9 853d
00000310: daad 6a3c 506d 95be cc15 e93c 0910 f23d
00000320: 31e8 81bd f947 f5bd 41ef ee3d ca71 96bd
00000330: ef62 8e3d 798b a83d 6827 293d 2fe5 c5bd
00000340: da78 1bbe b0d1 973c b753 03bc 1d56 573e
00000350: 3940 a53e d475 e0bd 3ed6 98bd 5f63 1ebe
00000360: 3815 5dbd 3014 8dbe 0ff3 fc3d 32a0 c8bd
00000370: 5fd1 853d 5eae 8fbd 88c4 8e3d 7c86 263e
00000380: a8ae f1bc 1a31 4e3c d234 cdbd 0faa edbd
00000390: 39f5 513d 81b8 e63c f727 8fbc 2bd0 243e
000003a0: 925e 1abe 186b 48be f6a3 5b3e a0ff aa3c
000003b0: 9a25 55be 7109 a13d dfd3 523d 1f6c 16bc
000003c0: df53 ab3e 90eb 493e 052f 43bd 53c8 dbbd
000003d0: 5927 21bd efcb 90bd 69fe a83d e684 253e
000003e0: 99d6 6b3e 9c4f 8c3e 4567 403e 71cc 573c
000003f0: 17d0 4d3d b497 05be 8aa0 023e a994 29be

network_body._body_endoder.seq_layers.0.bias f4 [128]
0.010797885 -0.00043989136 0.0077341045 -0.0060166656 0.0049413387 0.005164948 -0.0011432731 0.020330401
-0.0050848783 0.020269735 0.01196453 -0.00085084233 0.011294296 -0.0015866144 -0.0010888664 0.01451965
0.013691763 0.007924408 -0.0066678957 0.0029410662 -0.0025877939 -0.004870104 -0.020848999 0.015993763
0.013805821 0.011927419 -0.0054084207 -0.009157641 0.00906319 -0.015001561 0.014535066 0.0075686057
0.0073089963 0.014025279 -0.007682762 0.01729762 -0.006993542 0.003539311 -0.012167837 -0.0075995284
-0.008327008 0.005297059 0.002211628 -0.015096125 0.002897465 0.005846921 -0.008241205 0.011747039
0.010205161 0.0009376416 -0.009868777 0.013388448 0.014397492 0.014524578 0.0042336746 -0.011196082
0.0009488317 -0.010908361 0.015653906 0.016920635 0.0074052685 0.010380781 0.01443916 0.00980421
0.0006090479 0.0023344927 -0.009884246 -0.012780319 0.023434496 -0.008138287 0.003143657 0.024178918
0.019723186 0.014547937 -0.0067188647 0.00893352 0.010354627 -0.0012836088 0.016364709 -0.0007731762
-0.0026885269 0.0075447997 -0.0058749476 0.00035126958 0.01223127 0.018451223 -0.011080807 0.015548596
0.0044276905 -0.01633141 -0.006010871 -0.0006810478 0.00918844 0.013050065 0.014358375 0.017393906
0.022245344 -0.0020086488 0.010132105 0.0014079665 0.011300893 0.003728665 0.013258353 0.0076407143
0.017139122 -0.023650289 0.0072316984 0.0075437664 0.011634522 0.011630521 0.0015826249 0.010893947
0.0069241687 0.006828507 0.004584132 0.0018165833 0.0009239338 0.01421308 0.007153739 -0.0023551155
0.013840174 -0.014439524 0.007920165 0.008581029 0.004373508 -0.004701151 0.0107120145 0.012882737
00000000: 9de9 303c 38a1 e6b9 5f6e fd3b 7327 c5bb
00000010: f4ea a13b b93e a93b e1d9 95ba f18b a63c
00000020: 0d9f a6bb b70c a63c e006 443c 100b 5fba
00000030: b60b 393c f2f5 cfba 4bb8 8eba d3e3 6d3c
00000040: 6b53 603c 60d5 013c 5d7e dabb e7be 403b
00000050: fa97 29bb 6595 9fbb 85cb aabc 5a05 833c
00000060: cf31 623c 396b 433c 1f39 b1bb ee09 16bc
00000070: c67d 143c 1bc9 75bc 7c24 6e3c 1102 f83b
00000080: 4e80 ef3b 49ca 653c aebf fbbb bdb3 8d3c
00000090: 152a e5bb c9f3 673b 9b5b 47bc 7705 f9bb
000000a0: 016e 08bc f492 ad3b f6f0 103b bd55 77bc
000000b0: 65e3 3d3b 8797 bf3b 1e06 07bc a776 403c
000000c0: 8c33 273c 10cc 753a a7b0 21bc 395b 5b3c
000000d0: 75e3 6b3c 7ff8 6d3c a3ba 8a3b c66f 37bc
000000e0: 04bb 783a fbb8 32bc 9f3c 803c 259d 8a3c
000000f0: e5a7 f23b 2714 2a3c 3a92 6c3c d6a1 203c
00000100: 83a8 1f3a 4afe 183b 88f1 21bc 8b64 51bc
00000110: b3f9 bf3c 7356 05bc d005 4e3b de12 c63c
00000120: 8592 a13c 785a 6e3c ec29 dcbb e65d 123c
00000130: 74a6 293c c43e a8ba 480f 863c faae 4aba
00000140: ff31 30bb 5e3a f73b a282 c0bb 9b2a b839
00000150: aa65 483c 0527 973c 468c 35bc 8abf 7e3c
00000160: 2916 913b 73c9 85bc d7f6 c4bb 5888 32ba
00000170: 1c8b 163c f1cf 553c 643f 6b3c aa7d 8e3c
00000180: de3b b63c 89a3 03bb 2101 263c 848b b83a
00000190: 6127 393c 9e5c 743b 9039 593c f55e fa3b
000001a0: 5867 8c3c 40be c1bc e2f7 ec3b b331 f73b
000001b0: b99e 3e3c f18d 3e3c 1470 cf3a 877c 323c
000001c0: 23e4 e23b abc1 df3b 7d36 963b 6c1a ee3a
000001d0: 2634 723a fadd 683c ea69 ea3b 4858 1abb
000001e0: e6c1 623c c193 6cbc 94c3 013c 7297 0c3c
000001f0: a54f 8f3b 1d0c 9abb 7281 2f3c 1e12 533c

network_body._body_endoder.seq_layers.2.weight f4 [128, 128]
0.09620736 0.05794931 0.11270207 0.07071256 0.05094705 0.029888034 0.111825325 0.068185456
-0.052630305 0.09881922 0.021230409 -0.15614267 0.040752154 0.077915564 0.030122498 -0.014624012
0.0091988025 -0.025581423 0.18506345 0.12290333 -0.055791162 0.024199992 0.07783332 0.10390672
0.15146121 -0.08860812 -0.11991581 0.043865338 -0.1805142 -0.044552375 0.11561656 -0.08433784
0.035905156 0.16834126 0.06833289 0.16376474 0.06273304 -0.030690638 0.007798855 -0.04309723
-0.10519727 0.07411157 -0.068208955 -0.025175456 -0.012821449 -0.058269165 -0.011018501 -0.03222076
-0.06672993 -0.019642038 -0.16391872 -0.07726192 0.10780256 0.13106073 0.018013716 -0.0019671237
-0.054932192 -0.065351576 0.08809311 0.06263008 0.102958776 0.031789552 0.11011621 0.21643333
0.08000534 -0.025858076 -0.094281815 0.11135983 0.0027326266 0.07476998 -0.037216574 -0.046039883
-0.025146727 0.019854944 -0.03671512 -0.11521824 0.056414194 -0.04124252 0.12645984 -0.008794594
0.13829349 -0.002134957 0.023101874 -0.021513063 0.026805876 -0.043756135 -0.07255473 0.10897408
-0.04027917 0.07615007 0.0025284237 -0.020591518 0.006185346 0.15494849 -0.10442221 0.12098147
0.023439089 -0.12739271 0.15855359 -0.013288607 0.02865702 0.17186366 0.006322395 0.076613575
0.04853753 -0.13103306 -0.011646297 -0.07408852 -0.07179424 0.0410437 -0.05844201 0.22237694
0.001742232 0.06592559 0.030859321 0.09807389 0.089155704 -0.07602175 -0.048574984 -0.15104142
0.00061860104 -0.08632965 -0.0368462 0.0681046 0.013167118 -0.037474982 0.026509026 0.11167414
0.013124795 -0.062100656 0.0026556645 0.07972273 -0.02546942 0.05636428 0.097730204 0.066320814
-0.018113492 -0.05201512 -0.047090318 0.0869043 0.08177848 0.13643593 -0.07489189 0.113120764
-0.056110267 -0.06432177 -0.07658674 0.11282377 0.009194632 0.022743637 -0.21102221 0.073604956
-0.01229843 -0.11076394 -0.18815215 0.039933227 0.14053687 -0.06655568 0.09627373 0.060362205
-0.054445576 0.036995914 -0.11454273 0.033611897 -0.062226504 -0.13258767 0.06439338 0.04255601
-0.0638434 -0.07746292 0.03872984 0.0693229 0.11895952 -0.070508234 0.1742255 -0.10120092
-0.09060761 0.032242347 -0.11710399 -0.06092585 -0.12297295 0.10753416 -0.04946967 -0.0059976927
0.07326961 0.12154467 -0.09027051 -0.16598709 -0.041036572 0.065303035 -0.07805074 -0.18147552
-0.03508064 -0.043775436 0.056218594 0.09326426 -0.043099314 0.013568318 0.040614307 0.17469747
0.049797744 0.08009384 -0.051438585 0.19648325 0.08667298 -0.078278646 0.034381364 0.12668791
-0.025623158 -0.086714 0.035158217 -0.060049057 -0.08239839 -0.06929266 0.011467593 -0.09555928
0.23789892 0.002199486 -0.014854474 -0.06378511 0.23940007 0.12790293 -0.13810948 0.11987296
0.019386616 -0.038154133 0.09567458 -0.029254436 -0.060972556 -0.081938215 0.14877474 0.06487976
-0.18682253 -0.01967108 0.056917436 -0.12795945 0.04984671 -0.021255167 0.1930437 -0.07963352
-0.10059395 -0.0053513157 0.08874773 -0.14184752 -0.09189751 -0.029215924 -0.025228454 0.044444215
-0.06056651 -0.03528555 -0.028527 0.0061272993 -0.078347236 0.0027902038 -0.028512498 -0.028958179
00000000: 5d08 c53d 415c 6d3d 58d0 e63d bfd1 903d
00000010: dbad 503d c0d7 f43c ad04 e53d d1a4 8b3d
00000020: e092 57bd bb61 ca3d 65eb ad3c dde3 1fbe
00000030: bbeb 263d 3292 9f3d 75c3 f63c 8d99 6fbc
00000040: 93b6 163c 2290 d1bc 4681 3d3e beb4 fb3d
00000050: 4685 64bd 103f c63c 1367 9f3d 0ccd d43d
00000060: a618 1b3e 2d78 b5bd 6c96 f5bd 24ac 333d
00000070: b7d8 38be 8d7c 36bd 60c8 ec3d 51b9 acbd
00000080: 4911 133d a761 2c3e 1df2 8b3d f2b1 273e
00000090: 2e7a 803d ef6a fbbc 8a8d ff3b b986 30bd
000000a0: ab71 d7bd cfc7 973d 23b1 8bbd c23c cebc
000000b0: 0e11 52bc a6ab 6ebd f186 34bc eaf9 03bd
000000c0: b4a9 88bd 57e8 a0bc 4fda 27be 7f3b 9ebd
000000d0: 97c7 dc3d c934 063e 8091 933c dcea 00bb
000000e0: 9400 61bd 0cd7 85bd 296a b43d 3344 803d
000000f0: 0ddc d23d c335 023d 9c84 e13d b3a0 5d3e
00000100: d7d9 a33d 51d4 d3bc d316 c1bd 9f10 e43d
00000110: de15 333b 0121 993d 6870 18bd 5194 3cbd
00000120: 8200 cebc d6a6 a23c 9862 16bd 8af7 ebbd
00000130: 9212 673d ebed 28bd b07e 013e 3317 10bc
00000140: cf9c 0d3e a2ea 0bbb 2440 bd3c 2a3c b0bc
00000150: ff97 db3c a239 33bd 9397 94bd cd2d df3d
00000160: c5fb 24bd 91f4 9b3d e9b3 253b 8baf a8bc
00000170: 71ae ca3b d1aa 1e3e 50db d5bd 22c5 f73d
00000180: 5503 c03c 3c73 02be df5b 223e 75b8 59bc
00000190: 20c2 ea3c 07fd 2f3e 182c cf3b 94e7 9c3d
000001a0: 4acf 463d 882d 06be 1cd0 3ebc b9bb 97bd
000001b0: dc08 93bd 701d 283d e460 6fbd c8b6 633e
000001c0: 9b5b e43a ff03 873d b0cc fc3c f7da c83d
000001d0: 4497 b63d 4bb1 9bbd 90f6 46bd 9aaa 1abe
000001e0: 9d29 223a 99cd b0bd 0aec 16bd 6d7a 8b3d
000001f0: e5ba 573c 5e7f 19bd 7529 d93c 69b5 e43d
00000200: 6109 573c 425d 7ebd a80a 2e3b ac45 a33d
00000210: 3fa5 d0bc 3bde 663d c626 c83d 35d3 873d
00000220: bf62 94bc ce0d 55bd c7e1 40bd e2fa b13d
00000230: 7a7b a73d dcb5 0b3e eb60 99bd dcab e73d
00000240: e1d3 65bd 22bb 83bd 82d9 9cbd 2610 e73d
00000250: 15a5 163c dd50 ba3c 3516 58be 32be 963d
00000260: 5b7f 49bc 34d8 e2bd f5aa 40be 0691 233d
00000270: e6e8 0f3e 584e 88bd 292b c53d 5c3e 773d
00000280: 5302 5fbd 0789 173d 6195 eabd a1ac 093d
00000290: 38e1 7ebd 10c5 07be ade0 833d 364f 2e3d
000002a0: 54c0 82bd e1a4 9ebd 2ea3 1e3d 2af9 8d3d
000002b0: 0ca1 f33d 9f66 90bd 2b68 323e 6e42 cfbd
000002c0: 7c90 b9bd 8d10 043d 37d4 efbd 628d 79bd
000002d0: 3ed9 fbbd df3a dc3d b5a0 4abd 4b88 c4bb
000002e0: 610e 963d 69ec f83d bfdf b8bd 85f8 29be
000002f0: f715 28bd 99bd 853d 11d9 9fbd b8d4 39be
00000300: b8b0 0fbd df4d 33bd 7845 663d 5501 bf3d
00000310: e888 30bd a74d 5e3c 305b 263d e5e3 323e
00000320: b8f8 4b3d 3d08 a43d 44b1 52bd e832 493e
00000330: 9a81 b13d 8e50 a0bd 79d3 0c3d 7aba 013e
00000340: a8e7 d1bc 1c97 b1bd 1002 103d 00f6 75bd
00000350: 7dc0 a8bd 4fe9 8dbd 92e2 3b3c 95b4 c3bd
00000360: c69b 733e 4025 103b 2e60 73bc c5a1 82bd
00000370: 4b25 753e fcf8 023e 926c 0dbe f47f f53d
00000380: aed0 9e3c 8247 1cbd 09f1 c33d 00a7 efbc
00000390: 5cbe 79bd 39cf a7bd 6858 183e aedf 843d
000003a0: 684e 3fbe 3f25 a1bc 4222 693d cd07 03be
000003b0: 102c 4c3d 511f aebc 3fad 453e e616 a3bd
000003c0: 3304 cebd 175a afbb 5fc1 b53d 7a40 11be
000003d0: c334 bcbd 3c56 efbc e7ab cebc 230b 363d
000003e0: 9714 78bd 9587 10bd 75b1 e9bc 83c7 c83b
000003f0: 8474 a0bd dadb 363b 0b93 e9bc b439 edbc

network_body._body_endoder.seq_layers.2.bias f4 [128]
0.010753837 -0.0014240982 0.014105077 0.006070505 -0.004021329 0.008216747 -0.0030595167 0.01152773
0.008059161 0.012965961 -0.0021404817 0.0017038314 0.007873087 0.007927528 -5.599366e-06 -0.004520515
-0.0058078845 -0.0035424822 0.012032934 -0.00793101 0.0062970514 -0.004925239 -0.0029260488 -0.0015929344
0.010840036 -0.004912821 0.009452768 0.008174632 0.011961973 -0.0007215729 0.012893602 -0.0025795521
0.0138371 -0.0060110763 0.001544761 0.0002163312 -0.0050346972 -0.007831042 0.009724163 0.0081750555
-0.006334589 -0.0010053308 0.0015726648 0.011506136 0.013145351 0.0038813697 -0.007296835 0.008251614
0.006842684 0.011361748 -0.004845704 -0.0033314354 -0.0029201875 0.0117459865 0.010338494 0.011510122
0.008517388 0.0060634674 0.013809358 0.009080609 -0.004038376 0.008508715 0.011797195 0.0076193404
-0.0032477586 -0.0048119454 0.004221639 0.01617625 0.011239732 0.0074677304 0.0016360087 0.007772727
0.013647311 -0.001991628 -0.0048290533 0.0102354465 -0.0032019336 0.008072857 0.008035214 -0.0038770519
0.011758465 -0.0068964004 -0.0045409924 0.0023738928 0.0060619917 -0.0047064116 -0.0059874076 -0.005069758
0.010134765 0.01080502 0.014473468 0.0014982003 -0.0016782469 -0.0072905025 0.00891418 0.0081435535
0.008342695 0.009794449 0.010374924 -0.0059666885 0.01131101 -0.002514247 -0.0071138963 -0.008931341
-0.0028777323 0.002837048 0.0036865359 -0.006535829 0.010272422 0.014890793 0.010411452 -0.0051827626
0.0072851833 -0.0045312536 -0.0088669155 0.009868841 -4.6585577e-05 0.011902414 -0.0021437856 -0.0006376282
-0.005669246 0.0016018488 -0.005634883 -0.004839008 -0.010645776 0.0097434735 0.00014960667 -0.003449799
00000000: dd30 303c cea8 baba fb18 673c 16eb c63b
00000010: 5ac5 83bb 899f 063c 2c82 48bb cede 3c3c
00000020: 920a 043c 2f6f 543c 5347 0cbb 1853 df3a
00000030: 1ffe 003c 76e2 013c 30e2 bbb6 d420 94bb
00000040: 1150 bebb fd28 68bb c925 453c 11f1 01bc
00000050: 7f57 ce3b e663 a1bb f4c2 3fbb 02ca d0ba
00000060: 689a 313c bbfb a0bb c8df 1a3c e4ee 053c
00000070: 27fc 433c f027 3dba b03f 533c b40d 29bb
00000080: 01b5 623c 90f8 c4bb 9479 ca3a f7d6 6239
00000090: 1afa a4bb c54d 00bc 1952 1f3c abf0 053c
000000a0: 6292 cfbb 4ec5 83ba e021 ce3a 3b84 3c3c
000000b0: 995f 573c 945e 7e3b 4a1a efbb c731 073c
000000c0: 9838 e03b a026 3a3c b6c8 9ebb 3654 5abb
000000d0: 9e60 3fbb 3d72 403c c962 293c f394 3c3c
000000e0: 848c 0b3c 0db0 c63b a540 623c d6c6 143c
000000f0: 5a54 84bb 2368 0b3c 0649 413c a9ab f93b
00000100: 59d8 54bb 86ad 9dbb ad55 8a3b 0e84 843c
00000110: da26 383c ddb3 f43b 586f d63a 5cb2 fe3b
00000120: f998 5f3c f985 02bb 093d 9ebb 93b2 273c
00000130: 88d7 51bb 0444 043c 21a6 033c 2316 7ebb
00000140: 94a6 403c 33fb e1bb 9bcc 94bb 5093 1b3b
00000150: aca3 c63b 3e38 9abb 0432 c4bb 3620 a6bb
00000160: 490c 263c 8a07 313c 2022 6d3c 435f c43a
00000170: 9ff8 dbba 2be5 eebb c80c 123c 8a6c 053c
00000180: cdaf 083c e678 203c 96fb 293c 3684 c3bb
00000190: d151 393c 11c6 24bb b01b e9bb c254 12bc
000001a0: 5698 3cbb c4ed 393b cf99 713b 822a d6bb
000001b0: a94d 283c 83f8 733c cb94 2a3c 2ad4 a9bb
000001c0: 8cb8 ee3b e97a 94bb 8a46 11bc ebb0 213c
000001d0: e264 43b8 5802 433c c17e 0cbb 8126 27ba
000001e0: 15c5 b9bb 20f5 d13a d3a4 b8bb 8b90 9ebb
000001f0: 9f6b 2ebc 17a3 1f3c bcdf 1c39 0616 62bb

action_model._discrete_distribution.branches.0.weight f4 [2, 128]
-0.028383782 0.036835648 -0.021300133 -0.005446262 0.020846086 -0.016577031 0.019632492 -0.020092668
-0.0012626454 -0.014414725 0.029500552 0.00764253 0.015016049 -0.0077162203 0.02908731 0.017247135
-0.0021134862 0.032127474 -0.01889168 0.0054459595 0.005401237 0.023163633 -0.021722635 0.026403831
-0.02250216 0.017568056 0.014734181 -0.014499249 -0.030261291 0.03536921 -0.015882125 0.03588118
-0.030017817 0.018257262 -0.01813917 0.01847202 0.01527661 0.017255438 0.006983959 -4.880778e-05
-0.004362104 0.042953517 0.02736821 -0.0090587055 -0.011065016 0.017962076 0.0050147907 -0.012710947
0.008275457 -0.0076262676 -0.009224909 0.011771879 0.014767052 -0.03530407 -0.0007021758 -0.024463635
0.025693722 -0.0085388655 -0.020789988 -0.0016772994 0.020516263 -0.0098208375 -0.025702745 -0.013397135
-0.008591249 0.015940702 0.031474717 -0.029513208 0.013654227 -0.011294785 0.025207033 -0.01928323
-0.024099533 0.012434755 0.03332384 -0.013204429 0.022829348 -0.024706077 0.00081400946 0.02725875
-0.03051982 0.014084139 0.027564928 0.035853315 0.0066665895 -0.0040075253 0.0032367061 0.019984733
-0.022549318 -0.016588168 0.02158317 0.018881258 0.014584908 0.0051960675 -0.0018513554 -0.011859675
-0.017601378 -0.027950423 -0.05040833 0.008228756 -0.05202447 0.028626945 0.016011083 0.004553387
0.018014101 -0.02140812 0.032793585 -0.0033235464 -0.025913099 -0.04117866 -0.023183279 0.021088272
0.017950365 -0.00048485273 0.00880296 0.0020177593 0.047032632 -0.020586785 0.00327765 -0.013925091
0.014481506 0.032541323 0.018291682 0.0118164 -0.018325498 -0.01569988 0.013876245 0.007920529
0.02183178 -0.03671827 0.025277972 -0.0079053445 -0.019532096 0.0018183432 -0.02755003 0.03064692
0.016015055 0.024498714 -0.021136876 -0.009571213 -0.015156123 0.0062113865 -0.016815165 -0.024831418
0.0029956189 -0.021320324 0.028137574 0.005698794 -0.019915806 -0.02544149 0.01080353 -0.024500167
0.0433488 -0.023803068 -0.017239526 0.015161629 0.0149496365 -0.0400772 0.022779977 -0.038286228
0.018069994 -0.007971604 0.002587859 -0.021924477 -0.021429894 -0.007547477 -0.017733574 0.018836241
0.015266096 -0.020013046 -0.026027558 0.028829508 0.026741661 -0.038772624 -0.007235234 0.006220203
-0.010218976 0.026352448 0.0029741176 -0.032161947 -0.010181464 0.024738742 0.029647432 0.03644986
-0.021006243 -0.0034777483 0.017550707 0.020930992 -0.012167111 0.027701024 0.021533176 0.01817364
0.012884548 -0.020260496 -0.034453146 0.024758825 -0.01889077 0.01382371 -0.020136323 0.011710115
0.028021766 -0.0013176354 -0.009160156 0.020672 -0.031086197 0.0035723487 0.023728441 -0.042888243
0.036019295 -0.017363826 -0.020806866 -0.04411873 -0.017760722 -0.013574064 -0.0058523538 -0.023332078
0.016966948 0.01898692 -0.012208397 -0.0067089885 -0.0042260573 0.010078989 0.0115068965 0.008053526
0.02919906 0.0018603755 0.0135530885 0.0077609187 0.033652663 -0.031772375 -0.023189064 -0.010000682
-0.015852982 0.024643106 -0.026002184 -0.020106303 0.028930964 0.036252107 0.025719829 -0.025142161
-0.014937323 -0.010352739 -0.0033592507 0.0033740576 -0.01398194 0.015620389 -0.0033423756 0.025765361
-0.034031525 -0.024696233 -0.009217152 -0.020615902 -0.0033582766 0.013701899 -0.024179464 -0.017626762
00000000: 1b85 e8bc fae0 163d 9e7d aebc 8f76 b2bb
00000010: 69c5 aa3c 8ecc 87bc 52d4 a03c 6199 a4bc
00000020: 597f a5ba bd2b 6cbc 24ab f13c 306e fa3b
00000030: e005 763c 59d8 fcbb 8348 ee3c dd49 8d3c
00000040: 6a82 0abb 1998 033d b9c2 9abc 0574 b23b
00000050: dcfc b03b a9c1 bd3c abf3 b1bc d94c d83c
00000060: 7356 b8bc e2ea 8f3c a267 713c 428e 6dbc
00000070: 87e6 f7bc 4edf 103d 3b1b 82bc 25f8 123d
00000080: ede7 f5bc 4190 953c 9998 94bc a252 973c
00000090: bf4a 7a3c 475b 8d3c b2d9 e43b f4b6 4cb8
000000a0: fbef 8ebb 07f0 2f3d 4c33 e03c f76a 14bc
000000b0: 0a4a 35bc 3425 933c 1d53 a43b 9341 50bc
000000c0: c895 073c c5e5 f9bb 1324 17bc d7de 403c
000000d0: 81f1 713c 009b 10bd 3812 38ba f667 c8bc
000000e0: a47b d23c 99e6 0bbc c44f aabc d4d8 dbba
000000f0: b911 a83c 94e7 20bc 908e d2bc a87f 5bbc
00000100: 4fc2 0cbc 1396 823c a2eb 003d afc5 f1bc
00000110: fbb5 5f3c c30d 39bc fb7e ce3c ddf7 9dbc
00000120: 626c c5bc 25bb 4b3c 947e 083d 6457 58bc
00000130: 9d04 bb3c 6664 cabc 4063 553a be4d df3c
00000140: b404 fabc 29c1 663c d8cf e13c edda 123d
00000150: 6873 da3b 8f51 83bb eb1e 543b 06b7 a33c
00000160: 59b9 b8bc e9e3 87bc 30cf b03c deac 9a3c
00000170: 8af5 6e3c c643 aa3b 2ea9 f2ba 154f 42bc
00000180: c430 90bc 49f8 e4bc f778 4ebd e7d1 063c
00000190: 9c17 55bd 0e83 ea3c ad29 833c 9434 953b
000001a0: 4f92 933c 1560 afbc 9152 063d dbcf 59bb
000001b0: b547 d4bc f4aa 28bd dcea bdbc 50c1 ac3c
000001c0: a50c 933c d533 feb9 4a3a 103c 623c 043b
000001d0: 4aa5 403d 9ea5 a8bc d8cd 563b 1126 64bc
000001e0: d743 6d3c 0d4a 053d 70d8 953c 9399 413c
000001f0: 5b1f 96bc 099d 80bc 3159 633c 1bc5 013c
00000200: 90d8 b23c e665 16bd c013 cf3c 6b85 01bc
00000210: c601 a0bc 7955 ee3a 9ab0 e1bc 400f fb3c
00000220: 0132 833c 87b1 c83c 3e27 adbc 94d0 1cbc
00000230: 6351 78bc e388 cb3b f5bf 89bc 426b cbbc
00000240: 2552 443b f6a7 aebc c580 e63c f3bc ba3b
00000250: 7926 a3bc ac6a d0bc 4a01 313c 93b4 c8bc
00000260: 838e 313d a7fe c2bc e839 8dbc 7b68 783c
00000270: 52ef 743c fd27 24bd 139d ba3c 05d2 1cbd
00000280: 8607 943c 559b 02bc 1299 293b f69a b3bc
00000290: bf8d afbc d350 f7bb 0046 91bc 764e 9a3c
000002a0: a61e 7a3c 66f2 a3bc bf37 d5bc dc2b ec3c
000002b0: 5411 db3c 0bd0 1ebd 8b15 edbb d8d2 cb3b
000002c0: 7e6d 27bc 17e1 d73c 6ae9 423b 3fbc 03bd
000002d0: 28d0 26bc e7a8 ca3c 2cdf f23c 734c 153d
000002e0: 4915 acbc efea 63bb 80c6 8f3c 7977 ab3c
000002f0: 9058 47bc 42ed e23c 5866 b03c e3e0 943c
00000300: b619 533c 57f9 a5bc be1e 0dbd 05d3 ca3c
00000310: d1c0 9abc d87c 623c eef4 a4bc c8db 3f3c
00000320: e78d e53c 82b4 acba 7b14 16bc 5358 a93c
00000330: 7ba8 febc 111e 6a3b 2662 c23c 95ab 2fbd
00000340: f888 133d 953e 8ebc 2973 aabc d7b5 34bd
00000350: ef7e 91bc c065 5ebc 1ac5 bfbb ea22 bfbc
00000360: 45fe 8a3c 758a 9b3c ba05 48bc 13d7 dbbb
00000370: bd7a 8abb 5822 253c 6c87 3c3c f0f2 033c
00000380: de32 ef3c d8d7 f33a c60d 5e3c 4e4f fe3b
00000390: 60d7 093d c023 02bd fef6 bdbc e7d9 23bc
000003a0: 1dde 81bc 57e0 c93c 8802 d5bc f9b5 a4bc
000003b0: a100 ed3c 177d 143d 64b2 d23c eff6 cdbc
000003c0: acbb 74bc 899e 29bc e026 5cbb 4b1f 5d3b
000003d0: 8214 65bc a9ec 7f3c c20b 5bbb e111 d33c
000003e0: a464 0bbd c14f cabc 8a03 17bc aee2 a8bc
000003f0: 8816 5cbb ee7d 603c 0314 c6bc 0066 90bc

action_model._discrete_distribution.branches.0.bias f4 [2]
-0.007681467 0.0076814666
00000000: d1b4 fbbb d0b4 fb3b
