Assets/results/ppo/MLAgent/MLAgent-54656.pt (torch, 546980 bytes, 33 tensors)

network_body._body_endoder.seq_layers.0.weight f4 [128, 42]
000000 f7 28 5d 3d f5 57 b8 3d 94 42 05 3c e5 6c eb 3d
       0.053994145 0.090011515 0.008133549 0.11495379
000010 36 68 94 3d c7 62 05 bd e5 34 e1 bd ef d6 40 be
       0.07246439 -0.032564905 -0.10996417 -0.1883199
000020 23 e2 72 be bd 4b 9a bd 26 b4 eb 3d 07 6d 28 3d
       -0.23719077 -0.07533977 0.1150897 0.0411196
000030 81 7a b4 bd dc c4 56 be 7c 4d d6 bc 9d ea f9 bd
       -0.08812428 -0.20973533 -0.026159994 -0.12202952
000040 05 20 73 bd e1 d9 bd bb a1 89 6d 3e 18 d5 83 be
       -0.059356708 -0.0057937955 0.23197033 -0.25748515
000050 11 58 a3 3e 0e 07 f3 bd 10 cd bc 3d e7 18 24 be
       0.31903127 -0.1186658 0.092188 -0.16025124
000060 95 f0 94 3c bf cb 31 bd 53 f3 12 be 43 9a 13 3c
       0.018181125 -0.043407198 -0.14350633 0.009008947
000070 95 60 f8 bd 91 ea bb 3d a8 10 20 be b5 85 c5 3c
       -0.121277966 0.09175599 -0.15631354 0.024111608
000080 4a fb 35 3e 7a 08 b3 bd 06 0b cf bd e6 7a c5 3d
       0.1777164 -0.08741851 -0.101095244 0.09642582
000090 da 22 cb bd 09 53 6f 3d d1 d3 8f be ed 46 7d be
       -0.09918757 0.058428798 -0.2809129 -0.24734087
0000a0 5c cf 6d be 9e b3 a8 3e f2 d8 20 3c 5e 6d 8f be
       -0.23223633 0.32949537 0.009817349 -0.28013128
0000b0 21 0c 01 be 83 53 13 3e 99 b1 0e 3e fd 9a bf 39
       -0.12602283 0.14387326 0.13934936 0.00036545834
0000c0 ca db 9d bd 1b 36 c1 3b 67 a9 1b be b4 c2 3e be
       -0.07707937 0.0058963425 -0.1520134 -0.18628961
0000d0 ac 2b 95 3d e7 79 93 bd e5 dc 68 3c cd 5a 12 be
       0.072837204 -0.072009854 0.014212822 -0.1429245
0000e0 13 4b c3 3d 3c 38 9d 3e 7e b5 73 3e c8 81 94 bc
       0.09535804 0.30706966 0.23799703 -0.01812829
0000f0 02 b4 24 3e 73 94 cb 3d 61 f9 0e 3d 9f 44 61 3d
       0.16084293 0.09940424 0.034905795 0.054997083
000100 44 f6 14 be c7 06 d9 3d f2 c1 77 bd 83 1d de bd
       -0.14547068 0.10596996 -0.060487695 -0.10845473
000110 3b 44 c6 bd f5 ad 5d be 31 49 25 3e 00 6f e6 bc
       -0.09680983 -0.2164839 0.16141202 -0.0281291
000120 b3 e1 b8 3e e3 13 de 3d 5d 64 05 be 72 be 39 3e
       0.36109695 0.10843637 -0.13026567 0.18139055
000130 1b c1 01 bd b8 47 d1 3a 25 81 ac bd e7 c4 fd be
       -0.0316783 0.0015966808 -0.0842307 -0.49564287
000140 be 42 08 3d 98 d3 40 3c ed 4c 5d 3c 35 93 8f 3e
       0.033266775 0.011769198 0.01350711 0.28041998
000150 a8 27 2d bd 94 bf 16 3e 25 ea ab 3c da fa 40 3d
       -0.042274147 0.14721519 0.020985672 0.04711423
000160 69 be c7 3d fd 86 46 3e ff 61 ce 3d 3e 87 9e bd
       0.09753115 0.19387431 0.10077285 -0.07740639
000170 ab 64 3e 3e 43 19 66 be ec fc f0 3d a5 49 15 3d
       0.1859309 -0.22470574 0.11766991 0.036447186
000180 ac d2 b5 3d 82 10 df 3b cc 69 39 be d6 b3 ae bc
       0.08878073 0.006807388 -0.18106765 -0.021325987
000190 e9 b0 71 3d 89 c3 47 bd 9a 16 29 3e df af 74 be
       0.059006605 -0.04877046 0.16512528 -0.23895214
0001a0 05 8a 4f 3e 2e e4 13 3a b5 ab fd b9 22 95 26 be
       0.20267494 0.00056416064 -0.00048383852 -0.16267827
0001b0 1f b0 0a be df 13 07 3e 08 56 84 bd e6 f6 04 3e
       -0.13543747 0.13191174 -0.06461722 0.1298481
0001c0 31 48 a9 3d 0c 4f c7 3d c0 77 9d 3e 33 99 da bd
       0.082657225 0.09731874 0.30755424 -0.10673752
0001d0 9a a9 57 bd 8e 55 18 bd 56 e8 ab 3d 93 fa 58 3d
       -0.05265198 -0.037190966 0.08393924 0.05297334
0001e0 a6 24 97 3c 2a 29 3c 3e 7f 20 7a 3c 36 f6 5e be
       0.018450093 0.18375078 0.015266537 -0.2177361
0001f0 2a fc 60 be 17 a4 63 3c 09 84 43 be 86 48 6e 3e
       -0.21971193 0.013894103 -0.19093336 0.23269853
000200 97 e7 2e bd 38 cb fd 3c 80 3f db 3c d4 56 03 be
       -0.04270133 0.030980691 0.026763678 -0.12826091
000210 7e a9 45 3e 08 a5 8d bd 02 eb cd 3d 93 83 9f bd
       0.19302937 -0.06916243 0.1005459 -0.07788768
000220 39 ed 4d 3e d3 d4 54 be 97 9c 1c 3d ea 94 b3 bd
       0.20110025 -0.20784311 0.038235273 -0.087686375
000230 27 52 0b be 03 7d 8c be 95 3d ba 3c 53 ff 9a 3d
       -0.13605557 -0.27439126 0.022734443 0.075682305
000240 22 7d 68 be af 27 80 3d 9b d7 9f be 0b 70 fe bd
       -0.22703984 0.06257569 -0.3121918 -0.12423714
000250 0b 80 7e bd 00 a6 74 be ca df 05 bd 29 13 43 be
       -0.06213383 -0.23891449 -0.032684125 -0.19050278
000260 2b 19 80 3d d2 33 95 be 4c b0 08 be b1 02 25 bc
       0.062548004 -0.29141098 -0.13348502 -0.010071442
000270 6e bb 1e 3e 88 fe 7c bd 08 04 bf bd 2c 48 97 bd
       0.15501186 -0.061766177 -0.09326941 -0.073868126
000280 5a de 87 be 2d 32 06 be 55 66 cc 3d 37 84 ba bd
       -0.26536828 -0.13105078 0.09980456 -0.09107249
000290 6b 17 30 3e 73 08 54 3d dd eb ed bd 97 24 41 be
       0.17196433 0.05176587 -0.11617253 -0.18861614
0002a0 33 0a 6a 3d e8 49 fc bd f1 a3 0a 3e 30 d9 ab bd
       0.057138633 -0.12318784 0.13539101 -0.083910346
0002b0 fc de 16 3d d8 49 8f bd 89 ab 80 be e8 53 60 bb
       0.03683375 -0.069965065 -0.2513087 -0.00342297
0002c0 a7 55 92 3d 9c d0 38 be 56 d3 2a 3e 2d 68 08 be
       0.07145243 -0.18048328 0.16682181 -0.1332099
0002d0 d1 d2 5f bd ff 4c 2f bc d9 5f f1 bd b2 0b 73 be
       -0.05464441 -0.01069951 -0.117858596 -0.2373493
0002e0 d5 c6 8c be 39 37 03 3d a0 2e 2b 3e eb 39 dd 3c
       -0.27495447 0.032035086 0.16717005 0.027005157
0002f0 15 e3 2e 3e 67 a2 82 3e 85 fc 58 3e 55 0f bd 3d
       0.17078812 0.25514528 0.21190079 0.0923144
000300 c6 5f 8e bd ef cd 74 be 74 a7 36 be 47 b9 85 3d
       -0.06951861 -0.23906682 -0.17837316 0.065294795
000310 da ad 6a 3c 50 6d 95 be cc 15 e9 3c 09 10 f2 3d
       0.014323676 -0.2918496 0.028452776 0.11819465
000320 31 e8 81 bd f9 47 f5 bd 41 ef ee 3d ca 71 96 bd
       -0.06343115 -0.11976618 0.11666728 -0.07345922
000330 ef 62 8e 3d 79 8b a8 3d 68 27 29 3d 2f e5 c5 bd
       0.06952464 0.08229727 0.041297346 -0.09662854
000340 da 78 1b be b0 d1 97 3c b7 53 03 bc 1d 56 57 3e
       -0.1518282 0.018532604 -0.008015565 0.21028943
000350 39 40 a5 3e d4 75 e0 bd 3e d6 98 bd 5f 63 1e be
       0.3227556 -0.10959974 -0.074627385 -0.15467595
000360 38 15 5d bd 30 14 8d be 0f f3 fc 3d 32 a0 c8 bd
       -0.053975314 -0.27554464 0.12351047 -0.0979618
000370 5f d1 85 3d 5e ae 8f bd 88 c4 8e 3d 7c 86 26 3e
       0.06534075 -0.0701568 0.06971079 0.16262239
000380 a8 ae f1 bc 1a 31 4e 3c d2 34 cd bd 0f aa ed bd
       -0.029502228 0.012584949 -0.1001984 -0.11604702
000390 39 f5 51 3d 81 b8 e6 3c f7 27 8f bc 2b d0 24 3e
       0.051259253 0.02816415 -0.017475111 0.16095035
0003a0 92 5e 1a be 18 6b 48 be f6 a3 5b 3e a0 ff aa 3c
       -0.15075138 -0.19572103 0.21449265 0.020873845
0003b0 9a 25 55 be 71 09 a1 3d df d3 52 3d 1f 6c 16 bc
       -0.20815125 0.07863129 0.051471587 -0.0091810515
0003c0 df 53 ab 3e 90 eb 49 3e 05 2f 43 bd 53 c8 db bd
       0.33462426 0.19718766 -0.047652263 -0.10731568
0003d0 59 27 21 bd ef cb 90 bd 69 fe a8 3d e6 84 25 3e
       -0.039344165 -0.07070147 0.0825165 0.16163978
0003e0 99 d6 6b 3e 9c 4f 8c 3e 45 67 40 3e 71 cc 57 3c
       0.23031081 0.27404487 0.18789394 0.013171301
0003f0 17 d0 4d 3d b4 97 05 be 8a a0 02 3e a9 94 29 be
       0.050247278 -0.13046151 0.12756553 -0.16560616

network_body._body_endoder.seq_layers.0.bias f4 [128]
000000 9d e9 30 3c 38 a1 e6 b9 5f 6e fd 3b 73 27 c5 bb
       0.010797885 -0.00043989136 0.0077341045 -0.0060166656
000010 f4 ea a1 3b b9 3e a9 3b e1 d9 95 ba f1 8b a6 3c
       0.0049413387 0.005164948 -0.0011432731 0.020330401
000020 0d 9f a6 bb b7 0c a6 3c e0 06 44 3c 10 0b 5f ba
       -0.0050848783 0.020269735 0.01196453 -0.00085084233
000030 b6 0b 39 3c f2 f5 cf ba 4b b8 8e ba d3 e3 6d 3c
       0.011294296 -0.0015866144 -0.0010888664 0.01451965
000040 6b 53 60 3c 60 d5 01 3c 5d 7e da bb e7 be 40 3b
       0.013691763 0.007924408 -0.0066678957 0.0029410662
000050 fa 97 29 bb 65 95 9f bb 85 cb aa bc 5a 05 83 3c
       -0.0025877939 -0.004870104 -0.020848999 0.015993763
000060 cf 31 62 3c 39 6b 43 3c 1f 39 b1 bb ee 09 16 bc
       0.013805821 0.011927419 -0.0054084207 -0.009157641
000070 c6 7d 14 3c 1b c9 75 bc 7c 24 6e 3c 11 02 f8 3b
       0.00906319 -0.015001561 0.014535066 0.0075686057
000080 4e 80 ef 3b 49 ca 65 3c ae bf fb bb bd b3 8d 3c
       0.0073089963 0.014025279 -0.007682762 0.01729762
000090 15 2a e5 bb c9 f3 67 3b 9b 5b 47 bc 77 05 f9 bb
       -0.006993542 0.003539311 -0.012167837 -0.0075995284
0000a0 01 6e 08 bc f4 92 ad 3b f6 f0 10 3b bd 55 77 bc
       -0.008327008 0.005297059 0.002211628 -0.015096125
0000b0 65 e3 3d 3b 87 97 bf 3b 1e 06 07 bc a7 76 40 3c
       0.002897465 0.005846921 -0.008241205 0.011747039
0000c0 8c 33 27 3c 10 cc 75 3a a7 b0 21 bc 39 5b 5b 3c
       0.010205161 0.0009376416 -0.009868777 0.013388448
0000d0 75 e3 6b 3c 7f f8 6d 3c a3 ba 8a 3b c6 6f 37 bc
       0.014397492 0.014524578 0.0042336746 -0.011196082
0000e0 04 bb 78 3a fb b8 32 bc 9f 3c 80 3c 25 9d 8a 3c
       0.0009488317 -0.010908361 0.015653906 0.016920635
0000f0 e5 a7 f2 3b 27 14 2a 3c 3a 92 6c 3c d6 a1 20 3c
       0.0074052685 0.010380781 0.01443916 0.00980421
000100 83 a8 1f 3a 4a fe 18 3b 88 f1 21 bc 8b 64 51 bc
       0.0006090479 0.0023344927 -0.009884246 -0.012780319
000110 b3 f9 bf 3c 73 56 05 bc d0 05 4e 3b de 12 c6 3c
       0.023434496 -0.008138287 0.003143657 0.024178918
000120 85 92 a1 3c 78 5a 6e 3c ec 29 dc bb e6 5d 12 3c
       0.019723186 0.014547937 -0.0067188647 0.00893352
000130 74 a6 29 3c c4 3e a8 ba 48 0f 86 3c fa ae 4a ba
       0.010354627 -0.0012836088 0.016364709 -0.0007731762
000140 ff 31 30 bb 5e 3a f7 3b a2 82 c0 bb 9b 2a b8 39
       -0.0026885269 0.0075447997 -0.0058749476 0.00035126958
000150 aa 65 48 3c 05 27 97 3c 46 8c 35 bc 8a bf 7e 3c
       0.01223127 0.018451223 -0.011080807 0.015548596
000160 29 16 91 3b 73 c9 85 bc d7 f6 c4 bb 58 88 32 ba
       0.0044276905 -0.01633141 -0.006010871 -0.0006810478
000170 1c 8b 16 3c f1 cf 55 3c 64 3f 6b 3c aa 7d 8e 3c
       0.00918844 0.013050065 0.014358375 0.017393906
000180 de 3b b6 3c 89 a3 03 bb 21 01 26 3c 84 8b b8 3a
       0.022245344 -0.0020086488 0.010132105 0.0014079665
000190 61 27 39 3c 9e 5c 74 3b 90 39 59 3c f5 5e fa 3b
       0.011300893 0.003728665 0.013258353 0.0076407143
0001a0 58 67 8c 3c 40 be c1 bc e2 f7 ec 3b b3 31 f7 3b
       0.017139122 -0.023650289 0.0072316984 0.0075437664
0001b0 b9 9e 3e 3c f1 8d 3e 3c 14 70 cf 3a 87 7c 32 3c
       0.011634522 0.011630521 0.0015826249 0.010893947
0001c0 23 e4 e2 3b ab c1 df 3b 7d 36 96 3b 6c 1a ee 3a
       0.0069241687 0.006828507 0.004584132 0.0018165833
0001d0 26 34 72 3a fa dd 68 3c ea 69 ea 3b 48 58 1a bb
       0.0009239338 0.01421308 0.007153739 -0.0023551155
0001e0 e6 c1 62 3c c1 93 6c bc 94 c3 01 3c 72 97 0c 3c
       0.013840174 -0.014439524 0.007920165 0.008581029
0001f0 a5 4f 8f 3b 1d 0c 9a bb 72 81 2f 3c 1e 12 53 3c
       0.004373508 -0.004701151 0.0107120145 0.012882737

network_body._body_endoder.seq_layers.2.weight f4 [128, 128]
000000 5d 08 c5 3d 41 5c 6d 3d 58 d0 e6 3d bf d1 90 3d
       0.09620736 0.05794931 0.11270207 0.07071256
000010 db ad 50 3d c0 d7 f4 3c ad 04 e5 3d d1 a4 8b 3d
       0.05094705 0.029888034 0.111825325 0.068185456
000020 e0 92 57 bd bb 61 ca 3d 65 eb ad 3c dd e3 1f be
       -0.052630305 0.09881922 0.021230409 -0.15614267
000030 bb eb 26 3d 32 92 9f 3d 75 c3 f6 3c 8d 99 6f bc
       0.040752154 0.077915564 0.030122498 -0.014624012
000040 93 b6 16 3c 22 90 d1 bc 46 81 3d 3e be b4 fb 3d
       0.0091988025 -0.025581423 0.18506345 0.12290333
000050 46 85 64 bd 10 3f c6 3c 13 67 9f 3d 0c cd d4 3d
       -0.055791162 0.024199992 0.07783332 0.10390672
000060 a6 18 1b 3e 2d 78 b5 bd 6c 96 f5 bd 24 ac 33 3d
       0.15146121 -0.08860812 -0.11991581 0.043865338
000070 b7 d8 38 be 8d 7c 36 bd 60 c8 ec 3d 51 b9 ac bd
       -0.1805142 -0.044552375 0.11561656 -0.08433784
000080 49 11 13 3d a7 61 2c 3e 1d f2 8b 3d f2 b1 27 3e
       0.035905156 0.16834126 0.06833289 0.16376474
000090 2e 7a 80 3d ef 6a fb bc 8a 8d ff 3b b9 86 30 bd
       0.06273304 -0.030690638 0.007798855 -0.04309723
0000a0 ab 71 d7 bd cf c7 97 3d 23 b1 8b bd c2 3c ce bc
       -0.10519727 0.07411157 -0.068208955 -0.025175456
0000b0 0e 11 52 bc a6 ab 6e bd f1 86 34 bc ea f9 03 bd
       -0.012821449 -0.058269165 -0.011018501 -0.03222076
0000c0 b4 a9 88 bd 57 e8 a0 bc 4f da 27 be 7f 3b 9e bd
       -0.06672993 -0.019642038 -0.16391872 -0.07726192
0000d0 97 c7 dc 3d c9 34 06 3e 80 91 93 3c dc ea 00 bb
       0.10780256 0.13106073 0.018013716 -0.0019671237
0000e0 94 00 61 bd 0c d7 85 bd 29 6a b4 3d 33 44 80 3d
       -0.054932192 -0.065351576 0.08809311 0.06263008
0000f0 0d dc d2 3d c3 35 02 3d 9c 84 e1 3d b3 a0 5d 3e
       0.102958776 0.031789552 0.11011621 0.21643333
000100 d7 d9 a3 3d 51 d4 d3 bc d3 16 c1 bd 9f 10 e4 3d
       0.08000534 -0.025858076 -0.094281815 0.11135983
000110 de 15 33 3b 01 21 99 3d 68 70 18 bd 51 94 3c bd
       0.0027326266 0.07476998 -0.037216574 -0.046039883
000120 82 00 ce bc d6 a6 a2 3c 98 62 16 bd 8a f7 eb bd
       -0.025146727 0.019854944 -0.03671512 -0.11521824
000130 92 12 67 3d eb ed 28 bd b0 7e 01 3e 33 17 10 bc
       0.056414194 -0.04124252 0.12645984 -0.008794594
000140 cf 9c 0d 3e a2 ea 0b bb 24 40 bd 3c 2a 3c b0 bc
       0.13829349 -0.002134957 0.023101874 -0.021513063
000150 ff 97 db 3c a2 39 33 bd 93 97 94 bd cd 2d df 3d
       0.026805876 -0.043756135 -0.07255473 0.10897408
000160 c5 fb 24 bd 91 f4 9b 3d e9 b3 25 3b 8b af a8 bc
       -0.04027917 0.07615007 0.0025284237 -0.020591518
000170 71 ae ca 3b d1 aa 1e 3e 50 db d5 bd 22 c5 f7 3d
       0.006185346 0.15494849 -0.10442221 0.12098147
000180 55 03 c0 3c 3c 73 02 be df 5b 22 3e 75 b8 59 bc
       0.023439089 -0.12739271 0.15855359 -0.013288607
000190 20 c2 ea 3c 07 fd 2f 3e 18 2c cf 3b 94 e7 9c 3d
       0.02865702 0.17186366 0.006322395 0.076613575
0001a0 4a cf 46 3d 88 2d 06 be 1c d0 3e bc b9 bb 97 bd
       0.04853753 -0.13103306 -0.011646297 -0.07408852
0001b0 dc 08 93 bd 70 1d 28 3d e4 60 6f bd c8 b6 63 3e
       -0.07179424 0.0410437 -0.05844201 0.22237694
0001c0 9b 5b e4 3a ff 03 87 3d b0 cc fc 3c f7 da c8 3d
       0.001742232 0.06592559 0.030859321 0.09807389
0001d0 44 97 b6 3d 4b b1 9b bd 90 f6 46 bd 9a aa 1a be
       0.089155704 -0.07602175 -0.048574984 -0.15104142
0001e0 9d 29 22 3a 99 cd b0 bd 0a ec 16 bd 6d 7a 8b 3d
       0.00061860104 -0.08632965 -0.0368462 0.0681046
0001f0 e5 ba 57 3c 5e 7f 19 bd 75 29 d9 3c 69 b5 e4 3d
       0.013167118 -0.037474982 0.026509026 0.11167414
000200 61 09 57 3c 42 5d 7e bd a8 0a 2e 3b ac 45 a3 3d
       0.013124795 -0.062100656 0.0026556645 0.07972273
000210 3f a5 d0 bc 3b de 66 3d c6 26 c8 3d 35 d3 87 3d
       -0.02546942 0.05636428 0.097730204 0.066320814
000220 bf 62 94 bc ce 0d 55 bd c7 e1 40 bd e2 fa b1 3d
       -0.018113492 -0.05201512 -0.047090318 0.0869043
000230 7a 7b a7 3d dc b5 0b 3e eb 60 99 bd dc ab e7 3d
       0.08177848 0.13643593 -0.07489189 0.113120764
000240 e1 d3 65 bd 22 bb 83 bd 82 d9 9c bd 26 10 e7 3d
       -0.056110267 -0.06432177 -0.07658674 0.11282377
000250 15 a5 16 3c dd 50 ba 3c 35 16 58 be 32 be 96 3d
       0.009194632 0.022743637 -0.21102221 0.073604956
000260 5b 7f 49 bc 34 d8 e2 bd f5 aa 40 be 06 91 23 3d
       -0.01229843 -0.11076394 -0.18815215 0.039933227
000270 e6 e8 0f 3e 58 4e 88 bd 29 2b c5 3d 5c 3e 77 3d
       0.14053687 -0.06655568 0.09627373 0.060362205
000280 53 02 5f bd 07 89 17 3d 61 95 ea bd a1 ac 09 3d
       -0.054445576 0.036995914 -0.11454273 0.033611897
000290 38 e1 7e bd 10 c5 07 be ad e0 83 3d 36 4f 2e 3d
       -0.062226504 -0.13258767 0.06439338 0.04255601
0002a0 54 c0 82 bd e1 a4 9e bd 2e a3 1e 3d 2a f9 8d 3d
       -0.0638434 -0.07746292 0.03872984 0.0693229
0002b0 0c a1 f3 3d 9f 66 90 bd 2b 68 32 3e 6e 42 cf bd
       0.11895952 -0.070508234 0.1742255 -0.10120092
0002c0 7c 90 b9 bd 8d 10 04 3d 37 d4 ef bd 62 8d 79 bd
       -0.09060761 0.032242347 -0.11710399 -0.06092585
0002d0 3e d9 fb bd df 3a dc 3d b5 a0 4a bd 4b 88 c4 bb
       -0.12297295 0.10753416 -0.04946967 -0.0059976927
0002e0 61 0e 96 3d 69 ec f8 3d bf df b8 bd 85 f8 29 be
       0.07326961 0.12154467 -0.09027051 -0.16598709
0002f0 f7 15 28 bd 99 bd 85 3d 11 d9 9f bd b8 d4 39 be
       -0.041036572 0.065303035 -0.07805074 -0.18147552
000300 b8 b0 0f bd df 4d 33 bd 78 45 66 3d 55 01 bf 3d
       -0.03508064 -0.043775436 0.056218594 0.09326426
000310 e8 88 30 bd a7 4d 5e 3c 30 5b 26 3d e5 e3 32 3e
       -0.043099314 0.013568318 0.040614307 0.17469747
000320 b8 f8 4b 3d 3d 08 a4 3d 44 b1 52 bd e8 32 49 3e
       0.049797744 0.08009384 -0.051438585 0.19648325
000330 9a 81 b1 3d 8e 50 a0 bd 79 d3 0c 3d 7a ba 01 3e
       0.08667298 -0.078278646 0.034381364 0.12668791
000340 a8 e7 d1 bc 1c 97 b1 bd 10 02 10 3d 00 f6 75 bd
       -0.025623158 -0.086714 0.035158217 -0.060049057
000350 7d c0 a8 bd 4f e9 8d bd 92 e2 3b 3c 95 b4 c3 bd
       -0.08239839 -0.06929266 0.011467593 -0.09555928
000360 c6 9b 73 3e 40 25 10 3b 2e 60 73 bc c5 a1 82 bd
       0.23789892 0.002199486 -0.014854474 -0.06378511
000370 4b 25 75 3e fc f8 02 3e 92 6c 0d be f4 7f f5 3d
       0.23940007 0.12790293 -0.13810948 0.11987296
000380 ae d0 9e 3c 82 47 1c bd 09 f1 c3 3d 00 a7 ef bc
       0.019386616 -0.038154133 0.09567458 -0.029254436
000390 5c be 79 bd 39 cf a7 bd 68 58 18 3e ae df 84 3d
       -0.060972556 -0.081938215 0.14877474 0.06487976
0003a0 68 4e 3f be 3f 25 a1 bc 42 22 69 3d cd 07 03 be
       -0.18682253 -0.01967108 0.056917436 -0.12795945
0003b0 10 2c 4c 3d 51 1f ae bc 3f ad 45 3e e6 16 a3 bd
       0.04984671 -0.021255167 0.1930437 -0.07963352
0003c0 33 04 ce bd 17 5a af bb 5f c1 b5 3d 7a 40 11 be
       -0.10059395 -0.0053513157 0.08874773 -0.14184752
0003d0 c3 34 bc bd 3c 56 ef bc e7 ab ce bc 23 0b 36 3d
       -0.09189751 -0.029215924 -0.025228454 0.044444215
0003e0 97 14 78 bd 95 87 10 bd 75 b1 e9 bc 83 c7 c8 3b
       -0.06056651 -0.03528555 -0.028527 0.0061272993
0003f0 84 74 a0 bd da db 36 3b 0b 93 e9 bc b4 39 ed bc
       -0.078347236 0.0027902038 -0.028512498 -0.028958179

network_body._body_endoder.seq_layers.2.bias f4 [128]
000000 dd 30 30 3c ce a8 ba ba fb 18 67 3c 16 eb c6 3b
       0.010753837 -0.0014240982 0.014105077 0.006070505
000010 5a c5 83 bb 89 9f 06 3c 2c 82 48 bb ce de 3c 3c
       -0.004021329 0.008216747 -0.0030595167 0.01152773
000020 92 0a 04 3c 2f 6f 54 3c 53 47 0c bb 18 53 df 3a
       0.008059161 0.012965961 -0.0021404817 0.0017038314
000030 1f fe 00 3c 76 e2 01 3c 30 e2 bb b6 d4 20 94 bb
       0.007873087 0.007927528 -5.599366e-06 -0.004520515
000040 11 50 be bb fd 28 68 bb c9 25 45 3c 11 f1 01 bc
       -0.0058078845 -0.0035424822 0.012032934 -0.00793101
000050 7f 57 ce 3b e6 63 a1 bb f4 c2 3f bb 02 ca d0 ba
       0.0062970514 -0.004925239 -0.0029260488 -0.0015929344
000060 68 9a 31 3c bb fb a0 bb c8 df 1a 3c e4 ee 05 3c
       0.010840036 -0.004912821 0.009452768 0.008174632
000070 27 fc 43 3c f0 27 3d ba b0 3f 53 3c b4 0d 29 bb
       0.011961973 -0.0007215729 0.012893602 -0.0025795521
000080 01 b5 62 3c 90 f8 c4 bb 94 79 ca 3a f7 d6 62 39
       0.0138371 -0.0060110763 0.001544761 0.0002163312
000090 1a fa a4 bb c5 4d 00 bc 19 52 1f 3c ab f0 05 3c
       -0.0050346972 -0.007831042 0.009724163 0.0081750555
0000a0 62 92 cf bb 4e c5 83 ba e0 21 ce 3a 3b 84 3c 3c
       -0.006334589 -0.0010053308 0.0015726648 0.011506136
0000b0 99 5f 57 3c 94 5e 7e 3b 4a 1a ef bb c7 31 07 3c
       0.013145351 0.0038813697 -0.007296835 0.008251614
0000c0 98 38 e0 3b a0 26 3a 3c b6 c8 9e bb 36 54 5a bb
       0.006842684 0.011361748 -0.004845704 -0.0033314354
0000d0 9e 60 3f bb 3d 72 40 3c c9 62 29 3c f3 94 3c 3c
       -0.0029201875 0.0117459865 0.010338494 0.011510122
0000e0 84 8c 0b 3c 0d b0 c6 3b a5 40 62 3c d6 c6 14 3c
       0.008517388 0.0060634674 0.013809358 0.009080609
0000f0 5a 54 84 bb 23 68 0b 3c 06 49 41 3c a9 ab f9 3b
       -0.004038376 0.008508715 0.011797195 0.0076193404
000100 59 d8 54 bb 86 ad 9d bb ad 55 8a 3b 0e 84 84 3c
       -0.0032477586 -0.0048119454 0.004221639 0.01617625
000110 da 26 38 3c dd b3 f4 3b 58 6f d6 3a 5c b2 fe 3b
       0.011239732 0.0074677304 0.0016360087 0.007772727
000120 f9 98 5f 3c f9 85 02 bb 09 3d 9e bb 93 b2 27 3c
       0.013647311 -0.001991628 -0.0048290533 0.0102354465
000130 88 d7 51 bb 04 44 04 3c 21 a6 03 3c 23 16 7e bb
       -0.0032019336 0.008072857 0.008035214 -0.0038770519
000140 94 a6 40 3c 33 fb e1 bb 9b cc 94 bb 50 93 1b 3b
       0.011758465 -0.0068964004 -0.0045409924 0.0023738928
000150 ac a3 c6 3b 3e 38 9a bb 04 32 c4 bb 36 20 a6 bb
       0.0060619917 -0.0047064116 -0.0059874076 -0.005069758
000160 49 0c 26 3c 8a 07 31 3c 20 22 6d 3c 43 5f c4 3a
       0.010134765 0.01080502 0.014473468 0.0014982003
000170 9f f8 db ba 2b e5 ee bb c8 0c 12 3c 8a 6c 05 3c
       -0.0016782469 -0.0072905025 0.00891418 0.0081435535
000180 cd af 08 3c e6 78 20 3c 96 fb 29 3c 36 84 c3 bb
       0.008342695 0.009794449 0.010374924 -0.0059666885
000190 d1 51 39 3c 11 c6 24 bb b0 1b e9 bb c2 54 12 bc
       0.01131101 -0.002514247 -0.0071138963 -0.008931341
0001a0 56 98 3c bb c4 ed 39 3b cf 99 71 3b 82 2a d6 bb
       -0.0028777323 0.002837048 0.0036865359 -0.006535829
0001b0 a9 4d 28 3c 83 f8 73 3c cb 94 2a 3c 2a d4 a9 bb
       0.010272422 0.014890793 0.010411452 -0.0051827626
0001c0 8c b8 ee 3b e9 7a 94 bb 8a 46 11 bc eb b0 21 3c
       0.0072851833 -0.0045312536 -0.0088669155 0.009868841
0001d0 e2 64 43 b8 58 02 43 3c c1 7e 0c bb 81 26 27 ba
       -4.6585577e-05 0.011902414 -0.0021437856 -0.0006376282
0001e0 15 c5 b9 bb 20 f5 d1 3a d3 a4 b8 bb 8b 90 9e bb
       -0.005669246 0.0016018488 -0.005634883 -0.004839008
0001f0 9f 6b 2e bc 17 a3 1f 3c bc df 1c 39 06 16 62 bb
       -0.010645776 0.0097434735 0.00014960667 -0.003449799

action_model._discrete_distribution.branches.0.weight f4 [2, 128]
000000 1b 85 e8 bc fa e0 16 3d 9e 7d ae bc 8f 76 b2 bb
       -0.028383782 0.036835648 -0.021300133 -0.005446262
000010 69 c5 aa 3c 8e cc 87 bc 52 d4 a0 3c 61 99 a4 bc
       0.020846086 -0.016577031 0.019632492 -0.020092668
000020 59 7f a5 ba bd 2b 6c bc 24 ab f1 3c 30 6e fa 3b
       -0.0012626454 -0.014414725 0.029500552 0.00764253
000030 e0 05 76 3c 59 d8 fc bb 83 48 ee 3c dd 49 8d 3c
       0.015016049 -0.0077162203 0.02908731 0.017247135
000040 6a 82 0a bb 19 98 03 3d b9 c2 9a bc 05 74 b2 3b
       -0.0021134862 0.032127474 -0.01889168 0.0054459595
000050 dc fc b0 3b a9 c1 bd 3c ab f3 b1 bc d9 4c d8 3c
       0.005401237 0.023163633 -0.021722635 0.026403831
000060 73 56 b8 bc e2 ea 8f 3c a2 67 71 3c 42 8e 6d bc
       -0.02250216 0.017568056 0.014734181 -0.014499249
000070 87 e6 f7 bc 4e df 10 3d 3b 1b 82 bc 25 f8 12 3d
       -0.030261291 0.03536921 -0.015882125 0.03588118
000080 ed e7 f5 bc 41 90 95 3c 99 98 94 bc a2 52 97 3c
       -0.030017817 0.018257262 -0.01813917 0.01847202
000090 bf 4a 7a 3c 47 5b 8d 3c b2 d9 e4 3b f4 b6 4c b8
       0.01527661 0.017255438 0.006983959 -4.880778e-05
0000a0 fb ef 8e bb 07 f0 2f 3d 4c 33 e0 3c f7 6a 14 bc
       -0.004362104 0.042953517 0.02736821 -0.0090587055
0000b0 0a 4a 35 bc 34 25 93 3c 1d 53 a4 3b 93 41 50 bc
       -0.011065016 0.017962076 0.0050147907 -0.012710947
0000c0 c8 95 07 3c c5 e5 f9 bb 13 24 17 bc d7 de 40 3c
       0.008275457 -0.0076262676 -0.009224909 0.011771879
0000d0 81 f1 71 3c 00 9b 10 bd 38 12 38 ba f6 67 c8 bc
       0.014767052 -0.03530407 -0.0007021758 -0.024463635
0000e0 a4 7b d2 3c 99 e6 0b bc c4 4f aa bc d4 d8 db ba
       0.025693722 -0.0085388655 -0.020789988 -0.0016772994
0000f0 b9 11 a8 3c 94 e7 20 bc 90 8e d2 bc a8 7f 5b bc
       0.020516263 -0.0098208375 -0.025702745 -0.013397135
000100 4f c2 0c bc 13 96 82 3c a2 eb 00 3d af c5 f1 bc
       -0.008591249 0.015940702 0.031474717 -0.029513208
000110 fb b5 5f 3c c3 0d 39 bc fb 7e ce 3c dd f7 9d bc
       0.013654227 -0.011294785 0.025207033 -0.01928323
000120 62 6c c5 bc 25 bb 4b 3c 94 7e 08 3d 64 57 58 bc
       -0.024099533 0.012434755 0.03332384 -0.013204429
000130 9d 04 bb 3c 66 64 ca bc 40 63 55 3a be 4d df 3c
       0.022829348 -0.024706077 0.00081400946 0.02725875
000140 b4 04 fa bc 29 c1 66 3c d8 cf e1 3c ed da 12 3d
       -0.03051982 0.014084139 0.027564928 0.035853315
000150 68 73 da 3b 8f 51 83 bb eb 1e 54 3b 06 b7 a3 3c
       0.0066665895 -0.0040075253 0.0032367061 0.019984733
000160 59 b9 b8 bc e9 e3 87 bc 30 cf b0 3c de ac 9a 3c
       -0.022549318 -0.016588168 0.02158317 0.018881258
000170 8a f5 6e 3c c6 43 aa 3b 2e a9 f2 ba 15 4f 42 bc
       0.014584908 0.0051960675 -0.0018513554 -0.011859675
000180 c4 30 90 bc 49 f8 e4 bc f7 78 4e bd e7 d1 06 3c
       -0.017601378 -0.027950423 -0.05040833 0.008228756
000190 9c 17 55 bd 0e 83 ea 3c ad 29 83 3c 94 34 95 3b
       -0.05202447 0.028626945 0.016011083 0.004553387
0001a0 4f 92 93 3c 15 60 af bc 91 52 06 3d db cf 59 bb
       0.018014101 -0.02140812 0.032793585 -0.0033235464
0001b0 b5 47 d4 bc f4 aa 28 bd dc ea bd bc 50 c1 ac 3c
       -0.025913099 -0.04117866 -0.023183279 0.021088272
0001c0 a5 0c 93 3c d5 33 fe b9 4a 3a 10 3c 62 3c 04 3b
       0.017950365 -0.00048485273 0.00880296 0.0020177593
0001d0 4a a5 40 3d 9e a5 a8 bc d8 cd 56 3b 11 26 64 bc
       0.047032632 -0.020586785 0.00327765 -0.013925091
0001e0 d7 43 6d 3c 0d 4a 05 3d 70 d8 95 3c 93 99 41 3c
       0.014481506 0.032541323 0.018291682 0.0118164
0001f0 5b 1f 96 bc 09 9d 80 bc 31 59 63 3c 1b c5 01 3c
       -0.018325498 -0.01569988 0.013876245 0.007920529
000200 90 d8 b2 3c e6 65 16 bd c0 13 cf 3c 6b 85 01 bc
       0.02183178 -0.03671827 0.025277972 -0.0079053445
000210 c6 01 a0 bc 79 55 ee 3a 9a b0 e1 bc 40 0f fb 3c
       -0.019532096 0.0018183432 -0.02755003 0.03064692
000220 01 32 83 3c 87 b1 c8 3c 3e 27 ad bc 94 d0 1c bc
       0.016015055 0.024498714 -0.021136876 -0.009571213
000230 63 51 78 bc e3 88 cb 3b f5 bf 89 bc 42 6b cb bc
       -0.015156123 0.0062113865 -0.016815165 -0.024831418
000240 25 52 44 3b f6 a7 ae bc c5 80 e6 3c f3 bc ba 3b
       0.0029956189 -0.021320324 0.028137574 0.005698794
000250 79 26 a3 bc ac 6a d0 bc 4a 01 31 3c 93 b4 c8 bc
       -0.019915806 -0.02544149 0.01080353 -0.024500167
000260 83 8e 31 3d a7 fe c2 bc e8 39 8d bc 7b 68 78 3c
       0.0433488 -0.023803068 -0.017239526 0.015161629
000270 52 ef 74 3c fd 27 24 bd 13 9d ba 3c 05 d2 1c bd
       0.0149496365 -0.0400772 0.022779977 -0.038286228
000280 86 07 94 3c 55 9b 02 bc 12 99 29 3b f6 9a b3 bc
       0.018069994 -0.007971604 0.002587859 -0.021924477
000290 bf 8d af bc d3 50 f7 bb 00 46 91 bc 76 4e 9a 3c
       -0.021429894 -0.007547477 -0.017733574 0.018836241
0002a0 a6 1e 7a 3c 66 f2 a3 bc bf 37 d5 bc dc 2b ec 3c
       0.015266096 -0.020013046 -0.026027558 0.028829508
0002b0 54 11 db 3c 0b d0 1e bd 8b 15 ed bb d8 d2 cb 3b
       0.026741661 -0.038772624 -0.007235234 0.006220203
0002c0 7e 6d 27 bc 17 e1 d7 3c 6a e9 42 3b 3f bc 03 bd
       -0.010218976 0.026352448 0.0029741176 -0.032161947
0002d0 28 d0 26 bc e7 a8 ca 3c 2c df f2 3c 73 4c 15 3d
       -0.010181464 0.024738742 0.029647432 0.03644986
0002e0 49 15 ac bc ef ea 63 bb 80 c6 8f 3c 79 77 ab 3c
       -0.021006243 -0.0034777483 0.017550707 0.020930992
0002f0 90 58 47 bc 42 ed e2 3c 58 66 b0 3c e3 e0 94 3c
       -0.012167111 0.027701024 0.021533176 0.01817364
000300 b6 19 53 3c 57 f9 a5 bc be 1e 0d bd 05 d3 ca 3c
       0.012884548 -0.020260496 -0.034453146 0.024758825
000310 d1 c0 9a bc d8 7c 62 3c ee f4 a4 bc c8 db 3f 3c
       -0.01889077 0.01382371 -0.020136323 0.011710115
000320 e7 8d e5 3c 82 b4 ac ba 7b 14 16 bc 53 58 a9 3c
       0.028021766 -0.0013176354 -0.009160156 0.020672
000330 7b a8 fe bc 11 1e 6a 3b 26 62 c2 3c 95 ab 2f bd
       -0.031086197 0.0035723487 0.023728441 -0.042888243
000340 f8 88 13 3d 95 3e 8e bc 29 73 aa bc d7 b5 34 bd
       0.036019295 -0.017363826 -0.020806866 -0.04411873
000350 ef 7e 91 bc c0 65 5e bc 1a c5 bf bb ea 22 bf bc
       -0.017760722 -0.013574064 -0.0058523538 -0.023332078
000360 45 fe 8a 3c 75 8a 9b 3c ba 05 48 bc 13 d7 db bb
       0.016966948 0.01898692 -0.012208397 -0.0067089885
000370 bd 7a 8a bb 58 22 25 3c 6c 87 3c 3c f0 f2 03 3c
       -0.0042260573 0.010078989 0.0115068965 0.008053526
000380 de 32 ef 3c d8 d7 f3 3a c6 0d 5e 3c 4e 4f fe 3b
       0.02919906 0.0018603755 0.0135530885 0.0077609187
000390 60 d7 09 3d c0 23 02 bd fe f6 bd bc e7 d9 23 bc
       0.033652663 -0.031772375 -0.023189064 -0.010000682
0003a0 1d de 81 bc 57 e0 c9 3c 88 02 d5 bc f9 b5 a4 bc
       -0.015852982 0.024643106 -0.026002184 -0.020106303
0003b0 a1 00 ed 3c 17 7d 14 3d 64 b2 d2 3c ef f6 cd bc
       0.028930964 0.036252107 0.025719829 -0.025142161
0003c0 ac bb 74 bc 89 9e 29 bc e0 26 5c bb 4b 1f 5d 3b
       -0.014937323 -0.010352739 -0.0033592507 0.0033740576
0003d0 82 14 65 bc a9 ec 7f 3c c2 0b 5b bb e1 11 d3 3c
       -0.01398194 0.015620389 -0.0033423756 0.025765361
0003e0 a4 64 0b bd c1 4f ca bc 8a 03 17 bc ae e2 a8 bc
       -0.034031525 -0.024696233 -0.009217152 -0.020615902
0003f0 88 16 5c bb ee 7d 60 3c 03 14 c6 bc 00 66 90 bc
       -0.0033582766 0.013701899 -0.024179464 -0.017626762

action_model._discrete_distribution.branches.0.bias f4 [2]
000000 d1 b4 fb bb d0 b4 fb 3b
       -0.007681467 0.0076814666

exp_avg f4 [128, 42]
000000 00 00 00 00 21 c8 b7 37 00 00 00 00 00 00 00 00
       0.0 2.1908492e-05 0.0 0.0
000010 cd 09 66 b7 85 b6 53 b7 d8 bf af b6 64 d7 5c 37
       -1.371135e-05 -1.2619076e-05 -5.23774e-06 1.3163171e-05
000020 00 00 00 00 00 00 00 00 1e df 91 34 bd c3 c5 b5
       0.0 0.0 2.7170694e-07 -1.4734611e-06
000030 00 00 00 00 20 6d e4 35 ad d0 31 2c 66 44 37 b7
       0.0 1.7019083e-06 2.5269051e-12 -1.0923575e-05
000040 8e 1e 92 37 5f a4 8f 37 17 30 98 36 f9 d2 67 36
       1.7418784e-05 1.712347e-05 4.5355514e-06 3.4544485e-06
000050 00 00 00 00 00 00 00 00 b2 66 5e 34 47 d6 c0 b4
       0.0 0.0 2.0712721e-07 -3.5918694e-07
000060 00 00 00 00 f4 11 5e 35 ac 10 b4 ab f8 68 3a b5
       0.0 8.272757e-07 -1.2794397e-12 -6.944315e-07
000070 d0 4b 07 37 8f 6b 0e 37 cb c6 c8 37 36 14 85 b7
       8.0642785e-06 8.4889025e-06 2.3934428e-05 -1.5864247e-05
000080 00 00 00 00 00 00 00 00 54 49 08 34 bd 1c 09 35
       0.0 0.0 1.2692664e-07 5.1078297e-07
000090 00 00 00 00 00 00 00 00 29 d7 07 2c e8 38 c6 b6
       0.0 0.0 1.9304092e-12 -5.9074846e-06
0000a0 e5 a2 6c 37 a2 36 71 37 00 00 00 00 4e ac fd b5
       1.4104623e-05 1.437744e-05 0.0 -1.8900116e-06
0000b0 00 00 00 00 00 00 00 00 6d 3d 1c 37 0b 8b 2c 37
       0.0 0.0 9.312626e-06 1.0284372e-05
0000c0 0e 2f 9f 37 59 40 43 b7 00 00 00 00 00 00 00 00
       1.8976189e-05 -1.1637888e-05 0.0 0.0
0000d0 1c 13 b5 33 76 9a 94 b4 00 00 00 00 63 36 06 33
       8.431945e-08 -2.7679533e-07 0.0 3.124877e-08
0000e0 2b fe 7a 2c 03 9a 9b b6 bd ce 49 37 66 bc 46 37
       3.5668228e-12 -4.6372893e-06 1.2028669e-05 1.1845585e-05
0000f0 b0 b8 ae 37 93 d1 61 b7 00 00 00 00 00 00 00 00
       2.0828418e-05 -1.345984e-05 0.0 0.0
000100 7d 1f 68 33 e3 4d 94 b3 00 00 00 00 70 e8 ce 34
       5.4045348e-08 -6.9059546e-08 0.0 3.853961e-07
000110 ef b8 0c ac 1f e4 8f b6 c9 02 3e 37 89 33 3e 37
       -1.9997855e-12 -4.288289e-06 1.1325531e-05 1.13368815e-05
000120 3e 9d 32 b6 a8 2c 2a 37 00 00 00 00 00 00 00 00
       -2.6615594e-06 1.0143187e-05 0.0 0.0
000130 02 67 7d b3 0d 58 90 b5 00 00 00 00 00 00 00 00
       -5.8999838e-08 -1.0754462e-06 0.0 0.0
000140 03 3a 3b 2c 91 5b 2e 37 58 4e 47 b6 d8 4d ac b5
       2.6606501e-12 1.0392528e-05 -2.9698913e-06 -1.2837654e-06
000150 00 00 00 00 2d 88 8b 38 00 00 00 00 00 00 00 00
       0.0 6.653401e-05 0.0 0.0
000160 20 d2 da b6 54 7e ff b5 b7 2c e4 35 69 03 73 38
       -6.521368e-06 -1.9035747e-06 1.7000337e-06 5.793889e-05
000170 00 00 00 00 00 00 00 00 bf 9e c8 34 a9 a4 fa 36
       0.0 0.0 3.7368406e-07 7.4697496e-06
000180 00 00 00 00 5a 89 a8 36 bf 22 84 2c 2f 6b ca b6
       0.0 5.02278e-06 3.7555232e-12 -6.032547e-06
000190 4a f2 7f 38 7d 6a 7e 38 b0 53 12 38 de 77 d0 37
       6.1022387e-05 6.0657494e-05 3.4887053e-05 2.485135e-05
0001a0 00 00 00 00 00 00 00 00 e4 3b 93 34 8c c2 b0 36
       0.0 0.0 2.742446e-07 5.267857e-06
0001b0 00 00 00 00 c1 5f b5 35 71 2f 3d ac 72 a1 be 37
       0.0 1.3513419e-06 -2.688485e-12 2.2724944e-05
0001c0 5d ba 16 38 f9 56 1d 38 5b f0 bb 38 42 18 f9 b7
       3.593635e-05 3.7512717e-05 8.9616246e-05 -2.9694409e-05
0001d0 00 00 00 00 00 00 00 00 c7 02 c3 33 a0 03 c3 36
       0.0 0.0 9.0809e-08 5.811875e-06
0001e0 00 00 00 00 00 00 00 00 7f ac bd 2c 87 1a f2 37
       0.0 0.0 5.390854e-12 2.8861e-05
0001f0 ca a8 02 38 8e fb 11 38 00 00 00 00 bc bb 99 38
       3.1151612e-05 3.4804973e-05 0.0 7.330577e-05
000200 00 00 00 00 00 00 00 00 01 91 09 b8 df 47 fc b7
       0.0 0.0 -3.279839e-05 -3.0074209e-05
000210 c6 58 c0 b7 1a d5 84 38 00 00 00 00 00 00 00 00
       -2.2929522e-05 6.333944e-05 0.0 0.0
000220 a5 47 d1 33 f1 ce d5 b6 00 00 00 00 66 94 04 37
       9.745353e-08 -6.371986e-06 0.0 7.902365e-06
000230 de 5e 05 aa 4c 69 5a b8 57 95 b1 38 c6 b3 ae 38
       -1.1845687e-13 -5.2073316e-05 8.4678344e-05 8.330452e-05
000240 29 0a c6 37 d9 15 8d 37 00 00 00 00 00 00 00 00
       2.360817e-05 1.6818683e-05 0.0 0.0
000250 6b dd ac 33 14 1a dd b5 00 00 00 00 d2 0b 61 36
       8.04965e-08 -1.6473373e-06 0.0 3.3534493e-06
000260 c5 fc d4 29 e6 f6 aa 36 db 76 06 38 70 35 10 38
       9.45854e-14 5.0951376e-06 3.2058782e-05 3.4382043e-05
000270 68 ca 93 38 06 24 fb b7 00 00 00 00 00 00 00 00
       7.047207e-05 -2.9938306e-05 0.0 0.0
000280 ec 48 e2 b2 cc 20 67 34 00 00 00 00 00 00 00 00
       -2.6343024e-08 2.1525483e-07 0.0 0.0
000290 fc a6 f5 ab e0 d3 9a 37 18 f9 b8 37 15 be e5 37
       -1.7454645e-12 1.8456893e-05 2.2050503e-05 2.7387441e-05
0002a0 00 00 00 00 ac 92 60 b7 00 00 00 00 00 00 00 00
       0.0 -1.338559e-05 0.0 0.0
0002b0 b7 df 0c 36 7e 34 bd 35 02 33 82 36 83 6e 7b b7
       2.0991845e-06 1.4096875e-06 3.88024e-06 -1.4986496e-05
0002c0 00 00 00 00 00 00 00 00 b9 71 41 b4 89 54 32 b5
       0.0 0.0 -1.8015898e-07 -6.643318e-07
0002d0 00 00 00 00 ec d4 15 b6 4a 3f ce 2a 0d c4 76 37
       0.0 -2.2326667e-06 3.6636867e-13 1.4708389e-05
0002e0 c8 54 c7 b7 bd e2 c3 b7 8d 62 ed b5 71 91 1d b7
       -2.3762128e-05 -2.3351395e-05 -1.7686558e-06 -9.391792e-06
0002f0 00 00 00 00 00 00 00 00 86 3f 07 b4 06 3c fe b4
       0.0 0.0 -1.2595964e-07 -4.735486e-07
000300 00 00 00 00 0c e2 a0 b4 79 00 10 ab 5c 93 24 b5
       0.0 -2.9966793e-07 -5.1159733e-13 -6.1309197e-07
000310 7b 0a 2e b7 01 a6 35 b7 b0 cc b3 b7 72 d8 2a 37
       -1.0373648e-05 -1.08270915e-05 -2.1433778e-05 1.0183185e-05
000320 00 00 00 00 00 00 00 00 ac cf 19 b3 53 91 9f b5
       0.0 0.0 -3.5811965e-08 -1.1888718e-06
000330 00 00 00 00 00 00 00 00 ef 84 0b 2c 25 a3 9a b6
       0.0 0.0 1.982688e-12 -4.60855e-06
000340 58 12 e0 b6 36 57 02 b7 00 00 00 00 b3 a2 5b 38
       -6.6778557e-06 -7.768909e-06 0.0 5.2365194e-05
000350 00 00 00 00 00 00 00 00 b9 7f a0 b8 85 32 9b b8
       0.0 0.0 -7.653185e-05 -7.400386e-05
000360 dc 48 39 b8 78 5a a6 37 00 00 00 00 00 00 00 00
       -4.4175293e-05 1.983087e-05 0.0 0.0
000370 d1 da 3e 34 b2 98 e1 b7 00 00 00 00 e8 ff db 36
       1.7774734e-07 -2.6893194e-05 0.0 6.5565e-06
000380 e9 27 ce 2b fa 34 d6 b8 a2 c6 95 38 54 64 90 38
       1.4648258e-12 -0.00010214183 7.141872e-05 6.885143e-05
000390 aa e8 9e b7 60 3a b3 b6 00 00 00 00 00 00 00 00
       -1.894341e-05 -5.3414115e-06 0.0 0.0
0003a0 39 d1 fd 33 3c 4c 57 b7 00 00 00 00 7e 58 15 36
       1.1819288e-07 -1.2832748e-05 0.0 2.225424e-06
0003b0 f8 b4 c1 ab 45 59 5a b8 ec 4d d7 37 b4 bf e2 37
       -1.3763704e-12 -5.205839e-05 2.5666282e-05 2.7030568e-05
0003c0 d2 f7 14 37 2e 29 0a b8 00 00 00 00 00 00 00 00
       8.879188e-06 -3.2940115e-05 0.0 0.0
0003d0 86 fd e2 b3 7b bc 12 b7 00 00 00 00 00 00 00 00
       -1.0570061e-07 -8.746162e-06 0.0 0.0
0003e0 b0 bd 9f 2c ec 0d 3d b8 65 62 af 37 9c 9d ca 37
       4.5401113e-12 -4.5074077e-05 2.0907444e-05 2.4153669e-05
0003f0 00 00 00 00 2c b4 98 b8 00 00 00 00 00 00 00 00
       0.0 -7.2814844e-05 0.0 0.0

exp_avg_sq f4 [128, 42]
000000 00 00 00 00 97 19 1d 30 00 00 00 00 00 00 00 00
       0.0 5.715263e-10 0.0 0.0
000010 b2 f6 2f 2f 8e 3b 55 2f 79 bb 28 30 47 0f bc 2e
       1.6003801e-10 1.9393395e-10 6.138446e-10 8.551964e-11
000020 00 00 00 00 00 00 00 00 ab bf f1 2c d2 db fa 2d
       0.0 0.0 6.8709114e-12 2.851933e-11
000030 00 00 00 00 1b aa 00 2f 7e 7a b2 2a d3 c6 88 2e
       0.0 1.1701966e-10 3.1704148e-13 6.219882e-11
000040 57 98 2e 30 dc 17 2e 30 18 64 3f 30 4d 81 3a 2e
       6.351732e-10 6.333474e-10 6.9627637e-10 4.2406346e-11
000050 00 00 00 00 00 00 00 00 6a cd fa 2c 1d 3e 7e 2d
       0.0 0.0 7.128233e-12 1.445202e-11
000060 00 00 00 00 4b 52 ab 2e 96 1d 87 28 f5 f0 d8 2e
       0.0 7.790798e-11 1.5000842e-14 9.865345e-11
000070 0a 6e 35 30 a4 76 35 30 f9 f0 3d 30 fc 9f 86 2e
       6.600379e-10 6.6016015e-10 6.910024e-10 6.1220334e-11
000080 00 00 00 00 00 00 00 00 92 99 ff 2c df b4 46 2d
       0.0 0.0 7.2645856e-12 1.1295158e-11
000090 00 00 00 00 00 00 00 00 66 0d 9f 2a 3b 95 eb 2f
       0.0 0.0 2.825337e-13 4.2852286e-10
0000a0 d5 8f 9a 2f 31 b6 a7 2f 00 00 00 00 9a f6 6c 30
       2.8114636e-10 3.0506578e-10 0.0 8.620674e-10
0000b0 00 00 00 00 00 00 00 00 59 1e af 30 32 34 b1 30
       0.0 0.0 1.2741551e-09 1.289328e-09
0000c0 f3 f1 a6 30 05 7e 3c 30 00 00 00 00 00 00 00 00
       1.2146856e-09 6.8573086e-10 0.0 0.0
0000d0 f2 f4 ad 2c b2 91 57 2f 00 00 00 00 1f 41 a7 2f
       4.94415e-12 1.9605897e-10 0.0 3.0423394e-10
0000e0 88 0d f2 2a ad dd 9d 30 5e 8a 6d 30 a4 57 6e 30
       4.2997225e-13 1.1486258e-09 8.641673e-10 8.670844e-10
0000f0 c3 83 d1 30 48 48 d6 2f 00 00 00 00 00 00 00 00
       1.52442e-09 3.8977732e-10 0.0 0.0
000100 a5 a6 e9 2c 8b 03 99 2e 00 00 00 00 58 26 41 2f
       6.6407596e-12 6.958264e-11 0.0 1.756687e-10
000110 89 13 08 29 aa 7c ae 30 8a 86 8c 30 65 38 8c 30
       3.021501e-14 1.2695598e-09 1.0224579e-09 1.0202369e-09
000120 ab fa fa 30 6a d4 9a 2f 00 00 00 00 00 00 00 00
       1.8261138e-09 2.8163366e-10 0.0 0.0
000130 d0 56 06 2d 44 6e 3d 2e 00 00 00 00 00 00 00 00
       7.636294e-12 4.307156e-11 0.0 0.0
000140 2a 3f 34 2b 1d 5e dc 30 e0 5b 01 30 19 f9 0c 30
       6.4036504e-13 1.6033855e-09 4.706049e-10 5.128569e-10
000150 00 00 00 00 b2 8b c9 31 00 00 00 00 00 00 00 00
       0.0 5.8657514e-09 0.0 0.0
000160 75 0c 84 31 1d 35 8c 31 f0 95 e7 31 bd 3d 31 31
       3.843122e-09 4.0805745e-09 6.7400308e-09 2.5791984e-09
000170 00 00 00 00 00 00 00 00 81 a6 8d 2d 00 fe 0c 30
       0.0 0.0 1.6103787e-11 5.129266e-10
000180 00 00 00 00 76 cc 82 30 ed 5f 3c 2b 0a 84 17 31
       0.0 9.516856e-10 6.692414e-13 2.2048448e-09
000190 49 b1 00 32 b0 9b 00 32 7e 66 14 32 4c 26 a0 30
       7.490891e-09 7.48598e-09 8.638038e-09 1.1652417e-09
0001a0 00 00 00 00 00 00 00 00 ef 08 aa 2d df 13 55 2f
       0.0 0.0 1.933073e-11 1.9379297e-10
0001b0 00 00 00 00 19 be ea 2f 40 c1 66 29 a4 36 57 31
       0.0 4.2699425e-10 5.1237877e-14 3.1317677e-09
0001c0 4d c6 09 32 ff 77 09 32 07 fd 21 32 21 49 46 30
       8.019538e-09 8.0017335e-09 9.428965e-09 7.2135903e-10
0001d0 00 00 00 00 00 00 00 00 7a 59 b9 2d e2 93 00 2f
       0.0 0.0 2.10718e-11 1.1694071e-10
0001e0 00 00 00 00 00 00 00 00 02 65 3a 2c 96 49 fc 31
       0.0 0.0 2.648826e-12 7.342531e-09
0001f0 0c 7a 15 31 d6 92 2a 31 00 00 00 00 f1 9c dd 30
       2.175173e-09 2.4821722e-09 0.0 1.6124472e-09
000200 00 00 00 00 00 00 00 00 ee 4b 75 30 ca 3b 93 30
       0.0 0.0 8.9238383e-10 1.0712651e-09
000210 72 ce 00 31 1c 66 33 30 00 00 00 00 00 00 00 00
       1.8743802e-09 6.5264927e-10 0.0 0.0
000220 95 4c 87 29 df 9d 0d 2f 00 00 00 00 c4 78 57 2e
       6.008489e-14 1.2879962e-10 0.0 4.89926e-11
000230 3e ec 26 28 8a e5 ca 2f 5e 04 40 31 c3 40 3f 31
       9.266078e-15 3.6906683e-10 2.794216e-09 2.783097e-09
000240 c1 94 01 31 21 b9 49 30 00 00 00 00 00 00 00 00
       1.8856527e-09 7.338646e-10 0.0 0.0
000250 62 15 86 29 6f 04 f1 2d 00 00 00 00 62 94 82 2d
       5.954505e-14 2.7400497e-11 0.0 1.4845184e-11
000260 7a dd 4c 26 d9 94 46 30 5c bd 34 31 36 30 35 31
       7.1076875e-16 7.2243506e-10 2.6301086e-09 2.6366371e-09
000270 e9 1f 1f 31 c5 be a9 2f 00 00 00 00 00 00 00 00
       2.3155684e-09 3.087647e-10 0.0 0.0
000280 b9 a1 33 2a b8 31 a7 2d 00 00 00 00 00 00 00 00
       1.5954503e-13 1.9007781e-11 0.0 0.0
000290 3c 51 65 2a 66 45 40 31 9b b5 1f 2f e4 0a 6a 2f
       2.036747e-13 2.7979126e-09 1.4525485e-10 2.1286045e-10
0002a0 00 00 00 00 13 0a a0 2e 00 00 00 00 00 00 00 00
       0.0 7.277747e-11 0.0 0.0
0002b0 c1 87 23 2f 23 3a 2a 2f 4a 5e c6 2e 6d b1 18 2f
       1.4872993e-10 1.5482064e-10 9.0207466e-11 1.3887354e-10
0002c0 00 00 00 00 00 00 00 00 1e 0f 02 2b f8 20 ae 2d
       0.0 0.0 4.6206257e-13 1.979615e-11
0002d0 00 00 00 00 cc 41 bd 2d 43 ae d7 28 dd 0b d3 2e
       0.0 2.1516032e-11 2.3945369e-14 9.5972764e-11
0002e0 b0 55 35 2f 91 7f 33 2f 06 22 22 2f c9 32 af 2e
       1.6492296e-10 1.6325276e-10 1.4745902e-10 7.9671e-11
0002f0 00 00 00 00 00 00 00 00 12 9b 79 2b 1e 4e ec 2c
       0.0 0.0 8.8677774e-13 6.716196e-12
000300 00 00 00 00 22 8e 97 2d 8b ec ab 27 38 09 12 2f
       0.0 1.7229832e-11 4.7718495e-15 1.3281898e-10
000310 f0 ad 09 2f e9 ac 09 2f 65 c4 33 2f 20 f5 9c 2e
       1.2521872e-10 1.2521507e-10 1.6349729e-10 7.1376016e-11
000320 00 00 00 00 00 00 00 00 92 46 86 2b ee 9f 95 2c
       0.0 0.0 9.54086e-13 4.2525905e-12
000330 00 00 00 00 00 00 00 00 1d fe b3 2a a2 5b 63 2f
       0.0 0.0 3.1973114e-13 2.0678084e-10
000340 17 8d 0c 2e 9d 6b 14 2e 00 00 00 00 77 1b 17 31
       3.1957628e-11 3.3746884e-11 0.0 2.1989004e-09
000350 00 00 00 00 00 00 00 00 be cf 78 31 cc cb 7f 31
       0.0 0.0 3.6206838e-09 3.722323e-09
000360 b1 b4 5f 31 6c 03 f2 30 00 00 00 00 00 00 00 00
       3.2553482e-09 1.760879e-09 0.0 0.0
000370 36 3a fc 2b 25 9b 19 30 00 00 00 00 76 4c cf 2f
       1.7921834e-12 5.588155e-10 0.0 3.770741e-10
000380 89 1a 45 2a 98 8d 52 31 63 f4 4d 31 cd 0d 4c 31
       1.7506321e-13 3.0639509e-09 2.9970344e-09 2.9693752e-09
000390 a0 53 81 31 e2 fd af 30 00 00 00 00 00 00 00 00
       3.763901e-09 1.2805084e-09 0.0 0.0
0003a0 9e d4 19 2c 07 fc 2e 2f 00 00 00 00 5d 31 3d 2f
       2.1860634e-12 1.5914746e-10 0.0 1.7206987e-10
0003b0 12 79 94 28 fd f8 79 31 f6 18 52 31 b7 1d 51 31
       1.6483807e-14 3.6375802e-09 3.057321e-09 3.0430394e-09
0003c0 34 70 96 31 33 17 68 30 00 00 00 00 00 00 00 00
       4.3783306e-09 8.4434076e-10 0.0 0.0
0003d0 73 d4 72 2c b5 41 ce 2e 00 00 00 00 00 00 00 00
       3.4508201e-12 9.379467e-11 0.0 0.0
0003e0 8b 14 ef 2b 97 95 ab 31 3a e3 1e 30 de 03 3b 30
       1.6987673e-12 4.9937614e-09 5.7802974e-10 6.80357e-10
0003f0 00 00 00 00 f0 74 9a 31 00 00 00 00 00 00 00 00
       0.0 4.495284e-09 0.0 0.0

exp_avg f4 [128]
000000 68 86 09 37 e5 0f f9 36 10 b6 7b 38 78 e6 29 38
       8.19713e-06 7.4226286e-06 6.0012622e-05 4.050738e-05
000010 c2 5a 3d b7 8c b9 ca b7 5c cd a4 39 7c 4b 92 38
       -1.1286409e-05 -2.4166678e-05 0.00031433522 6.9758826e-05
000020 2d 9c b3 38 af d7 d4 38 ab 29 6e 38 63 72 a4 37
       8.564475e-05 0.00010149122 5.6782428e-05 1.9603589e-05
000030 25 5b 86 b7 d2 e7 92 38 25 75 77 36 7e 7c 47 39
       -1.6016487e-05 7.0050024e-05 3.6874055e-06 0.00019024496
000040 65 02 d6 37 48 c8 59 38 6d f6 b8 b6 11 29 93 38
       2.5511903e-05 5.1923358e-05 -5.512315e-06 7.0171554e-05
000050 7c 5b ba b6 1a af 62 37 4f d8 88 b8 71 00 01 39
       -5.553882e-06 1.3511419e-05 -6.525276e-05 0.00012302563
000060 59 d4 b3 38 da e2 00 39 de 7f cf 38 27 9e 57 37
       8.574938e-05 0.0001229154 9.894346e-05 1.2851821e-05
000070 80 d2 59 39 2c 98 86 b7 3f 6c 9d 38 f3 8a 83 b6
       0.0002077315 -1.6044905e-05 7.506506e-05 -3.92028e-06
000080 37 9a c0 38 25 1c 84 b4 25 e0 0f 37 9a a2 4b 38
       9.183998e-05 -2.4607394e-07 8.575652e-06 4.8550406e-05
000090 19 fa 9d 37 27 c5 2f b7 db 5f 5d b7 43 8e df 37
       1.883232e-05 -1.0476716e-05 -1.3194945e-05 2.6649917e-05
0000a0 10 09 01 37 b1 8b 1c 38 8b 68 78 36 24 dc 2b b8
       7.691109e-06 3.7323396e-05 3.7015732e-06 -4.09746e-05
0000b0 6d 9a 10 39 51 ac 9b 38 e1 e7 4b 37 e3 6a 2a 39
       0.00013790438 7.4230724e-05 1.2153731e-05 0.00016252282
0000c0 42 ed ea 37 55 68 11 38 85 d6 1f b7 5a ac ab b5
       2.8005456e-05 3.466786e-05 -9.527085e-06 -1.2790654e-06
0000d0 0c 7f 10 39 24 a2 c5 37 36 c3 b4 38 2b 53 b0 b7
       0.00013780239 2.3559733e-05 8.61943e-05 -2.1019563e-05
0000e0 d9 0d 76 b8 2d 8f a6 b7 8e 51 be 38 63 c8 aa 38
       -5.8663867e-05 -1.9855413e-05 9.075097e-05 8.1435566e-05
0000f0 73 e4 78 38 20 0a ca 37 c0 04 f5 37 5b e1 ab 37
       5.9340568e-05 2.4084991e-05 2.9208488e-05 2.0489728e-05
000100 ac 03 13 36 29 2e e1 38 83 10 56 38 ce 3b ec 34
       2.1906844e-06 0.00010737434 5.1036954e-05 4.400194e-07
000110 00 1c bf 38 ea 3a 8c b7 af 59 90 38 de 80 53 39
       9.112805e-05 -1.6716735e-05 6.88316e-05 0.00020170535
000120 57 7d 96 39 1b 7f 2a 39 f9 fa 45 b7 ea 19 be 38
       0.00028703615 0.00016259814 -1.1800549e-05 9.064733e-05
000130 ad fd fc 37 17 b2 07 39 b5 66 67 38 63 5f b6 38
       3.0158868e-05 0.00012940947 5.5170345e-05 8.6962034e-05
000140 36 37 e6 38 32 df 83 38 aa 48 31 38 5e f7 e2 38
       0.000109775385 6.28814e-05 4.2267762e-05 0.000108225955
000150 91 f9 a8 38 f7 59 18 38 53 eb 32 b7 fa 9a cf 38
       8.0573496e-05 3.632341e-05 -1.06644175e-05 9.899396e-05
000160 2f a9 49 39 c6 a1 43 b8 63 c3 1f b7 3f 81 c0 38
       0.0001923188 -4.6642286e-05 -9.5226305e-06 9.1793474e-05
000170 69 f1 3b 39 f6 b5 65 38 f3 c7 fc 38 9f c0 99 38
       0.00017923642 5.476732e-05 0.0001205354 7.331487e-05
000180 30 ac 55 39 a0 29 7d b6 d9 85 1c 38 79 57 a9 b7
       0.00020377408 -3.7724167e-06 3.7317954e-05 -2.0187103e-05
000190 e3 6e da 36 4d 49 98 b7 35 85 72 37 0e b4 16 38
       6.509815e-06 -1.8153945e-05 1.4455339e-05 3.5930476e-05
0001a0 db a2 b9 38 d5 23 67 b8 0d 12 06 b8 7d 9b 4f 37
       8.8518216e-05 -5.5108063e-05 -3.19649e-05 1.2374364e-05
0001b0 d9 ba ac 39 99 f1 46 39 e7 a1 48 39 e9 aa 04 38
       0.0003294561 0.00018972754 0.000191338 3.1630425e-05
0001c0 04 27 31 38 ef 4f 3e b8 77 d6 71 38 50 ef 5f 36
       4.2236425e-05 -4.5373974e-05 5.7658614e-05 3.3368888e-06
0001d0 ea a2 93 b6 cc 64 37 39 e1 39 98 b8 88 a9 12 b7
       -4.399907e-06 0.0001748979 -7.2587056e-05 -8.74175e-06
0001e0 5d 89 0b b7 fd 20 16 b8 86 af dc 37 45 80 f2 b4
       -8.317028e-06 -3.579351e-05 2.6307778e-05 -4.516934e-07
0001f0 81 58 64 b8 85 5b 09 b7 a6 da 77 38 4e e4 83 38
       -5.444186e-05 -8.187145e-06 5.909302e-05 6.289092e-05

exp_avg_sq f4 [128]
000000 60 51 53 30 64 ef 10 31 61 49 2d 32 30 52 4e 31
       7.6876994e-10 2.1090836e-09 1.008661e-08 3.0023664e-09
000010 1c 00 82 2f 56 6a c1 31 fa cd 77 33 4f 0f b9 30
       2.364694e-10 5.6291283e-09 5.7696504e-08 1.3464873e-09
000020 98 fa 01 32 c7 07 dc 32 cc 2d 4f 31 57 62 81 2f
       7.565767e-09 2.5614908e-08 3.0148497e-09 2.3534838e-10
000030 ff 68 7b 30 6e f8 05 32 44 c2 f5 30 d9 04 77 32
       9.1462476e-10 7.798105e-09 1.788131e-09 1.43783945e-08
000040 41 5b 70 31 ae 36 ba 31 44 86 93 31 c2 b3 63 31
       3.4976468e-09 5.419529e-09 4.2935273e-09 3.3135028e-09
000050 ce fe cc 2f 44 5c cb 32 9b 80 14 31 9b 1d 91 32
       3.7288433e-10 2.3674268e-08 2.1609938e-09 1.6893685e-08
000060 3a af 4f 31 1c 5c 21 32 7c f2 ac 32 ca 44 f7 30
       3.022207e-09 9.392377e-09 2.0133704e-08 1.7991166e-09
000070 be 51 33 33 63 80 30 30 18 c2 d8 31 42 6f 4a 31
       4.175103e-08 6.4210876e-10 6.3084933e-09 2.9458112e-09
000080 6d d1 84 31 60 c0 89 33 4c 5a 6d 31 06 45 6b 31
       3.8655146e-09 6.4145524e-08 3.4539367e-09 3.4236236e-09
000090 57 8f ac 30 8d 16 78 32 16 21 3f 31 ba 8d a4 32
       1.2555387e-09 1.4440627e-08 2.7812965e-09 1.9156563e-08
0000a0 bd 31 15 30 16 fb d3 32 5e ce 34 31 a9 85 3f 30
       5.4276567e-10 2.4677814e-08 2.6310754e-09 6.967534e-10
0000b0 02 ec 93 32 3d 32 a6 30 61 91 00 31 74 d1 54 32
       1.7220376e-08 1.2092368e-09 1.870909e-09 1.2387648e-08
0000c0 0a f8 ff 32 e1 4e 9b 31 97 14 87 2f c1 ac 31 32
       2.9798702e-08 4.520061e-09 2.4570987e-10 1.0342036e-08
0000d0 d6 15 00 34 1a 4d d3 31 c3 47 3a 32 d7 d0 64 30
       1.1928873e-07 6.1496737e-09 1.0842942e-08 8.3242696e-10
0000e0 a5 b4 2e 32 71 40 98 30 96 04 e4 32 96 50 c3 30
       1.0169207e-08 1.1077771e-09 2.6544779e-08 1.4211021e-09
0000f0 33 8f 81 30 a6 ca f1 31 38 e2 c8 33 25 6b e3 32
       9.426685e-10 7.0370616e-09 9.354375e-08 2.6475002e-08
000100 54 47 8a 31 99 b4 56 32 40 72 52 32 14 d4 b3 30
       4.0244377e-09 1.2497503e-08 1.2249586e-08 1.308424e-09
000110 a1 59 ee 30 be 32 ed 2f a9 3d de 32 cf 32 e2 32
       1.7342253e-09 4.3146103e-10 2.5872241e-08 2.6332968e-08
000120 6c 1f 11 33 2b ce 10 32 0b e4 e6 2e e5 31 40 32
       3.378902e-08 8.42878e-09 1.04996976e-10 1.1187216e-08
000130 d8 99 d2 32 ed 8e 74 32 26 7d b6 32 c1 c3 09 32
       2.4517178e-08 1.4235167e-08 2.12445e-08 8.018959e-09
000140 57 84 b0 32 16 43 0e 31 c0 3f 5f 31 03 71 74 32
       2.0549278e-08 2.0701854e-09 3.2487009e-09 1.4228365e-08
000150 bb cb 18 31 b7 18 02 32 a5 2e 49 31 fd 8a 06 32
       2.2234719e-09 7.572615e-09 2.9275864e-09 7.831429e-09
000160 e8 2f 2d 33 51 10 16 31 f7 28 d4 2e 63 93 a6 32
       4.0323272e-08 2.1837148e-09 9.647921e-11 1.9391967e-08
000170 86 cb f4 32 39 f4 6e 31 3f a0 6e 33 a8 f5 c0 31
       2.849789e-08 3.4772383e-09 5.5559436e-08 5.6158633e-09
000180 66 b6 b2 32 2a e6 cb 31 09 97 45 31 6e 38 5f 31
       2.0804872e-08 5.934244e-09 2.8753127e-09 3.2482848e-09
000190 e4 a7 30 31 c3 e9 1b 32 76 41 a1 32 49 35 ba 30
       2.5706806e-09 9.075339e-09 1.8772635e-08 1.3548426e-09
0001a0 2e c6 14 33 88 a6 10 31 48 00 43 32 d3 61 ff 31
       3.463918e-08 2.104942e-09 1.1350558e-08 7.432598e-09
0001b0 db e7 3d 33 4e 09 31 32 ec 2d 32 33 2a 3d e5 30
       4.4215863e-08 1.0304872e-08 4.148562e-08 1.6679327e-09
0001c0 f1 9c 12 32 ea 31 5f 32 41 a6 19 33 10 eb d9 31
       8.534003e-09 1.29916575e-08 3.5774296e-08 6.3422547e-09
0001d0 1a a6 93 32 d2 32 0a 33 86 bc 0e 34 b0 03 e3 2f
       1.7188587e-08 3.217685e-08 1.3293365e-07 4.129368e-10
0001e0 c4 55 9b 32 da 26 ad 2f 8f ae 45 31 e5 79 dc 32
       1.8083377e-08 3.1496122e-10 2.8766498e-09 2.5666802e-08
0001f0 a1 01 d4 31 83 c5 87 31 02 b7 85 33 9d 32 d0 32
       6.1701972e-09 3.9514716e-09 6.226584e-08 2.4237403e-08
