Assets/results/JumperAgentImpulse/JumperAgent/checkpoint.pt (torch, 552199 bytes, 33 tensors)

network_body._body_endoder.seq_layers.0.weight f4 [128, 43]
000000 48 12 92 3b e8 5d 35 3d 57 66 99 be 36 3e fb bd
       0.0044577457 0.04427901 -0.29960892 -0.12267725
000010 72 ea c1 3d f3 bf 89 3e 6c 0d e4 3c 2a 6b 3e 3d
       0.09468545 0.26904258 0.027838431 0.04648892
000020 71 a1 bd bd 26 b3 b0 3d df 9f a7 3e b0 8d c1 3c
       -0.09259308 0.0862792 0.3273916 0.023627132
000030 36 cd 25 bc 0b d3 a5 3d 04 04 60 3e ef 12 b1 3d
       -0.010119727 0.08096894 0.21876532 0.086461894
000040 f4 de c7 bc 39 68 7e 3e 91 94 2e 3e 4b 07 fb 3c
       -0.024398305 0.24844445 0.17048861 0.030643126
000050 22 5a 62 be cb 6c 4a 3e ef 72 2b 3e b1 0a b8 3d
       -0.22104695 0.19768064 0.16743062 0.08986414
000060 df b5 2f 3e 31 78 d9 bd 7e 65 65 3e a7 61 e8 3d
       0.17159222 -0.10618628 0.22401997 0.11346751
000070 9a 57 ad 3d e6 96 d6 bd c7 f6 98 bb e5 85 c3 3e
       0.08463974 -0.10478 -0.00466809 0.3818809
000080 02 9a 93 3c fd fb 3f 3e 92 01 72 3d 97 de 9c 3e
       0.018017773 0.1874847 0.05908353 0.30638573
000090 a4 9e db 3c d9 3c f2 bc 9f 46 92 3d b0 25 dc 3c
       0.026809044 -0.02957003 0.07142376 0.02687344
0000a0 96 07 25 3e b2 dd e9 3c 6a 1b 8b 3d 58 36 25 be
       0.16116175 0.028548095 0.06792338 -0.16134012
0000b0 1a ec 88 3e 77 3c 65 3d e2 a0 96 bd 9c 26 98 3d
       0.2674263 0.055965867 -0.07354905 0.07429239
0000c0 ca a5 05 3e 66 c8 3a 3e 53 ce 8b be 32 a1 9a bd
       0.13051525 0.18240508 -0.2730585 -0.07550277
0000d0 e7 62 1a 3d e0 7f f1 3b 17 2c 2a 3e 91 78 72 3e
       0.037691977 0.00736998 0.16618381 0.23678805
0000e0 bc 80 9c bd 42 e2 a5 3c cb 92 a7 3c c4 58 18 3e
       -0.07641742 0.02024949 0.020455739 0.14877611
0000f0 e5 38 24 3d 7f b8 55 3e 8f 2b 18 bd f7 68 d7 bd
       0.04009332 0.20871161 -0.037150916 -0.10518067
000100 0b d8 8a 3e 87 1a c5 3e 35 b8 7a 3d 42 41 d6 bc
       0.27117953 0.384968 0.06121083 -0.026154164
000110 41 83 55 be 62 42 55 3e 35 0c 07 3e 00 ff a2 3e
       -0.2085085 0.20826104 0.1318825 0.31835175
000120 4c 86 92 bd 3d a7 65 be f7 7e 1d be 6e 87 4f 3e
       -0.07154521 -0.22427078 -0.15380464 0.20266506
000130 49 ff 9a 3e 0a 01 85 3e 54 a2 6e 3e 6f a4 11 3e
       0.30272892 0.25977355 0.23304111 0.14222883
000140 b8 4c 86 3d 4c 9e 06 3d 71 63 85 3d c7 fd 31 3e
       0.06557602 0.032865807 0.065131076 0.17381965
000150 e8 e6 64 be d0 c5 0d be 94 34 b4 3c 3f eb 98 3d
       -0.22353709 -0.1384499 0.021997727 0.07466745
000160 ac 48 0a 3e bb 23 2e bd 9a d4 35 be 44 96 44 be
       0.13504285 -0.042514544 -0.17756882 -0.19197947
000170 37 32 47 3e fa a1 4d bb d9 38 23 be 4e 21 19 3d
       0.19452749 -0.0031377063 -0.15939654 0.037385277
000180 4d e4 fa bd 01 a7 20 be a7 d1 28 3e a4 7c f8 be
       -0.12250576 -0.15688707 0.16486226 -0.48532593
000190 12 14 1e 3d de eb 60 3d 4b fb 30 be 76 1a 03 3e
       0.03859336 0.05491244 -0.1728336 0.12803063
0001a0 e7 f3 83 bd e2 a7 8d 3c ed 77 1d be f9 35 11 bd
       -0.06443005 0.017291967 -0.1537778 -0.035451863
0001b0 90 35 25 be 72 9d 33 be a6 6e 55 bd 01 e8 7c bd
       -0.16133714 -0.1754053 -0.052107476 -0.061744694
0001c0 d4 15 45 bc 89 84 99 bd 42 dc 13 bd 5d b4 8e 3d
       -0.01202913 -0.07495982 -0.036098726 0.06967995
0001d0 d8 4c 11 3c 06 e7 5b 3d 51 c6 2d 3e a3 84 4b bd
       0.008868419 0.053687118 0.16970183 -0.04968704
0001e0 ed 7c 55 be a6 7b ed bc 72 f4 5b 3c 56 94 b4 3d
       -0.20848437 -0.028989624 0.0134249795 0.08817355
0001f0 db a2 bb 3e bd dc 97 3d 83 f7 8f 3e 9c 20 22 3e
       0.36647686 0.07415149 0.28118524 0.15832752
000200 f8 5d 7c 3e 95 52 50 bd 35 fd a1 3d 30 3a 9a be
       0.24645221 -0.050860006 0.079096235 -0.3012252
000210 44 ee 82 3d 69 4d 21 be bf 57 94 bd 7a 0e b2 bd
       0.06393102 -0.15752186 -0.07243299 -0.086941674
000220 60 4c 22 be a5 e1 9e bc 7e 17 8f be c9 d5 27 3e
       -0.15849447 -0.019394705 -0.2794761 0.16390146
000230 4c 57 20 be 81 f0 f8 bd e3 1a 8b be 1f db 53 3d
       -0.15658301 -0.121552475 -0.2716895 0.051722642
000240 06 88 85 3d 53 60 94 3d 27 9e 94 be 5a 62 f3 bc
       0.06520085 0.07244935 -0.2902691 -0.029709984
000250 b8 37 58 bd 10 ee a3 be b3 7e 51 3d bd 7e d2 3e
       -0.052787513 -0.32017565 0.05114622 0.4111232
000260 e4 59 23 3e 5c dc 0a 3e 0c e9 0b 3d 5d 33 65 3e
       0.1595226 0.13560623 0.034157798 0.22382875
000270 b8 e0 64 be 15 c5 a5 3e e7 93 23 be d8 c5 43 3c
       -0.22351348 0.32376924 -0.15974389 0.011949025
000280 90 c0 8d be 8d 4a 72 bd db ab 81 3c 46 06 28 3e
       -0.27685976 -0.05915313 0.015829017 0.16408643
000290 2d 4e 20 3e 42 75 ca 3d 8e 85 0c be 5f 38 5a 3e
       0.15654822 0.098856464 -0.13722822 0.21310566
0002a0 e7 75 db 3c 5d 9a 7f 3d 8e fc fe 3b 65 1e a8 3e
       0.026789619 0.06240307 0.0077815717 0.3283569
0002b0 3f 53 1b be 00 3c f1 bd fe 84 c0 3e 6c 8a a8 3d
       -0.15168475 -0.11779022 0.37601465 0.08229527
0002c0 61 17 03 be 56 d7 bf be e6 8f 00 3e 65 2b c0 bc
       -0.12801887 -0.37468976 0.12554893 -0.023458192
0002d0 ee 97 41 bd f5 c6 e6 bd fb 1d 8b be 36 4a 33 bd
       -0.047264032 -0.11268417 -0.2717131 -0.043771945
0002e0 dc c8 4f 3e 79 8a 25 3d 2a 1c a4 be f0 f5 24 3e
       0.20291466 0.04041526 -0.32052737 0.16109443
0002f0 ea b5 81 3e 06 91 60 3e b3 5e ca b4 a5 a8 9d 3c
       0.25334102 0.21930322 -3.7694335e-07 0.019245455
000300 40 c3 9a bd cc 90 6a bd ea df 3f be f7 ea fb bc
       -0.07556772 -0.057266995 -0.1873776 -0.030751688
000310 5c fa a9 3d f9 87 51 be 67 1f b9 3d 7f cf 9c 3d
       0.082997054 -0.20462026 0.09039193 0.07656764
000320 43 59 95 ba 43 93 68 3d 62 4e 15 3d 5a ba 92 3c
       -0.00113944 0.056781065 0.036451705 0.017911125
000330 65 74 11 be b8 00 23 bc 56 4f aa 3e 78 e1 e4 3d
       -0.14204557 -0.009948902 0.33263654 0.11175817
000340 ab f0 9a bc ed 62 85 3e 80 9c 73 3d b0 e8 ad bd
       -0.018913588 0.26052037 0.059475422 -0.08491647
000350 6e 5b 50 bd 4c 5d 51 be bc b4 49 3e 21 1b 7b 3c
       -0.050868444 -0.20445746 0.19697851 0.015326292
000360 7b d6 2e 3e e2 c3 7d be e3 32 8a 3d dc fa 87 3d
       0.17074005 -0.24781755 0.06747987 0.066396445
000370 83 68 36 be 6e 7e 0f bd 57 66 2c be f3 04 e3 3d
       -0.17813306 -0.035032682 -0.16835915 0.11084928
000380 ce 23 90 3d 1f 9e d7 bc 5f f6 8d 3c ae dd 0a be
       0.07038079 -0.026320515 0.017329393 -0.13561127
000390 71 10 bc bd af 47 8f 3e 97 5c 7b be 2a 5d a4 bb
       -0.091828234 0.27984378 -0.24547039 -0.005015989
0003a0 70 5e 86 3b 47 98 22 3d fb cb 04 3e 6a b9 a5 bd
       0.0041006133 0.039696004 0.12968437 -0.080920056
0003b0 8f d7 8c 3d 9f 67 bf 3d c4 42 82 bd 4f 8a f8 bc
       0.06877052 0.09345936 -0.06360391 -0.030339388
0003c0 59 d5 9e be 84 34 be 3d 1e b9 12 bc 3d 90 ba bd
       -0.31022146 0.0928736 -0.008955268 -0.091095425
0003d0 24 22 e9 bd 3a 92 03 be 74 bb b8 3d c8 61 3f be
       -0.11383465 -0.1284875 0.09020129 -0.18689644
0003e0 b1 0c 13 3d 39 4b 42 3e 7c 6a b3 bc 06 35 d5 3d
       0.035900775 0.18974008 -0.021901362 0.10410504
0003f0 85 9c 91 3d a1 9d ed 3d 02 b9 3a 3e 30 24 84 3d
       0.07109932 0.11602331 0.18234637 0.06452215

network_body._body_endoder.seq_layers.0.bias f4 [128]
000000 57 8a 95 bb 47 c6 e1 3d ee 5c 4d bd 48 04 c6 bb
       -0.0045636105 0.110241465 -0.050137453 -0.006042991
000010 31 ac 4d 3b fe a8 90 3b fe 24 e7 bb ab 4a 28 3d
       0.0031383152 0.0044146767 -0.0070539704 0.041086834
000020 b0 fa 89 bb 8e f3 93 3d 54 b1 8e bc e8 13 af 3c
       -0.0042107925 0.07224189 -0.017418541 0.021371797
000030 34 b7 a6 3c a1 ba 61 3d b1 cb 07 3d 6d e6 97 3c
       0.02035103 0.055109624 0.03315324 0.018542493
000040 c5 36 87 3d 5a 59 36 3d 2b 02 a2 3d a4 0e af bc
       0.06602243 0.044518806 0.0791057 -0.021369286
000050 e7 25 11 bb 1e 30 db 3c a9 40 03 bc dc 98 a5 bc
       -0.0022147836 0.026756343 -0.008011022 -0.02021449
000060 7c 74 45 3b 77 34 73 3c b5 0f 97 bb 63 01 a2 bd
       0.0030129245 0.014844052 -0.0046100267 -0.07910421
000070 6a 8b f0 3b 0c 94 72 3d 19 b9 7e 3b 7d c4 a1 3d
       0.007340838 0.05922322 0.003886765 0.07898805
000080 33 ee 05 bd 14 6b cc 3c 0e ed dd 3a 24 b6 8b bc
       -0.032697868 0.024953403 0.001693161 -0.017054625
000090 2a 81 ba 3c e8 89 6a 3c 4f d1 80 bc bb 2b b3 bc
       0.022766668 0.014315106 -0.015724806 -0.021871438
0000a0 92 b3 2a bb 16 ee 19 3d 13 79 b1 3d 07 57 be bb
       -0.0026046974 0.037580572 0.08665671 -0.0058087143
0000b0 e3 62 07 bc 81 cf b0 3c 2a df 0f 3c c2 a7 81 3c
       -0.0082633225 0.02158332 0.008781234 0.015827063
0000c0 96 27 ef bb d7 27 f7 3c f2 27 48 3d 79 66 98 3c
       -0.00729842 0.030170364 0.04886622 0.01860355
0000d0 cc 6a 64 3c 59 85 97 3c 60 74 2b bd b4 3e 38 3c
       0.013941478 0.018496202 -0.04185903 0.011245418
0000e0 51 af 03 3c 01 10 5c bb 2c 0f b4 3c 93 9c 49 bd
       0.008037404 -0.0033578875 0.02197989 -0.049221586
0000f0 7f 21 25 3d 58 69 54 3d db d7 fb 3b 6b d3 ed 3d
       0.040315147 0.051858276 0.007685644 0.116125904
000100 68 52 b0 3c c5 4a 47 3b ea 63 9e 3d c6 d4 73 bc
       0.02152367 0.0030409556 0.07733901 -0.014882272
000110 3f 7c 04 3c c4 96 a6 bc 79 fc 2c 3c 99 0d 95 3c
       0.008086263 -0.020335563 0.010558241 0.01819496
000120 3f 81 dd 3c bb fd 0b 3d b9 78 4d bd f3 a6 d6 bc
       0.027039168 0.034177523 -0.05016396 -0.026202654
000130 29 33 07 3d c0 c7 8a bd e6 25 5c bc 76 72 a5 3c
       0.033007775 -0.067763805 -0.01343677 0.02019618
000140 f5 79 5b bc 39 3b 1e bc 9c fc 79 bc bc 1d 59 bd
       -0.013395776 -0.0096576745 -0.015257981 -0.053006873
000150 b5 02 c3 3b 19 9b 1b 3d c7 30 b4 3c e6 52 e6 3a
       0.0059512504 0.03798971 0.021995915 0.0017572313
000160 04 5f 0e 3d 7c 02 83 3d 5f 23 d8 3c 49 bb 43 3d
       0.034758583 0.06396958 0.026384054 0.04778603
000170 7e 6e 0a 3c ad 75 77 3b 2b 46 de 3c 65 3c 9c bd
       0.008449195 0.003775935 0.027133068 -0.07628707
000180 3b f9 2a 3c 5b e7 52 bd fc 18 e9 3c 2f 38 d5 3c
       0.010435398 -0.05149017 0.028454296 0.026027767
000190 41 c8 cb 3b ca 72 7f 3d 09 30 a8 bc d8 b1 a5 3c
       0.0062189405 0.06236533 -0.020530717 0.020226404
0001a0 52 26 3d bc ed 51 0b 3d da 2d 7d bc a1 98 6d 3b
       -0.011544781 0.034013677 -0.015452826 0.0036254304
0001b0 a3 4c cd 3c 5d e1 ed 3c 0f e0 17 3b ee 5d ac 3b
       0.025060957 0.029038126 0.002317432 0.0052602207
0001c0 86 33 02 3d ca 5d ab 3c f7 21 8f 3d a6 1e 97 ba
       0.031787418 0.020918746 0.069889 -0.001152952
0001d0 9d 33 5a bc d2 c6 83 3d c3 cb 09 bc b4 be ed bb
       -0.01331797 0.06434406 -0.008410397 -0.0072553996
0001e0 75 30 48 bd ee 76 3b 3d 0c f2 c3 3c 13 32 5d 3d
       -0.048874337 0.045767717 0.023919128 0.054002833
0001f0 8b b4 e0 3c 6f 81 f4 3b 8c 4e 8d 3c 84 3d 04 3d
       0.02742984 0.0074617187 0.017249368 0.03228523

network_body._body_endoder.seq_layers.2.weight f4 [128, 128]
000000 ae db 63 bd 2f b2 d6 bd 18 d9 3e 3d 5e de b3 3d
       -0.055629425 -0.104832046 0.046593755 0.087826476
000010 fe aa 06 be 94 5b 6f 3e 7a b8 90 3d e5 5a b7 3d
       -0.13151166 0.23374778 0.07066436 0.08952884
000020 b0 a3 1d be 09 c7 0c 3e c7 44 89 bd 6b cc bd bd
       -0.15394473 0.13747801 -0.06702571 -0.09267505
000030 d9 f7 f6 bc 6c b4 a4 39 12 fa 6a 3d b5 bb 80 3d
       -0.03014748 0.00031414942 0.057367392 0.06285802
000040 33 ed d6 bd 15 3b ff bd 36 86 0e be a3 59 a2 3b
       -0.10494461 -0.12462441 -0.13918385 0.004954533
000050 8e 0e 72 3b 74 da cd bd c0 81 7b bd bf 7a 70 3d
       0.0036934945 -0.10051432 -0.061403036 0.05871081
000060 59 43 74 be 48 f3 c2 bd 47 01 77 3c 99 90 2f be
       -0.23853816 -0.095190585 0.015075988 -0.17145003
000070 11 9f 0e 3e fe ff e9 3d 5b db db bb 66 0c 98 bd
       0.13927867 0.1142578 -0.006709499 -0.0742424
000080 ee 8d 07 be 5a 7c b2 bc 84 2b b5 3c f9 df cd bd
       -0.13237736 -0.021787811 0.022115476 -0.10052485
000090 52 98 c3 3d 16 00 26 be 92 6a ee 3c 09 f3 f9 bc
       0.09550537 -0.1621097 0.029103551 -0.030511396
0000a0 f4 a4 1e 3c ed 93 01 3d 19 2d a8 3c d2 df 02 bd
       0.009682883 0.031635214 0.020529317 -0.031951733
0000b0 94 64 b9 bc ce 6f 07 bd 4d b8 0e be a3 01 08 3e
       -0.022630967 -0.03306561 -0.13937493 0.13281874
0000c0 06 03 df bd 2d 96 8b bd 40 b2 c1 3d e0 9e 94 bd
       -0.108892485 -0.06815753 0.094578266 -0.072568655
0000d0 b0 9e e0 3d 7c 8e 04 bd ac 05 25 bd f3 90 0f 3e
       0.10967767 -0.032362446 -0.040288612 0.14020137
0000e0 99 0b 68 3d fd 65 0d 3d 48 81 d2 bd 19 e0 cc 3c
       0.056651685 0.03452109 -0.10278565 0.025009202
0000f0 bf a9 e6 3d 9e da e7 bb 27 3a 4a be f3 83 c5 3d
       0.11262845 -0.0070756217 -0.19748746 0.09644308
000100 3f 97 1f 3e cd 99 e4 bc be ad 8b 3d e8 99 5b be
       0.1558504 -0.02790537 0.06820248 -0.2144543
000110 be 33 6b 3c 06 f8 7f 3d e6 d1 27 3e b4 a9 a4 bd
       0.014355598 0.062492393 0.16388664 -0.08040181
000120 5f 88 22 bd 68 6e 8d bd 80 12 0f be ec 91 6a 3d
       -0.039680835 -0.06905824 -0.13971901 0.05726807
000130 70 83 9d bd a1 12 10 be 78 49 8f bd e8 51 9c bd
       -0.07691085 -0.14069606 -0.06996435 -0.0763281
000140 75 88 9b bd 76 da af 3b 12 c6 85 3d 83 83 a3 bd
       -0.075943865 0.0053666187 0.065319195 -0.07984068
000150 d7 f8 bb 3d 12 cb 26 3d cd df 40 3e 94 f3 c1 bd
       0.09178322 0.040721007 0.18835373 -0.09470287
000160 9b 55 67 3c 96 3c 6e bd 51 25 65 3d 4a 0c 85 3d
       0.014119531 -0.058163248 0.05594379 0.064964846
000170 92 1d 99 bd 68 43 69 3e e0 b8 22 bc dc 2d f5 bc
       -0.07476343 0.2277962 -0.009931773 -0.029929094
000180 28 0e 4f be 9f d0 a4 3d 49 72 2b be a6 12 22 bd
       -0.20220244 0.08047604 -0.16742815 -0.039568566
000190 96 98 91 3d c0 dc 0a 3d dc e7 0c be 00 26 96 3d
       0.071091816 0.03390193 -0.13760322 0.07331467
0001a0 d1 1c e5 3b d3 6b 32 3d 90 da 33 bd ba 4c 1d be
       0.0069919606 0.04355986 -0.04390961 -0.153613
0001b0 50 4d 3d 3d d5 f8 37 bd 0c 92 2e be 02 27 fc bc
       0.04621631 -0.04491504 -0.170479 -0.03078032
0001c0 04 c7 60 3e f3 63 98 bd 65 de b8 3e 7d d1 1a be
       0.21950918 -0.07440939 0.36107174 -0.15118976
0001d0 84 2d 43 3e 12 86 41 3d e9 9e 6b bd 1b 22 a8 3d
       0.19060332 0.047247 -0.057524595 0.0820963
0001e0 db f5 5c 3c 9e 16 a3 bd 7c f5 b2 3d 62 51 10 3e
       0.013486351 -0.07963298 0.08738229 0.14093545
0001f0 09 94 09 3e 1f 28 51 bd f4 ba 8e 3b 92 4b 22 be
       0.13435377 -0.051063653 0.0043557826 -0.1584914
000200 13 b7 0f be b7 93 f5 bc 85 92 18 be 79 0d 48 bd
       -0.14034681 -0.029977662 -0.14899643 -0.048840974
000210 86 9d d4 bd 83 81 39 3d 24 96 b4 3d b0 ea c7 bc
       -0.10381608 0.045289528 0.088176996 -0.0244039
000220 48 eb 0d 3d 34 6d 30 be 16 f4 a0 bd b8 82 f5 bd
       0.03464821 -0.17229158 -0.07859056 -0.11987823
000230 27 98 92 bd cb 6f 3d be 86 5e 3b bd 34 7d 77 bd
       -0.07157927 -0.18499677 -0.04574444 -0.060422137
000240 1d d8 d5 3d d3 e4 d5 3d e8 d7 3b 3e e6 69 72 bc
       0.10441611 0.104440354 0.1834408 -0.014795756
000250 d7 51 b9 3d 5a 3e 6b 3e e7 44 a3 3d 65 05 da bc
       0.09048813 0.22973004 0.079721265 -0.0266139
000260 36 23 09 be f0 9d dc bc 8a ea 61 3d 6d aa 1f be
       -0.13392338 -0.02693078 0.055155315 -0.15592356
000270 fc 60 90 bc 02 c2 c9 bd b3 d9 27 bd 39 f6 9b 3d
       -0.01762437 -0.09851457 -0.0409791 0.076153226
000280 12 19 e3 3d 13 b3 ca 3d 8f 56 13 be 61 9b 48 3e
       0.11088766 0.09897437 -0.14388488 0.19590522
000290 dd 7f 51 3d 6e de d4 3d 80 99 02 3e 85 1f c3 3c
       0.05114733 0.103939876 0.12753868 0.02381874
0002a0 b0 03 cb bc a9 65 c3 3d 22 4c a7 bd ef 47 03 be
       -0.024782032 0.095408745 -0.08168818 -0.12820409
0002b0 16 c8 83 3c 83 04 4e bd 21 45 16 3c e2 ba 1f bd
       0.01608662 -0.05029727 0.009171755 -0.038996585
0002c0 06 64 14 be 1e 04 e3 3b e6 3a 9d bd a2 f0 8c bc
       -0.14491281 0.006927981 -0.076772496 -0.017204586
0002d0 a6 70 95 bd 9c b5 e0 bd a2 0e 31 be 93 39 57 3c
       -0.072968766 -0.10972139 -0.17290738 0.013136285
0002e0 de c4 95 bc 12 95 e3 bd da c6 ce 3d 6e a0 37 bd
       -0.01828235 -0.11112417 0.10096522 -0.044830732
0002f0 e4 6c 46 3e 85 83 28 be 96 1f b7 bd 27 b7 35 3d
       0.19377476 -0.1645642 -0.089415714 0.04436412
000300 d9 47 50 bd 06 ce 9c 3d 16 67 b4 3c 65 66 fe bc
       -0.05084977 0.07656483 0.022021811 -0.031054685
000310 d0 f9 ed 3b 6c 7b 99 3d e7 9c 96 bd 0b a3 ff 3c
       0.007262446 0.07494244 -0.073541455 0.031205675
000320 8c c5 ef 3d 8a e3 1d 3e 9d 04 15 bd f7 b0 0b be
       0.11707601 0.1541883 -0.036381353 -0.13641725
000330 c8 50 c7 bd f0 7b 00 be 02 2b 8d 3c 26 0f 16 3c
       -0.09732205 -0.12547278 0.017232422 0.009158885
000340 b5 f0 cd 3d 89 cb 91 bd 48 6f 0e be 8e d7 7e bb
       0.10055677 -0.071188994 -0.13909638 -0.0038885805
000350 de 2c d2 bd 8a de 2d bd aa 18 09 3d 9d a4 70 bd
       -0.10262464 -0.042448558 0.033470787 -0.058750737
000360 3f 11 c2 bd 24 ea ca bc bd c2 44 3d bb 2a 5c bc
       -0.09475946 -0.02476985 0.04803728 -0.013437922
000370 ba 16 30 3e b6 0e 33 be dd f5 67 bd cf f8 8c bd
       0.1719617 -0.1748608 -0.056630958 -0.06883394
000380 02 95 bb 3b c6 a6 bb 3d 36 15 81 3d 03 9d c7 bc
       0.00572455 0.09162669 0.06302874 -0.024366861
000390 b0 fe b1 bb ad cb 1c bc 2a f1 70 bc 46 67 86 be
       -0.0054319724 -0.009570044 -0.0147059355 -0.26250666
0003a0 37 f4 f3 bc 8d e2 50 bd 0c 85 aa bb d8 a6 d9 3d
       -0.029779537 -0.050997306 -0.0052038487 0.10627526
0003b0 60 58 97 bd 4c 51 b9 3d 7c 35 cd 3d a3 97 3d be
       -0.07389903 0.09048709 0.10019967 -0.18514876
0003c0 f8 c1 de bd d6 d5 e9 bc 84 ad 8e 3c ee 9a 18 3e
       -0.1087684 -0.028544348 0.017416723 0.14902851
0003d0 20 df 5d bd 81 be 32 be ea cb 0b 3e d7 77 9a 3d
       -0.054167867 -0.17455484 0.13652006 0.07542389
0003e0 a5 9b 2e 3d 2b b7 61 3d 5c a8 88 bd 9b 34 81 3d
       0.042628903 0.055106323 -0.06672737 0.06308862
0003f0 2f 8b 57 bd d9 b3 86 3d 06 3a 70 3c c9 11 6e bc
       -0.05262297 0.06577272 0.014662271 -0.0145306075

network_body._body_endoder.seq_layers.2.bias f4 [128]
000000 f5 90 bb 3b 23 e7 8a 3c 59 9d 70 3c f1 45 17 3a
       0.0057240673 0.016955918 0.014685952 0.0005770615
000010 64 9a ca 3b cf 14 39 3c 3b c3 21 3d dc 87 50 3c
       0.0061829556 0.011296465 0.039492827 0.012727704
000020 09 b4 57 3c ed f6 36 3c 17 3a 9e 3c 8d a4 96 3c
       0.013165482 0.01116727 0.019314809 0.01838901
000030 dc 7e cc 3c b2 bf d9 3a d4 98 56 3b b0 50 c8 3b
       0.024962835 0.0016612916 0.0032744901 0.0061131343
000040 5a 5a 02 3c 3c 9e 65 bb 6f 9d 3f 3b 6d 71 be 3c
       0.007956112 -0.0035036942 0.0029238125 0.023247445
000050 ef 95 87 3c 01 f5 5f 3b 7f dd 80 bc 16 ec 12 3d
       0.016550986 0.0034173133 -0.015730618 0.03586968
000060 74 2a a0 3c 71 10 df bc 39 01 90 3c 37 e5 21 3c
       0.019551493 -0.02722952 0.017578708 0.009881309
000070 44 59 13 3c 31 f0 ba 3b d5 4c 76 bc 1f 99 e8 3c
       0.008993451 0.0057049026 -0.015032967 0.028393326
000080 f0 9f 24 3c e1 23 9e 3c 30 1a 89 3c 82 d2 a6 3c
       0.010047898 0.019304218 0.01673612 0.02036405
000090 c8 9d f3 3c d7 c3 c8 3c 9a 9d dd bb 74 b5 00 3c
       0.029738322 0.024507446 -0.0067631723 0.007855762
0000a0 a2 8c a8 3b a4 0a 2a 3c 6a cc 9a 3a 08 96 2a bb
       0.005143718 0.0103785135 0.0011810188 -0.0026029367
0000b0 a2 06 24 3c 7e 61 09 3c 0c bd 65 bc 6d 68 f5 ba
       0.010011347 0.00838506 -0.014022123 -0.0018723138
0000c0 ff d6 9e 3b 71 70 23 bc 8b 6f c0 3c 93 d6 49 3c
       0.004847407 -0.009975539 0.023490688 0.012319225
0000d0 d2 c6 58 3c c3 49 80 bd 60 c1 a2 3c 76 18 d1 3b
       0.013230996 -0.06264069 0.019867599 0.00638109
0000e0 86 26 d7 3c eb fd 97 3c 4b 39 0f 3c e0 86 0a 3d
       0.026263487 0.018553695 0.008741687 0.033820033
0000f0 f6 79 7f 3c 40 d3 86 3c f2 2f 1c 3c 64 8e 5e 3c
       0.015593043 0.016458154 0.009532915 0.013583753
000100 86 87 4f 3c 02 61 c6 3c 6c 17 e8 3c de 65 59 3c
       0.012666589 0.024216179 0.02833148 0.013268916
000110 3d 54 bd 3c 36 59 aa 3c ff 3c a3 3c a3 52 88 3b
       0.023111457 0.020794492 0.019926546 0.0041602417
000120 9c bf 53 3c ba d9 0a 3b d4 68 8e bc e3 c2 91 bc
       0.012924101 0.0021186904 -0.01738397 -0.017793125
000130 2d 94 c9 3c c0 82 20 bc 1f 4a 36 3c df 7f 5f bb
       0.024606789 -0.009796798 0.01112607 -0.0034103317
000140 84 28 2c ba 01 85 66 3c 53 fe a1 bc 91 c1 3f 3c
       -0.00065673166 0.014069797 -0.019774592 0.011703865
000150 1e 1f 4e bc 80 24 78 3b ae 68 a4 3b 1c f7 59 bc
       -0.012580661 0.0037863553 0.0050173616 -0.013303544
000160 7e 13 9e 3c a1 6b af 3b f8 e3 68 3b e7 e7 97 3c
       0.019296404 0.0053534065 0.003553627 0.018543197
000170 75 8b a0 3c 6e 13 ac 3c 3f 07 93 3c 04 3c 83 3c
       0.019597748 0.021005359 0.017947791 0.016019829
000180 19 d9 26 3c e6 70 9f 3b 65 18 ce ba 98 3f 2c 3c
       0.010183596 0.0048657535 -0.0015723823 0.010513209
000190 f2 3e 95 bb 9a 0b 8f bb b3 ce 7d 3c 71 71 e4 bb
       -0.004554623 -0.0043653967 0.015491175 -0.006971531
0001a0 b2 e6 a5 bb c5 64 f3 3c 84 43 df bb de af a4 3c
       -0.0050629014 0.029711137 -0.0068134684 0.020103391
0001b0 f8 bc ad 3c 64 b4 e0 3c 53 ac 5e bc 5f 53 63 3c
       0.021208271 0.027429767 -0.01359089 0.013874858
0001c0 ad 09 80 3c 27 71 e4 3c c9 94 fb ba 30 f9 00 3d
       0.015629614 0.027885986 -0.0019194122 0.031487644
0001d0 1c 1e 72 3c db 09 37 3c f8 e3 c8 3a a8 0f 14 3c
       0.014777686 0.011171783 0.0015326729 0.009036936
0001e0 01 71 87 bc 8c ac 43 3c 01 ae 51 3b 54 b5 ed 3c
       -0.016533377 0.011942994 0.0031994584 0.029017128
0001f0 d8 aa bb 3c bd b5 ad 3c 38 8c 33 3c 92 51 dd 3b
       0.022908613 0.021204824 0.010958724 0.0067541087

action_model._discrete_distribution.branches.0.weight f4 [2, 128]
000000 46 c9 5e 3d b6 3e 46 bd 23 92 a1 3c ad 8e 04 bc
       0.054391168 -0.04839965 0.019723004 -0.008090657
000010 9b a5 a0 bc b8 c1 ca 3d 1f 03 70 3d a7 4e 9b 3d
       -0.019610217 0.0990023 0.058596727 0.07583361
000020 5c 09 99 3d 2f 92 c4 3c 3b 75 99 3d de 78 69 bd
       0.07472488 0.023995487 0.07493063 -0.057000034
000030 85 fb b2 3d ce 3b 1a bc 6b 05 05 bd 57 be 07 bd
       0.0873938 -0.009413673 -0.03247587 -0.033140507
000040 bc e1 93 3d 39 72 72 bb fd a1 a8 3d 6b 33 8c bd
       0.0722079 -0.0036994352 0.08234022 -0.06845745
000050 3a 79 60 bd fd 99 ff bc ce 07 8c 3c f7 df 70 3d
       -0.05480311 -0.031201357 0.017093565 0.05880734
000060 3a d9 16 bd fc b1 8a bc bd 60 87 3d c8 9a 82 3d
       -0.036828257 -0.016930573 0.06610248 0.063771784
000070 cb 8e 2c 3d e9 0b 23 bc 5d 57 73 3b 44 72 2b bd
       0.042128365 -0.00995157 0.003713093 -0.04185702
000080 47 fc 89 3d 4a 13 45 3d ea 2a c3 3d 02 35 f5 3c
       0.06737571 0.0481141 0.095296696 0.029932503
000090 18 6b 74 bd 78 94 95 3d dd 4e 87 bc 27 e4 c0 3b
       -0.059672445 0.07303709 -0.016517097 0.005886573
0000a0 09 73 93 bc 30 f3 3d bd dd eb 8b bc 48 bc 14 3d
       -0.017999189 -0.0463745 -0.017080242 0.03631237
0000b0 84 53 e6 bc 47 38 38 bd e1 cf 34 bc 64 c2 24 bd
       -0.028115995 -0.044975545 -0.01103589 -0.040224448
0000c0 b6 f7 41 bc 40 8b f5 bc 7d cf 3b bd fa 49 9a 3d
       -0.011838844 -0.029973626 -0.045852173 0.07533641
0000d0 c0 c8 29 3d 6c 5e 31 3c ca 14 98 3d c7 43 dc bc
       0.041451216 0.010825735 0.0742584 -0.026887788
0000e0 92 05 22 3d 4c 1e 9b 3d 4d de dd 3b c9 de 84 3d
       0.039556094 0.07574138 0.006770885 0.064878054
0000f0 8d df 41 bd 8d c1 3b bd 6f cb 5b 3d bd 4f 64 3d
       -0.047332335 -0.04583888 0.053660806 0.055740107
000100 41 65 ea 3c 08 a1 d9 3c e3 ff 10 bd e8 71 57 bc
       0.028612735 0.026566043 -0.035400283 -0.013149716
000110 fa 83 37 3d 41 ee 64 3d 62 3f c8 3d bf 05 52 3d
       0.044803597 0.05589128 0.09777714 0.05127501
000120 b5 70 9c 3d bc 36 f5 bc bc dd 0e bc dd 4a e5 bb
       0.07638685 -0.029933326 -0.008719858 -0.00699745
000130 39 16 8c 3d bb 8b 88 ba b4 b2 9c 3d 2b 89 07 bd
       0.06840176 -0.001041762 0.076512724 -0.033089798
000140 03 0d 23 3c 10 65 0f 3d b0 a9 5a bc 10 f2 46 bd
       0.009951833 0.03500849 -0.013346121 -0.048570693
000150 67 8c 45 3c 1d bb dc bc d9 b1 c5 bc 7b 9c 82 3c
       0.0120574 -0.026944691 -0.024132656 0.015943756
000160 94 8a 30 bd 51 d6 4a 3d 33 fb 6c 3d f2 df 13 3d
       -0.04310091 0.049520794 0.05785675 0.036102243
000170 76 0c c0 3d 68 69 b7 3d d8 fe bb 3d c5 e1 29 bd
       0.09377377 0.089556515 0.09179467 -0.041475076
000180 3f de 82 3d 8c 03 5d 3d 3c d4 aa bc 8c af a1 3d
       0.06390046 0.05395846 -0.020853154 0.07894811
000190 56 29 ce 3c 52 09 f3 3a 46 2d 2d bd cf 4f 0f 3b
       0.025166195 0.0018542206 -0.042279504 0.0021867638
0001a0 db 93 45 3d b4 d1 4d 3d 9b f5 79 bb eb 51 49 bd
       0.04823671 0.050248817 -0.0038140777 -0.04915039
0001b0 bc 97 0f 3d 98 31 8c bd 59 d3 9d bc e1 b5 1f bd
       0.035056815 -0.06845397 -0.019265817 -0.038991813
0001c0 5a e9 82 bd fb e7 84 3d ca 9c 69 bc ec 36 51 3d
       -0.063921645 0.06489559 -0.014258573 0.05107777
0001d0 2c 9b 31 bd c9 bc 86 3d 0b e5 cb 3a d0 ea 2b 3c
       -0.043360874 0.06578977 0.0015555931 0.010492995
0001e0 b9 10 8b bc 80 6a 7d 3d ab cd 47 3c 22 10 4c 3d
       -0.016975747 0.061869144 0.012195031 0.049820073
0001f0 45 7f ee 3c a0 12 b8 3d 2c 82 84 bc f0 8f 83 3c
       0.029113421 0.089879274 -0.016175352 0.016059846
000200 2a 33 62 bd 62 2f 6b 3d 06 15 79 bc 7b a2 ef 3c
       -0.055224575 0.057418235 -0.015202766 0.029252281
000210 5c 46 11 3d 7e b7 8e bd 97 93 57 bd 13 2d 8d bd
       0.03546749 -0.06968592 -0.052630987 -0.06893363
000220 cb b1 9c bd 73 cf e9 ba 33 72 9b bd a2 00 3d 3d
       -0.07651099 -0.0017838314 -0.07590141 0.04614318
000230 39 b2 b5 bd b1 9f bf b9 a9 f6 2d 3d 69 c4 24 3d
       -0.08871884 -0.00036549338 0.04247156 0.040226374
000240 1d 52 50 bd 94 b3 69 3c 17 e1 9d bd d3 f8 6c 3d
       -0.05085956 0.014264006 -0.07708948 0.057854485
000250 e5 ec 36 3d 82 3b 85 3c 01 01 09 bc ae 3c 64 bd
       0.044659514 0.016263727 -0.008362056 -0.05572193
000260 79 db 26 3d 91 68 93 3b 56 b8 91 bd ff 7f 5e bd
       0.04073665 0.0044985493 -0.071152374 -0.054321285
000270 bc db 3a bd 33 14 4b 3c 85 f9 d4 bb 92 8d 00 3d
       -0.04561971 0.012394953 -0.0064994716 0.031385012
000280 cc 89 8f bd 78 66 13 bd 07 ef df bd dd ac 43 bc
       -0.070087045 -0.035986394 -0.10934263 -0.011943069
000290 58 5e 74 3d c0 4b ca bd f5 ee 59 3b 69 55 a8 3c
       0.059660286 -0.098777294 0.0033254002 0.02054854
0002a0 53 eb f9 3c e1 07 14 3d ac b7 dd 3c 83 cc 14 bd
       0.03050772 0.036140326 0.02706512 -0.03632785
0002b0 43 73 f5 3c af c0 e3 3c 57 d1 bf 3c 8e 54 bd 3c
       0.029962188 0.02780184 0.02341525 0.023111608
0002c0 63 9e 62 3c 9e 19 2b 3d 52 4c 53 3d 5b 76 d6 bd
       0.013831708 0.041772477 0.051586457 -0.10471793
0002d0 af 40 74 bd 78 c0 e7 bc b9 79 ac bd 78 01 c3 3c
       -0.059632 -0.028290018 -0.08421654 0.023804411
0002e0 93 3c 71 bd 51 38 a2 bd 96 67 b1 bc 52 5a 8e bd
       -0.05889566 -0.07920898 -0.021655839 -0.06950821
0002f0 e2 07 40 3d a4 9f 36 3d f8 55 2f bd 53 95 21 bd
       0.046882518 0.04458584 -0.042806596 -0.039449047
000300 73 de 2b bd 2d 75 85 bc d8 66 52 3d 3d f8 04 3c
       -0.04196019 -0.016291225 0.05136761 0.008115825
000310 2b 73 49 bd d6 21 75 bd 62 9f bf bd 59 27 44 bd
       -0.0491821 -0.05984672 -0.09356572 -0.047889087
000320 cd 1d 8d bd aa 44 14 3d 5a d0 4c 3c 08 a3 7f 3b
       -0.0689045 0.036198296 0.012500847 0.0039007086
000330 91 85 9c bd 21 e8 c5 ba 1e 58 9e bd 12 ee ff 3c
       -0.07642663 -0.0015099087 -0.07731651 0.03124145
000340 d3 d6 1a 3c 20 6d d5 bc 28 b0 04 3c 27 1a f8 3c
       0.009450632 -0.026053011 0.00809864 0.030285908
000350 b6 8c 8b 3c 61 6d b4 3c 53 96 f6 3c 02 6a d4 bc
       0.01703487 0.022024812 0.030100977 -0.025929455
000360 bb 32 4d 3d f4 fb 37 bd b0 15 83 bd 2d b6 51 bd
       0.05009721 -0.044918016 -0.06400621 -0.051199127
000370 46 e0 c1 bd 8e 05 e7 bd 32 15 c5 bd d5 b1 ea 3c
       -0.09466605 -0.11280356 -0.09623183 0.02864925
000380 64 3b 97 bd 26 29 64 bd 7b c5 3c 3c 34 72 a1 bd
       -0.07384375 -0.055703305 0.011521692 -0.07883111
000390 61 e1 e1 bc 84 ab 70 bc 0d 3d 2f 3d a7 2c 50 3c
       -0.02757329 -0.01468933 0.042782832 0.012705958
0003a0 0d e0 19 bd a9 05 70 bd 3d 9e 12 3c 58 aa 1d 3d
       -0.037567187 -0.058599148 0.00894886 0.03849253
0003b0 0b b8 1f bd 84 c2 95 3d d6 ec b7 3c 00 5a 4a 3d
       -0.038993876 0.073124915 0.0224518 0.049402237
0003c0 ee 2c 20 3d 4f 04 87 bd 14 67 3f 3c 3e e6 1b bd
       0.03910535 -0.06592619 0.011682291 -0.038061373
0003d0 25 fd 0f 3d 3b 39 af bd 61 7b ba 3b 31 ab c2 3b
       0.035153527 -0.08555838 0.0056909774 0.0059408178
0003e0 81 f1 6b 3c e9 7f 8d bd 50 d8 51 bc 70 90 5b bd
       0.014400841 -0.069091626 -0.012807921 -0.053604543
0003f0 d6 80 1d bd 06 5b ce bd f1 37 e6 3c 11 f3 57 bc
       -0.038452946 -0.10075955 0.028102847 -0.01318051

action_model._discrete_distribution.branches.0.bias f4 [2]
000000 38 b7 5c bc 26 b7 5c 3c
       -0.013471417 0.0134714

exp_avg f4 [128, 43]
000000 00 00 00 00 70 cd 19 39 35 ff 04 b9 00 00 00 00
       0.0 0.00014667748 -0.00012683573 0.0
000010 04 00 00 80 a4 90 31 b9 8b e7 46 35 d8 c7 6a ba
       -6e-45 -0.00016933918 7.409769e-07 -0.00089561706
000020 ab c9 6f 3a 00 00 00 00 e8 57 ce aa 25 e1 f4 b8
       0.00091471773 0.0 -3.6653948e-13 -0.00011676763
000030 00 00 00 00 aa aa 0d 39 91 d7 e7 b9 00 00 00 00
       0.0 0.00013510385 -0.00044220363 0.0
000040 4f 69 ab 39 b0 d5 a9 38 f7 4c 8b ba 8c a4 a0 39
       0.00032694123 8.0983504e-05 -0.0010627796 0.00030640175
000050 2e 7b 4b 3a 00 00 00 00 62 46 30 2f 1a a6 83 b8
       0.00077621907 0.0 1.6032112e-10 -6.2775056e-05
000060 00 00 00 00 de 67 ad 37 26 e7 9a 39 00 00 00 00
       0.0 2.0671574e-05 0.00029545388 0.0
000070 8d 56 9b b9 32 bb 8c b9 05 e1 6e ba 22 f1 7a 39
       -0.0002962839 -0.00026842352 -0.000911251 0.00023931687
000080 06 ed 2f 3a 00 00 00 00 34 68 ad 37 a2 6f ae b6
       0.00067110395 0.0 2.067173e-05 -5.1986e-06
000090 00 00 00 00 04 00 00 00 04 00 00 00 00 00 00 00
       0.0 6e-45 6e-45 0.0
0000a0 fc 70 a6 37 fc 70 a6 37 5b 73 92 38 00 00 00 00
       1.9841355e-05 1.9841355e-05 6.983309e-05 0.0
0000b0 43 73 6e 38 cb d1 c7 39 00 00 00 00 04 00 00 80
       5.6850968e-05 0.00038112546 0.0 -6e-45
0000c0 6a 0e 94 b8 e3 9f 25 35 27 14 e6 b9 c6 b0 65 3a
       -7.059875e-05 6.1699956e-07 -0.00043884033 0.0008761998
0000d0 00 00 00 00 07 0f d7 aa d7 2b 3b b8 00 00 00 00
       0.0 -3.82021e-13 -4.4625103e-05 0.0
0000e0 87 1f 53 38 3e 80 23 39 00 00 00 00 40 f8 72 39
       5.0335682e-05 0.00015592665 0.0 0.00023171399
0000f0 63 bf e5 38 b2 bf 01 ba 0a ad fb 38 25 1a 55 3a
       0.000109552195 -0.00049495243 0.00012000844 0.0008129201
000100 00 00 00 00 3e 19 1e 2f 17 d9 7e b7 00 00 00 00
       0.0 1.4378984e-10 -1.5190125e-05 0.0
000110 a7 54 68 37 64 4b ea 38 00 00 00 00 b4 ca a3 39
       1.3847987e-05 0.00011172032 0.0 0.00031240808
000120 da 37 a9 39 be 63 e6 b9 00 60 e3 38 a2 f4 45 3a
       0.00032275805 -0.00043943332 0.00010842085 0.0007551407
000130 00 00 00 00 46 55 68 37 d8 0d b0 37 00 00 00 00
       0.0 1.3848132e-05 2.0987281e-05 0.0
000140 04 00 00 80 04 00 00 00 00 00 00 00 31 a0 e5 39
       -6e-45 6e-45 0.0 0.00043797636
000150 31 a0 e5 39 37 0b ca 3a 00 00 00 00 8f 34 ee 37
       0.00043797636 0.0015414719 0.0 2.8396285e-05
000160 73 e4 d8 38 00 00 00 00 04 00 00 80 ae da 3c b8
       0.000103422346 0.0 -6e-45 -4.5026354e-05
000170 34 6d e5 33 6b 99 8b b9 77 a7 d0 39 00 00 00 00
       1.06835074e-07 -0.0002662645 0.00039797623 0.0
000180 cf 6c d4 a8 6d f9 fb b7 00 00 00 00 64 23 de 37
       -2.3583916e-14 -3.003768e-05 0.0 2.6480942e-05
000190 48 58 08 37 00 00 00 00 ad dd cb 38 2e 67 f8 37
       8.126786e-06 0.0 9.721085e-05 2.961195e-05
0001a0 02 d1 9d b9 06 e8 b1 38 62 73 b6 39 00 00 00 00
       -0.00030101096 8.4832354e-05 0.00034799712 0.0
0001b0 93 83 49 2d 86 91 67 b7 00 00 00 00 03 2e 02 37
       1.14547425e-11 -1.3802555e-05 0.0 7.759317e-06
0001c0 9f 3f ae 38 00 00 00 00 5f d8 2b 38 70 1d 4b 38
       8.308817e-05 0.0 4.097109e-05 4.8426387e-05
0001d0 bc 4e 8f b9 ec 83 c5 38 b5 f8 9e 39 00 00 00 00
       -0.00027333747 9.4182644e-05 0.0003032141 0.0
0001e0 10 2e 02 37 1d 44 cd 36 00 00 00 00 04 00 00 00
       7.759329e-06 6.1174055e-06 0.0 6e-45
0001f0 04 00 00 00 00 00 00 00 cc 38 0a 39 cc 38 0a 39
       6e-45 0.0 0.00013181864 0.00013181864
000200 e7 3c f3 39 00 00 00 00 7b 48 9e 39 41 6e 4a 3a
       0.00046393948 0.0 0.0003019011 0.00077221176
000210 00 00 00 00 04 00 00 00 44 4f ab b9 bb 1e ae 35
       0.0 6e-45 -0.0003267472 1.2972954e-06
000220 d3 cd f4 ba c6 b5 40 3b 00 00 00 00 d5 71 25 ab
       -0.0018677063 0.002940522 0.0 -5.877775e-13
000230 72 26 62 b9 00 00 00 00 b4 70 93 39 e4 60 01 b8
       -0.00021567362 0.0 0.00028121995 -3.0846233e-05
000240 00 00 00 00 38 f0 57 3a bb 63 a2 39 c1 11 0f bb
       0.0 0.00082373945 0.00030973353 -0.002183065
000250 1a 91 25 3a 1c 12 2c 3b 00 00 00 00 f5 fa 93 2f
       0.00063158723 0.0026255911 0.0 2.691746e-10
000260 29 cc c6 b8 00 00 00 00 31 88 9c 38 8b a5 1c 3a
       -9.4794035e-05 0.0 7.464027e-05 0.00059755956
000270 00 00 00 00 cf b7 d2 39 7a 53 f0 39 34 eb fc ba
       0.0 0.0004019127 0.00045838562 -0.001929617
000280 53 82 18 3a 64 d5 19 3b 00 00 00 00 57 88 9c 38
       0.00058177597 0.0023473138 0.0 7.464055e-05
000290 ce cc 8a 38 00 00 00 00 04 00 00 80 04 00 00 00
       6.6185006e-05 0.0 -6e-45 6e-45
0002a0 00 00 00 00 3c c9 8c 3a 3c c9 8c 3a 2a c0 77 3b
       0.0 0.0010741125 0.0010741125 0.0037803748
0002b0 00 00 00 00 ba 03 a3 b8 b5 9b d1 b9 00 00 00 00
       0.0 -7.77314e-05 -0.00039979597 0.0
0002c0 04 00 00 80 0d 77 8f 38 d1 eb 43 b4 3c 86 e4 39
       -6e-45 6.840946e-05 -1.824658e-07 0.0004358756
0002d0 31 65 6f ba 00 00 00 00 05 8e 70 29 91 5c 29 38
       -0.0009132205 0.0 5.3413887e-14 4.037895e-05
0002e0 00 00 00 00 d2 f3 9c b8 b7 68 b2 37 00 00 00 00
       0.0 -7.484075e-05 2.1268015e-05 0.0
0002f0 39 46 de b9 a0 10 8a b9 ac cc 06 3a da 23 5a b9
       -0.0004239546 -0.00026333798 0.0005142193 -0.00020803456
000300 09 72 4d ba 00 00 00 00 9e e4 3e ae e7 89 62 36
       -0.0007837122 0.0 -4.340405e-11 3.3756894e-06
000310 00 00 00 00 f2 cb 04 b8 23 92 55 b9 00 00 00 00
       0.0 -3.166119e-05 -0.00020367703 0.0
000320 31 f4 7d b9 6e c8 88 b9 fb 56 f1 39 03 67 83 b9
       -0.00024218929 -0.00026089273 0.00046031908 -0.00025063017
000330 8e d9 2b ba 00 00 00 00 fe cb 04 b8 ab ed 4c b8
       -0.00065555505 0.0 -3.1661235e-05 -4.8858736e-05
000340 00 00 00 00 04 00 00 00 04 00 00 80 00 00 00 00
       0.0 6e-45 -6e-45 0.0
000350 a5 5c fa b9 a5 5c fa b9 02 4a dc ba 00 00 00 00
       -0.0004775274 -0.0004775274 -0.0016806724 0.0
000360 77 c7 18 39 6e f8 f1 39 00 00 00 00 04 00 00 00
       0.00014570156 0.00046152197 0.0 6e-45
000370 c4 70 0b b9 41 6a 48 35 3d dd 46 ba 99 ec b2 3a
       -0.00013298081 7.4660426e-07 -0.00075860677 0.0013650834
000380 00 00 00 00 f2 e1 ca aa f0 99 b6 b8 00 00 00 00
       0.0 -3.603919e-13 -8.7071094e-05 0.0
000390 a5 6f 0d 39 1d 06 8d 39 00 00 00 00 5d 3c 55 39
       0.00013488399 0.0002689817 0.0 0.0002033575
0003a0 97 b1 bf 37 61 f4 73 ba 62 71 b9 39 df 34 9b 3a
       2.2851671e-05 -0.00093061297 0.00035370426 0.0011841318
0003b0 00 00 00 00 56 90 22 2f 90 d9 22 b8 00 00 00 00
       0.0 1.4785093e-10 -3.882643e-05 0.0
0003c0 59 84 dc 37 47 74 b1 39 00 00 00 00 2b 3f 7e 39
       2.6287673e-05 0.00033846704 0.0 0.0002424686
0003d0 b2 62 8f 39 4d 82 4e ba b2 b6 b2 39 70 b8 86 3a
       0.0002734862 -0.00078776927 0.00034086924 0.0010278355
0003e0 00 00 00 00 a7 84 dc 37 91 4b e0 37 00 00 00 00
       0.0 2.6287815e-05 2.673807e-05 0.0
0003f0 04 00 00 80 04 00 00 00 00 00 00 00 13 2e 1f 3a
       -6e-45 6e-45 0.0 0.0006072234

exp_avg_sq f4 [128, 43]
000000 00 00 00 00 7c e3 a3 36 a5 4f 7f 38 00 00 00 00
       0.0 4.884261e-06 6.0870912e-05 0.0
000010 4f a2 b1 20 c4 c4 a3 35 74 21 b1 35 57 20 19 38
       3.0092373e-19 1.2201713e-06 1.3197264e-06 3.650816e-05
000020 b0 9d e2 37 00 00 00 00 c9 b4 6e 29 27 4a 44 35
       2.7014728e-05 0.0 5.3003422e-14 7.3123596e-07
000030 00 00 00 00 66 a0 6b 36 0d f5 6a 38 00 00 00 00
       0.0 3.5111093e-06 5.601817e-05 0.0
000040 3c 73 b5 36 84 34 e1 36 ba a3 04 38 72 49 1b 37
       5.4076354e-06 6.711636e-06 3.1623735e-05 9.25582e-06
000050 ea 31 cf 37 00 00 00 00 6b 27 02 2a 87 f0 00 35
       2.4699566e-05 0.0 1.1559995e-13 4.803373e-07
000060 00 00 00 00 db 8b 2c 34 43 8b 16 37 00 00 00 00
       0.0 1.6069627e-07 8.973121e-06 0.0
000070 20 a3 6c 38 62 d5 6c 38 37 df e0 37 30 fb 7f 37
       5.6418707e-05 5.6465513e-05 2.6806823e-05 1.5257669e-05
000080 28 2c ba 37 00 00 00 00 df 8b 2c 34 b5 92 e7 34
       2.219349e-05 0.0 1.6069633e-07 4.3133846e-07
000090 00 00 00 00 29 fd bf 21 be 08 b7 28 00 00 00 00
       0.0 1.3009674e-18 2.0320873e-14 0.0
0000a0 78 87 88 38 78 87 88 38 5a 66 53 3a 00 00 00 00
       6.5102184e-05 6.5102184e-05 0.0008064263 0.0
0000b0 75 50 a2 35 3f 7a 27 38 00 00 00 00 6b 96 cd 1d
       1.2093357e-06 3.9929753e-05 0.0 5.4418577e-21
0000c0 38 1b df 34 83 3c 5d 35 28 13 2d 37 47 5e fa 37
       4.155679e-07 8.241697e-07 1.0316064e-05 2.9846224e-05
0000d0 00 00 00 00 1d 41 ba 29 4d de 89 34 00 00 00 00
       0.0 8.2713547e-14 2.5679984e-07 0.0
0000e0 a9 0b c8 34 68 d1 1d 38 00 00 00 00 79 f3 41 36
       3.7261387e-07 3.762674e-05 0.0 2.890096e-06
0000f0 94 4e 5d 36 fe a8 30 37 20 f7 a2 35 fa 05 f6 37
       3.2977305e-06 1.0529764e-05 1.2141863e-06 2.9328268e-05
000100 00 00 00 00 1b ac 25 2a b6 05 44 34 00 00 00 00
       0.0 1.4714655e-13 1.8256e-07 0.0
000110 4f dd 7f 33 01 42 95 35 00 00 00 00 3d 8b 27 38
       5.9573093e-08 1.1120575e-06 0.0 3.994558e-05
000120 90 8e 27 38 cd f9 13 37 5d 0d 61 36 36 ba ee 37
       3.9948674e-05 8.820044e-06 3.3535391e-06 2.8458522e-05
000130 00 00 00 00 6f dd 7f 33 0e 77 49 34 00 00 00 00
       0.0 5.9573207e-08 1.8762896e-07 0.0
000140 b0 5c 83 19 5c a8 4a 29 00 00 00 00 46 3d 2c 38
       1.3582519e-23 4.499904e-14 0.0 4.106506e-05
000150 46 3d 2c 38 b1 58 05 3a 00 00 00 00 e2 f7 4c 34
       4.106506e-05 0.00050867634 0.0 1.908916e-07
000160 61 a8 20 37 00 00 00 00 2a b9 4d 22 99 19 07 34
       9.575947e-06 0.0 2.7880706e-18 1.2582167e-07
000170 35 38 21 33 61 45 7e 36 02 e0 c4 36 00 00 00 00
       3.7536854e-08 3.7889333e-06 5.867333e-06 0.0
000180 e9 0b c5 28 4a 9a a6 33 00 00 00 00 d0 b8 22 34
       2.1876559e-14 7.7580424e-08 0.0 1.515466e-07
000190 23 3e 15 37 00 00 00 00 de 96 2c 35 d5 10 4f 35
       8.895559e-06 0.0 6.4294534e-07 7.7138003e-07
0001a0 b0 e8 54 36 82 28 8f 35 69 0a b8 36 00 00 00 00
       3.1725904e-06 1.066612e-06 5.484839e-06 0.0
0001b0 c6 0a 3a 29 97 ec 67 33 00 00 00 00 5d 1c cf 32
       4.130964e-14 5.3999056e-08 0.0 2.411087e-08
0001c0 54 c0 85 35 00 00 00 00 4d 6b 11 37 73 ad 11 37
       9.965247e-07 0.0 8.667656e-06 8.683058e-06
0001d0 71 53 2b 36 31 bc 0d 36 e2 eb a6 36 00 00 00 00
       2.5529555e-06 2.112018e-06 4.974646e-06 0.0
0001e0 73 1c cf 32 09 6d 7f 33 00 00 00 00 13 43 f4 22
       2.4110909e-08 5.947098e-08 0.0 6.620735e-18
0001f0 03 dd c6 27 00 00 00 00 4a 6c 23 37 4a 6c 23 37
       5.519566e-15 0.0 9.74077e-06 9.74077e-06
000200 bc 0a fd 38 00 00 00 00 30 65 8f 37 38 5a f0 39
       0.000120659795 0.0 1.7094048e-05 0.00045843585
000210 00 00 00 00 d2 0c 3d 21 8a 2d be 36 c3 c0 7d 36
       0.0 6.405266e-19 5.6677427e-06 3.781214e-06
000220 42 7c 30 39 6b 79 9c 39 00 00 00 00 be 07 b4 2a
       0.00016830958 0.00029845102 0.0 3.1979795e-13
000230 12 a5 6b 36 00 00 00 00 20 7d 5c 37 19 cf dc 39
       3.5113812e-06 0.0 1.3142155e-05 0.0004211597
000240 00 00 00 00 aa 73 1b 38 b0 74 32 38 33 af 1a 39
       0.0 3.70626e-05 4.254718e-05 0.00014751851
000250 a5 38 28 38 04 c1 95 39 00 00 00 00 45 75 4d 2b
       4.0107076e-05 0.00028563302 0.0 7.2993375e-13
000260 de f8 2b 36 00 00 00 00 33 a9 ed 35 54 80 1a 38
       2.5625845e-06 0.0 1.770712e-06 3.6835976e-05
000270 00 00 00 00 b1 12 e4 39 ac 3a e4 39 da 51 0d 39
       0.0 0.00043501475 0.00043531263 0.000134773
000280 d3 62 85 38 8e 6e 8c 39 00 00 00 00 3a a9 ed 35
       6.360342e-05 0.0002678525 0.0 1.7707127e-06
000290 c0 74 6b 36 00 00 00 00 5f 74 10 22 3c 45 34 2b
       3.5085686e-06 0.0 1.9577245e-18 6.404493e-13
0002a0 00 00 00 00 f0 10 f8 39 f0 10 f8 39 2c 0d c0 3b
       0.0 0.00047314866 0.00047314866 0.005860945
0002b0 00 00 00 00 e4 f3 d8 35 7c b7 87 38 00 00 00 00
       0.0 1.6164236e-06 6.471478e-05 0.0
0002c0 ce bc d6 22 00 8f 99 35 a8 d2 27 34 24 b3 08 38
       5.820472e-18 1.1441007e-06 1.5629723e-07 3.2591764e-05
0002d0 ed 98 0a 38 00 00 00 00 ed b3 b4 27 62 4b 4a 35
       3.3044187e-05 0.0 5.015511e-15 7.536056e-07
0002e0 00 00 00 00 6a 8c c2 35 28 35 57 38 00 00 00 00
       0.0 1.4494992e-06 5.13095e-05 0.0
0002f0 79 8b 53 37 7b c1 61 37 76 f7 e8 37 bd 4e 03 37
       1.2609054e-05 1.3456093e-05 2.7771788e-05 7.826541e-06
000300 7d d4 fd 37 00 00 00 00 9c 3d 61 28 01 b8 16 35
       3.0258898e-05 0.0 1.25033684e-14 5.6147115e-07
000310 00 00 00 00 cd 6c f1 34 1e 13 e8 36 00 00 00 00
       0.0 4.496891e-07 6.9163643e-06 0.0
000320 0e 3c 75 38 6d c3 75 38 b9 f4 ca 37 bb 9a 77 37
       5.8468482e-05 5.8594556e-05 2.4194234e-05 1.4758373e-05
000330 23 74 da 37 00 00 00 00 cd 6c f1 34 ae f8 55 35
       2.6041705e-05 0.0 4.496891e-07 7.971056e-07
000340 00 00 00 00 84 4d 2d 23 94 a8 b0 28 00 00 00 00
       0.0 9.394763e-18 1.9613034e-14 0.0
000350 80 23 8b 38 80 23 8b 38 ea 70 57 3a 00 00 00 00
       6.634649e-05 6.634649e-05 0.00082184246 0.0
000360 6d 70 94 36 dd 8e b4 38 00 00 00 00 27 e2 3d 21
       4.423832e-06 8.609679e-05 0.0 6.4335e-19
000370 3d 6a 66 35 c2 b6 a7 35 e1 df e0 37 61 77 80 38
       8.5836274e-07 1.2495659e-06 2.6807133e-05 6.125752e-05
000380 00 00 00 00 38 3f 85 28 c6 c3 09 35 00 00 00 00
       0.0 1.4793383e-14 5.1321365e-07 0.0
000390 c3 be 51 36 c4 ea b1 38 00 00 00 00 33 ac 11 36
       3.1254465e-06 8.483746e-05 0.0 2.1706917e-06
0003a0 5a 69 54 36 36 76 b0 37 08 81 44 37 45 a4 6f 38
       3.1651784e-06 2.1035881e-05 1.1712553e-05 5.713503e-05
0003b0 00 00 00 00 7b 53 9b 28 41 0e bc 34 00 00 00 00
       0.0 1.724466e-14 3.50281e-07 0.0
0003c0 01 c5 89 34 14 4c 3b 37 00 00 00 00 e5 74 a4 38
       2.5661578e-07 1.1163782e-05 0.0 7.841903e-05
0003d0 52 ba a4 38 17 0e 92 37 91 ec a6 37 f7 f8 57 38
       7.854834e-05 1.7411117e-05 1.9898902e-05 5.149186e-05
0003e0 00 00 00 00 fe c4 89 34 49 d8 09 35 00 00 00 00
       0.0 2.566157e-07 5.1351213e-07 0.0
0003f0 92 db 3c 23 1b 9a 81 27 00 00 00 00 52 db bc 38
       1.0237996e-17 3.5971774e-15 0.0 9.00539e-05

exp_avg f4 [128]
000000 09 3a a7 37 e4 84 e5 39 f6 fb 09 39 22 0c 8d 3a
       1.9934976e-05 0.00043777295 0.00013159201 0.0010761062
000010 df 91 fa b9 da 27 1f 3a bb b0 b9 b9 a9 34 98 b7
       -0.00047792398 0.0006071307 -0.00035417624 -1.8144334e-05
000020 57 1e 12 b9 49 5c 1d 3a c1 29 8a b9 db 6f 0c 39
       -0.00013934947 0.0006002826 -0.0002635252 0.0001339311
000030 ca 90 80 38 83 62 17 3a 65 56 00 b9 23 62 21 b9
       6.130485e-05 0.0005774872 -0.00012239216 -0.00015390715
000040 26 13 a9 38 ca c1 77 39 fd 34 3e b8 2b 03 70 b8
       8.062115e-05 0.00023627948 -4.534888e-05 -5.722341e-05
000050 27 24 4e ba 7d c9 c7 b9 f6 f5 f8 b8 db fc 85 b9
       -0.00078636635 -0.00038106358 -0.00011871375 -0.0002555613
000060 7f 3a 77 b8 3e 31 40 ba 1d f3 e1 b9 b6 cd a7 b7
       -5.8943868e-05 -0.00073315564 -0.00043096478 -2.0003743e-05
000070 0f f6 51 39 bf 23 80 3a 0c 43 89 3a bb ae 38 39
       0.00020023457 0.0009776278 0.0010472252 0.000176127
000080 6e 30 3d 39 ff 26 f8 b8 79 d6 a7 37 73 3b a2 38
       0.00018042486 -0.00011832825 2.0007823e-05 7.735835e-05
000090 77 9e d9 ba 0f 8c 38 ba b6 78 5f b9 89 35 81 37
       -0.0016603012 -0.00070399133 -0.00021311906 1.5402928e-05
0000a0 37 0f d0 37 71 57 a2 b8 b2 2f a4 39 11 b0 27 b8
       2.4802617e-05 -7.741049e-05 0.00031316053 -3.9979877e-05
0000b0 da 3d 78 b7 23 4b a9 3a 8c cf ad ba 05 ff 81 3a
       -1.4796353e-05 0.0012916069 -0.0013260706 0.0009917921
0000c0 47 f0 07 b7 05 29 6d 3a fd a8 41 39 7c 01 05 39
       -8.102571e-06 0.0009046945 0.00018468867 0.00012684421
0000d0 5a 94 c0 3a 8d a0 80 38 6e a2 35 37 b2 d9 e2 38
       0.001469265 6.1334205e-05 1.0826259e-05 0.00010817069
0000e0 47 09 53 38 92 b7 2e 39 15 65 c6 ba 41 4a d5 39
       5.031496e-05 0.00016662318 -0.0015136326 0.0004068185
0000f0 1c b5 14 b8 a3 f6 17 38 40 18 bd b9 70 71 b6 b8
       -3.545462e-05 3.6230904e-05 -0.00036066957 -8.699566e-05
000100 d0 5b d1 3a 86 b0 82 ba 9d 47 14 3a 0c 2d 97 b9
       0.0015972797 -0.0009970821 0.0005656423 -0.00028834527
000110 66 e6 29 b8 78 63 22 b9 0b 6f 00 b9 76 76 46 ba
       -4.0507315e-05 -0.00015486579 -0.00012248398 -0.00075707526
000120 26 5e 69 ba 7f d1 26 bb 75 90 2a b9 8b 02 0c ba
       -0.0008902274 -0.002545446 -0.00016266278 -0.0005340955
000130 d4 04 a7 39 e1 9d d4 b7 6e 04 75 ba a7 1d 20 ba
       0.0003185632 -2.5345887e-05 -0.00093466684 -0.0006107934
000140 49 60 bd b9 7d 73 1f 39 5d 97 de 39 e4 c2 98 b9
       -0.00036120627 0.00015206444 0.00042455914 -0.00029136904
000150 bf 96 c8 38 db ef a2 39 f8 0f 68 ba 94 ae 97 ba
       9.564822e-05 0.00031077754 -0.0008852477 -0.0011572414
000160 78 37 7a 39 c2 4e f5 38 d2 c2 10 38 d2 bf 49 36
       0.00023862522 0.0001169718 3.4513716e-05 3.0062988e-06
000170 05 0a 99 ba 2b 36 32 b8 9a 9b 21 3b 32 57 fe 36
       -0.001167596 -4.2488955e-05 0.0024659396 7.5799408e-06
000180 93 10 2b bb 46 cb 19 39 ff 24 89 ba bd a1 93 ba
       -0.0026102408 0.00014666942 -0.0010463296 -0.0011263412
000190 8e 9c fe b8 ed 9b ff 3a 9a 3f 00 ba 02 c4 31 b9
       -0.000121408244 0.0019501426 -0.000489229 -0.00016953054
0001a0 14 27 38 39 06 3f 41 39 30 e4 b9 b9 e4 49 18 ba
       0.00017562165 0.00018429392 -0.00035455963 -0.00058093504
0001b0 12 67 8a 3a d1 17 45 ba 83 a3 6c ba 7b 82 2c 38
       0.0010559282 -0.00075185025 -0.00090270507 4.1129515e-05
0001c0 a8 98 08 ba b6 a7 97 b8 23 70 2c 3b fc 89 98 ba
       -0.0005210736 -7.23148e-05 0.0026311956 -0.0011637802
0001d0 e3 f3 a7 b9 75 52 d9 38 10 d1 84 ba 00 13 ea ba
       -0.00032034432 0.00010362725 -0.0010133106 -0.0017858446
0001e0 f1 b7 45 39 41 bd c2 38 1d 15 ae 3a 3c 6c bf 39
       0.00018855908 9.285892e-05 0.0013281439 0.00036511
0001f0 2d ff ab 39 ea 64 a1 ba 05 ae 9a ba 36 8a 68 b7
       0.00032805782 -0.00123134 -0.001180113 -1.3860457e-05

exp_avg_sq f4 [128]
000000 58 88 88 38 2c 3e 2c 38 34 6c 23 37 c0 0f f8 39
       6.510381e-05 4.1065898e-05 9.74075e-06 0.0004731398
000010 21 23 8b 38 8b db bc 38 57 a4 fb 37 e8 58 a4 38
       6.63458e-05 9.005432e-05 2.9998058e-05 7.8366895e-05
000020 44 db 3a 36 d6 4d 06 39 d3 dd 57 36 cc 1c c4 35
       2.784379e-06 0.00012808232 3.2166615e-06 1.4611519e-06
000030 74 03 46 35 3d ec 8b 39 7b dc ab 37 21 a0 9b 37
       7.3765773e-07 0.00026688157 2.0487458e-05 1.8552006e-05
000040 6f c0 42 35 da c4 69 37 fb 79 c4 34 93 60 55 37
       7.255066e-07 1.3933715e-05 3.6596597e-07 1.2718275e-05
000050 3a 3e ed 38 88 5f 0b 3a cd 78 74 36 d9 47 c3 36
       0.00011312631 0.00053166645 3.6429149e-06 5.819817e-06
000060 1e ba 23 36 20 be 1a 38 89 09 9b 38 cf d8 b3 33
       2.4397227e-06 3.689353e-05 7.392752e-05 8.374774e-08
000070 e0 8d 95 39 92 33 f7 39 29 38 54 39 51 4b 03 38
       0.000285252 0.00047149934 0.00020238817 3.1302978e-05
000080 b1 d9 9f 36 a5 47 ae 38 14 f9 d6 35 85 55 d6 35
       4.763912e-06 8.3103114e-05 1.6016734e-06 1.5969132e-06
000090 72 31 80 39 c2 99 34 39 c6 03 50 38 e5 2f 2f 36
       0.00024450902 0.00017223417 4.959458e-05 2.610491e-06
0000a0 62 df 88 32 f2 ed 6d 37 3d 32 d7 37 78 76 ed 34
       1.5934067e-08 1.4181702e-05 2.5653391e-05 4.4230887e-07
0000b0 5c fa c4 37 d2 4e af 39 1c c6 f2 38 38 02 41 39
       2.3481603e-05 0.00033437327 0.0001157636 0.00018406741
0000c0 42 0c 7b 38 0e 6e c9 38 c4 b9 d6 38 9d e0 1f 37
       5.985448e-05 9.604926e-05 0.00010238917 9.529435e-06
0000d0 d9 e5 c6 39 51 0e 99 36 d7 35 b7 36 3a 20 97 39
       0.00037936753 4.561422e-06 5.460093e-06 0.00028824975
0000e0 4f 71 87 36 6a ee 25 37 9d 9d ee 39 0f e9 c3 37
       4.0365044e-06 9.8902765e-06 0.00045512329 2.3354338e-05
0000f0 28 f5 36 38 50 f5 a5 37 5b 47 fa 37 ed b1 08 39
       4.36205e-05 1.9783765e-05 2.983555e-05 0.00013036253
000100 b8 2a 40 39 59 ac c7 39 8a f0 86 39 ce 85 be 38
       0.00018326461 0.00038084647 0.00025737687 9.084829e-05
000110 57 a1 22 34 23 06 fc 35 30 0b 9d 36 c6 c2 1a 38
       1.5146121e-07 1.8777249e-06 4.680267e-06 3.6897858e-05
000120 2c 61 b4 39 10 62 75 3a 99 b8 eb 36 2a e0 5e 38
       0.00034404674 0.0009360621 7.0250358e-06 5.3137694e-05
000130 b9 4c 25 37 68 74 6c 33 5d 45 9b 38 ed 8b 70 39
       9.85263e-06 5.5053903e-08 7.403896e-05 0.0002294031
000140 15 fa 82 38 ce 46 30 39 4c 5d 19 38 45 08 86 37
       6.2454645e-05 0.00016811045 3.6564932e-05 1.5977896e-05
000150 90 d0 73 38 12 77 37 39 a8 55 72 39 03 b1 6f 39
       5.8129954e-05 0.00017496597 0.00023110828 0.00022858758
000160 43 16 27 38 3a 45 50 36 50 f1 bb 38 bb 7f 1e 38
       3.9836636e-05 3.103471e-06 8.961803e-05 3.7789094e-05
000170 d2 f3 1e 39 95 d5 8d 35 ab a8 df 3a 49 54 7c 31
       0.00015158884 1.0567479e-06 0.0017063817 3.6718737e-09
000180 61 51 19 3a 40 b7 a0 36 88 4f 3c 3a 73 79 ec 38
       0.0005848613 4.7897047e-06 0.0007183482 0.000112759786
000190 34 89 c5 37 e0 a8 26 3a 05 c3 1a 38 3d 81 ac 38
       2.354812e-05 0.0006357562 3.6898087e-05 8.2256716e-05
0001a0 4c a0 dc 36 81 f9 00 38 7f 75 2b 38 c2 ec a4 39
       6.575172e-06 3.0749947e-05 4.0879004e-05 0.00031456916
0001b0 00 b7 fe 39 1c 72 85 39 22 27 70 39 d1 06 34 33
       0.00048583 0.00025452755 0.00022902762 4.1915715e-08
0001c0 7e 74 ba 38 43 36 e9 37 5e 9c 5b 3a 85 7e 75 39
       8.8908695e-05 2.7801032e-05 0.00083774875 0.00023412153
0001d0 00 ed 30 37 7b 08 4a 37 30 05 19 39 69 24 0f 39
       1.0545598e-05 1.2042113e-05 0.0001459315 0.00013651107
0001e0 b7 8c 8a 36 ea 56 37 35 65 bc 94 39 c4 20 8d 38
       4.129102e-06 6.829929e-07 0.00028369125 6.729507e-05
0001f0 48 0c a7 39 c7 5b ce 39 90 6c 84 39 4f 76 d3 33
       0.00031861872 0.0003935976 0.00025257887 9.8469734e-08
