Assets/results/ppo/JumperAgent/checkpoint.pt (torch, 185260 bytes, 11 tensors)

network_body._body_endoder.seq_layers.0.weight f4 [128, 42]
0.03098104 0.3770333 -0.24159454 0.29655552 -0.22849424 0.13036647 0.046361677 -0.17548305
0.19351885 -0.0821558 -0.054397404 0.07594323 0.06037919 -0.035012525 0.17094377 -0.033159215
-0.22960967 -0.20168136 0.021891205 0.051848672 0.07343114 0.19306125 -0.16344549 -0.02839503
0.013823375 -0.063889764 0.12382735 -0.46973366 -0.23344472 0.13098821 0.07458046 -0.09424798
0.036680587 -0.22907211 -0.107128985 0.0009048459 -0.089388475 0.13477424 0.20659381 0.032539483
-0.111885354 -0.006376662 -0.06033409 -0.23645908 0.15315357 0.21307306 -0.10852834 -0.050325934
0.029523326 0.11690453 -0.1711134 -0.070888266 -0.12388681 0.12965235 0.14909951 0.21849157
-0.20150208 0.24321212 0.07236223 -0.1249921 -0.031068077 0.2627377 0.2742319 0.12998143
0.0073096924 -0.11946925 0.0459162 -0.041629713 -0.12969005 -0.3085402 -0.015211953 0.14933294
-0.43835914 -0.12975192 -0.05109408 -0.30453092 0.13126007 0.033445716 -0.1253461 -0.04335711
-0.15701967 0.05396178 0.23887293 0.16664618 0.12419889 -0.13760665 -0.22043492 -0.116285495
-0.19450377 -0.04087754 0.098804936 0.09635528 0.16922404 0.049334824 0.07393886 -0.21921736
0.08917104 -0.19984427 0.017546793 0.0111493515 0.11887214 0.1671895 0.16202424 0.02920294
-0.057013396 -0.15977532 -0.033534385 0.21978807 0.09806136 -0.14066215 0.08901753 -0.25007534
0.1847189 0.17422265 -0.06989263 -0.0776455 0.20682259 -0.19603437 -0.010345132 0.0021021485
-0.06909914 -0.057798892 -0.29447994 0.16577218 -0.08826203 0.12216834 -0.014272694 0.08834795
-0.02287644 -0.11454578 -0.12780687 0.033484664 0.047753956 0.054855835 0.14165413 0.10489593
0.009766956 0.028814431 0.20400299 0.224657 -0.12139434 0.11144317 -0.055813264 0.017853506
0.33811885 -0.055058848 -0.044887718 -0.23492314 0.3810088 0.11505595 -0.005096676 -0.174487
-0.114081055 0.3583717 -0.03545017 -0.07139357 0.1945116 0.12645215 0.30063578 0.065946944
0.036935892 0.08876671 0.19200188 -0.07556351 0.034253273 0.001440275 0.073671974 -0.10544721
-0.008504173 0.0009537003 0.10565683 -0.156567 -0.118372895 -0.04869763 0.037142232 -0.19674633
-0.047093555 0.110823385 0.007916585 0.24172962 -0.05435557 0.07133193 -0.071949966 0.17590192
-0.11223383 -0.07192567 -0.006379704 0.23698281 -0.19767496 -0.33367032 0.1058746 -0.05587655
-0.013829712 -0.072279304 -0.10160911 0.09130974 -0.1751956 0.007211271 0.029780095 0.049591582
-0.042499736 0.01833822 -0.32419306 0.065888464 0.068538845 -0.028693411 0.16922663 0.026014404
0.035849974 -0.4087649 0.2901625 0.10235421 0.21731621 -0.1777819 -0.05292069 -0.07822653
0.14877929 -0.34685603 0.13847668 -0.3532495 0.30164978 0.17779356 0.063229345 -0.0012307349
-0.27197844 -0.19190799 0.07517886 0.13464102 0.17552808 0.1044428 -0.056124963 0.14631532
-0.074991845 -0.13625394 -0.07635853 -0.225113 0.31910133 0.12811951 -0.37809938 0.053046912
-0.022390937 0.16237159 0.24119836 -0.08496331 0.13582632 -0.034074437 -0.12433281 0.13393
-0.20884757 0.38227305 -0.25447464 0.09463891 -0.04011845 0.084168375 0.022825584 -0.0422925
00000000: f3cb fd3c 820a c13e 8f64 77be 20d6 973e
00000010: 65fa 69be ca7e 053e bee5 3d3d d4b1 33be
00000020: ce29 463e 4d41 a8bd d0cf 5ebd 2088 9b3d
00000030: 2b50 773d 4b69 0fbd e20b 2f3e f5d1 07bd
00000040: cc1e 6bbe 8f85 4ebe 2f55 b33c 465f 543d
00000050: 1163 963d d9b1 453e 415e 27be b29c e8bc
00000060: 707b 623c a3d8 82bd 3299 fd3d ee80 f0be
00000070: 220c 6fbe c621 063e a4bd 983d 1605 c1bd
00000080: 623e 163d e191 6abe 7166 dbbd 2e33 6d3a
00000090: 4e11 b7bd 4202 0a3e 548d 533e 1f48 053d
000000a0: 2624 e5bd 51f3 d0bb e120 77bd 5422 72be
000000b0: 4ad4 1c3e d32f 5a3e 1b44 debd 9122 4ebd
000000c0: e7da f13c a46b ef3d 5a38 2fbe de2d 91bd
000000d0: 5eb8 fdbd 96c3 043e 8bad 183e 41bc 5f3e
000000e0: 9056 4ebe 990c 793e a632 943d dcfb ffbd
000000f0: 7b82 febc 8e85 863e 2068 8c3e da19 053e
00000100: 2586 ef3b 4bac f4bd a012 3c3d eb83 2abd
00000110: 78cd 04be fbf8 9dbe 8e3b 79bc bcea 183e
00000120: 9c70 e0be b0dd 04be 0748 51bd 7aeb 9bbe
00000130: 0a69 063e 60fe 083d ba5a 00be 3a97 31bd
00000140: c4c9 20be 0707 5d3d 1b9b 743e 4ca5 2a3e
00000150: fd5b fe3d c2e8 0cbe b1b9 61be 1727 eebd
00000160: ff2b 47be 356f 27bd 3e5a ca3d eb55 c53d
00000170: 1149 2d3e 5013 4a3d 426d 973d 847a 60be
00000180: 4e9f b63d faa3 4cbe 4bbe 8f3c c5ab 363c
00000190: 3d73 f33d b933 2b3e afe9 253e 013b ef3c
000001a0: e186 69bd 249c 23be 5a5b 09bd 2010 613e
000001b0: 65d4 c83d bd09 10be d34e b63d e009 80be
000001c0: f426 3d3e 6c67 323e de23 8fbd 9b04 9fbd
000001d0: 4dc9 533e 3cbd 48be a17e 29bc 33c4 093b
000001e0: da83 8dbd 88be 6cbd 13c6 96be 2fc0 293e
000001f0: b9c2 b4bd 6533 fa3d 04d8 69bc c5ef b43d
00000200: 5f67 bbbc fa96 eabd cedf 02be 3727 093d
00000210: a799 433d 83b0 603d c80d 113e add3 d63d
00000220: 9505 203c 3e0c ec3c 29e6 503e 7c0c 663e
00000230: 999d f8bd 513c e43d 739c 64bd 8441 923c
00000240: ea1d ad3e 6385 61bd 2fdc 37bd b18f 70be
00000250: 9613 c33e 74a2 eb3d 0402 a7bb b8ac 32be
00000260: 54a3 e9bd 7f7c b73e 3334 11bd cb36 92bd
00000270: 0d2e 473e ac7c 013e efec 993e 310f 873d
00000280: 174a 173d 52cb b53d 249c 443e 0bc1 9abd
00000290: 294d 0c3d 9cc7 bc3a 55e1 963d b5f4 d7bd
000002a0: 1655 0bbc be01 7a3a 9c62 d83d 1a53 20be
000002b0: 7d6d f2bd 2b77 47bd 7422 183d df77 49be
000002c0: 2ce5 40bd 5ff7 e23d 90b4 013c f887 773e
000002d0: f2a3 5ebd 7a16 923d 815a 93bd a21f 343e
000002e0: dada e5bd c44d 93bd d60c d1bb 9fab 723e
000002f0: 4e6b 4abe d6d6 aabe c8d4 d83d cfde 64bd
00000300: 0496 62bc 2c07 94bd 7018 d0bd 9a00 bb3d
00000310: 7a66 33be 874c ec3b 63f5 f33c 8b20 4b3d
00000320: 3414 2ebd 093a 963c a2fc a5be 88f0 863d
00000330: 185e 8c3d 720e ebbc bf49 2d3e 291c d53c
00000340: 6cd7 123d a249 d1be 2e90 943e 169f d13d
00000350: 2488 5e3e 750c 36be 5ec3 58bd 3b35 a0bd
00000360: 9959 183e 1d97 b1be d5cc 0d3e 1edd b4be
00000370: d771 9a3e 840f 363e 637e 813d 9c50 a1ba
00000380: c240 8bbe 8783 44be 60f7 993d 56df 093e
00000390: a2bd 333e 1be6 d53d 4ae3 65bd afd3 153e
000003a0: 5395 99bd 2786 0bbe dc61 9cbd 0684 66be
000003b0: 4061 a33e c331 033e 3e96 c1be b847 593d
000003c0: 336d b7bc bd44 263e b4fc 763e 3e01 aebd
000003d0: 0e16 0b3e a391 0bbd 33a2 febd f224 093e
000003e0: 23dc 55be 4bb9 c33e 804a 82be 0bd2 c13d
000003f0: 3e53 24bd 7860 ac3d b8fc ba3c e73a 2dbd

network_body._body_endoder.seq_layers.0.bias f4 [128]
0.0 0.0 0.0 0.0 0.0 0.0 0.0 0.0
0.0 0.0 0.0 0.0 0.0 0.0 0.0 0.0
0.0 0.0 0.0 0.0 0.0 0.0 0.0 0.0
0.0 0.0 0.0 0.0 0.0 0.0 0.0 0.0
0.0 0.0 0.0 0.0 0.0 0.0 0.0 0.0
0.0 0.0 0.0 0.0 0.0 0.0 0.0 0.0
0.0 0.0 0.0 0.0 0.0 0.0 0.0 0.0
0.0 0.0 0.0 0.0 0.0 0.0 0.0 0.0
0.0 0.0 0.0 0.0 0.0 0.0 0.0 0.0
0.0 0.0 0.0 0.0 0.0 0.0 0.0 0.0
0.0 0.0 0.0 0.0 0.0 0.0 0.0 0.0
0.0 0.0 0.0 0.0 0.0 0.0 0.0 0.0
0.0 0.0 0.0 0.0 0.0 0.0 0.0 0.0
0.0 0.0 0.0 0.0 0.0 0.0 0.0 0.0
0.0 0.0 0.0 0.0 0.0 0.0 0.0 0.0
0.0 0.0 0.0 0.0 0.0 0.0 0.0 0.0
00000000: 0000 0000 0000 0000 0000 0000 0000 0000
00000010: 0000 0000 0000 0000 0000 0000 0000 0000
00000020: 0000 0000 0000 0000 0000 0000 0000 0000
00000030: 0000 0000 0000 0000 0000 0000 0000 0000
00000040: 0000 0000 0000 0000 0000 0000 0000 0000
00000050: 0000 0000 0000 0000 0000 0000 0000 0000
00000060: 0000 0000 0000 0000 0000 0000 0000 0000
00000070: 0000 0000 0000 0000 0000 0000 0000 0000
00000080: 0000 0000 0000 0000 0000 0000 0000 0000
00000090: 0000 0000 0000 0000 0000 0000 0000 0000
000000a0: 0000 0000 0000 0000 0000 0000 0000 0000
000000b0: 0000 0000 0000 0000 0000 0000 0000 0000
000000c0: 0000 0000 0000 0000 0000 0000 0000 0000
000000d0: 0000 0000 0000 0000 0000 0000 0000 0000
000000e0: 0000 0000 0000 0000 0000 0000 0000 0000
000000f0: 0000 0000 0000 0000 0000 0000 0000 0000
00000100: 0000 0000 0000 0000 0000 0000 0000 0000
00000110: 0000 0000 0000 0000 0000 0000 0000 0000
00000120: 0000 0000 0000 0000 0000 0000 0000 0000
00000130: 0000 0000 0000 0000 0000 0000 0000 0000
00000140: 0000 0000 0000 0000 0000 0000 0000 0000
00000150: 0000 0000 0000 0000 0000 0000 0000 0000
00000160: 0000 0000 0000 0000 0000 0000 0000 0000
00000170: 0000 0000 0000 0000 0000 0000 0000 0000
00000180: 0000 0000 0000 0000 0000 0000 0000 0000
00000190: 0000 0000 0000 0000 0000 0000 0000 0000
000001a0: 0000 0000 0000 0000 0000 0000 0000 0000
000001b0: 0000 0000 0000 0000 0000 0000 0000 0000
000001c0: 0000 0000 0000 0000 0000 0000 0000 0000
000001d0: 0000 0000 0000 0000 0000 0000 0000 0000
000001e0: 0000 0000 0000 0000 0000 0000 0000 0000
000001f0: 0000 0000 0000 0000 0000 0000 0000 0000

network_body._body_endoder.seq_layers.2.weight f4 [128, 128]
-0.0543071 0.098024115 -0.051867217 0.14703819 -0.07033668 -0.14625032 -0.053787656 -0.028748713
-0.08962989 0.030955316 -0.1479735 -0.06383757 -0.0818804 -0.12881966 0.106724426 -0.039397832
-0.0063781873 -0.08453695 0.09711684 -0.15053451 -0.090400055 0.024989646 0.033868253 0.11143651
-0.003258834 -0.058277175 -0.08475287 -0.02845253 -0.0457896 -0.08911202 0.20853892 -0.065933004
0.0517654 0.08773292 0.055832352 -0.004828062 0.0003100975 -0.15251938 0.08483304 -0.06525351
0.22604589 0.18533348 -0.07494765 0.030376071 -0.0143286465 -0.050796837 -0.027811449 0.016425772
-0.07097772 -0.10600848 0.17034774 0.14885725 0.056663744 0.042801816 0.062224437 0.08324401
-0.06627356 0.062043805 -0.030435773 0.004305287 -0.034182414 -0.0019638236 -0.15370746 -0.023345737
-0.0039139884 0.098062955 -0.039983325 -0.05392067 0.073761865 0.03796569 0.007919603 0.005606376
-0.061761763 -0.046753503 -0.041556712 0.05527742 -0.05307082 0.07741726 0.13860661 0.1615917
-0.13868743 -0.15285839 -0.020427478 0.008967314 -0.105720565 -0.08564534 -0.03686 0.034888417
-0.028543094 0.1598537 0.064999074 -0.117442325 -0.030627837 -0.13400546 -0.10329186 -0.053741112
0.10803391 0.14899977 0.14889978 -0.16217819 -0.07694172 0.101432964 0.13354401 -0.100768484
0.027375918 -0.071083486 -0.026611907 0.11175835 0.049423207 -0.0910824 0.015531893 -0.020542081
-0.07878239 -0.046359077 0.014077918 -0.038996685 -0.06898316 -0.15379488 0.026938086 0.09772504
-0.0018927017 -0.036021408 0.0742857 0.070766054 -0.06983421 0.12630285 0.02100815 0.08075252
-0.057737146 0.088659234 -0.108247876 0.06585775 -0.11344318 0.11233529 -0.092525825 -0.0795766
-0.12680237 -0.0695168 -0.04188827 0.10318968 0.10766392 -0.11114011 0.09255645 -0.056524623
-0.15084808 -0.10234712 0.15680955 -0.03786274 0.025369871 0.07073548 -0.052913923 0.112542555
0.068531476 -0.11019637 0.017198749 0.15503183 -0.03137838 0.09446718 0.09948422 -0.14714466
0.10138678 0.12007056 0.011670176 0.011257198 -0.12591296 0.022091413 -0.14878702 0.07478353
0.003197645 -0.06096778 0.033979278 -0.103472464 -0.040777657 -0.09634101 -0.018499011 -0.025051475
0.0049806843 -0.09149357 -0.09024126 -0.020025814 -0.12697545 -0.037242915 -0.01718051 -0.06456465
0.06206939 0.04405787 -0.0047304896 0.028330136 -0.0116998935 0.06324368 0.040226202 0.098176986
-0.043245304 -0.15893741 0.09546232 -0.17783938 -0.034534756 -0.08435314 -0.13387312 -0.011115368
0.024831174 0.03621866 0.014795201 0.09165304 -0.049930744 -0.09175236 0.0477685 -0.0564788
-0.0061143497 0.1254549 -0.063502744 0.043822348 -0.03986308 0.13865666 -0.08454638 0.10844749
0.003596906 0.05520461 0.04770329 -0.175679 0.02389981 -0.14488378 -0.014215949 -0.006940365
0.13854808 0.07944306 0.07596698 0.1758545 -0.1727645 -0.0061729727 0.15829721 0.079027675
0.017762305 -0.058067173 -0.015205985 -0.14304921 -0.07064372 0.041361816 0.006680936 0.017380113
-0.043680564 -0.02618307 -0.0027868866 0.0016893983 0.077245824 -0.05127724 0.122808695 -0.04997253
-0.12998258 -0.058982443 0.012129738 0.047117528 -0.017332703 -0.073853165 -0.005755809 0.15028913
00000000: 1f71 5ebd dec0 c83d b872 54bd 2e91 163e
00000010: ad0c 90bd a5c2 15be 7250 5cbd 6c82 ebbc
00000020: e08f b7bd 0196 fd3c 5d86 17be 46bd 82bd
00000030: e9b0 a7bd 4de9 03be 5692 da3d 9f5f 21bd
00000040: 1d00 d1bb b521 adbd 32e5 c63d b825 1abe
00000050: aa23 b9bd 16b7 cc3c 70b9 0a3d d338 e43d
00000060: 2992 55bb 0cb4 6ebd ea92 adbd 4815 e9bc
00000070: e08d 3bbd 5d80 b6bd 3a8b 553e e207 87bd
00000080: f507 543d 51ad b33d 77b0 643d b834 9ebb
00000090: 9594 a239 0a2e 1cbe f2bc ad3d a2a3 85bd
000000a0: 9378 673e 0fc8 3d3e 277e 99bd 3dd7 f83c
000000b0: b3c2 6abc 5810 50bd d6d4 e3bc 578f 863c
000000c0: c45c 91bd f91a d9bd a36f 2e3e 096e 183e
000000d0: 3e18 683d f550 2f3d 0ddf 7e3d d67b aa3d
000000e0: 6fba 87bd a521 7e3d 7154 f9bc 5d13 8d3b
000000f0: dc02 0cbd 7eb3 00bb 7d65 1dbe 8f3f bfbc
00000100: ea40 80bb 3bd5 c83d 8ec5 23bd ecdb 5cbd
00000110: 7610 973d e981 1b3d 39c1 013c b1b5 b73b
00000120: e7f9 7cbd 9a80 3fbd 5f37 2abd 936a 623d
00000130: ca60 59bd f18c 9e3d e4ee 0d3e 4b78 253e
00000140: 1404 0ebe e986 1cbe 8757 a7bc a4eb 123c
00000150: 0684 d8bd d366 afbd 83fa 16bd 28e7 0e3d
00000160: 35d3 e9bc b0b0 233e 3c1e 853d 9a85 f0bd
00000170: 3be7 fabc ba38 09be af8a d3bd a41f 5cbd
00000180: e240 dd3d 6593 183e 2f79 183e 0a12 26be
00000190: 9f93 9dbd 16bc cf3d c3bf 083e b55f cebd
000001a0: 7643 e03c 3894 91bd 3701 dabc 90e1 e43d
000001b0: fd6f 4a3d 6989 babd 7b79 7e3c de47 a8bc
000001c0: a958 a1bd 04e3 3dbd 11a7 663c fdba 1fbd
000001d0: 0b47 8dbd 687c 1dbe 43ad dc3c 1124 c83d
000001e0: 8814 f8ba 2f8b 13bd 1a23 983d cbed 903d
000001f0: 3d05 8fbd 8955 013e 4919 ac3c 9461 a53d
00000200: c97d 6cbd f992 b53d 10b1 ddbd 6ee0 863d
00000210: e654 e8bd 0b10 e63d 2e7e bdbd 0ef9 a2bd
00000220: 7bd8 01be d35e 8ebd 0993 2bbd 1c55 d33d
00000230: e77e dc3d 6d9d e3bd 3c8e bd3d 5d86 67bd
00000240: eb77 1abe 5e9b d1bd af92 203e f615 1bbd
00000250: 7ad4 cf3c c3dd 903d 45bc 58bd b67c e63d
00000260: 3b5a 8c3d a2ae e1bd 64e4 8c3c aac0 1e3e
00000270: 9e86 00bd 0278 c13d 62be cb3d 17ad 16be
00000280: dfa3 cf3d 8ee7 f53d 4434 3f3c 1c70 383c
00000290: 54ef 00be 0df9 b43c a05b 18be 1b28 993d
000002a0: 958f 513b 5ab9 79bd db2d 0b3d 5fe9 d3bd
000002b0: 7906 27bd 6f4e c5bd 3d8b 97bc c038 cdbc
000002c0: 0235 a33b fb60 bbbd 69d0 b8bd 2d0d a4bc
000002d0: da05 02be 078c 18bd 24be 8cbc 793a 84bd
000002e0: 793c 7e3d 0676 343d 3902 9bbb 9a14 e83c
000002f0: e9b0 3fbc e785 813d 3bc4 243d 0411 c93d
00000300: fd21 31bd 7dc0 22be c081 c33d 871b 36be
00000310: 5174 0dbd 57c1 acbd 0916 09be 3c1d 36bc
00000320: bf6a cb3c 055a 143d 9267 723c 97b4 bb3d
00000330: 2e84 4cbd a9e8 bbbd e7a8 433d 5056 67bd
00000340: e25a c8bb 4077 003e ba0d 82bd 107f 333d
00000350: 7847 23bd 03fc 0d3e a726 adbd b819 de3d
00000360: 12ba 6b3b 3b1e 623d 8664 433d 32e5 33be
00000370: 89c9 c33c 6a5c 14be 03ea 68bc 006c e3bb
00000380: 8cdf 0d3e 0bb3 a23d 9394 9b3d 3413 343e
00000390: 2de9 30be a646 cabb aa18 223e 43d9 a13d
000003a0: 4182 913c d8d7 6dbd 8622 79bc 7e7b 12be
000003b0: a8ad 90bd 026b 293d c1eb da3b bd60 8e3c
000003c0: 64ea 32bd e17d d6bc 33a4 36bb cd6e dd3a
000003d0: 0f33 9e3d 1508 52bd 2083 fb3d ffaf 4cbd
000003e0: 271a 05be 9397 71bd cfbb 463c 4ffe 403d
000003f0: 50fd 8dbc 5440 97bd 3a9b bcbb 65e5 193e

network_body._body_endoder.seq_layers.2.bias f4 [128]
0.0 0.0 0.0 0.0 0.0 0.0 0.0 0.0
0.0 0.0 0.0 0.0 0.0 0.0 0.0 0.0
0.0 0.0 0.0 0.0 0.0 0.0 0.0 0.0
0.0 0.0 0.0 0.0 0.0 0.0 0.0 0.0
0.0 0.0 0.0 0.0 0.0 0.0 0.0 0.0
0.0 0.0 0.0 0.0 0.0 0.0 0.0 0.0
0.0 0.0 0.0 0.0 0.0 0.0 0.0 0.0
0.0 0.0 0.0 0.0 0.0 0.0 0.0 0.0
0.0 0.0 0.0 0.0 0.0 0.0 0.0 0.0
0.0 0.0 0.0 0.0 0.0 0.0 0.0 0.0
0.0 0.0 0.0 0.0 0.0 0.0 0.0 0.0
0.0 0.0 0.0 0.0 0.0 0.0 0.0 0.0
0.0 0.0 0.0 0.0 0.0 0.0 0.0 0.0
0.0 0.0 0.0 0.0 0.0 0.0 0.0 0.0
0.0 0.0 0.0 0.0 0.0 0.0 0.0 0.0
0.0 0.0 0.0 0.0 0.0 0.0 0.0 0.0
00000000: 0000 0000 0000 0000 0000 0000 0000 0000
00000010: 0000 0000 0000 0000 0000 0000 0000 0000
00000020: 0000 0000 0000 0000 0000 0000 0000 0000
00000030: 0000 0000 0000 0000 0000 0000 0000 0000
00000040: 0000 0000 0000 0000 0000 0000 0000 0000
00000050: 0000 0000 0000 0000 0000 0000 0000 0000
00000060: 0000 0000 0000 0000 0000 0000 0000 0000
00000070: 0000 0000 0000 0000 0000 0000 0000 0000
00000080: 0000 0000 0000 0000 0000 0000 0000 0000
00000090: 0000 0000 0000 0000 0000 0000 0000 0000
000000a0: 0000 0000 0000 0000 0000 0000 0000 0000
000000b0: 0000 0000 0000 0000 0000 0000 0000 0000
000000c0: 0000 0000 0000 0000 0000 0000 0000 0000
000000d0: 0000 0000 0000 0000 0000 0000 0000 0000
000000e0: 0000 0000 0000 0000 0000 0000 0000 0000
000000f0: 0000 0000 0000 0000 0000 0000 0000 0000
00000100: 0000 0000 0000 0000 0000 0000 0000 0000
00000110: 0000 0000 0000 0000 0000 0000 0000 0000
00000120: 0000 0000 0000 0000 0000 0000 0000 0000
00000130: 0000 0000 0000 0000 0000 0000 0000 0000
00000140: 0000 0000 0000 0000 0000 0000 0000 0000
00000150: 0000 0000 0000 0000 0000 0000 0000 0000
00000160: 0000 0000 0000 0000 0000 0000 0000 0000
00000170: 0000 0000 0000 0000 0000 0000 0000 0000
00000180: 0000 0000 0000 0000 0000 0000 0000 0000
00000190: 0000 0000 0000 0000 0000 0000 0000 0000
000001a0: 0000 0000 0000 0000 0000 0000 0000 0000
000001b0: 0000 0000 0000 0000 0000 0000 0000 0000
000001c0: 0000 0000 0000 0000 0000 0000 0000 0000
000001d0: 0000 0000 0000 0000 0000 0000 0000 0000
000001e0: 0000 0000 0000 0000 0000 0000 0000 0000
000001f0: 0000 0000 0000 0000 0000 0000 0000 0000

action_model._discrete_distribution.branches.0.weight f4 [2, 128]
0.025185809 -0.014090026 0.002051477 0.0047171335 0.0023244175 0.015873471 -0.0018528594 -0.0036819004
-0.00049755507 0.006365467 0.009144148 -0.009958836 0.0024309973 0.011805821 -0.0015318467 -0.0028221474
0.01409437 0.012049188 -0.009612335 -0.002696472 0.00039721373 0.0021556274 -0.0046061412 0.02308023
-0.00059751124 -0.0024902688 -0.009163366 -0.0024199993 0.0072757746 0.0027895034 0.016521273 0.00086764025
-0.0054845572 -0.014583195 0.0027210654 0.0027594485 0.0075042336 0.0055812737 0.014859243 0.0020174545
-0.0043207756 0.00897031 -0.000519536 -0.0019420086 -0.00359003 -0.0020363 -0.00048760092 0.003351068
0.0028559852 -0.002001946 0.00030745275 -0.0011186291 0.0029373362 -0.0081141265 0.0100948615 0.0065181153
-0.0043262932 -0.006452601 -0.012922267 -0.035750646 0.004459659 -0.0009451639 -0.012313836 0.012797144
0.010814779 0.011865245 -0.0045053707 0.022265418 0.006641713 -0.013538371 0.001527972 0.0056023356
0.0040396894 0.0052615064 -0.011799483 0.014372545 -0.0069005014 0.0008098103 -0.0027109785 -0.005433732
0.0023609435 0.005739278 0.015624438 -0.0055021807 0.007676461 0.0064041167 0.0046321778 -0.0048606866
0.006987748 -0.013144821 -0.008061623 -0.013575444 -0.015861606 0.0013328522 -0.012627998 0.0025218695
-0.007245445 -0.0040038335 0.0046112514 0.008026229 0.006658924 -0.0048290626 0.0012382509 0.009144436
0.02008453 0.009484358 0.014410953 0.0036240749 -0.009059757 -0.003002479 -0.010423596 -0.0023857674
-0.0075710802 -0.007532233 0.00289828 0.0020639335 0.00068175484 0.0047535845 -0.0013573571 0.015399927
0.009842138 0.011249593 -0.0015123481 -0.0045671375 -0.0049604513 0.0146961985 -0.0029317203 0.002008729
0.008977787 -0.014239067 -0.0007343787 0.011117257 0.013127576 0.018917369 0.003929851 0.0090621915
0.0039090733 -0.011776091 -0.01797179 0.0020887407 -0.008635928 0.016313143 0.011476247 -0.00029701795
0.008627449 0.013455187 -0.0011042788 -0.0032163605 -0.0102103865 0.01079997 0.007943602 0.0084687155
0.021335492 -0.0006758485 -0.011647605 -0.011467913 0.02121657 -0.0012095881 -0.01628255 -0.00679302
0.004961762 -0.0041575204 0.017739132 0.0040286086 0.005305206 -0.0030432122 -0.021777613 0.00428104
-0.0039189174 -0.005174735 -0.006785748 -0.001009796 0.0022151275 0.012184062 -0.0079939915 0.002062376
-0.0058204792 0.0013604626 0.0025487582 0.0126773985 0.0049842503 -0.0076802033 0.0013504619 0.005560849
-0.005579293 0.0074584144 0.011205819 -0.0026531697 0.016978364 -0.0042981748 0.0035742056 0.019383127
-0.0034904804 7.1208975e-05 -0.008307765 -0.0021137164 -0.006601134 -0.007999296 -0.0040978454 0.006817999
-0.004409584 0.009931955 0.029726604 0.003484125 -0.003937915 0.005151463 -0.00904898 0.0038577863
0.0071756653 -0.017244166 0.008714274 -0.00035753608 0.01172751 0.021824969 -0.013735867 0.007698261
-0.0038989831 0.016173236 0.0005978268 -0.0029031134 0.012360749 -0.0020485749 -0.0041661463 -0.0037048818
0.00943678 -0.01313383 -0.0021159058 -0.006997072 0.00050348305 -0.0060638334 -0.001060707 0.012042496
-0.0077130534 0.003117901 0.0058741914 -0.00013732206 0.004852374 -0.0055410513 0.0019972553 -0.004859067
0.005638516 -0.007909716 -0.004855171 -0.0011262888 0.013538964 0.0035798724 0.0016694115 0.0036281236
-0.0060793455 0.014818805 -0.008970051 0.005043674 0.011461674 0.0073818513 -0.0063727708 -0.012653551
00000000: 7852 ce3c dad9 66bc 1372 063b 2f92 9a3b
00000010: 4155 183b 1509 823c a5db f2ba 0a4c 71bb
00000020: 5b6e 02ba 6895 d03b 56d1 153c 632a 23bc
00000030: 5e51 1f3b 346d 413c 3fc8 c8ba c7f3 38bb
00000040: 13ec 663c f569 453c 0e7d 1dbc 4bb7 30bb
00000050: 2041 d039 6d45 0d3b 1def 96bb c012 bd3c
00000060: 4da2 1cba c733 23bb f121 16bc da98 1ebb
00000070: 9f69 ee3b 1ad0 363b 9f57 873c 5a72 633a
00000080: cdb7 b3bb 5aee 6ebc e753 323b ddd7 343b
00000090: 13e6 f53b 1ee3 b63b 2f74 733c 4537 043b
000000a0: 4b95 8dbb 35f8 123c 7931 08ba ff8a feba
000000b0: b546 6bbb 7273 05bb b0a4 ffb9 979d 5b3b
000000c0: 7b2b 3b3b 1533 03bb 9c31 a139 f79e 92ba
000000d0: 5380 403b 1df1 04bc eb64 253c ea95 d53b
000000e0: 94c3 8dbb 5770 d3bb ebb7 53bc 456f 12bd
000000f0: 5522 923b e0c4 77ba f9bf 49bc 1dab 513c
00000100: 7930 313c 7266 423c caa1 93bb f765 b63c
00000110: baa2 d93b 0bd0 5dbc 3c46 c83a cc93 b73b
00000120: 5f5f 843b b768 ac3b 9e52 41bc d37a 6b3c
00000130: 9a1d e2bb 7349 543a acaa 31bb 730d b2bb
00000140: 0fba 1a3b 8e10 bc3b a5fd 7f3c a34b b4bb
00000150: d28a fb3b a0d9 d13b 86c9 973b 6546 9fbb
00000160: 7bf9 e43b 605d 57bc e614 04bc 8a6b 5ebc
00000170: 33f0 81bc 19b3 ae3a aae5 4ebc f345 253b
00000180: 336b edbb 9732 83bb fb19 973b 7280 033c
00000190: 1a33 da3b 1d3d 9ebb ce4c a23a 8bd2 153c
000001a0: 5088 a43c 4864 1b3c eb1b 6c3c e381 6d3b
000001b0: 606f 14bc 3dc5 44bb bbc7 2abc 895a 1cbb
000001c0: d316 f8bb f3d0 f6bb 12f1 3d3b 0f43 073b
000001d0: cbb7 323a f5c3 9b3b 59e9 b1ba fa4f 7c3c
000001e0: eb40 213c 3750 383c fb39 c6ba eda7 95bb
000001f0: 488b a2bb 53c8 703c 1b22 40bb e1a4 033b
00000200: 9117 133c fa4a 69bc 5283 40ba 2825 363c
00000210: 0b15 573c 99f8 9a3c fbc5 803b 9679 143c
00000220: af17 803b 81f0 40bc 9339 93bc 41e3 083b
00000230: b57d 0dbc 24a3 853c de06 3c3c 13b9 9bb9
00000240: 255a 0d3c 2573 5c3c 73bd 90ba 93c9 52bb
00000250: 7749 27bc 5bf2 303c e225 023c 5ec0 0a3c
00000260: c5c7 ae3c 6d2b 31ba 99d5 3ebc eae3 3bbc
00000270: 5fce ad3c 0b8b 9eba fb62 85bc fb97 debb
00000280: 4796 a23b cf3b 88bb a851 913c 6b02 843b
00000290: 4bd7 ad3b a170 47bb f766 b2bc f747 8c3b
000002a0: 436a 80bb d390 a9bb fb5a debb 225b 84ba
000002b0: ac2b 113b a99f 473c 3bf9 02bc ed28 073b
000002c0: b8b9 bebb 8d51 b23a 1109 273b ddb4 4f3c
000002d0: ec52 a33b 37aa fbbb fb01 b13a c837 b63b
000002e0: 80d2 b6bb b765 f43b 9d98 373c cde0 2dbb
000002f0: 3616 8b3c b4d7 8cbb 383d 6a3b 5dc9 9e3c
00000300: 8bc0 64bb 0756 9538 4b1d 08bc 4786 0abb
00000310: 534e d8bb 7b0f 03bc 3847 86bb 8569 df3b
00000320: 467e 90bb a3b9 223c 3585 f33c eb55 643b
00000330: a009 81bb 9bcd a83b 2c42 14bc ead2 7c3b
00000340: d821 eb3b a343 8dbc 50c6 0e3c ae73 bbb9
00000350: be24 403c 47ca b23c 670c 61bc b241 fc3b
00000360: 1586 7fbb bc7d 843c 7ab7 1c3a 2942 3ebb
00000370: bd84 4a3c 6241 06bb 2b84 88bb 9acd 72bb
00000380: b99c 1a3c 472f 57bc 02ab 0abb b247 e5bb
00000390: 2dfc 033a 1fb3 c6bb 6c07 8bba e44d 453c
000003a0: c8bd fcbb b355 4c3b 4a7c c03b 1cfe 0fb9
000003b0: aa00 9f3b b591 b5bb 62e4 023b cf38 9fbb
000003c0: 4dc3 b83b c197 01bc 2018 9fbb fb9f 93ba
000003d0: 88d2 5d3c 4b9c 6a3b 28d0 da3a d0c5 6d3b
000003e0: 3f35 c7bb 93ca 723c 1ff7 12bc 6745 a53b
000003f0: bfc9 3b3c 75e3 f13b add2 d0bb d750 4fbc

action_model._discrete_distribution.branches.0.bias f4 [2]
0.0 0.0
00000000: 0000 0000 0000 0000

network_body._body_endoder.seq_layers.0.weight f4 [128, 42]
0.18216056 -0.105118886 0.031417254 -0.2686686 -0.062734984 0.05057545 0.18777825 0.22856121
0.27397358 0.28294185 0.01759762 0.06365166 0.0068247532 -0.04960376 0.13416219 0.049824044
0.05954821 -0.2635889 -0.10711413 -0.14254197 0.17239223 0.090082705 0.07071653 0.08770041
0.13615112 -0.043915056 0.11573014 0.08506471 0.054700855 0.14360215 0.22842546 0.1396757
0.03840188 0.18428665 -0.064531066 -0.09380077 -0.14020048 -0.11932342 0.033485208 -0.16027515
-0.1048842 0.34848896 -0.10275308 -0.026419591 -0.12371884 0.17391981 0.069659084 0.13749465
-0.0035295715 0.10480483 0.18677455 -0.16164406 0.17377773 -0.21119113 0.11291374 0.10964915
-0.059136298 0.070078425 -0.051838934 -0.035906117 0.09846562 -0.20690548 -0.08175375 -0.14810722
0.020521922 -0.26931107 -0.026063694 -0.0050364677 0.17311856 -0.17189296 0.07393326 0.039890252
-0.07780117 0.025626991 0.14770323 -0.038142845 0.14107339 -0.086457394 -0.10545211 -0.057650443
0.17105186 -0.30148035 0.2314318 -0.2189936 -0.09041029 -0.16957647 -0.20153973 -0.036471393
-0.034812212 0.080083035 0.020485941 -0.16926932 -0.11233237 -0.075677656 0.08694827 -0.15864429
0.029313607 0.0002784929 0.021050986 0.0005905658 -0.12255411 0.10896205 0.22189593 0.06811148
-0.06507417 0.06093784 0.06388479 0.015300482 -0.08207792 -0.15082265 0.11573139 -0.16847092
-0.038676124 0.05011715 -0.20754625 -0.05576557 -0.3366132 -0.06380909 -0.09285453 -0.22634554
-0.11377583 0.011476274 -0.11337349 -0.0369055 -0.26378873 0.104751095 -0.21385075 0.081246756
-0.1784926 0.085623845 0.11018443 0.054446124 -0.113915056 0.04092679 0.054144338 -0.08955832
0.20206346 0.12877455 0.089482866 -0.23027293 0.015757216 -0.40934932 -0.034486085 -0.20597188
0.022026388 -0.16675566 0.02737077 -0.2296251 -0.023637136 0.062520124 -0.064746276 -0.018278958
0.17558685 -0.26177374 0.07514195 0.12914068 0.06577072 0.0187727 0.045281194 0.16229863
-0.12676033 -0.11545503 -0.22277415 -0.08979293 0.004323966 0.18676038 -0.11360871 0.104309164
-0.34220862 -0.11405435 -0.10630756 0.19430657 0.071630344 -0.20055342 0.28487483 -0.10917898
0.07461741 0.035950914 0.006630307 -0.29983163 0.027109077 0.16082253 -0.2871785 -0.011068903
-0.05833945 -0.06865369 0.0551777 0.14952354 -0.09050221 0.01586603 -0.13652706 -0.05992243
-0.1434227 -0.07353582 -0.086217724 -0.12912193 -0.05596285 -0.054623112 0.13471721 0.045390557
0.1306391 -0.009143241 0.22740173 0.22304548 -0.0732082 -0.15738435 0.056490622 0.18247956
0.041764874 0.07177872 -0.2564749 0.13384186 -0.048846297 0.114545725 -0.0709371 0.25634897
-0.10189947 -0.59731233 0.24454975 -0.12317471 -0.03940724 0.09659551 -0.1266239 -0.1766962
-0.22744054 0.021949025 0.07457199 -0.21621083 0.0731338 0.0092716925 -0.34800336 0.15195991
0.07533963 -0.045107063 0.015441645 -0.06372304 0.027038487 -0.101210065 0.061721798 -0.060125705
0.019001802 0.03707541 -0.15344922 -0.080306314 -0.14524138 0.17894745 -0.2708256 -0.18055311
-0.15424673 0.40354142 0.022057492 -0.07248062 -0.3835136 -0.39448634 0.17421943 -0.2594707
00000000: 4c88 3a3e 9248 d7bd 61af 003d ee8e 89be
00000010: 337b 80bd 3428 4f3d f148 403e f30b 6a3e
00000020: 4446 8c3e c1dd 903e e228 903c cd5b 823d
00000030: 2ea2 df3b 502d 4bbd d061 093e 4c14 4c3d
00000040: d3e8 733d 20f5 86be a75e dbbd 86f6 11be
00000050: 9787 303e 487d b83d d4d3 903d 469c b33d
00000060: 336b 0b3e 46e0 33bd ec03 ed3d 6836 ae3d
00000070: 010e 603d 710c 133e 5de8 693e 2607 0f3e
00000080: 4a4b 1d3d a4b5 3c3e dd28 84bd 9e1a c0bd
00000090: b790 0fbe d65f f4bd c927 093d 2b1f 24be
000000a0: 87cd d6bd 256d b23e 3570 d2bd e66d d8bc
000000b0: 4e60 fdbd 0918 323e 6ca9 8e3d 66cb 0c3e
000000c0: 6250 67bb eaa3 d63d d441 3f3e 0586 25be
000000d0: caf2 313e 7d42 58be 523f e73d bc8f e03d
000000e0: e738 72bd 4785 8f3d 1055 54bd 4b12 13bd
000000f0: 58a8 c93d 08df 53be 836e a7bd 6ba9 17be
00000100: 971d a83c 24e3 89be 8783 d5bc f408 a5bb
00000110: fe45 313e b504 30be 526a 973d f663 233d
00000120: 3856 9fbd b2ef d13c 843f 173e ac3b 1cbd
00000130: 8b75 103e 9310 b1bd 47f7 d7bd df22 6cbd
00000140: 3828 2f3e a25b 9abe 75fc 6c3e dc3f 60be
00000150: 0829 b9bd 74a5 2dbe 6e60 4ebe 0763 15bd
00000160: 4097 0ebd 9302 a43d 22d2 a73c f054 2dbe
00000170: 830e e6bd e3fc 9abd ef11 b23d a673 22be
00000180: 1723 f03c af02 9239 1e73 ac3c 33d0 1a3a
00000190: a6fd fabd 7f27 df3d b038 633e 087e 8b3d
000001a0: 9b45 85bd f599 793d 07d6 823d dfae 7a3c
000001b0: 7818 a8bd 4171 1abe 9404 ed3d a483 2cbe
000001c0: db6a 1ebd a447 4d3d 0187 54be 706a 64bd
000001d0: 9158 acbe 57ae 82bd 842a bebd 20c7 67be
000001e0: 4d03 e9bd fb06 3c3c 5c30 e8bd 392a 17bd
000001f0: 510f 87be be87 d63d b1fb 5abe b364 a63d
00000200: c4c6 36be 8e5b af3d 60a8 e13d e602 5f3d
00000210: 4c4c e9bd daa2 273d 74c6 5d3d 5a6a b7bd
00000220: b9e9 4e3e 7add 033e cb42 b73d abcc 6bbe
00000230: 4715 813c 3c96 d1be 4841 0dbd 4bea 52be
00000240: af70 b43c ffc1 2abe aa38 e03c d822 6bbe
00000250: aba2 c1bc 8d0a 803d b299 84bd c1bd 95bc
00000260: 0acd 333e 3507 86be 06e4 993d 743d 043e
00000270: cdb2 863d 35c9 993c c678 393d 9d31 263e
00000280: 76cd 01be b073 ecbd e81e 64be 5be5 b7bd
00000290: 0eb0 8d3b 1d3e 3f3e afab e8bd 0ba0 d53d
000002a0: f835 afbe 5495 e9bd c7b7 d9bd 4df8 463e
000002b0: eeb2 923d e05d 4dbe 1ddb 913e 3b99 dfbd
000002c0: 03d1 983d 4441 133d 0c43 d93b 8883 99be
000002d0: db13 de3c a9ae 243e 0f09 93be 585a 35bc
000002e0: 59f5 6ebd 4e9a 8cbd 0302 623d b31c 193e
000002f0: 3959 b9bd 7af9 813c c0cd 0bbe 3971 75bd
00000300: 66dd 12be f399 96bd eb92 b0bd 8a38 04be
00000310: 4d39 65bd 7cbc 5fbd 4ff3 093e 73eb 393d
00000320: 42c6 053e 88cd 15bc 00dc 683e 0966 643e
00000330: 2eee 95bd 5d29 21be b662 673d ecdb 3a3e
00000340: a511 2b3d b900 933d ae50 83be d70d 093e
00000350: 0e13 48bd f396 ea3d 7847 91bd 2c40 833e
00000360: abb0 d0bd 76e9 18bf 406b 7a3e 0643 fcbd
00000370: 7c69 21bd ded3 c53d b2a9 01be d9ef 34be
00000380: 2ce6 68be 71ce b33c 33b9 983d 5f66 5dbe
00000390: 2cc7 953d 4ce8 173c 7f2d b2be 619b 1b3e
000003a0: aa4b 9a3d 2fc2 38bd f4fe 7c3c 3a81 82bd
000003b0: d17f dd3c 3947 cfbd ffcf 7c3d 5f46 76bd
000003c0: aba9 9b3c 63dc 173d cb21 1dbe a377 a4bd
000003d0: 28ba 14be 003e 373e a7a9 8abe eae2 38be
000003e0: dbf2 1dbe fb9c ce3e eab1 b43c b870 94bd
000003f0: e55b c4be 1dfa c9be 9466 323e 58d9 84be

network_body._body_endoder.seq_layers.0.bias f4 [128]
0.0 0.0 0.0 0.0 0.0 0.0 0.0 0.0
0.0 0.0 0.0 0.0 0.0 0.0 0.0 0.0
0.0 0.0 0.0 0.0 0.0 0.0 0.0 0.0
0.0 0.0 0.0 0.0 0.0 0.0 0.0 0.0
0.0 0.0 0.0 0.0 0.0 0.0 0.0 0.0
0.0 0.0 0.0 0.0 0.0 0.0 0.0 0.0
0.0 0.0 0.0 0.0 0.0 0.0 0.0 0.0
0.0 0.0 0.0 0.0 0.0 0.0 0.0 0.0
0.0 0.0 0.0 0.0 0.0 0.0 0.0 0.0
0.0 0.0 0.0 0.0 0.0 0.0 0.0 0.0
0.0 0.0 0.0 0.0 0.0 0.0 0.0 0.0
0.0 0.0 0.0 0.0 0.0 0.0 0.0 0.0
0.0 0.0 0.0 0.0 0.0 0.0 0.0 0.0
0.0 0.0 0.0 0.0 0.0 0.0 0.0 0.0
0.0 0.0 0.0 0.0 0.0 0.0 0.0 0.0
0.0 0.0 0.0 0.0 0.0 0.0 0.0 0.0
00000000: 0000 0000 0000 0000 0000 0000 0000 0000
00000010: 0000 0000 0000 0000 0000 0000 0000 0000
00000020: 0000 0000 0000 0000 0000 0000 0000 0000
00000030: 0000 0000 0000 0000 0000 0000 0000 0000
00000040: 0000 0000 0000 0000 0000 0000 0000 0000
00000050: 0000 0000 0000 0000 0000 0000 0000 0000
00000060: 0000 0000 0000 0000 0000 0000 0000 0000
00000070: 0000 0000 0000 0000 0000 0000 0000 0000
00000080: 0000 0000 0000 0000 0000 0000 0000 0000
00000090: 0000 0000 0000 0000 0000 0000 0000 0000
000000a0: 0000 0000 0000 0000 0000 0000 0000 0000
000000b0: 0000 0000 0000 0000 0000 0000 0000 0000
000000c0: 0000 0000 0000 0000 0000 0000 0000 0000
000000d0: 0000 0000 0000 0000 0000 0000 0000 0000
000000e0: 0000 0000 0000 0000 0000 0000 0000 0000
000000f0: 0000 0000 0000 0000 0000 0000 0000 0000
00000100: 0000 0000 0000 0000 0000 0000 0000 0000
00000110: 0000 0000 0000 0000 0000 0000 0000 0000
00000120: 0000 0000 0000 0000 0000 0000 0000 0000
00000130: 0000 0000 0000 0000 0000 0000 0000 0000
00000140: 0000 0000 0000 0000 0000 0000 0000 0000
00000150: 0000 0000 0000 0000 0000 0000 0000 0000
00000160: 0000 0000 0000 0000 0000 0000 0000 0000
00000170: 0000 0000 0000 0000 0000 0000 0000 0000
00000180: 0000 0000 0000 0000 0000 0000 0000 0000
00000190: 0000 0000 0000 0000 0000 0000 0000 0000
000001a0: 0000 0000 0000 0000 0000 0000 0000 0000
000001b0: 0000 0000 0000 0000 0000 0000 0000 0000
000001c0: 0000 0000 0000 0000 0000 0000 0000 0000
000001d0: 0000 0000 0000 0000 0000 0000 0000 0000
000001e0: 0000 0000 0000 0000 0000 0000 0000 0000
000001f0: 0000 0000 0000 0000 0000 0000 0000 0000

network_body._body_endoder.seq_layers.2.weight f4 [128, 128]
-0.004413475 -0.1425595 0.092387415 0.08690484 -0.00077690504 -0.10676495 -0.06229041 0.049867332
-0.00064625056 0.021465011 0.027604397 -0.0381811 -0.03975794 0.12160087 0.110294595 0.029492635
0.062833644 0.10407019 0.09484343 0.015891843 -0.057191502 0.029492263 0.18324341 -0.09977593
-0.13946821 -0.12009252 0.0065157665 -0.05850785 0.13606133 0.0060340716 -0.046830457 -0.041535325
0.059854176 -0.049730856 -0.061581828 -0.16317673 0.17838013 -0.30945787 0.07016284 -0.05926227
8.242298e-05 -0.08854461 0.0115571255 0.061530106 -0.12194059 0.02838998 0.058411837 0.115575254
-0.061911725 0.2525277 -0.17097804 -0.12207592 0.101137295 -0.1568824 0.0067927213 0.024199087
0.1844998 -0.109182306 -0.07144735 0.14695278 -0.024236893 -0.18143198 -0.124584384 -0.012495185
0.12533289 -0.040733837 0.119158864 0.12600991 -0.21783781 -0.09145732 -0.009071841 0.018438185
0.06860501 -0.033956494 0.13181767 -0.0010324625 0.07280765 0.090951875 -0.08545983 -0.09815682
0.07877654 -0.10434397 -0.08350014 0.111928955 0.12207512 -0.048184756 0.096891396 -0.09144765
0.0734325 0.11165897 -0.10595708 0.11622322 0.0429239 0.03120874 -0.1050931 0.05540934
-0.12040057 -0.17172185 -0.031209927 -0.17478518 0.10411441 0.013260186 0.050803073 -0.10181809
-0.04817374 -0.06794791 0.08692448 0.117664054 0.14188161 0.005514175 -0.12631035 -0.04111463
-0.034620196 -0.14709096 0.025042785 0.010004082 -0.1689486 -0.013626768 0.104288414 0.14237536
0.009775312 0.003929445 -0.057631645 -0.08934689 0.17085616 0.034431566 0.055589955 0.09489843
0.020040333 -0.09851601 -0.038108062 -0.023177987 0.1126763 -0.104633555 -0.024445442 -0.007678664
-0.059572425 -0.00946231 -0.037084382 0.039483607 0.18536106 -0.056704722 0.12961784 -0.24422404
-0.061886188 0.026802748 -0.051155053 -0.072330326 -0.18762054 -0.04893218 -0.11404296 -0.03527955
0.09048359 0.122309186 0.030884963 -0.002538185 -0.10056024 -0.01800041 0.036808047 -0.18631223
-0.10514923 -0.043954063 -0.013702121 -0.030402783 0.05661844 0.054139074 0.026599074 -0.034211252
-0.09666586 -0.08087585 0.024691623 -0.1502279 0.124340326 0.15279636 -0.05636903 0.14714746
0.18041527 -0.048483923 0.025641328 -0.14000714 -0.03685899 0.15914376 0.0045843055 -0.08006062
0.021630688 -0.00035823867 -0.041583836 0.03961377 -0.09798265 -0.08239182 -0.0064822193 -0.037757453
0.09415334 0.0011648753 -0.008424983 0.0726732 -0.060411338 0.03965522 0.026630504 0.084636346
-0.07969257 -0.11941925 -0.049860828 0.06529591 -0.061205737 -0.13388652 -0.005695963 0.020822642
-0.0019489544 -0.09678747 -0.0049342015 0.048020486 0.08775452 0.1825166 -0.10924995 -0.121886306
-0.0035537903 -0.14785509 0.20526181 0.04953833 -0.013051945 0.08721466 0.09677952 -0.083878346
-0.09319475 -0.083490565 0.026166111 0.10819828 -0.05478971 0.056144822 0.031833302 0.074855186
-0.03691576 -0.20721361 -0.08915623 0.07414901 -0.016970778 0.009184753 -0.0374923 -0.07993911
0.028152367 -0.08341324 0.1384117 0.099352375 0.033295292 0.061995 0.0042097364 0.12769699
0.018713558 -0.005172778 -0.02124072 0.0008861359 -0.18324132 0.060726404 0.07544262 0.07317623
00000000: e99e 90bb 1efb 11be 9d35 bd3d 2afb b13d
00000010: 37a9 4bba 95a7 dabd 3b24 7fbd b041 4c3d
00000020: 2469 29ba 64d7 af3c 9e22 e23c c963 1cbd
00000030: 39d9 22bd e009 f93d 22e2 e13d 8a9a f13c
00000040: edae 803d c022 d53d 463d c23d 9c2f 823c
00000050: a341 6abd c299 f13c 29a4 3b3e 5357 ccbd
00000060: c1d0 0ebe 11f3 f5bd 3682 d53b eda5 6fbd
00000070: a953 0b3e 76b9 c53b 4bd1 3fbd f220 2abd
00000080: a729 753d 95b2 4bbd 3a3d 7cbd cd17 27be
00000090: 48a9 363e 4371 9ebe 89b1 8f3d febc 72bd
000000a0: 80da ac38 e056 b5bd 195a 3d3c fe06 7c3d
000000b0: fdbb f9bd 1a92 e83c 4041 6f3d b8b2 ec3d
000000c0: 2697 7dbd 504b 813e de14 2fbe f102 fabd
000000d0: 1221 cf3d c8a5 20be 7a95 de3b 2a3d c63c
000000e0: 84ed 3c3e f99a dfbd fd52 92bd ca7a 163e
000000f0: 738c c6bc 4ec9 39be 1926 ffbd 9bb8 4cbc
00000100: 4457 003e 86d8 26bd 9009 f43d be08 013e
00000110: e010 5fbe fa4d bbbd 0fa2 14bc ad0b 973c
00000120: c980 8c3d f715 0bbd 36fb 063e b153 87ba
00000130: 2d1c 953d fa44 ba3d 9005 afbd 7106 c9bd
00000140: 9855 a13d 4bb2 d5bd 1f02 abbd 023b e53d
00000150: 8502 fa3d 615d 45bd ff6e c63d e848 bbbd
00000160: c763 963d 75ad e43d 0700 d9bd 7106 ee3d
00000170: f9d0 2f3d 79a9 ff3c 0d3b d7bd e7f4 623d
00000180: 9394 f6bd dad7 2fbe f6ab ffbc e3fa 32be
00000190: f039 d53d 4041 593c e216 503d 0186 d0bd
000001a0: d451 45bd 4628 8bbd 7605 b23d daf9 f03d
000001b0: 6a49 113e 41b0 b43b 8057 01be d067 28bd
000001c0: e8cd 0dbd 039f 16be 8726 cd3c 29e8 233c
000001d0: dd00 2dbe cf42 5fbc 2a95 d53d d9ca 113e
000001e0: a128 203c 93c2 803b 290f 6cbd 81fb b6bd
000001f0: ebf4 2e3e 1d08 0d3d 4bb2 633d 1c5a c23d
00000200: a02b a43c c3c2 c9bd 3317 1cbd c3df bdbc
00000210: d5c2 e63d 1e4a d6bd cf41 c8bc 4d9d fbbb
00000220: 3702 74bd ce07 1bbc cbe5 17bd 90b9 213d
00000230: 4acf 3d3e 3643 68bd 8aba 043e de15 7abe
00000240: 5f7c 7dbd 7091 db3c f687 51bd ec21 94bd
00000250: 991f 40be 1c6d 48bd 5b8f e9bd 4a81 10bd
00000260: 764f b93d 3d7d fa3d 7602 fd3c ae57 26bb
00000270: 87f2 cdbd 9975 93bc 09c4 163d a2c8 3ebe
00000280: 7b58 d7bd 2d09 34bd dc7e 60bc 420f f9bc
00000290: bde8 673d efc0 5d3d 4de6 d93c 1921 0cbd
000002a0: c0f8 c5bd 3da2 a5bd 1646 ca3c 58d5 19be
000002b0: 24a6 fe3d a676 1c3e 36e3 66bd d3ad 163e
000002c0: c8be 383e 1497 46bd c30d d23c 085e 0fbe
000002d0: 74f9 16bd 95f6 223e f137 963b d3f6 a3bd
000002e0: d732 b13c fbd1 bbb9 d053 2abd 0c42 223d
000002f0: 21ab c8bd 0bbd a8bd cc68 d4bb 8fa7 1abd
00000300: 77d3 c03d bbae 983a f108 0abc b0d5 943d
00000310: e171 77bd 836d 223d 3728 da3c d255 ad3d
00000320: dc35 a3bd 1492 f4bd de3a 4cbd ddb9 853d
00000330: deb2 7abd 8c19 09be 33a5 babb 3f94 aa3c
00000340: 0f74 ffba 8238 c6bd 15af a1bb 21b1 443d
00000350: a4b8 b33d a2e5 3a3e 70be dfbd 879f f9bd
00000360: b5e6 68bb 5367 17be 2730 523e b4e8 4a3d
00000370: d3d7 55bc 9a9d b23d 5734 c63d 69c8 abbd
00000380: e4dc bebd 1afd aabd 505a d63c 0f97 dd3d
00000390: 2d6b 60bd 1df8 653d a363 023d ad4d 993d
000003a0: fb34 17bd ce2f 54be 8b97 b6bd 70db 973d
000003b0: 4d06 8bbc a57b 163c 8791 19bd 1eb7 a3bd
000003c0: cb9f e63c 90d4 aabd ccbb 0d3e 4279 cb3d
000003d0: a560 083d 78ee 7d3d d4f1 893b 00c3 023e
000003e0: 2d4d 993c 6880 a9bb 0501 aebc 934b 683a
000003f0: 9da3 3bbe 40bc 783d a981 9a3d 6bdd 953d

network_body._body_endoder.seq_layers.2.bias f4 [128]
0.0 0.0 0.0 0.0 0.0 0.0 0.0 0.0
0.0 0.0 0.0 0.0 0.0 0.0 0.0 0.0
0.0 0.0 0.0 0.0 0.0 0.0 0.0 0.0
0.0 0.0 0.0 0.0 0.0 0.0 0.0 0.0
0.0 0.0 0.0 0.0 0.0 0.0 0.0 0.0
0.0 0.0 0.0 0.0 0.0 0.0 0.0 0.0
0.0 0.0 0.0 0.0 0.0 0.0 0.0 0.0
0.0 0.0 0.0 0.0 0.0 0.0 0.0 0.0
0.0 0.0 0.0 0.0 0.0 0.0 0.0 0.0
0.0 0.0 0.0 0.0 0.0 0.0 0.0 0.0
0.0 0.0 0.0 0.0 0.0 0.0 0.0 0.0
0.0 0.0 0.0 0.0 0.0 0.0 0.0 0.0
0.0 0.0 0.0 0.0 0.0 0.0 0.0 0.0
0.0 0.0 0.0 0.0 0.0 0.0 0.0 0.0
0.0 0.0 0.0 0.0 0.0 0.0 0.0 0.0
0.0 0.0 0.0 0.0 0.0 0.0 0.0 0.0
00000000: 0000 0000 0000 0000 0000 0000 0000 0000
00000010: 0000 0000 0000 0000 0000 0000 0000 0000
00000020: 0000 0000 0000 0000 0000 0000 0000 0000
00000030: 0000 0000 0000 0000 0000 0000 0000 0000
00000040: 0000 0000 0000 0000 0000 0000 0000 0000
00000050: 0000 0000 0000 0000 0000 0000 0000 0000
00000060: 0000 0000 0000 0000 0000 0000 0000 0000
00000070: 0000 0000 0000 0000 0000 0000 0000 0000
00000080: 0000 0000 0000 0000 0000 0000 0000 0000
00000090: 0000 0000 0000 0000 0000 0000 0000 0000
000000a0: 0000 0000 0000 0000 0000 0000 0000 0000
000000b0: 0000 0000 0000 0000 0000 0000 0000 0000
000000c0: 0000 0000 0000 0000 0000 0000 0000 0000
000000d0: 0000 0000 0000 0000 0000 0000 0000 0000
000000e0: 0000 0000 0000 0000 0000 0000 0000 0000
000000f0: 0000 0000 0000 0000 0000 0000 0000 0000
00000100: 0000 0000 0000 0000 0000 0000 0000 0000
00000110: 0000 0000 0000 0000 0000 0000 0000 0000
00000120: 0000 0000 0000 0000 0000 0000 0000 0000
00000130: 0000 0000 0000 0000 0000 0000 0000 0000
00000140: 0000 0000 0000 0000 0000 0000 0000 0000
00000150: 0000 0000 0000 0000 0000 0000 0000 0000
00000160: 0000 0000 0000 0000 0000 0000 0000 0000
00000170: 0000 0000 0000 0000 0000 0000 0000 0000
00000180: 0000 0000 0000 0000 0000 0000 0000 0000
00000190: 0000 0000 0000 0000 0000 0000 0000 0000
000001a0: 0000 0000 0000 0000 0000 0000 0000 0000
000001b0: 0000 0000 0000 0000 0000 0000 0000 0000
000001c0: 0000 0000 0000 0000 0000 0000 0000 0000
000001d0: 0000 0000 0000 0000 0000 0000 0000 0000
000001e0: 0000 0000 0000 0000 0000 0000 0000 0000
000001f0: 0000 0000 0000 0000 0000 0000 0000 0000

value_heads.value_heads.extrinsic.weight f4 [1, 128]
0.13794419 0.06489763 0.055619568 -0.16509698 -0.12303625 0.20928454 0.09598908 -0.031093106
0.061386764 0.18488887 -0.14512473 -0.04283008 0.21215189 -0.07007484 0.06494102 -0.1389333
0.06442553 0.15086159 -0.14540383 -0.1589216 0.12880075 -0.076272786 -0.022636533 -0.010063693
0.036845267 0.12279734 -0.04822038 0.00431177 -0.037105262 0.20543036 -0.20560312 -0.0020645857
-0.13850589 0.15579835 0.13754645 -0.12946635 0.012574032 -0.17912394 -0.027340263 -0.03864062
0.11891955 -0.13335176 -0.12234459 -0.0816872 -0.10056289 0.13967952 -0.19997357 0.04245016
-0.02861555 -0.21159442 0.04552418 0.07066813 0.040201873 -0.21038182 0.08637661 -0.08214028
-0.047161907 -0.01650387 -0.11299914 -0.011233494 0.18940264 -0.10093684 0.20035663 0.116024554
0.18824887 -0.17768651 -0.21340725 -0.10484 -0.21174952 -0.08164568 -0.09617081 0.17882776
-0.07311116 0.0516918 0.074872494 -0.1690165 0.14555925 0.07005659 -0.20029126 0.11946571
0.0069297254 0.19964433 -0.09200081 -0.062043875 0.106769174 0.07693127 0.11741716 0.0005297214
-0.07026161 0.088890016 -0.0044192523 0.11778018 -0.0043279678 0.016015992 0.11410844 -0.10917534
-0.18490806 0.037462562 0.21144018 0.092232466 -0.057467878 -0.071693435 0.085546374 0.19293243
-0.14231232 -0.20290454 -0.12812302 -0.13498116 -0.20420402 0.070980966 -0.07784127 0.075920254
-0.1421155 0.16331044 -0.13298933 -0.06667593 -0.03772843 -0.21461052 -0.052811176 0.031334594
0.052961677 -0.20732436 -0.15626991 0.20121807 0.09640357 -0.122688994 0.1550521 -0.016715467
00000000: 3e41 0d3e 0ce9 843d 58d1 633d 2f0f 29be
00000010: 6efa fbbd b04e 563e ec95 c43d f8b6 febc
00000020: b070 7b3d 8253 3d3e 949b 14be 986e 2fbd
00000030: 583e 593e 6683 8fbd ccff 843d 8844 0ebe
00000040: 88f1 833d 767b 1a3e bee4 14be 58bc 22be
00000050: 58e4 033e e834 9cbd 4070 b9bc 30e2 24bc
00000060: 10eb 163d 2c7d fb3d bc82 45bd c049 8d3b
00000070: b0fb 17bd 565c 523e a089 52be 004e 07bb
00000080: 7dd4 0dbe 9a89 1f3e fad8 0c3e d492 04be
00000090: 5003 4e3c 446c 37be b0f8 dfbc a045 1ebd
000000a0: 188c f33d 5d8d 08be cd8f fabd 9e4b a7bd
000000b0: ebf3 cdbd 2608 0f3e dfc5 4cbe 38e0 2d3d
000000c0: 286b eabc 35ac 58be 9077 3a3d 74ba 903d
000000d0: b8aa 243d 556e 57be 38e6 b03d 2a39 a8bd
000000e0: d82c 41bd 2033 87bc 186c e7bd b00c 38bc
000000f0: c4f2 413e f9b7 cebd 4a2a 4d3e 489e ed3d
00000100: 50c4 403e 74f3 35be 6e87 5abe 5bb6 d6bd
00000110: ded4 58be da35 a7bd 34f5 c4bd a01e 373e
00000120: 4ebb 95bd c8ba 533d c056 993d a912 2dbe
00000130: 7c0d 153e d479 8f3d 2719 4dbe 70aa f43d
00000140: c012 e33b 906f 4c3e ec6a bcbd b821 7ebd
00000150: cca9 da3d 248e 9d3d 6878 f03d 00dd 0a3a
00000160: 52e5 8fbd f80b b63d 60cf 90bb bc36 f13d
00000170: a0d1 8dbb f833 833c b0b1 e93d 5297 dfbd
00000180: 8a58 3dbe 5872 193d c683 583e 60e4 bc3d
00000190: 7063 6bbd 02d4 92bd f032 af3d 1490 453e
000001a0: 52ba 11be 35c6 4fbe ae32 03be 8038 0abe
000001b0: dc1a 51be 785e 913d 3e6b 9fbd 147c 9b3d
000001c0: ba86 11be da3a 273e 5b2e 08be 648d 88bd
000001d0: 2089 1abd dcc2 5bbe 8850 58bd b458 003d
000001e0: 58ee 583d d64c 54be 3805 20be 1c0c 4e3e
000001f0: 3c6f c53d 5e44 fbbd fac5 1e3e e0ee 88bc
