Assets/results/ppo/JumperAgent/JumperAgent-300728.onnx (onnx, 91980 bytes, 6 tensors)

network_body._body_endoder.seq_layers.0.weight f4 [128, 42]
000000 d2 70 28 3d c7 90 48 be 7d 61 94 bd fb d7 f8 bd
       0.04112322 -0.19586478 -0.07245157 -0.1215057
000010 13 fa bf bc af 22 25 bd 54 f7 05 3c 68 dc 23 bd
       -0.023434674 -0.04031628 0.008176643 -0.040005118
000020 86 73 2a be e5 92 79 bd da 97 f3 bd 09 0e 21 be
       -0.16645631 -0.060931105 -0.11894198 -0.1572801
000030 2e 1c f9 3d 83 10 32 bb 8f aa c2 3c b5 03 0f be
       0.12163578 -0.0027170486 0.02376297 -0.13966258
000040 ab 55 e7 3d 1b 77 1a 3e f0 5c 77 be 97 29 70 be
       0.11295637 0.15084498 -0.24156547 -0.23453365
000050 2f 2f cb bd 89 a8 80 bd d7 47 bd be d7 81 8f 3e
       -0.09921109 -0.062821455 -0.36968872 0.28028747
000060 81 7f f9 3c 66 14 12 3d f4 7c 38 bc 40 9b 40 3d
       0.030456306 0.035663985 -0.01126026 0.047023058
000070 1a 49 29 be 2d 6c a2 3d b4 f6 a8 3c d9 d8 7d be
       -0.16531792 0.07930789 0.02062545 -0.24789752
000080 86 fd 08 3c cc ad b0 be af d1 de 3d 67 32 ce bc
       0.008361226 -0.34507596 0.10879838 -0.025170518
000090 e0 fc cd bc 92 77 17 3d cf 04 c6 3c ef 6f 75 3d
       -0.025144994 0.036979266 0.024172215 0.0599212
0000a0 d5 a0 94 3d 9f 2d 10 3e b9 73 35 be 94 d4 8e 3c
       0.07257239 0.14079903 -0.17719926 0.01743535
0000b0 07 67 b8 bd 64 e2 a7 be 71 33 fd 3c 95 4d 73 be
       -0.09004026 -0.3278991 0.030908318 -0.23760064
0000c0 e7 41 08 3e 73 73 0a 3e 65 b4 11 bd f7 93 8f 3d
       0.1330639 0.13520603 -0.03557243 0.07010644
0000d0 48 2d 3f bd 5d f6 f5 bd 39 b9 bb 3d a3 ed fc 3d
       -0.046674043 -0.12009881 0.09166188 0.12350013
0000e0 17 07 82 3e 49 ee e4 3d 4e 7e 14 be 38 31 06 be
       0.25396034 0.11178262 -0.14501306 -0.13104713
0000f0 dc b4 54 bd 48 20 31 3d 0f d1 2c 3e 64 9e 96 3c
       -0.051930293 0.043243676 0.16876625 0.018386073
000100 2f 32 fd 3d 60 8a df 3e 79 81 73 be d3 51 6d bd
       0.123630874 0.4366026 -0.23779859 -0.05793936
000110 69 db 29 be 25 d9 48 be 10 fe 12 be 2c 56 30 3d
       -0.16587605 -0.19614084 -0.1435473 0.04305093
000120 c3 25 3d 3d 90 e6 3f be 84 52 2b be f3 ba af 3c
       0.04617859 -0.18740296 -0.16730696 0.021451449
000130 6f a1 96 bc 08 07 66 bd 99 a4 7c 3d 73 10 96 3d
       -0.018387524 -0.05615905 0.06168041 0.07327356
000140 f3 81 26 3e 51 8a b0 3d c4 f4 9d bd cb aa 6d 3e
       0.16260509 0.08620132 -0.07712701 0.23209684
000150 78 44 db 3d cd 8d 29 3c 02 96 f0 3c 4c 03 20 be
       0.10706419 0.010348749 0.029368404 -0.15626258
000160 b2 31 b3 be 91 79 36 3e f0 f7 a0 be 85 70 26 bd
       -0.34998852 0.17819811 -0.3143916 -0.04063465
000170 15 78 a0 3e b3 fb ca be a7 2b c1 3d e1 91 5f be
       0.31341615 -0.39645156 0.09432154 -0.21832992
000180 27 e2 02 be 75 e4 35 bd 84 b3 9c bd f5 be 89 bd
       -0.12781583 -0.044407327 -0.076514274 -0.06725875
000190 6b f2 b2 3d e0 61 22 3e 72 d9 e5 bc 42 d5 10 3d
       0.08737644 0.15857649 -0.028057788 0.03535963
0001a0 9c 94 c6 bd 4e 97 b4 be 12 23 bb 3b 9c a0 13 3d
       -0.09696314 -0.35271686 0.005710968 0.03604184
0001b0 e8 40 0b 3d 6b 40 59 be 1b f4 fc bd d0 40 8a be
       0.033997446 -0.2121598 -0.12351247 -0.27002573
0001c0 9f c0 bc 3c ad 31 12 bc 3f 8b d7 bd 6b 5d 42 3e
       0.023041068 -0.008922976 -0.10524606 0.18980949
0001d0 9d 39 d4 bc ac 28 ad 3c ea c1 1c be 42 a3 c6 bd
       -0.025906378 0.021137558 -0.15308347 -0.09699108
0001e0 b5 0d 0a 3e b1 15 f9 3d 35 5e 24 bd 5c ff b5 bd
       0.13481791 0.121623404 -0.040128905 -0.088865966
0001f0 97 96 bb be 62 d0 d1 3d 0d a9 01 bc 22 68 3f 3b
       -0.36638328 0.10244824 -0.00791384 0.0029206355
000200 7b b3 3d bd 4f 18 4b be 8f 1c 55 3e 1b 12 68 3d
       -0.046313744 -0.19833492 0.20811675 0.05665789
000210 33 6c e7 3d 9b 27 26 be 80 01 16 3e cc 42 03 3e
       0.11299934 -0.16226046 0.1464901 0.1281845
000220 2f 5d 8b 3e 2c af 08 be 41 a7 22 be 9f cb 7c be
       0.2721953 -0.13348073 -0.15884115 -0.2468705
000230 1f be 83 bd 4a 46 26 bd 38 ae 25 bd 74 81 a3 3d
       -0.06432747 -0.040594377 -0.04044935 0.079836756
000240 7e 86 7c bc 0a 9c 8f bd 07 0c 94 bb 6c ed a8 3d
       -0.015412925 -0.07012184 -0.0045180353 0.0824841
000250 d4 ef 3b 3e 3d b6 b4 3d d5 62 5a 3d 8d 74 20 3d
       0.18353206 0.08823822 0.05331691 0.03917365
000260 d3 48 90 bb a3 cd de bd 64 f0 80 bd 0b f0 11 be
       -0.0044032126 -0.10879066 -0.06295851 -0.14251725
000270 27 bc 7b 3e ea 7e 32 bc 2b 81 69 be da d4 f9 bd
       0.24583493 -0.0108945165 -0.2280318 -0.12198801
000280 64 e2 89 3d d6 3f 9a bd c4 a8 cf 3c de c5 20 bd
       0.06732634 -0.07531707 0.025349028 -0.0392512
000290 bd 32 4b bd 7f e6 53 3e 2a bd 8d 3e 7f 70 d8 bd
       -0.049608935 0.20693396 0.27683383 -0.10568332
0002a0 79 47 45 3e da e9 34 bd 88 6b ff 3d c6 45 55 3e
       0.19265546 -0.04416833 0.12471682 0.20827398
0002b0 ca 20 ce 3d af 25 f5 3d 02 15 f7 bd 05 ae a0 bd
       0.10064848 0.11970078 -0.12064554 -0.078456916
0002c0 29 e2 c3 bd 0e e8 b4 3d e6 bc ea bd 5c 54 55 be
       -0.09564621 0.088333234 -0.11461811 -0.20832962
0002d0 fb 92 e6 3d 21 12 f7 3d 81 8c b3 3e 54 87 c2 bd
       0.11258503 0.12064005 0.35068133 -0.09498468
0002e0 8a b1 84 be e8 0a ce 3e ec a6 9a bd 21 74 e2 bc
       -0.25916702 0.40242696 -0.07551369 -0.027643265
0002f0 8d 87 a7 bd 96 c0 07 3e d0 74 11 bd e8 50 96 bd
       -0.08180151 0.1325706 -0.03551179 -0.073396504
000300 3e 5a 9b bc 42 05 a6 3d b6 be 9c bd 2c 97 03 be
       -0.01896393 0.081064716 -0.07653563 -0.12850636
000310 f9 9e 1b 3e 67 8e 5d bc b7 7b f2 bc 1f 43 a0 3d
       0.15197362 -0.013522721 -0.029600007 0.07825302
000320 6d ff 23 be 60 e8 05 3e 37 47 5e bc 16 46 41 bc
       -0.16015406 0.13076925 -0.013566784 -0.011796495
000330 97 3c fa bd 84 4a 3b be 65 3f ab 3d ca 15 ac 3d
       -0.12218588 -0.18290144 0.08361701 0.084025934
000340 00 56 06 bc e1 3b 02 be 1f 47 f2 bc 02 a7 8b be
       -0.008199215 -0.12718154 -0.029574929 -0.27275854
000350 29 9e 67 3e 2d 8c bf bc 2f 69 c7 bd 0c 9a 06 3e
       0.22618927 -0.02338227 -0.09736859 0.13144702
000360 1c bb 7c be 53 a5 be be 91 1e 26 3e a2 80 84 3e
       -0.24680752 -0.37235507 0.16222598 0.2587939
000370 19 e9 39 bb 4f 21 47 be 42 6a 19 be 9c 2c c2 bd
       -0.0028367697 -0.194463 -0.1498194 -0.09481165
000380 0a 11 bb bb b9 f8 f2 bc b8 54 74 be 31 30 12 bd
       -0.0057088183 -0.029659616 -0.23860443 -0.03569049
000390 a9 32 15 3e f9 bc e2 3d 63 b9 ec 3d 0c b4 01 3a
       0.14570107 0.110712 0.11558797 0.00049477885
0003a0 af 8e c1 be ef f8 94 3e ab 61 57 3e 2d da a0 3b
       -0.3780417 0.2909617 0.21033351 0.004908821
0003b0 27 17 e3 bd 52 88 ad bd b5 4b 36 be 2e db a9 bd
       -0.110884 -0.08473267 -0.17802317 -0.08293758
0003c0 23 9c 5f 3e 49 45 0d be 0d 98 48 3e e0 2d fb 3b
       0.21836905 -0.13795961 0.19589253 0.007665381
0003d0 9f f9 b0 bd b1 e3 50 be 08 15 ae 3d 2b 1f 90 3e
       -0.086413614 -0.20399357 0.08500105 0.2814878
0003e0 f9 ef b3 3d 5c 84 c4 bd 46 cc 82 be ec 43 96 bd
       0.087860055 -0.09595558 -0.25546473 -0.07337174
0003f0 be 28 c7 3c e3 2c 10 3d ce 09 11 3d 84 b7 17 3e
       0.02431142 0.035199057 0.03540974 0.148161

network_body._body_endoder.seq_layers.0.bias f4 [128]
000000 7b 7c b1 3c 3e ba 20 3c c3 bc d8 bb 69 1b a3 3c
       0.021665802 0.009810029 -0.006614299 0.019910531
000010 74 33 5c 3b af 5c 8a 3c 4d c2 90 bc 68 0e 9f bb
       0.0033600004 0.016889898 -0.017670775 -0.0048540123
000020 24 85 08 3c b8 f9 17 bc d3 b1 e1 3c f8 1a 6e bb
       0.008332524 -0.009275846 0.027550614 -0.0036331993
000030 1d e0 62 3c 9b 80 06 38 6b e9 ac bb 8d fd 6b 3c
       0.013847378 3.2067863e-05 -0.005276849 0.014403713
000040 e6 17 ba 3c ab f0 a0 3c b5 83 6a bc 80 ec 2b bc
       0.022716474 0.01964601 -0.014313628 -0.010493398
000050 20 13 a7 bc 2f be 57 3c 71 3d a1 3c 92 ae 31 bc
       -0.020394862 0.013167902 0.019682618 -0.010844843
000060 92 26 c9 3b 15 e1 b7 bc 6c e1 df 3b 56 3d 07 3c
       0.006138631 -0.022446195 0.0068322923 0.00825437
000070 92 cd 68 ba 88 45 58 3b 6e e9 95 3c f2 4f 11 3c
       -0.000888073 0.0033000428 0.018299785 0.008869158
000080 56 f6 9e 3c 8a de 0f 3c 16 8a 63 3c 94 55 4e bb
       0.019404572 0.008781085 0.013887903 -0.0031484114
000090 33 05 90 3c a8 4a d7 bc 1c 2a 28 bb 72 39 83 bb
       0.017580604 -0.026280716 -0.0025659865 -0.0040046507
0000a0 76 a4 d0 3b d1 5d ad 3c ec f2 a3 3b 80 c4 74 bc
       0.0063672615 0.0211629 0.005003324 -0.014939427
0000b0 31 64 aa 3c 70 52 e6 3c 99 d5 b1 3c 0d 85 51 3c
       0.020799728 0.028115481 0.021708297 0.012788069
0000c0 3b ff 8a bb f2 b3 28 b9 91 44 08 bc d2 8b a2 3c
       -0.0042418516 -0.00016088763 -0.008317129 0.019842062
0000d0 be 3d bc 3c 45 2e cc ba 0e e7 c8 3c 49 f2 18 bc
       0.02297866 -0.0015577754 0.024524238 -0.009335109
0000e0 5e 23 be bb 5f 62 99 3c e6 ea 26 3c 26 ff 5b 3a
       -0.005802556 0.018723665 0.01018784 0.0008392207
0000f0 db 63 9d ba 9c c3 df 3c e0 6e 11 3d b1 bf 9b 3c
       -0.0012007909 0.027314954 0.03550613 0.019012304
000100 28 d8 03 bd 06 62 e7 3b c3 11 9e 3c f1 f9 c8 3b
       -0.032188565 0.007061246 0.019295579 0.006133311
000110 b2 96 84 3c 8a 8f 59 3c 6e b5 1e 3c 50 e7 b0 3c
       0.016185138 0.013278851 0.009686811 0.021594673
000120 64 e6 ba 3c 22 88 af 3c 43 34 a1 3c e3 2d e1 3c
       0.022814937 0.021427218 0.01967824 0.0274877
000130 df 84 c3 3c ee 41 93 3b 3e 67 2d 3c 4d 48 57 3c
       0.023867069 0.0044939434 0.010583697 0.013139796
000140 72 b0 f3 3c da d8 32 3b fa c9 25 3d ba 0d 31 39
       0.029747222 0.0027289898 0.040475823 0.00016885149
000150 c8 ea d1 3c a7 fd b1 3c 45 48 5c 3c e8 fe 7e 3c
       0.025624648 0.021727396 0.013444965 0.015563704
000160 ad 23 18 ba f6 aa b0 bc 32 83 d8 bc 6c fc 4e 3c
       -0.0005803656 -0.021565896 -0.026429746 0.012633424
000170 ca f6 2d 3c 95 b4 f7 bc 60 ea fb 39 a2 f6 a0 3c
       0.010617921 -0.030237475 0.00048049074 0.019648854
000180 3d 61 1e 3c d8 70 e1 3c 32 1d 78 3c 0b d3 2a 3c
       0.009666738 0.027519628 0.015143679 0.010426293
000190 44 a2 c4 bb 63 0a ad 3c b6 aa 69 bb d1 7d 3c 3c
       -0.006000789 0.021123117 -0.003565473 0.011504606
0001a0 18 38 05 3c 45 c1 ab 3b b9 b5 07 3d bf 1c 02 bd
       0.00813105 0.0052415454 0.03313229 -0.031765696
0001b0 c8 9d 97 3c c3 6c d1 3b 0f a6 b6 3c c0 1d c8 3b
       0.018507853 0.0063911392 0.02229598 0.006107062
0001c0 72 b4 8a 3c bb ea 8e 3c 32 4a 4e bc 85 4c c6 bc
       0.016931746 0.017445913 -0.012590932 -0.02420641
0001d0 84 0f 8b bb c9 35 4b bc e1 06 01 bd 4b 92 55 3c
       -0.004243793 -0.01240296 -0.0315007 0.013035367
0001e0 99 39 97 3c 5b a4 13 3c fc 49 87 3c e0 b1 a3 bb
       0.018460082 0.009011353 0.01651477 -0.0049955696
0001f0 79 11 e0 3c 6f 97 a5 3b 8f 1f 60 3c 08 f5 8a 3c
       0.027352082 0.0050534527 0.013679399 0.016962543

network_body._body_endoder.seq_layers.2.weight f4 [128, 128]
000000 1a e2 b1 3d 8b ac dc 3d da 20 0a bd ad 12 93 3d
       0.086857036 0.107750975 -0.033722736 0.071812965
000010 6d dd 99 3d 04 95 a4 bc ea 3c a0 bc 8e dc 8e 3d
       0.07512937 -0.020090587 -0.019560296 0.06975661
000020 cc 39 06 3e d6 c2 3c bd ba 69 6e 3d ff fb 8e 3d
       0.13107985 -0.046084248 0.058206297 0.06981658
000030 bd 3a 4a bd dc 55 dc 3d 08 45 89 3a 6d c9 f0 3d
       -0.049372423 0.10758564 0.0010472843 0.11757169
000040 33 9c d1 3b 4f 2c 09 3d a2 80 10 bd be 47 d0 bc
       0.006396794 0.03348952 -0.035278924 -0.025424834
000050 34 ed cb 3d 22 17 99 bd 40 88 21 3e a9 3d 0b be
       0.09957352 -0.07475115 0.15774632 -0.1359774
000060 aa c4 19 3d 33 23 fc 3c 20 c0 cb 3d 4b 62 c8 3d
       0.03754107 0.030778503 0.09948754 0.09784373
000070 9c cb f0 3d e1 f1 59 3e 1d cd 97 bd 5b 4b d5 bd
       0.117575854 0.21283676 -0.07412169 -0.104147635
000080 08 c9 ee bd 8f 76 6f 3d c1 cd 8c 3d ea b6 07 3d
       -0.116594374 0.058462676 0.06875182 0.033133425
000090 d4 14 06 3d 4d 7f 3b 3d 39 7d 3d 3d 8e 95 0a 3d
       0.032734707 0.0457757 0.046262 0.033834033
0000a0 f2 3b 9f 3d ff a8 29 3b 3b 86 13 bd 15 d4 e3 3c
       0.077751055 0.0025888083 -0.036016684 0.02781109
0000b0 02 e2 84 3d 6b 46 73 3d 59 aa 3e 3c ef 11 ea bd
       0.0648842 0.059393328 0.011637294 -0.11429202
0000c0 b3 86 24 3e a2 74 c8 3d 56 2e ef bd e1 00 34 3d
       0.16067009 0.09787871 -0.1167876 0.04394615
0000d0 ee 08 ee 3d 6c c4 89 bd 26 d7 94 bb fd 9e 56 bd
       0.11622797 -0.067269176 -0.0045422493 -0.052397717
0000e0 a0 99 a9 bd 4d 23 96 bc 80 32 26 be f3 bc 72 bd
       -0.08281255 -0.01832738 -0.16230202 -0.059262227
0000f0 5f 2c 5f bc 62 b2 4a 3d 45 7c de bd fb f4 f9 3d
       -0.013621419 0.049486525 -0.10863546 0.122049294
000100 80 6a cf bd 4a 25 42 bd 90 03 01 bd c7 bc b9 3c
       -0.10127735 -0.047398843 -0.031497538 0.022673024
000110 1b 6d 35 bd 92 57 93 bd 09 9f 19 3e 43 48 d1 bd
       -0.044293504 -0.07194437 0.15002073 -0.10218861
000120 ac e3 b7 3c 2b 86 10 bd a9 54 34 3e bc 05 8f 3d
       0.02244743 -0.035284203 0.1761042 0.069835156
000130 e1 0f 33 3e c6 56 de bb b2 c9 d4 3d 42 4a 0e 39
       0.17486526 -0.0067852465 0.10390033 0.00013569838
000140 8c 40 a8 3d c3 a3 6a 3d 9c 37 e4 3d ad 25 50 bc
       0.08215436 0.05728508 0.11143419 -0.012704295
000150 50 6c 8a bc 81 a8 c0 bd 83 b8 bf bd 27 c2 73 bc
       -0.01689735 -0.094071396 -0.09361365 -0.0148778325
000160 dc 25 47 bd c2 64 c2 bc 41 b2 99 3d 41 64 f5 bd
       -0.04862009 -0.023729686 0.07504702 -0.119820125
000170 70 1b c7 3c 09 8f dc bd e3 d5 d6 ba 8d 47 ea 3d
       0.024305075 -0.10769469 -0.0016390648 0.114394285
000180 85 bd e8 3d 23 26 d7 3d 29 46 3b 3d 13 87 0d 3e
       0.11364273 0.10505321 0.045721207 0.13821058
000190 70 1b b6 3d aa 0c 9b ba 42 93 2d 3d 87 12 3c bd
       0.08891952 -0.0011829336 0.042376764 -0.045916107
0001a0 04 f0 82 bd 71 db bf 3d 02 14 0e be 8c 2c 75 3d
       -0.063934356 0.09368027 -0.1387482 0.059856936
0001b0 3f 68 8d 3d d7 f0 4d bd 90 65 ee 3d fa 61 8e 3d
       0.06904649 -0.05027851 0.11640465 0.06952281
0001c0 28 06 16 bc c9 78 c9 3d 25 ee db 3d 6a bf 29 bb
       -0.009156741 0.09837491 0.10738782 -0.0025901445
0001d0 2a 0f 10 bd af 7f 47 bd e5 8c a3 bd 2d 01 b3 3d
       -0.03517071 -0.048705753 -0.07985858 0.08740459
0001e0 54 80 a5 bd 19 4b 06 bd 76 2f e3 3d 60 68 27 3e
       -0.08081117 -0.032786462 0.11093037 0.1634841
0001f0 4d bd 1c be 26 a3 a5 3d 34 ea b2 3c 71 57 6d 3c
       -0.15306588 0.08087759 0.021840192 0.01448618
000200 c4 38 f5 3c ee 97 8c 3b 51 25 6e bd 4d 57 ee bd
       0.029934295 0.0042905724 -0.058141056 -0.11637745
000210 e9 bf 77 3d e8 c9 d7 bd c0 b6 86 bd e1 64 18 be
       0.060485754 -0.105365574 -0.065778255 -0.14882232
000220 75 f2 de 3d 84 20 fe bd 1d 62 24 3d 73 d9 89 bd
       0.10886089 -0.124085456 0.04013263 -0.06730928
000230 a1 0c 9b 3c 82 a7 35 bd 9c 63 b3 3c db d9 36 be
       0.01892692 -0.0443492 0.021898083 -0.17856543
000240 95 d5 33 bd 42 d5 1e bd 35 ac 4e be 36 07 b1 bc
       -0.04390486 -0.038777597 -0.2018288 -0.021609884
000250 dd 39 da 3a c9 c2 d6 3d 70 9c cd bd 01 6a 64 3d
       0.0016649325 0.10486371 -0.10039604 0.055765156
000260 14 b4 2a 3e 27 39 3b be 6f 45 3a bd df 23 94 3c
       0.16670257 -0.1828352 -0.045476373 0.01808351
000270 f3 e4 9f bd b5 d5 0f be 12 34 89 ba 0d 92 5b bd
       -0.078073405 -0.14046367 -0.0010467789 -0.05360608
000280 10 7b 07 3d 0b 35 41 bd 84 7e 35 3e 69 0c 69 bc
       0.033076346 -0.047169726 0.17724043 -0.01422415
000290 95 0a f2 bd 7b c9 44 3e ae d5 8a bd 49 16 52 3d
       -0.118184246 0.19217484 -0.067790374 0.051290784
0002a0 ed de e2 3c 0c dd a3 bd 47 cf d1 3d 2e 4b 0a 3e
       0.02769419 -0.08001146 0.10244613 0.13505241
0002b0 d9 d0 1e 3e 87 e2 48 3d 52 d6 52 3d e3 81 4e bd
       0.15509357 0.04904416 0.051473923 -0.05041684
0002c0 11 73 9a 3d c7 92 54 bd 57 87 93 bd 0c a9 a4 bc
       0.075414784 -0.05189779 -0.072035484 -0.02010014
0002d0 1a 20 3f bd 08 8b 68 3d 63 d7 40 bd 52 8b e7 3d
       -0.046661474 0.056773216 -0.04708041 0.1130587
0002e0 97 8f eb 3d 59 6e 80 bd 0a 5a 4c 3e fd 7f 13 bc
       0.11501997 -0.06271047 0.19956222 -0.009002683
0002f0 2e 23 37 3c ce 15 be 3d f9 9c 27 3e cf ce cc bc
       0.011177821 0.09281503 0.16368474 -0.025000958
000300 49 16 36 bd 3e 2a c6 3c 94 a5 8f bd 96 bf e9 bc
       -0.044454847 0.024190065 -0.070140034 -0.028533738
000310 16 e0 bc bc 8b 7b b7 3d 18 33 42 be 7d 0c b6 3d
       -0.023056071 0.08959111 -0.18964803 0.08889101
000320 82 4b 27 be 1b e7 6d 3d 4b 69 20 bc 87 40 9f bc
       -0.16337398 0.058081727 -0.009790729 -0.019439949
000330 78 73 0d bd ce 0b f9 bc 80 fe ad bb 05 58 4b be
       -0.034533948 -0.030401137 -0.00530988 -0.19857796
000340 6d e2 33 be 02 12 48 be f3 10 9c bd 15 44 31 bd
       -0.17566843 -0.1953812 -0.0762042 -0.04327782
000350 b4 be 9d bd 18 ed 89 bd ea fa 52 3e d9 81 33 bc
       -0.07702389 -0.06734675 0.20603529 -0.010956251
000360 8d 14 bb bd e0 5c d4 bd 9c 31 cb bd 09 7b 32 3d
       -0.09134779 -0.10369277 -0.099215716 0.043574367
000370 e8 3c 94 3d 2c 7c e6 bd 83 29 7d 3d b2 3a 49 3e
       0.072381794 -0.11254153 0.061807167 0.19651297
000380 60 e7 d7 3d 53 17 4a 3e b7 a2 d3 bc c4 36 f5 bc
       0.10542178 0.1973546 -0.025834424 -0.02993334
000390 04 55 63 bd dd d0 87 3c f6 4d 42 bd 02 97 93 bd
       -0.055501 0.016579086 -0.04743763 -0.07206537
0003a0 9e 00 31 3e 92 90 a8 bd 91 61 07 be 6c 13 d7 bd
       0.17285392 -0.082306996 -0.13220812 -0.10501751
0003b0 c9 7e e5 3d 69 66 00 3e 57 59 20 be 9a f1 2d 3c
       0.11205823 0.12539066 -0.1565908 0.010616684
0003c0 6f 92 e4 3d 16 92 93 3c 54 a8 87 bd bb b9 c7 bd
       0.111607425 0.018013995 -0.06623903 -0.09752222
0003d0 ba f3 ab 3d 44 be 47 3d 17 68 74 bd dc 7d df 3c
       0.083960965 0.048765436 -0.05966958 0.027281694
0003e0 3e 0c 23 3d 9f 99 04 3c 88 d7 32 be 02 3d 7a be
       0.039806597 0.008093267 -0.17465031 -0.24437335
0003f0 bf e8 ce bd 1d fe 50 bd b6 de aa bd 90 dc 18 be
       -0.101029865 -0.05102359 -0.0834326 -0.14927888

network_body._body_endoder.seq_layers.2.bias f4 [128]
000000 18 b1 fe 3a 2a 86 dd 3c 04 dd ff bb ac cb c7 3c
       0.001943144 0.027041513 -0.0078083295 0.02438911
000010 22 f2 b7 3c 44 59 72 3c a1 8c 1d b9 94 dd c8 bb
       0.022454325 0.01479179 -0.00015025075 -0.00612993
000020 df 9f a3 39 28 bb c8 3c eb f1 63 3c 35 12 b9 39
       0.00031208896 0.024503306 0.013912658 0.00035299515
000030 ad 95 92 ba 9d f1 45 3c 28 a4 93 3c 00 d0 ab 3c
       -0.0011183523 0.012081531 0.018022612 0.020973206
000040 f3 15 ce 3c 54 84 0e 3c bc ba 4c bc ec a8 c8 3c
       0.02515695 0.008698542 -0.012495693 0.02449461
000050 77 68 ee ba 38 73 de 3c 12 e6 91 3c 23 58 f1 ba
       -0.0018189092 0.02715455 0.017809901 -0.0018413108
000060 7a a4 69 bb 19 ba 23 bb 60 e7 c4 3c b7 fb 8a 3b
       -0.0035651014 -0.002498275 0.02403611 0.0042414325
000070 96 12 ae 3c dd 13 67 3c 10 ba a3 3c 72 c5 e0 bb
       0.021249097 0.014103857 0.019986182 -0.006859475
000080 90 ba d9 3c 35 f6 b0 bb e9 f1 94 3c 48 a6 b2 3b
       0.026578218 -0.005400444 0.018181758 0.005451951
000090 54 38 e1 bb 9d 03 bd 3a 29 9b 01 bc af 73 93 3c
       -0.00687317 0.0014420633 -0.007910528 0.017999498
0000a0 42 cf 0d 3d 7f 85 44 bc 27 32 f7 3c ae 7b fd bb
       0.034621485 -0.011994719 0.030175282 -0.007735691
0000b0 c7 c2 84 3c bd 3c a4 3c 3d 51 87 3c 57 59 b5 3c
       0.016206158 0.020048494 0.01651823 0.022137327
0000c0 31 5a 40 3c 54 ad 95 3c 2c 30 15 bb dc 87 f0 bb
       0.011740253 0.018271126 -0.0022764308 -0.0073404144
0000d0 6f 62 82 3b f6 88 98 bb cb 93 76 3c a4 3a bb 3c
       0.0039790194 -0.004654999 0.015049885 0.02285511
0000e0 4f 0c b5 bb 5a 4c a0 bb 05 26 b8 3c c6 b8 f3 bb
       -0.005525149 -0.0048919143 0.022479067 -0.007437798
0000f0 75 1d 8d b9 97 23 d2 3c 65 7c 91 3b d3 5a 46 bc
       -0.00026915563 0.025651736 0.004439878 -0.012106615
000100 2e 0a a1 bb 36 10 aa 39 ed b0 9e 3b 75 a6 7f 3c
       -0.0049145436 0.00032437005 0.0048428685 0.015603651
000110 fe 3b c3 3b 36 69 99 3c 77 7b ca 3c 8e e4 2b bb
       0.0059580794 0.018726926 0.024717076 -0.0026228759
000120 81 e1 e8 3b 2b f1 42 bc d6 7d 90 3a ac 9a a3 bb
       0.0071069603 -0.011898319 0.001102383 -0.0049928036
000130 76 2c 0c 3c 22 91 d3 39 1c bc 98 bb 3f 2a 2a 3a
       0.008555522 0.00040353189 -0.0046610963 0.00064912805
000140 0f 0d a5 3c 9e f6 20 3c 63 3b 32 3b 41 f0 e8 3c
       0.020147828 0.009824423 0.0027196042 0.028434874
000150 9d 4d e9 39 e2 10 8d 3c dc 97 64 3b ee f3 ca 3b
       0.0004449905 0.017219964 0.0034880554 0.0061936295
000160 bd 77 b6 ba f5 0c 21 3c dc 98 8c 3c b4 fa 31 b9
       -0.0013921183 0.009829749 0.017162733 -0.0001697343
000170 9f 66 91 3c 9b e4 26 bc 23 e2 e8 3a fa 94 aa 3a
       0.017749129 -0.01018634 0.0017767589 0.0013014369
000180 e8 d1 14 bc c4 62 1b 3c b9 48 83 3b 94 cf 1e bc
       -0.009083249 0.009483997 0.004006472 -0.009693045
000190 b0 17 f1 bb c2 6c c2 ba 1c 86 a8 3c b8 9e 12 3c
       -0.00735756 -0.0014833438 0.02057176 0.008948974
0001a0 2f 0f 69 3c 9c 92 27 bc 18 a6 b8 3c 8e 91 ec 3c
       0.014224811 -0.0102278255 0.022540137 0.028878
0001b0 41 89 9b ba 40 fa 05 36 18 17 6a bc a4 a3 b3 ba
       -0.0011866466 1.996421e-06 -0.014287733 -0.0013705385
0001c0 4c 3a c9 ba 06 13 34 3c 56 35 92 3c c9 c0 c3 bb
       -0.0015352457 0.010990864 0.017847698 -0.0059739095
0001d0 7b f3 13 bb 1f 27 d7 39 66 32 98 3c 7c 10 87 bb
       -0.0022575546 0.00041037143 0.01857872 -0.004121838
0001e0 a4 c0 c6 3c 5c 9d f0 bb cc 79 d3 3c 7e 7b a9 bb
       0.02426178 -0.0073429774 0.025814913 -0.005172192
0001f0 32 20 a3 3c 0c 3a 55 3c 16 b9 c6 3c d1 bc dc 3b
       0.019912813 0.013014328 0.024258178 0.006736376

action_model._discrete_distribution.branches.0.weight f4 [2, 128]
000000 a4 f9 4b 3d e6 fa 61 bd 6c 39 26 3d bb 45 1e bd
       0.049798623 -0.055170916 0.040582106 -0.03864072
000010 5f ac 0a bd 07 fd 6f bb 9c 9b 49 3d ad c4 2f 3d
       -0.033855792 -0.0036619322 0.049220666 0.042912174
000020 ea 8b 00 bd 37 13 21 bd 1f 72 00 bd dc a1 0c 3d
       -0.031383432 -0.039324965 -0.031358834 0.03433405
000030 4a db 5a 3d 6c c7 9b bc 30 29 35 bd 44 bd 27 bd
       0.053431787 -0.01901599 -0.044228733 -0.040951982
000040 f6 1a 76 bd ca 23 4f 3d 46 0a 58 bb 0e 96 e6 bc
       -0.060084306 0.05057124 -0.0032965108 -0.028147724
000050 fd 6b 0f 3d 46 46 55 bd 31 e9 80 bc 5d 87 ef 3c
       0.035015095 -0.05206897 -0.015736194 0.02923935
000060 7b 03 19 3d 4c d6 3b 3d 02 b3 33 bd 29 8c cd 3c
       0.037356835 0.045858666 -0.043871887 0.025091248
000070 48 0f 0f bd fb ee 3e 3d fc 9a 0d bd 8a 4d 42 3d
       -0.034926683 0.04661463 -0.034571633 0.04743723
000080 5d 5f 0f bd 59 a5 54 3d 2b de fb 3c 99 f8 99 3a
       -0.035003055 0.0519155 0.030745586 0.0011747062
000090 cd 4c 0c 3d 28 5e e9 bc 65 b5 c3 3c 7c 6a ee 3c
       0.03425293 -0.02848728 0.023890207 0.02910351
0000a0 20 67 51 bd 74 9a 15 3d 64 e0 62 bd c9 35 1d 3d
       -0.05112374 0.03652425 -0.055389777 0.03838137
0000b0 b9 03 f1 3c fc 67 27 bd 8f 33 d2 bc ee 98 de bc
       0.02942072 -0.04087065 -0.02565935 -0.027172532
0000c0 d2 48 41 3d b2 4b c4 bc 4f f7 f2 3c f5 1d eb 3c
       0.047188587 -0.023961876 0.029658942 0.028700808
0000d0 83 da fd bc af b8 20 3d 2b 64 56 3c 97 16 dc bc
       -0.030987984 0.039238628 0.013085405 -0.02686624
0000e0 c0 33 1c 3d 99 db 1c 3d fb b0 ee bc b7 f1 98 3c
       0.03813529 0.038295362 -0.029137125 0.018669946
0000f0 a7 a8 33 3d dc 81 2a bd ea 82 1d bd ea d5 23 3d
       0.04386201 -0.04162775 -0.038454928 0.039998926
000100 3b 88 eb 3c 49 11 ea 3c 13 f3 e4 3c 9a 8a 0d bd
       0.028751483 0.028572695 0.027947938 -0.03455601
000110 fa 54 c4 3c 55 44 d8 3c c9 2d 2f bd b9 ff 02 3d
       0.023966301 0.02639977 -0.042768274 0.031982157
000120 1c 08 94 3d 7d 62 e4 3c 07 29 73 3d df 13 3c 3d
       0.07228109 0.027878994 0.0593653 0.045917388
000130 fb 67 f0 3b a4 06 49 bd 51 07 17 3d 71 22 d0 3c
       0.007336614 -0.0490786 0.03687221 0.025407048
000140 09 25 2b 3d e0 41 7b bc 27 ae 81 3d 51 ea 4e bd
       0.041783366 -0.01533553 0.06332045 -0.05051643
000150 c1 41 87 3d a7 ec f0 bc be 50 15 3d be 35 ef 3c
       0.066043384 -0.02940972 0.036453955 0.029200431
000160 cf 06 44 3d fb 93 cb bc 78 23 c6 bc 31 59 73 3d
       0.047858056 -0.024850836 -0.024186835 0.05941123
000170 e0 cb 39 3d 28 69 d9 3c 1f 25 50 3d 02 d9 74 3d
       0.045360446 0.0265394 0.05081665 0.059777267
000180 de b5 e5 3c e2 ce 41 3d 19 90 4a bd 6a 4f 1c 3d
       0.028040823 0.04731644 -0.04945383 0.038161673
000190 22 67 8f 3c be 1b f2 3c 08 29 2b bd a2 80 8f bc
       0.017505232 0.029554244 -0.041787177 -0.017517392
0001a0 81 b3 18 bd 2c 38 08 3d 4e 7b 45 bd d6 aa 2a bd
       -0.037280563 0.033256695 -0.048213296 -0.041666828
0001b0 8a 50 16 3d 11 f5 14 3d 2b 3f b5 3c de 3f d2 bc
       0.0366979 0.036366526 0.022124847 -0.02566522
0001c0 e1 35 a2 3c 51 fa ed bb 74 dc fb bc 0b bd 9d 3c
       0.019801082 -0.007262506 -0.030744769 0.019255182
0001d0 80 f7 b6 3c 1c 75 c8 3c 50 87 33 bd dd 68 ea 3b
       0.022334814 0.024469905 -0.043830216 0.007153614
0001e0 1f 77 31 bd 8c cb 6b 3d 75 90 16 bd 22 f9 60 3d
       -0.043326493 0.057567164 -0.03675886 0.05492509
0001f0 52 9f 3f 3d 91 ef 7e 3c 55 01 1a bd ae 21 9e bc
       0.0467828 0.015560047 -0.037598927 -0.01930317
000200 0a 63 2c bd a0 5e 71 3d 9c b9 cf bc 70 c6 1c 3d
       -0.04208664 0.058928132 -0.02535706 0.038275182
000210 98 d4 48 3d 05 b8 6b 3c 94 61 79 bd 76 47 35 bd
       0.04903087 0.014387135 -0.060884073 -0.044257604
000220 54 a6 07 3d f9 1a 41 3d a9 f2 08 3d 8c 78 17 bd
       0.033117607 0.047144864 0.033434544 -0.036980197
000230 bd bf 60 bd 9e 64 9d 3c 30 96 f7 3c f9 5b 0a 3d
       -0.054870356 0.019213017 0.030222982 0.03377912
000240 cf 8a d6 3c 43 fa fb bc 36 1c 3c 3c 11 13 15 3d
       0.026189236 -0.030758983 0.011481335 0.036395136
000250 17 2b 08 bd 9d 5b 1a 3d ec 99 20 3d 0f 38 12 bd
       -0.03324422 0.037685025 0.03920929 -0.035697993
000260 cd 66 2f bd 22 31 13 bd 1c 8b 1a 3d 15 f2 60 bc
       -0.042822648 -0.03593553 0.03773032 -0.013729592
000270 92 92 0e 3d 91 32 41 bd 10 62 f0 3c 5a 56 13 bd
       0.03480775 -0.047167365 0.029343635 -0.035971023
000280 07 66 5b 3d 48 24 d0 bc bc 3f be bc 28 b4 65 bc
       0.053564098 -0.025407925 -0.02322375 -0.014020003
000290 d6 b6 64 bd 1f 16 48 3c dd f9 32 bd f3 68 e7 bc
       -0.05583843 0.012212305 -0.04369532 -0.028248286
0002a0 32 bd 2f 3d 83 1f aa bc 6b 86 00 3d d2 3b 2a bd
       0.04290504 -0.02076698 0.03137819 -0.041560955
0002b0 06 4b b3 bc 75 2c c8 3c b3 79 fe 3c ef 6d 1c 3d
       -0.02188636 0.024435261 0.03106389 0.03819078
0002c0 4a 8a 69 bd 48 2e 2d 3d 74 5b 37 bd 0d e5 54 bd
       -0.05701665 0.042280465 -0.04476495 -0.051976252
0002d0 1e b6 46 3d 8e bf 6f bd 28 c4 ae bc 06 9a 2e 3d
       0.048513524 -0.05853229 -0.021333769 0.042627357
0002e0 88 92 5e bd 9d cc 4f bd 8b 5a db 3c d6 7c a3 bc
       -0.05433896 -0.050732244 0.026776573 -0.019956987
0002f0 5d 73 25 bd b5 3c 47 3d e3 6a 1b 3d 01 21 ff bc
       -0.040393222 0.04864188 0.037943732 -0.031143667
000300 ca 8e 36 bd 10 38 c0 bc 61 01 54 bd b2 af 2a 3d
       -0.044569768 -0.023464233 -0.051759128 0.041671462
000310 a7 91 01 bd 9a 62 11 bd bf 9c 4b 3d 19 30 4d bd
       -0.031633046 -0.035494424 0.04971003 -0.050094698
000320 02 2f 6f bd b3 f7 01 bd bf 19 50 bd cf 7a 44 bd
       -0.05839444 -0.031730365 -0.050805803 -0.047968682
000330 5d 60 22 bb 30 fb db 3c c8 00 13 bd 5e 60 2d bd
       -0.0024776675 0.026853174 -0.035889417 -0.04232823
000340 b7 06 17 bd a0 13 e2 3a 81 3b 0b bd cf ea 28 3d
       -0.03687164 0.001724828 -0.033992294 0.041239556
000350 99 09 2a bd 5a 81 aa 3c 02 7a 65 bd 0c 2a 1c bc
       -0.04151306 0.020813633 -0.05602456 -0.009531509
000360 d9 a3 09 bd 24 f2 16 3d 28 29 aa 3c 59 7d 22 bd
       -0.033603523 0.036852017 0.020771578 -0.039670322
000370 4e bd 35 bd b0 de e5 bc 3d 2a 46 bd 73 39 4d bd
       -0.04436999 -0.028060287 -0.048380125 -0.050103616
000380 cc c5 42 bd cc dd 4d bd 20 00 e3 3c 96 ba f7 bc
       -0.047551915 -0.05026035 0.02771002 -0.030240338
000390 92 79 9d bc c9 47 28 bd b8 8a 2f 3d d0 c7 aa 3c
       -0.019223008 -0.041084085 0.042856902 0.020847231
0003a0 4a c6 ff 3c 02 4f f1 bc e3 17 b8 3c ec 8c 66 3d
       0.031222481 -0.02945662 0.022472328 0.056286737
0003b0 b7 27 72 bd 6e 4f 51 bd f7 cf 9d bc 83 de a8 3c
       -0.059119906 -0.05110114 -0.019264204 0.020613914
0003c0 9f 6d ab bc 44 7a e4 bb 9d 76 9d 3c 90 0a 39 bd
       -0.020926295 -0.006972583 0.019221598 -0.04517609
0003d0 c8 05 a9 bc e6 18 23 bd db ab d6 3c 38 e6 a1 3b
       -0.02063264 -0.039818667 0.026204994 0.0049407743
0003e0 08 f9 1b 3d 1c d9 c7 bc 2f 54 59 3d a3 df 27 bd
       0.03807929 -0.024395518 0.0530588 -0.04098476
0003f0 7d d2 2e bd 90 62 ad 39 5a cf 11 3d b7 6f 24 3b
       -0.042681206 0.00033070566 0.035598136 0.0025091001

action_model._discrete_distribution.branches.0.bias f4 [2]
000000 5a 9a 69 bc 5a 9a 69 3c
       -0.014257992 0.014257992
