Assets/results/ppo/JumperAgent/JumperAgent-92359.pt (torch, 546980 bytes, 33 tensors)

network_body._body_endoder.seq_layers.0.weight f4 [128, 42]
000000 7a 26 28 be ce c5 1f be 82 37 93 bd 04 13 06 be
       -0.16420928 -0.156028 -0.07188322 -0.13093191
000010 4a c7 b0 3d 7e 73 22 be 7c 4c 12 be ce 96 3a 3d
       0.08631761 -0.1586437 -0.14286989 0.045553975
000020 41 d9 ec bd 8c 9e 02 be 44 0f ad be f0 ee 62 bd
       -0.115648754 -0.12755793 -0.3380071 -0.05540365
000030 7f c5 fb bd bf c3 1e bd b6 76 9a 3b 28 be 75 be
       -0.12293529 -0.038760897 0.0047138585 -0.2399832
000040 00 45 4d 3e 17 08 b9 bd 55 64 14 3c 68 c7 f7 bc
       0.20045853 -0.09034746 0.009057124 -0.030246451
000050 97 ee 9e 3d 68 4a f5 bd c7 b4 77 be b4 5c b7 bc
       0.07760351 -0.119770825 -0.24190055 -0.022383071
000060 68 aa f5 bd 09 ca c4 bd 81 10 a5 bd e8 89 92 3e
       -0.11995393 -0.09608848 -0.080597885 0.2862084
000070 4d 56 50 3e 8c 1d 8b 3d 3e 30 3d 3d 70 09 83 3e
       0.20345421 0.06792745 0.046188585 0.25593138
000080 85 07 80 be f1 ee 95 3c 48 ae 8b be db 26 c2 ba
       -0.25005737 0.018302413 -0.27281404 -0.0014812605
000090 29 55 b2 be 53 2e 01 3e 58 21 3c 3e 7e 7b ac 3d
       -0.34830597 0.12615328 0.18372095 0.08421992
0000a0 56 38 89 3c 6e 2e 3e be 1e 26 ea bd d3 f3 00 3e
       0.016750496 -0.18572399 -0.114330515 0.12593012
0000b0 28 69 f5 bd 8f 9e 11 be 31 84 96 3d 79 49 09 3e
       -0.119829476 -0.14220642 0.07349432 0.13406934
0000c0 fa be a3 3e 96 d1 0f be c2 9b 19 be 40 77 bc 3d
       0.3198164 -0.14044794 -0.15000823 0.09202433
0000d0 3c ad b1 be c7 b0 d9 be 82 8f e9 3d 11 8b a2 bd
       -0.3470248 -0.42517683 0.11404325 -0.07936681
0000e0 0d 7a 74 bd 46 ae 8a 3e 8f 34 c5 3d dd f6 0d be
       -0.05968671 0.27086085 0.096291654 -0.13863702
0000f0 80 ad a0 3d 60 44 ad bd 1b 13 17 3e 7e fd de 3d
       0.078455925 -0.08460307 0.14753382 0.108881935
000100 53 ba 2a be 96 1c d9 bd 4b d1 c2 3d 76 69 aa 3d
       -0.1667264 -0.106011555 0.09512576 0.08320896
000110 35 45 fd 3c 23 a6 36 3d c8 fd ff 3d 1c ae 0b bd
       0.03091679 0.044592034 0.12499577 -0.03410159
000120 17 a3 0b bd 76 8d a5 bd cc 75 35 be 80 67 2f be
       -0.03409108 -0.08083622 -0.17720717 -0.17129326
000130 a6 a2 30 be c9 69 9f 3c 0a 9d 3c be 78 30 0a be
       -0.17249545 0.019459622 -0.1841928 -0.13495052
000140 c5 94 b4 3b 45 10 90 bd a4 d5 08 3e 3b cf 75 bc
       0.005510899 -0.07034353 0.13362747 -0.015003021
000150 5b b3 87 bd 91 e3 05 3b c4 d4 18 be 3b 81 7c be
       -0.06626006 0.002042983 -0.14924914 -0.24658673
000160 d0 96 f0 3d b9 48 00 3b 42 7e b4 bb 35 5b 70 3d
       0.11747515 0.0019574596 -0.005508215 0.05868073
000170 45 d8 81 be 15 36 b1 bd 97 b8 17 3e d4 b5 3b 3e
       -0.25360313 -0.086528935 0.14816509 0.1833108
000180 e5 5f 86 3e 04 71 95 3d 6d a5 e4 bd 80 1e a2 3d
       0.26245037 0.07296947 -0.11164365 0.07915974
000190 cd 73 23 3e 1a f1 11 3e 40 e9 62 bd fe ec 76 3e
       0.15962143 0.14252129 -0.055398226 0.24113843
0001a0 55 00 21 3e c4 1d 86 3d c1 39 30 bd 91 1b 4d 3e
       0.15722783 0.06548646 -0.04302383 0.20030047
0001b0 b1 73 b4 be 4e f6 13 3d 2f 4c 01 bd 49 0d b9 3d
       -0.35244516 0.036123566 -0.031566795 0.09035737
0001c0 3b c1 60 be 00 f2 0f 3e 85 00 e8 bd 49 bd 1a 3e
       -0.21948712 0.1405716 -0.11328224 0.15111269
0001d0 1e 74 6b be 69 fa 80 be 52 27 c5 3d 66 6d a8 bd
       -0.22993514 -0.25191048 0.096266404 -0.08223991
0001e0 10 02 1d be 4f 5e d3 3c 44 28 aa be c9 fd 66 be
       -0.15332818 0.025801806 -0.33233845 -0.22557749
0001f0 d7 45 92 3d fc 6b 53 3e 3d 0e 90 bd b5 c7 13 3d
       0.07142227 0.20646662 -0.07033966 0.036079127
000200 7a d0 60 bd f6 84 26 be c3 18 5d 3c d9 f8 03 be
       -0.05488632 -0.16261658 0.013494673 -0.12887897
000210 f7 cc 56 be 1e 44 85 bd 1a a9 5e 3d bb ed 94 3d
       -0.20976625 -0.06507133 0.054360487 0.07271906
000220 93 11 eb bc 26 6b 5e be c4 8b 2d bd 65 34 9f 3d
       -0.028694903 -0.21720561 -0.04236962 0.07773665
000230 82 e8 ab bd 65 f9 c5 3e be 5c 84 3d 14 6c da bc
       -0.08393957 0.38666835 0.06463002 -0.026662864
000240 5b 41 bb bd d7 c5 68 3d 67 17 d6 3c 37 39 30 3e
       -0.09143325 0.0568293 0.026134206 0.17209326
000250 8c e4 e0 bd 61 00 a1 bd 31 06 8a be d9 7d 1d 3e
       -0.10981092 -0.078614004 -0.2695785 0.15380038
000260 0d b8 13 3e 35 94 9a bd d7 b9 9a bd 6e f3 99 bc
       0.14425679 -0.075477995 -0.075549774 -0.018792834
000270 28 ac 87 be 4f 46 51 3e d4 a1 4f be 35 8e 9f 3d
       -0.26498532 0.20436977 -0.20276576 0.07790796
000280 e8 e3 68 be 0e 6b 01 3e 2c fa c9 bd 56 b2 c2 3d
       -0.2274319 0.12638494 -0.098621696 0.09506671
000290 60 ca 87 3e f0 ac 05 be 87 0b 33 3e c6 e6 aa bd
       0.26521587 -0.13054252 0.17484866 -0.08344798
0002a0 8d 15 db bd 69 e1 ab 3d da de 96 bd 48 40 4e be
       -0.1069747 0.08392603 -0.07366724 -0.20141709
0002b0 af f1 9f 3d 61 d9 0c 3e 60 e6 50 be f7 4d e0 3d
       0.07809769 0.13754798 -0.20400381 0.109523706
0002c0 65 c3 fc bc b8 86 d3 3d 1c 59 2f 3d 9d 7a 95 bd
       -0.03085489 0.1032843 0.04280959 -0.07298777
0002d0 af b2 82 ba 24 4e 88 bd 42 6b c2 3d 1a 04 bf 3e
       -0.0009971465 -0.06655529 0.09493114 0.37307817
0002e0 1b 72 61 3d 80 e9 10 be 3d 3a 39 be 56 94 d0 bd
       0.05504046 -0.14151573 -0.18088622 -0.10184543
0002f0 aa 26 20 be 85 30 88 bd 8b 94 a3 3e a9 5d 4c 3e
       -0.15639749 -0.06649879 0.31949267 0.19957604
000300 07 a2 00 3e d0 d0 3b 3b 0c ab 9b bd e0 f7 0d be
       0.12561809 0.0028658397 -0.07600984 -0.13864088
000310 1c b0 6d 3d 8a 35 51 3d 1c e4 56 bd 9e 6a 4d 3e
       0.05802928 0.05107645 -0.052463636 0.20060202
000320 3d f8 f6 3d 07 47 1d be 13 c2 35 bc 58 c8 c6 3e
       0.120590664 -0.15359126 -0.011093634 0.38824725
000330 5f 58 5e bc ed 96 b7 bd 4e 4a 58 3e f4 36 83 3d
       -0.013570874 -0.08964334 0.21122095 0.06406966
000340 03 b8 93 3c 1e 97 81 3c d2 4b 5a 3e 49 3c a3 3c
       0.01803208 0.015819129 0.21317986 0.019926207
000350 a3 42 b1 be 61 12 82 be 5f 3a d6 3d f3 2b c5 3b
       -0.34621152 -0.25404647 0.10460352 0.006017202
000360 4e a5 17 be 35 82 db bd 99 af 95 3d ce 75 83 3e
       -0.14809152 -0.107181944 0.07308883 0.25675815
000370 85 b3 9e 3e 8a 0e 5a be 42 22 d1 3d 4a fc 0b be
       0.30996338 -0.21294609 0.10211612 -0.1367046
000380 d7 b0 04 be 78 00 cc be 37 ef 4e 3e 8b e7 83 3d
       -0.12958084 -0.39844108 0.2020844 0.06440648
000390 32 ba a3 be 39 f4 3d bd 6d 7b a3 3e 7f f9 c4 3e
       -0.31977993 -0.046375487 0.31930104 0.384716
0003a0 0e 57 57 3d ec 67 55 bd 76 3e a7 bd 70 db 6e bc
       0.052573256 -0.05210106 -0.0816621 -0.014578685
0003b0 1a 67 61 3b 98 fc 7e bd 7c 3e 15 3d 07 4a 93 3b
       0.0034393729 -0.06225261 0.036436543 0.0044949087
0003c0 c2 60 04 be ae ac e5 3c b5 5e a3 bd 0c 12 8c be
       -0.12927535 0.028036442 -0.07977048 -0.2735752
0003d0 33 af 25 be 53 d5 b3 3e 20 06 8d bd fa 84 97 be
       -0.16180114 0.3512369 -0.06885934 -0.2959364
0003e0 c6 4e e0 bd c4 da 86 be 9c 59 55 3e 50 29 1c be
       -0.10952525 -0.2633878 0.20834965 -0.15250134
0003f0 79 46 cb 3c 4f 6e a2 3d 60 0b 7b be 0e 58 18 3e
       0.024813877 0.07931196 -0.24516058 0.1487734

network_body._body_endoder.seq_layers.0.bias f4 [128]
000000 e9 37 a2 bc 98 ac 8c 3c 3f fe b9 3c 7b a4 8c bc
       -0.01980205 0.017172143 0.022704242 -0.017168274
000010 8c 1c f5 3c 24 79 cb bc b3 4c cf 3c 01 ca 71 bc
       0.029920839 -0.024838038 0.025305128 -0.014757634
000020 38 29 b6 bc ca 0e d9 bb 43 c6 9f 3c 48 b3 40 bb
       -0.022236452 -0.0066240774 0.019503718 -0.0029403735
000030 20 85 c6 bc 1e 9c b6 3c ed 63 bf bc 68 02 fb 3c
       -0.0242334 0.02229124 -0.023363078 0.030640796
000040 00 38 e9 3c 75 22 bb 3c be ea 1d 3b d3 4f 12 3b
       0.028469086 0.022843579 0.0024096216 0.002232541
000050 df 88 e3 3c a8 9b 31 3b 1f c7 c7 bc 13 e4 91 bc
       0.027775226 0.0027100835 -0.02438694 -0.01780895
000060 1e 4b 02 bc 64 7d 68 bc 2c 1c 43 3c ba 52 98 bc
       -0.00795248 -0.014190052 0.011908572 -0.018594135
000070 1e e1 f7 3c 66 ea ae bc 60 55 ab 3c 7a 74 00 3d
       0.030258711 -0.021352004 0.020914733 0.03136108
000080 33 30 ed 3c 42 65 e8 3c 5a 04 d2 3c 79 45 08 3d
       0.028953647 0.028368596 0.02563684 0.03326938
000090 6c dd 8b bc c0 8e f2 3c 5c e3 92 bc 96 7a c6 3b
       -0.017073356 0.029609084 -0.017930679 0.006057094
0000a0 fa 69 34 3b ab cd b0 bc 84 45 61 bc 63 5e 64 3b
       0.0027528987 -0.021582445 -0.013749484 0.0034846298
0000b0 d7 20 cc 3c 8d a4 bd 3c 2d aa ac bc 03 b4 8f bc
       0.024918003 0.023149753 -0.02107724 -0.017541891
0000c0 77 6b a8 bc 8c 9a ec 3c 2e b9 bd 3c 1f e3 32 bc
       -0.020559056 0.028882287 0.02315959 -0.010918408
0000d0 79 71 ef 3c dd 74 34 bc 1a 3a cf 3c bb c0 c7 bc
       0.029228913 -0.0110141905 0.02529626 -0.024383893
0000e0 7e e3 01 3d cc 94 c0 ba e3 09 04 3d 71 19 e2 3c
       0.031711094 -0.0014692782 0.03223599 0.027600022
0000f0 f3 9e d5 3c 98 cd 9f 3c 83 fa f2 3c 64 53 65 3b
       0.02607677 0.019507214 0.029660469 0.0034992332
000100 eb ff c4 bb fd 27 6e 3c c2 33 07 3a e3 82 2f bc
       -0.006011953 0.014535901 0.0005157554 -0.010712358
000110 d4 f3 e5 3c 8d d7 f2 3c e8 8f ce 3c 5d 9b c1 ba
       0.028070368 0.029643798 0.025215104 -0.0014771033
000120 89 0f c3 bc e4 b0 d6 3c d6 af ee bc 41 dd e0 3c
       -0.023811119 0.026207395 -0.02913658 0.027449252
000130 2c ba f4 3c 23 45 0a 3d c6 a3 3f 3c 13 2a f5 3c
       0.02987393 0.03375734 0.0116967615 0.02992729
000140 49 c4 f0 3c 63 b8 61 bc 58 23 e9 3c 4a ff 98 bc
       0.029390471 -0.013776871 0.028459236 -0.018676419
000150 b4 73 aa 3c 5e fe fe 3c 71 be 8f 3c f1 dc f8 3b
       0.020807125 0.031127151 0.017546864 0.0075946976
000160 6b 0e a7 bc 42 5e d5 3c 0e 35 f2 3c 50 d6 d5 3c
       -0.020392617 0.026045922 0.029566314 0.026103169
000170 6d fc d4 3c c4 ba 79 bc 16 c1 1f bc 77 d4 bc bc
       0.025999272 -0.015242282 -0.009750625 -0.02305053
000180 9f 23 f5 bb fd 35 71 3c 1b af 82 bc 97 9c 5f bc
       -0.007481053 0.014722344 -0.015952637 -0.013648174
000190 9a ea a9 ba 04 f6 e6 bc 79 6f d9 3c 7c ca e6 3c
       -0.0012963593 -0.028193481 0.026542412 0.028172724
0001a0 2f 9b e9 3c 9f 93 db 3c c1 cd 97 bc cb 9d b3 bc
       0.02851638 0.02680379 -0.018530728 -0.021925827
0001b0 ed 3f c6 bc 95 2f 45 3c cd 47 e2 bc 01 b3 dd bc
       -0.024200404 0.01203527 -0.027622128 -0.027062895
0001c0 b0 f7 a4 3c bc 72 e0 3c 2a 3b b6 3c 00 81 e6 bc
       0.020137638 0.02739846 0.022245008 -0.028137684
0001d0 66 c8 a2 bb 6f 4c a0 bc c9 57 b9 3c 63 13 e6 3c
       -0.004967737 -0.019567696 0.022624867 0.028085416
0001e0 03 02 0f 3c 6c f7 cb ba 22 fb 9c 3c d9 29 92 bc
       0.008728507 -0.0015561408 0.019162718 -0.01784222
0001f0 3d b9 e6 3c ef bd c7 bb 16 a3 93 bc 15 93 36 bc
       0.0281645 -0.00609564 -0.018022101 -0.0111434655

network_body._body_endoder.seq_layers.2.weight f4 [128, 128]
000000 4a 4c 9a 3d 00 83 3e bc f0 66 ce 3b 86 be 5f 3d
       0.07534082 -0.0116279125 0.006298892 0.054625057
000010 91 07 96 3c 09 34 10 be e6 16 f8 3a 1f ca da 3b
       0.018314155 -0.1408235 0.0018927723 0.0066769267
000020 0c d7 f0 3d 2f 99 5d 3d 91 66 f0 3c c2 83 56 bc
       0.11759767 0.054101165 0.029345782 -0.013092937
000030 0b b4 ec bc c3 44 59 bd 86 95 48 bd 03 5b 81 bd
       -0.028894445 -0.053044092 -0.04897072 -0.06316187
000040 ac 53 c3 bd 2f ea cc 3d ac 0b 4d be ae cf ca bd
       -0.095374435 0.100056045 -0.20023984 -0.09902893
000050 45 b2 fa 3d 34 c7 db bc b4 66 15 bd 58 41 55 be
       0.122410335 -0.026828386 -0.0364749 -0.20825708
000060 be f8 7e bd 63 a9 99 3d c0 51 d6 bd 79 b3 18 bd
       -0.062248938 0.07503011 -0.10464811 -0.037280533
000070 18 44 03 bd bf 70 cb bd 44 52 9c 3c 6d 49 3e bc
       -0.03204736 -0.09933614 0.019082196 -0.011614186
000080 83 24 62 bc 54 f3 b5 3d 3a 2d 2a 3e 41 5a b1 3d
       -0.01380265 0.08884302 0.16618815 0.08659793
000090 72 23 0a 3e 88 c8 cd 3c 2d 2d 68 3e b8 d6 33 3d
       0.13490084 0.025120035 0.22673483 0.043905944
0000a0 b0 d3 2d be 18 08 d1 bd 22 f2 c8 bd d3 c6 4e 3d
       -0.16975284 -0.10206622 -0.09811808 0.050482582
0000b0 3f 38 8b 3d 9a 77 20 bd bc 25 f9 bd 5c ff 9f 3d
       0.067978375 -0.03917656 -0.121654004 0.07812378
0000c0 8a 82 00 be 9f e3 d2 3d 39 5d b0 bd 34 30 2a 3d
       -0.12549797 0.102973215 -0.08611531 0.041549876
0000d0 08 18 c6 3d 48 e7 6f be 1c 16 30 bd 0b e3 88 be
       0.09672552 -0.2342807 -0.042989835 -0.2673572
0000e0 12 73 a1 3d 38 fb bc bb cc d0 bf 3c 2d 08 04 3b
       0.07883276 -0.0057672523 0.023414992 0.0020146475
0000f0 b2 6b 58 bd b9 33 33 be 1c 86 05 3e 8e 1c 11 be
       -0.05283708 -0.175002 0.1303944 -0.14171049
000100 04 c7 44 bd 43 35 5e 3b e6 19 eb ba 9a a2 e6 bc
       -0.04804136 0.0033906258 -0.0017936795 -0.028153706
000110 49 c0 ec 3d 5f 4c a0 bd 07 5c 20 3e bb 4b db bd
       0.11560113 -0.07827067 0.15660106 -0.10707804
000120 d7 26 45 be f1 5f 58 3d 6a cf f7 bd a8 4b 10 3c
       -0.19253097 0.05282587 -0.12100108 0.0088071
000130 bb e6 86 3b 5c 9c e5 3d 40 1a 0d 3e 88 06 0d 3e
       0.0041168607 0.11211464 0.13779545 0.13772023
000140 08 9c 05 3d fa ef 97 bc b9 0d f8 3d 40 5b 26 bc
       0.032619506 -0.018547047 0.121119924 -0.010153592
000150 e2 9b 32 bd dc d8 61 3e 02 2a b4 bc 95 0b 84 3e
       -0.043605693 0.22055382 -0.021992687 0.25790086
000160 b6 f6 77 3d 4c 23 e1 bd e3 85 12 be 26 1b 02 3e
       0.060538016 -0.109930605 -0.14308886 0.12705669
000170 d8 30 c0 bd d4 35 d6 bd c9 04 60 bd 00 46 68 be
       -0.09384316 -0.10459486 -0.054692063 -0.22682953
000180 64 a5 13 be c6 cc 20 bd 54 34 4f bc 6c 00 1d be
       -0.1441856 -0.039257787 -0.012646753 -0.15332192
000190 2c b2 10 bd e3 42 34 be 9d 8e 98 bd 95 3a f9 bb
       -0.035326168 -0.1760364 -0.07449076 -0.0076058605
0001a0 77 f7 95 bd 24 9e f6 3c 4e 44 b9 3d 6d 6d 0e 3d
       -0.07322591 0.030104704 0.09046231 0.034772325
0001b0 01 7d 39 3d d1 01 93 3c 97 0f 23 3e ea fb d9 bd
       0.04528523 0.017945202 0.15923916 -0.10643752
0001c0 f8 d0 18 3d f9 ed 06 3e 5a b4 31 3e 17 6a e8 3b
       0.037308663 0.13176717 0.17353955 0.007092725
0001d0 bb 9b bc 3d be 13 21 3b f5 bf 0e bd ff bb 86 3d
       0.09209391 0.0024578418 -0.034851033 0.06578826
0001e0 cb 14 01 3e 22 42 94 39 5e ba 25 bc 86 44 4f bc
       0.12605588 0.00028278033 -0.010115234 -0.012650615
0001f0 07 ea 71 3d be 3d 2c bb 11 82 df bd fd d2 6a bb
       0.059061076 -0.0026281918 -0.1091348 -0.0035831325
000200 16 42 e3 bc 16 9b 55 3d 65 02 a6 3d fe 6e 81 bd
       -0.027741473 0.052149855 0.081059255 -0.06319998
000210 8c ed 17 3e a3 d8 9c 3d e1 5d 0c 3e 98 ec a5 bd
       0.1483671 0.07658508 0.13707687 -0.08101767
000220 06 a4 5f 3e 0b 04 a7 bd 3a fd f7 bc 17 20 ea 3d
       0.21839914 -0.08155068 -0.030272115 0.11431902
000230 16 28 37 3d 1b 33 8e bd fe e1 f8 bc a7 71 07 be
       0.044715963 -0.06943341 -0.030381199 -0.13226949
000240 84 5d b6 3d 22 90 4f bd 85 f7 0c 3e 9e 91 86 3d
       0.089045554 -0.050674565 0.13766296 0.06570743
000250 c9 b9 9d 3d 2b bb b9 3d 8e 68 20 be 01 4b 68 3e
       0.07701451 0.090689026 -0.15664884 0.22684862
000260 ac d4 29 bd 26 fc eb bd cd c4 fc 3d 4a ff 22 3e
       -0.041462585 -0.11522703 0.12342224 0.15917698
000270 fb 55 af bc f4 66 3c bc 41 b7 c8 bd ef 18 8c bd
       -0.021403303 -0.011499155 -0.09800578 -0.06840693
000280 06 c2 86 3d 55 d0 9a ba b8 09 1a bd e7 af 67 bd
       0.06579976 -0.0011811355 -0.037606925 -0.056564238
000290 c5 6f ad 3a 4e 3a f0 bc 1d 82 4b 3c 21 a5 30 be
       0.0013232162 -0.029324677 0.012421158 -0.17250492
0002a0 1c 1e 76 bd 4f 80 ac 3d 9e 53 09 3e 18 ca 0a 3e
       -0.06008731 0.084229104 0.13410804 0.13553655
0002b0 9b 61 8d bd 26 76 56 3d e6 6e 96 3d 08 ff 21 3c
       -0.069033824 0.05235877 0.07345371 0.009887464
0002c0 40 a2 c4 3c a4 a5 cc 3c 43 c8 ad bd 82 61 2b be
       0.024003148 0.024981327 -0.084854625 -0.16736415
0002d0 a3 3e 45 bd 99 20 83 3c 91 cd 6d bc bd ce 9c bd
       -0.04815544 0.016006755 -0.014514343 -0.0765662
0002e0 66 fe 1f bc d5 d9 08 3c db 01 2a bc 26 22 52 bd
       -0.009765243 0.008352716 -0.010376419 -0.051302098
0002f0 7f d9 70 bd 58 55 c6 bd 94 63 0f 3c 43 aa d2 3d
       -0.05880117 -0.09684247 0.008751769 0.10286381
000300 45 7c 74 bd 82 c0 16 3e 2f d2 b0 bd 04 17 55 b7
       -0.059688825 0.14721873 -0.08633839 -1.2701148e-05
000310 5a a1 d8 bd 7a 37 a3 bd 1a eb c9 bd 45 62 24 3c
       -0.1057765 -0.07969566 -0.09859295 0.010033195
000320 7d 52 24 bd bd cf 74 3d 98 37 8a 3c a2 fc 9f 3d
       -0.04011773 0.059768427 0.016872212 0.07811858
000330 0d d3 23 be b8 db 09 be e1 c6 95 bd 91 b7 d1 bc
       -0.15998478 -0.13462722 -0.07313324 -0.025600227
000340 10 a7 88 bd af 73 8d bc 09 56 26 3d e0 3f 6d bc
       -0.0667249 -0.017267076 0.040609393 -0.014480561
000350 25 e4 fd 3c 1a 9d a1 bd 07 49 2d 3d f1 88 0a 3d
       0.030992577 -0.07891293 0.042305972 0.033822004
000360 37 ae 49 bd 4c aa 0f be c3 7d 97 bb 7a 04 88 bd
       -0.04923841 -0.14029807 -0.0046231463 -0.06641479
000370 42 1b 09 bc 26 d0 d9 3d ee c3 b7 bd 58 34 1a bc
       -0.008368315 0.10635404 -0.089729175 -0.009411894
000380 e6 4b 30 be ac f2 38 3d 06 68 50 3d e4 81 11 3e
       -0.17216453 0.045153305 0.050880454 0.14209706
000390 4e 7b d9 bb 6e e1 99 bd 30 50 d8 bd d8 92 dc bc
       -0.0066370135 -0.075137004 -0.105621696 -0.02692549
0003a0 44 16 f8 3d a0 e7 24 bd 0c c0 30 3d 2b e3 83 bd
       0.12113622 -0.040259957 0.0431519 -0.06439813
0003b0 d8 3e cb bd 1f 4a 30 bd 16 3d 85 3d 99 26 e3 3d
       -0.09924096 -0.043039437 0.06505792 0.11091346
0003c0 a8 10 5f bd 6e 91 60 be 29 84 dd bd ad 3b 93 bd
       -0.054459244 -0.21930477 -0.10816223 -0.071891166
0003d0 15 89 83 3d 1b e0 fa bc 59 f7 e7 3c d8 2e aa 3c
       0.06422631 -0.03062444 0.028316187 0.02077429
0003e0 cc 76 e8 bc 66 4a 3d bc bc 34 af 3d e2 cd 38 3e
       -0.02837696 -0.0115533825 0.0855498 0.18047288
0003f0 58 69 54 bd ac 2f 53 3c fb ec be 3c 43 30 ae bc
       -0.051858276 0.012889784 0.02330636 -0.021263247

network_body._body_endoder.seq_layers.2.bias f4 [128]
000000 ce 47 e7 3c 63 c9 70 bc a5 7c 76 bc 87 84 0c 3c
       0.028232481 -0.014696452 -0.015044366 0.008576519
000010 d9 6f 93 3c ee 40 90 bc d1 a4 9c bc f1 85 8a bc
       0.017997669 -0.017609086 -0.01912156 -0.016909571
000020 51 7a 48 3c b9 23 dd 3c 32 0a e3 3c 1e 6e e4 3c
       0.012236194 0.026994573 0.027714822 0.02788454
000030 b6 0b 98 bc 9a 93 35 3c cb 9f e5 3c 89 c9 d1 3c
       -0.018560272 0.011082554 0.028030297 0.025608795
000040 6e 34 8e bc 2d 17 5a 3a f1 90 80 bc 28 24 e7 3c
       -0.017358985 0.00083194935 -0.015694113 0.028215483
000050 b4 0e da 3c 19 d6 d4 3c e1 71 7c bc e0 18 ba 3c
       0.02661834 0.025980996 -0.01540801 0.02271694
000060 24 b0 82 bc 85 32 4a bc 4f e8 e6 3c 28 69 99 bc
       -0.015953131 -0.012341146 0.028186945 -0.0187269
000070 10 e8 93 bc be c5 65 bc 0b f3 99 bc 89 77 d6 3c
       -0.018054992 -0.014024196 -0.01879265 0.026180046
000080 f3 66 37 bc bc 79 34 3c 6b 93 88 bc 43 f2 70 bb
       -0.011193979 0.011015352 -0.016671857 -0.0036765493
000090 6c fa db 3c df 6a 7a bc 2e 48 b7 bb e5 a2 74 bc
       0.026852809 -0.015284269 -0.0055933213 -0.014931415
0000a0 bc c8 2c 3c b3 a7 dc 3c 95 e9 05 3c 3c aa e5 3c
       0.010545906 0.026935434 0.008173366 0.028035276
0000b0 fc f0 76 bc a3 43 5f bc 2d 83 e0 3c 06 05 e4 3c
       -0.015072104 -0.013626966 0.0274063 0.027834427
0000c0 d0 b4 9b bc 18 c3 e3 3c 17 d2 56 bc 2c 69 5e bc
       -0.019007117 0.027802989 -0.013111613 -0.01357488
0000d0 6b b5 da 3c 0d fa e0 3c d6 71 6d bc cd 75 89 bc
       0.026697835 0.027462984 -0.014492473 -0.016779805
0000e0 ed 27 e6 3c 55 33 e8 3c 2d d4 cc 3c 50 dc df 3c
       0.02809521 0.02834479 0.025003517 0.027326733
0000f0 e6 b0 8a bc 44 c7 e1 3c a9 6f df 3c 1d b7 91 bc
       -0.016930055 0.027560838 0.027274923 -0.01778751
000100 98 37 80 bc d4 bf dd bb 61 29 d4 3c 77 71 79 bc
       -0.01565151 -0.0067672525 0.025898637 -0.015224806
000110 d2 62 d2 3c 61 ab 74 bc ea ac f3 3c 62 d1 d9 3c
       0.025681887 -0.014933438 0.029745538 0.0265891
000120 ea 72 d4 3c 84 fb e3 3c ae 75 87 bc b4 1d e0 3c
       0.025933702 0.027829893 -0.016535606 0.027357914
000130 d2 5c 7f bc 11 f3 97 bc 3f bb 02 bc 26 d0 3f bc
       -0.015586095 -0.01854852 -0.007979213 -0.011707341
000140 02 a4 a5 bc 53 20 d3 3c 70 ee 5a 3c 4a 45 c2 bb
       -0.020219807 0.02577225 0.013362512 -0.00592867
000150 2a 0d fd 3b cc 33 df 3c cb 9d 8a ba bb b8 d0 3c
       0.0077225165 0.027246378 -0.001057559 0.025478711
000160 bf 3d 73 3c 23 20 66 bc fd 98 7a bc 70 e3 bb 3c
       0.014846264 -0.014045748 -0.015295264 0.0229356
000170 e5 c9 5b bc 31 f1 e9 3c ce 04 d9 3c ce 0e 5b bc
       -0.013414835 0.028557392 0.026491549 -0.013370229
000180 3a 04 7a bc 7a f8 93 bc c1 c3 5f bc 63 5c 8d bc
       -0.015259797 -0.018062819 -0.013657511 -0.017255967
000190 b1 9d 96 3c 70 4a 40 3c fc e7 ea 3c 58 5d 53 bc
       0.01838574 0.011736497 0.028675072 -0.012900673
0001a0 78 52 d6 3c ee ef de 3c b8 81 7d bc cf b5 c3 3c
       0.026162371 0.027214017 -0.015472822 0.023890404
0001b0 39 93 9a bc ee 24 69 bc 5b a6 82 bc 36 d9 cd 3c
       -0.01886903 -0.014229996 -0.015948465 0.025127988
0001c0 de 2b df 3c 32 67 e6 3c 47 e9 04 bc aa 1c 87 bc
       0.027242597 0.02812538 -0.008112258 -0.01649316
0001d0 43 01 73 bc 2f 05 68 bc e0 16 9f 3c 9a 79 82 bc
       -0.014831844 -0.014161392 0.019420087 -0.015927125
0001e0 e6 28 7c bc 30 f6 d9 3c 89 e6 96 bc f7 df a1 3c
       -0.01539061 0.02660665 -0.018420475 0.019760115
0001f0 16 d0 e2 3c b1 81 b3 3b 63 37 8a bc 05 e9 8e bb
       0.027687114 0.005478107 -0.016872114 -0.004361274

action_model._discrete_distribution.branches.0.weight f4 [2, 128]
000000 00 f1 b8 3c c4 32 25 bd 3a d8 d9 bc 52 5c d4 3c
       0.022575855 -0.040331617 -0.026592363 0.025922928
000010 63 5d 11 3d 7f 80 8a bc 9a 17 bd bc 62 f7 11 bd
       0.03548945 -0.016906975 -0.023082543 -0.035636313
000020 20 97 4d bc 38 f1 36 3d ac 82 f5 3c 81 e3 01 3d
       -0.012548238 0.044663638 0.029969536 0.031711105
000030 f3 89 1b bd 44 6e 50 bc df f0 e8 3c 31 b2 30 3d
       -0.037973356 -0.012721602 0.028435169 0.043138687
000040 74 ff 28 bd 6a 30 15 3c b2 8a 46 bc 50 b2 08 3d
       -0.041259244 0.009105781 -0.0121180285 0.033373177
000050 88 83 12 3d fe 95 2f 3d b7 cc ef bc a4 9d dd 3c
       0.03576997 0.042867653 -0.02927242 0.027052708
000060 a0 a5 ec bc a8 69 d5 bc 6d f5 0a 3d 53 5f c9 bc
       -0.02888757 -0.026051357 0.033925463 -0.024581587
000070 b2 b0 12 bd d3 86 cd bc d2 50 c7 bc f5 16 ec 3c
       -0.03581304 -0.025088703 -0.02433053 0.02881954
000080 6d eb ab bc 67 5e f0 3c ae 7e 83 bc b2 23 a4 bc
       -0.020986283 0.02934189 -0.016051617 -0.020036552
000090 18 41 22 3d 0d 6c a3 bc 7f f8 95 bc e1 de ee bc
       0.03961286 -0.019948984 -0.018306969 -0.029159011
0000a0 de ad a7 3b 9e 43 23 3d c9 e7 be 3b c5 c9 ce 3c
       0.005117162 0.039859407 0.005825971 0.025242696
0000b0 14 56 94 bc 15 43 c8 bc 49 da 18 3d f5 b1 2f 3d
       -0.018107451 -0.02444605 0.037317548 0.042894322
0000c0 9f cb 1a bd 81 f0 3e 3d c2 5d 26 bd 4e 80 0b bd
       -0.037791844 0.04661608 -0.04061676 -0.034057908
0000d0 2e bc 70 3c d8 37 f3 3c 6d fe 19 bd af 78 90 bc
       0.014693303 0.029689714 -0.037596155 -0.017635671
0000e0 16 98 1b 3d 5e 4c 0e 3d 31 62 69 3d 44 3f 1a 3d
       0.037986837 0.0347408 0.05697841 0.03765799
0000f0 0a 32 09 bd eb 4e 30 3d a6 8a 23 3d 6f 70 ce bc
       -0.033494987 0.043044012 0.039927147 -0.025200097
000100 8e 03 d3 bc d9 29 b4 bc 5b dd 15 3d 33 76 20 bd
       -0.025758531 -0.02199261 0.036588054 -0.039175224
000110 5c dd 19 3d c4 d4 c6 bc 05 9d 27 3d 92 c4 09 3d
       0.03756462 -0.024271376 0.04092123 0.03363473
000120 27 c7 1f 3d 3f 76 36 3d 17 02 18 bd 3e ad 02 3d
       0.039008286 0.044546362 -0.037111368 0.031903498
000130 50 90 d0 bc 4f cb d2 bc 52 11 12 bc 90 ad 04 bd
       -0.025459439 -0.02573171 -0.008915262 -0.032392085
000140 32 0c e1 bc 4c b2 1f 3d d4 e9 e9 3c df 26 06 bc
       -0.027471635 0.038988397 0.02855388 -0.0081879785
000150 db 6b b3 bc 0d aa f3 3c 9d 6f 98 bc e3 ea fb 3c
       -0.021902015 0.029744172 -0.018607909 0.030751651
000160 44 4a cb 3c a2 3e 19 bd 6b f6 a3 bc b0 10 03 3d
       0.024815686 -0.037413247 -0.020014962 0.031998336
000170 12 e4 ba bc fa 64 1a 3d a3 b8 27 3d b3 35 04 bd
       -0.02281383 0.037693955 0.040947568 -0.032277774
000180 f6 15 d2 bc 50 39 ee bc e4 a6 30 bd 93 e4 0a bd
       -0.025645237 -0.029080063 -0.04312791 -0.03390939
000190 9d f0 ae 3c c1 a3 65 3c 5b 2c 02 3d 3b 20 d7 bc
       0.021354968 0.014016093 0.031780582 -0.026260486
0001a0 eb 7d 23 3d 8e 28 1c 3d 48 ab 07 bd 89 41 82 3c
       0.039915007 0.038124613 -0.03312233 0.01590039
0001b0 5c 01 a2 bc 66 aa d6 bc 48 8e 2c bd 42 62 5b 3d
       -0.019776039 -0.0262043 -0.042127877 0.053560503
0001c0 5d 5e 21 3d 98 a7 01 3d d0 f3 24 39 10 ac 2b bd
       0.039396632 0.03165397 0.00015731086 -0.04191214
0001d0 12 57 00 bd e9 58 db bc a0 ed c6 3c 88 11 e2 bc
       -0.031333037 -0.026775794 0.02428323 -0.02759625
0001e0 99 21 f7 bc 26 3d 46 3d 81 6d d0 bc 12 a8 e1 3c
       -0.030167388 0.04839816 -0.02544284 0.027545962
0001f0 75 ad ef 3c 9a 25 b0 3c 3f f5 66 bc 4d a7 73 bc
       0.029257515 0.021502305 -0.014096557 -0.014871431
000200 04 17 54 bd f7 32 9c 3c 1a 5a d6 3c 41 be 09 bd
       -0.051779762 0.01906727 0.02616601 -0.033628706
000210 7d 63 c3 bc 24 21 12 3d fc 29 db 3c a5 55 b1 3c
       -0.02385115 0.035676137 0.026753418 0.021647284
000220 12 25 b6 3c 84 19 09 bd 73 94 1f bd f8 8e d5 bc
       0.022234473 -0.0334716 -0.03895993 -0.02606915
000230 9b 23 bb 3c c8 e4 41 bc ad 59 35 bd 7d 72 25 bd
       0.022844126 -0.011834331 -0.044274975 -0.040392388
000240 73 46 90 3c 0a 39 d7 bc 4a c4 0e 3d 74 a3 1b bd
       0.017611718 -0.026272316 0.034855165 -0.037997678
000250 65 af 3d bd fb 8d 05 bd 93 6c 12 3d 1c 00 1e bd
       -0.046309847 -0.032606106 0.035748076 -0.038574323
000260 c6 61 11 3d b4 8d c3 3c 5d 9e 14 bd 65 c3 fc 3c
       0.035493635 0.02387128 -0.03628384 0.03085489
000270 22 ae 88 3c 76 1b 23 3d 1b 9f 06 3d 4b 7e fb bc
       0.016684595 0.03982111 0.03286658 -0.03069987
000280 ed 35 08 3d b8 0b e4 bc 6d 8c 1c 3d 1c 5a ba 3c
       0.033254553 -0.02783762 0.038219858 0.022748046
000290 93 b3 11 bd ba 8e 09 3d f9 c0 e4 3c 7d 0c 95 3c
       -0.035571646 0.03358338 0.027924048 0.018194431
0002a0 9d 98 01 bc a3 0f 0c bd cf de 1f 3c be 54 29 bd
       -0.007909921 -0.0341946 0.009757712 -0.041340582
0002b0 f5 68 36 3d 0d d0 3b 3d 56 87 f7 bc 0e 89 11 bd
       0.04453369 0.04585271 -0.0302159 -0.035531096
0002c0 9c 27 be 3c b1 5e d5 bc e6 ac 17 3d b4 90 3b 3d
       0.023212247 -0.026046129 0.037030123 0.045792297
0002d0 88 c7 fd bc 0f a8 1b bd d0 93 cf 3c da 50 14 3d
       -0.030978933 -0.03800207 0.025339037 0.03620992
0002e0 db 13 11 bd d6 6d 19 bd 06 42 11 bd 57 17 45 bd
       -0.035419326 -0.037458263 -0.035463355 -0.04811796
0002f0 f5 d3 f6 3c 94 13 24 bd 55 20 ed bc 77 2a e1 3c
       0.030130366 -0.040057734 -0.028946081 0.02748607
000300 aa dc c0 3c e8 35 b6 3b cc d7 47 bd ed 64 14 3d
       0.02354272 0.0055606253 -0.048789784 0.036229063
000310 e8 45 df bc e4 56 ad 3c 0d 66 04 bd a7 9d 39 bd
       -0.027255014 0.021159597 -0.032323886 -0.045316365
000320 2c f2 67 bd 0b a5 0b bd 9c 87 64 3c cb d4 39 bd
       -0.056627437 -0.034092944 0.013948347 -0.04536895
000330 a2 03 cc 3c 8e 69 03 3d 4f c7 fe 3c 45 50 08 3d
       0.024904076 0.032083087 0.031100897 0.033279676
000340 ae 6d f8 3c 48 59 28 bd 05 d0 e5 bc da e8 43 3c
       0.030325737 -0.04110077 -0.028053293 0.011957372
000350 e8 f4 20 3c 66 6d 00 bd 45 ef 9a 3c 5e b9 01 bd
       0.009824015 -0.03135433 0.01891292 -0.03167092
000360 fd 58 f1 bc 60 e3 b6 3c b6 69 17 3d 97 58 e0 bc
       -0.029461378 0.022325218 0.03696605 -0.027385993
000370 08 79 07 3d ba 51 08 bd 07 0d 13 bd 89 e9 6c 3c
       0.03307441 -0.033281066 -0.035901096 0.014459976
000380 d2 4e 64 3c 01 72 e8 3c 01 17 6f 3c f2 ea 72 3c
       0.013934808 0.028374674 0.014592887 0.014826523
000390 eb 88 1b bd 6b 67 20 3c fc de 19 bd d9 2d a6 3c
       -0.037972372 0.009790282 -0.03756617 0.020285534
0003a0 dd f3 18 bd 1a 91 ce bc bb 9f 15 3d 5d 04 16 bd
       -0.03734194 -0.025215674 0.036529284 -0.036625255
0003b0 1b 58 e0 3c 42 68 03 3d a6 40 99 3c 83 85 15 bd
       0.027385762 0.03208185 0.018707585 -0.03650428
0003c0 6f 10 2b bd 1e ac 03 bd 2c d8 03 bc 4e 3b fc 3b
       -0.04176372 -0.032146566 -0.008047145 0.0076974994
0003d0 9a c2 bb 3c 86 50 18 3d 43 69 14 bd 99 4a fd 3c
       0.022919942 0.037186168 -0.036233198 0.03091936
0003e0 5a ce d4 3c 36 9f 07 bd 3c a3 af 3c 01 9a 05 bd
       0.025977302 -0.03311082 0.02144014 -0.032617573
0003f0 66 a2 14 bd 9a 4b 8f bc 4c 9f 17 3c c9 f0 f2 3c
       -0.036287688 -0.017492104 0.009254288 0.029655831

action_model._discrete_distribution.branches.0.bias f4 [2]
000000 61 5d a3 3c 61 5d a3 bc
       0.019941987 -0.019941987

exp_avg f4 [128, 42]
000000 00 00 00 00 6c 12 c7 b7 17 09 b5 b8 00 00 00 00
       0.0 -2.3731227e-05 -8.632446e-05 0.0
000010 5a f3 c2 b6 4c 23 15 b8 02 e8 8a b8 9a ef 1f b8
       -5.8099804e-06 -3.555724e-05 -6.6235676e-05 -3.81317e-05
000020 bd 02 9e b7 00 00 00 00 a1 39 f6 36 62 25 40 b7
       -1.8836343e-05 0.0 7.33808e-06 -1.1452796e-05
000030 00 00 00 00 b4 3b f8 b7 c4 a9 ac b7 e4 d4 05 b7
       0.0 -2.9591705e-05 -2.0583051e-05 -7.976985e-06
000040 7d 72 71 b8 1f 76 80 b8 ea c3 81 b8 88 f1 79 b8
       -5.7565503e-05 -6.1255174e-05 -6.187691e-05 -5.959117e-05
000050 55 ec e4 36 00 00 00 00 ea bf a3 b5 98 34 5c b7
       6.822442e-06 0.0 -1.2200301e-06 -1.3125267e-05
000060 00 00 00 00 fa c7 45 b8 fe cd a4 37 08 97 10 b8
       0.0 -4.7154703e-05 1.9646246e-05 -3.4472934e-05
000070 92 ad 61 b8 75 29 6a b8 14 24 14 b8 60 f4 0c b8
       -5.380583e-05 -5.5828557e-05 -3.531955e-05 -3.3606193e-05
000080 5c 25 3e 36 00 00 00 00 ae c3 50 b8 82 fc 6f b8
       2.8333952e-06 0.0 -4.9773305e-05 -5.7217207e-05
000090 00 00 00 00 00 00 00 00 8e b6 bb b5 df e8 82 b8
       0.0 0.0 -1.3985716e-06 -6.242259e-05
0000a0 a9 00 3a b8 a5 ab 52 b8 00 00 00 00 00 98 4b b8
       -4.434647e-05 -5.0227758e-05 0.0 -4.8540533e-05
0000b0 f6 cc 8e b8 00 00 00 00 a4 6f c8 b6 a0 7e 25 b8
       -6.8092646e-05 0.0 -5.973461e-06 -3.9456994e-05
0000c0 9b 77 93 b8 be 31 3f b8 6c fd 12 b7 00 00 00 00
       -7.0317845e-05 -4.5584275e-05 -8.7612825e-06 0.0
0000d0 fe 06 0a 36 f5 8d 96 b7 00 00 00 00 4e 34 40 b8
       2.0567672e-06 -1.7947497e-05 0.0 -4.582508e-05
0000e0 1d 9b 61 b6 e5 e4 2b b7 2a e4 83 b8 16 cf 89 b8
       -3.36179e-06 -1.0245688e-05 -6.289066e-05 -6.571242e-05
0000f0 88 a2 84 b8 ad 0b 6e b8 83 73 aa 36 00 00 00 00
       -6.324524e-05 -5.6754496e-05 5.079842e-06 0.0
000100 51 f6 00 b7 51 4f a4 b7 00 00 00 00 86 98 6c b8
       -7.6867445e-06 -1.9587258e-05 0.0 -5.6408833e-05
000110 e7 d1 a7 37 45 26 00 b8 e5 c8 68 b8 62 46 71 b8
       2.0005695e-05 -3.055322e-05 -5.5500208e-05 -5.7524427e-05
000120 d3 66 40 b8 82 f6 87 b7 e7 e3 a0 36 00 00 00 00
       -4.587213e-05 -1.6208043e-05 4.794903e-06 0.0
000130 24 fd 88 b8 85 a5 97 b8 00 00 00 00 00 00 00 00
       -6.5321365e-05 -7.2310715e-05 0.0 0.0
000140 b5 85 a4 b5 e8 6d 95 b8 7d e5 1f b8 0d 05 3f b8
       -1.2257866e-06 -7.125345e-05 -3.812228e-05 -4.5542653e-05
000150 00 00 00 00 f6 04 8f 37 6c 66 d3 36 00 00 00 00
       0.0 1.7049239e-05 6.3002135e-06 0.0
000160 9e f5 3e 35 1a ce dd 35 82 24 b7 36 ec d3 ca 37
       7.1137936e-07 1.6525767e-06 5.458075e-06 2.417896e-05
000170 00 f3 a9 35 00 00 00 00 e1 97 e5 b6 ac fb 8f b6
       1.2662204e-06 0.0 -6.842413e-06 -4.2910306e-06
000180 00 00 00 00 4b b5 c2 37 6c a0 2f b6 cd a3 68 34
       0.0 2.3211023e-05 -2.617041e-06 2.1666274e-07
000190 de a3 33 36 f7 b5 15 36 69 d7 9f 36 f0 a4 a6 37
       2.6768462e-06 2.2308648e-06 4.7636463e-06 1.9865547e-05
0001a0 c5 0d 9d 34 00 00 00 00 f1 17 67 b5 3c 1e 3e 35
       2.9253547e-07 0.0 -8.6089045e-07 7.082451e-07
0001b0 00 00 00 00 65 33 a7 37 e5 b9 6f 36 04 26 17 36
       0.0 1.9931884e-05 3.572198e-06 2.2522881e-06
0001c0 54 10 e7 b5 10 7f 1b 33 27 50 2e 36 64 e8 17 36
       -1.7215593e-06 3.6204312e-08 2.5974675e-06 2.2636023e-06
0001d0 35 af d7 b2 00 00 00 00 1c 45 a1 37 f3 4b a6 37
       -2.510897e-08 0.0 1.9224877e-05 1.9824109e-05
0001e0 00 00 00 00 00 00 00 00 ed 3b 25 34 00 9c 8d 37
       0.0 0.0 1.5388623e-07 1.6881153e-05
0001f0 0a 8f 87 36 66 1c d0 36 00 00 00 00 68 f3 a7 b8
       4.0399655e-06 6.202189e-06 0.0 -8.0085185e-05
000200 00 01 37 b8 00 00 00 00 e7 09 a1 b5 dd a1 5d b7
       -4.363153e-05 0.0 -1.1998317e-06 -1.3210313e-05
000210 c6 27 8d b7 42 cb c1 b8 30 6f b7 b7 00 00 00 00
       -1.682703e-05 -9.240817e-05 -2.1867076e-05 0.0
000220 0a 8f cf 36 72 a6 9a b6 00 00 00 00 ba fb ba b8
       6.1857327e-06 -4.6089344e-06 0.0 -8.916059e-05
000230 62 35 3c b7 73 09 e6 b6 3d 71 8c b7 f1 f7 ac b7
       -1.1218102e-05 -6.855634e-06 -1.6742031e-05 -2.0619455e-05
000240 62 65 16 b7 15 21 ea b8 a6 bd e3 36 00 00 00 00
       -8.964302e-06 -0.000111641515 6.787205e-06 0.0
000250 6b 31 3a b7 4c 0d a1 b7 00 00 00 00 24 d7 c6 b8
       -1.109797e-05 -1.9198887e-05 0.0 -9.481449e-05
000260 f3 56 0f 37 d0 e7 21 b7 12 28 f3 b7 92 a7 0b b8
       8.543709e-06 -9.650321e-06 -2.8986517e-05 -3.3296245e-05
000270 e0 d6 29 37 eb ed 0e b8 ba 45 f5 36 00 00 00 00
       1.0123214e-05 -3.4077017e-05 7.309686e-06 0.0
000280 54 10 e3 b8 69 9d e9 b8 00 00 00 00 00 00 00 00
       -0.00010827245 -0.00011139626 0.0 0.0
000290 c0 60 1e b6 ee 85 a1 b8 70 73 d0 b7 bf f7 13 b8
       -2.360015e-06 -7.7020246e-05 -2.4849287e-05 -3.5278263e-05
0002a0 00 00 00 00 9a ce e7 38 da f1 94 38 00 00 00 00
       0.0 0.00011053421 7.102238e-05 0.0
0002b0 60 ab 96 36 26 3b 9e 37 f3 36 36 38 a5 0d 29 39
       4.490299e-06 1.886261e-05 4.3443357e-05 0.00016122179
0002c0 42 8c c7 37 00 00 00 00 62 dd 31 b8 a0 41 b2 b7
       2.3787961e-05 0.0 -4.2406267e-05 -2.1249813e-05
0002d0 00 00 00 00 a1 f7 24 39 c1 ba 2e b7 d2 39 13 37
       0.0 0.00015732508 -1.041469e-05 8.775345e-06
0002e0 4a 94 dd 37 ba 28 cd 37 6f c4 13 38 58 a8 23 39
       2.6414305e-05 2.445687e-05 3.5230474e-05 0.00015607604
0002f0 7b 5c f4 b6 00 00 00 00 c4 c1 07 36 80 b6 81 37
       -7.282533e-06 0.0 2.0229354e-06 1.5462982e-05
000300 00 00 00 00 77 54 15 39 51 2d 24 37 91 e8 af 37
       0.0 0.00014241213 9.785713e-06 2.0969923e-05
000310 1b 64 62 37 83 0d ca 37 2e fe f1 36 80 3d 23 38
       1.3493957e-05 2.4086568e-05 7.21195e-06 3.8919505e-05
000320 70 38 f6 b6 00 00 00 00 04 68 1a 39 ec 55 20 39
       -7.3379415e-06 0.0 0.00014725333 0.00015290797
000330 00 00 00 00 00 00 00 00 9a 21 3d 36 b3 fc fb 38
       0.0 0.0 2.8182753e-06 0.000120156816
000340 32 9f 21 38 af 4f 61 38 00 00 00 00 08 83 10 b7
       3.8533653e-05 5.371839e-05 0.0 -8.613577e-06
000350 06 55 8c b6 00 00 00 00 2a c9 4c b5 d1 c0 fb b5
       -4.182223e-06 0.0 -7.6288654e-07 -1.8757074e-06
000360 1e d1 66 b6 41 ed 3c b7 45 da f3 b5 00 00 00 00
       -3.4394393e-06 -1.1260913e-05 -1.8168436e-06 0.0
000370 b6 8a 46 36 ce 74 b2 35 00 00 00 00 e5 fb 3e b7
       2.958504e-06 1.3296028e-06 0.0 -1.1383531e-05
000380 ee 8e 07 36 a1 14 81 33 5d 39 85 b6 99 a2 77 b6
       2.0199764e-06 6.010783e-08 -3.970387e-06 -3.6900512e-06
000390 49 ee 53 b6 08 94 4c b7 d1 1c 67 35 00 00 00 00
       -3.158015e-06 -1.2193814e-05 8.609614e-07 0.0
0003a0 85 3a 7a 35 59 3c 67 b4 00 00 00 00 48 ff 3b b7
       9.3217415e-07 -2.1535506e-07 0.0 -1.1205506e-05
0003b0 6c aa 81 35 7f ce 1c 35 12 f9 87 b6 45 1e 99 b6
       9.660848e-07 5.841502e-07 -4.052309e-06 -4.563279e-06
0003c0 93 51 97 b5 83 97 61 b6 5a 10 d2 35 00 00 00 00
       -1.1274118e-06 -3.3615804e-06 1.5650978e-06 0.0
0003d0 17 6c 32 b7 08 60 3a b7 00 00 00 00 00 00 00 00
       -1.0634793e-05 -1.1108823e-05 0.0 0.0
0003e0 56 0f c2 b4 e3 da cd b6 76 01 92 b6 43 16 b5 b6
       -3.6146474e-07 -6.134958e-06 -4.351309e-06 -5.396812e-06
0003f0 00 00 00 00 e2 5b a8 38 2f 8b 7d 38 00 00 00 00
       0.0 8.027979e-05 6.0449525e-05 0.0

exp_avg_sq f4 [128, 42]
000000 00 00 00 00 af 34 ef 32 7b 86 2d 32 00 00 00 00
       0.0 2.784722e-08 1.0100503e-08 0.0
000010 4d 58 36 2f 7b 3e 0f 31 68 95 30 32 3b 3c 40 32
       1.6584174e-10 2.0844755e-09 1.0278519e-08 1.1189566e-08
000020 2c 4f 3f 31 00 00 00 00 f9 6c bb 31 f8 3b d8 31
       2.7839162e-09 0.0 5.454805e-09 6.293245e-09
000030 00 00 00 00 ed 5b e8 31 c0 ee 57 32 3d 4d fc 30
       0.0 6.7625394e-09 1.2568933e-08 1.8357366e-09
000040 e0 4c a7 31 ef 37 fb 31 fa c6 76 32 85 75 12 32
       4.8690794e-09 7.3114204e-09 1.4364327e-08 8.525039e-09
000050 b8 fe cc 30 00 00 00 00 80 5c 09 32 05 98 0f 32
       1.4915349e-09 0.0 7.995482e-09 8.358261e-09
000060 00 00 00 00 c8 71 3b 31 68 57 f3 31 03 67 f4 31
       0.0 2.7276759e-09 7.0821677e-09 7.1130457e-09
000070 c7 8b 2c 32 04 83 46 32 3f 8a ae 32 96 9c 5c 31
       1.0043499e-08 1.1554906e-08 2.0319133e-08 3.2103222e-09
000080 1b 45 c7 2f 00 00 00 00 c8 f1 5e 32 c5 9d 68 32
       3.6246992e-10 0.0 1.2977075e-08 1.354005e-08
000090 00 00 00 00 00 00 00 00 5f 00 40 30 be 12 30 33
       0.0 0.0 6.984972e-10 4.099524e-08
0000a0 29 f2 03 31 d9 aa 22 31 00 00 00 00 96 16 5b 32
       1.920066e-09 2.3671218e-09 0.0 1.2752613e-08
0000b0 56 d2 80 31 00 00 00 00 09 c6 84 2e b7 ff 3b 30
       3.7492027e-09 0.0 6.037843e-11 6.8393596e-10
0000c0 51 87 f0 31 9d 03 c6 31 b4 c2 8d 30 00 00 00 00
       7.000303e-09 5.762969e-09 1.0314438e-09 0.0
0000d0 48 09 ed 2e 53 48 d8 2f 00 00 00 00 80 9e aa 31
       1.0779161e-10 3.934156e-10 0.0 4.9656705e-09
0000e0 a9 f9 94 31 de aa a9 30 3d 7f e6 30 00 70 1c 31
       4.33575e-09 1.2344932e-09 1.6770866e-09 2.2764652e-09
0000f0 86 d4 0e 32 da ff 94 31 e8 64 54 30 00 00 00 00
       8.31381e-09 4.336454e-09 7.7268547e-10 0.0
000100 71 b3 2c 30 fe 1c 53 30 00 00 00 00 39 b4 54 31
       6.2828237e-10 7.6802553e-10 0.0 3.0952505e-09
000110 1c 24 8a 31 02 dd 15 31 0b 6d 19 31 bc 3a 3d 31
       4.0204338e-09 2.1807982e-09 2.2326414e-09 2.7536506e-09
000120 1a a6 2f 32 63 7c ea 2f 3b 05 d5 2f 00 00 00 00
       1.0224108e-08 4.2652734e-10 3.874819e-10 0.0
000130 82 29 b2 31 ba 33 bb 31 00 00 00 00 00 00 00 00
       5.1852007e-09 5.448297e-09 0.0 0.0
000140 44 6a 99 2f 2f 21 88 32 01 91 57 30 d2 88 8a 30
       2.7906044e-10 1.5847574e-08 7.842261e-10 1.0079708e-09
000150 00 00 00 00 12 df 69 31 cf 9b 8c 2f 00 00 00 00
       0.0 3.4032763e-09 2.557656e-10 0.0
000160 f9 f3 6b 2f c0 48 33 30 b1 50 36 2f 6d 7d 38 30
       2.1459802e-10 6.5223205e-10 1.6581471e-10 6.711705e-10
000170 22 4a a0 2e 00 00 00 00 4c cd 34 31 2e ad 3b 31
       7.289126e-11 0.0 2.6310145e-09 2.7310523e-09
000180 00 00 00 00 84 97 19 30 27 9b 88 30 b3 ff 00 2e
       0.0 5.587639e-10 9.939399e-10 2.9330937e-11
000190 8c 24 79 30 ef 57 bd 30 5f 88 91 2f d6 28 d0 2f
       9.063761e-10 1.3776552e-09 2.6472244e-10 3.7863995e-10
0001a0 d0 ce b5 2d 00 00 00 00 fd cc 68 31 60 25 6a 31
       2.066916e-11 0.0 3.3876966e-09 3.4072727e-09
0001b0 00 00 00 00 f2 21 92 2f b5 6a 5b 2f e5 f0 a7 2e
       0.0 2.6581365e-10 1.9955844e-10 7.637072e-11
0001c0 48 a0 41 31 e0 cd 4b 31 89 b8 b3 2f fb 7b 21 2e
       2.8176306e-09 2.9657414e-09 3.269103e-10 3.671728e-11
0001d0 0a 23 ff 2c 00 00 00 00 48 17 85 31 4c 2d 85 31
       7.251426e-12 0.0 3.8734562e-09 3.875959e-09
0001e0 00 00 00 00 00 00 00 00 7d e9 fc 2c 90 8f 8b 31
       0.0 0.0 7.188193e-12 4.0617536e-09
0001f0 c7 56 3c 2f 70 1a 7c 2f 00 00 00 00 79 0a 08 33
       1.712933e-10 2.2928659e-10 0.0 3.1674492e-08
000200 5e d9 f4 31 00 00 00 00 14 1d 2b 2e d4 74 52 30
       7.1260464e-09 0.0 3.8906725e-11 7.656358e-10
000210 4c b7 b4 30 62 5f a9 32 56 ae c3 31 00 00 00 00
       1.314882e-09 1.9717564e-08 5.6950666e-09 0.0
000220 2d d2 7a 31 f0 5e 91 31 00 00 00 00 0c a6 9c 32
       3.649926e-09 4.2308486e-09 0.0 1.82363e-08
000230 c5 c0 11 32 7d 9d c2 30 5c 09 7a 30 35 b4 04 31
       8.4839415e-09 1.4160119e-09 9.096277e-10 1.9310964e-09
000240 5e 79 17 31 58 f4 91 32 d6 8c 87 31 00 00 00 00
       2.2042381e-09 1.6991336e-08 3.9450283e-09 0.0
000250 ca 46 10 32 52 aa 15 32 00 00 00 00 34 35 3e 32
       8.397999e-09 8.711668e-09 0.0 1.1071553e-08
000260 9f 5e 15 32 b9 00 14 31 b2 5b a4 31 cd b6 ca 31
       8.694456e-09 2.1537245e-09 4.7834527e-09 5.899756e-09
000270 52 d2 b5 31 b0 05 34 31 1b 9f d1 30 00 00 00 00
       5.291704e-09 2.619668e-09 1.5251972e-09 0.0
000280 00 52 eb 32 69 f3 ed 32 00 00 00 00 00 00 00 00
       2.739489e-08 2.7701121e-08 0.0 0.0
000290 7c 54 1b 31 13 61 03 33 ab c4 34 31 8b 27 4b 31
       2.2603492e-09 3.0589103e-08 2.630524e-09 2.9562865e-09
0002a0 00 00 00 00 3d be 51 34 6d 2d 1e 32 00 00 00 00
       0.0 1.953385e-07 9.207139e-09 0.0
0002b0 b3 18 0e 30 ce 9f 2e 32 76 5b 9b 31 70 00 51 33
       5.16944e-10 1.0164468e-08 4.5214916e-09 4.8662002e-08
0002c0 cc 10 c5 31 00 00 00 00 2d 6e bd 33 fe 2a c7 33
       5.735364e-09 0.0 8.821039e-08 9.27448e-08
0002d0 00 00 00 00 65 7a 3d 33 32 c4 7d 33 fb b7 04 31
       0.0 4.411631e-08 5.908459e-08 1.931311e-09
0002e0 65 15 2a 32 6f 78 e3 32 db cc e7 31 57 76 04 33
       9.900167e-09 2.6481045e-08 6.746274e-09 3.0841274e-08
0002f0 b4 e4 8b 31 00 00 00 00 31 5c 0d 34 36 b9 0e 34
       4.071433e-09 0.0 1.3165187e-07 1.329216e-07
000300 00 00 00 00 23 af c9 32 bb c7 94 32 d2 69 7b 31
       0.0 2.3479123e-08 1.7320295e-08 3.658546e-09
000310 c3 f6 bb 33 83 2d cf 33 83 38 47 32 36 a3 3a 31
       8.752752e-08 9.647467e-08 1.1596174e-08 2.7159337e-09
000320 ec 47 ce 30 00 00 00 00 8d bf 3e 34 a4 ce 3f 34
       1.5008914e-09 0.0 1.7764815e-07 1.7863437e-07
000330 00 00 00 00 00 00 00 00 fe ce 21 31 c9 99 5a 34
       0.0 0.0 2.3546245e-09 2.0358779e-07
000340 db 3a 45 31 c1 e0 b7 31 00 00 00 00 45 10 e8 32
       2.8700728e-09 5.3515525e-09 0.0 2.7015753e-08
000350 71 8a b2 30 00 00 00 00 88 49 ed 2f d0 2a 3f 31
       1.2990552e-09 0.0 4.3162296e-10 2.7818494e-09
000360 81 66 89 2f 6f 36 e5 30 dc bb 96 30 00 00 00 00
       2.4992988e-10 1.6677414e-09 1.0967329e-09 0.0
000370 64 2d ab 32 fb 89 af 32 00 00 00 00 16 7a d8 30
       1.9927661e-08 2.0435428e-08 0.0 1.5750767e-09
000380 59 aa 34 32 f8 4c 46 2d 9a 34 6a 31 31 c4 ef 31
       1.05161115e-08 1.1272087e-11 3.4081382e-09 6.97812e-09
000390 1e 4d cf 2f b3 3a 96 30 54 67 86 30 00 00 00 00
       3.7707876e-10 1.093062e-09 9.779151e-10 0.0
0003a0 07 e6 d2 32 88 85 d3 32 00 00 00 00 7c 35 34 30
       2.4551822e-08 2.4624356e-08 0.0 6.5559624e-10
0003b0 da c2 dd 30 38 67 98 2e ed 46 aa 32 22 09 b3 32
       1.6135246e-09 6.930495e-11 1.9822858e-08 2.0842496e-08
0003c0 30 10 38 30 20 85 ee 2e 32 5a 1c 30 00 00 00 00
       6.6961814e-10 1.0846635e-10 5.6880645e-10 0.0
0003d0 36 c5 e8 32 8a 12 e9 32 00 00 00 00 00 00 00 00
       2.7098036e-08 2.71332e-08 0.0 0.0
0003e0 e5 d7 05 30 82 79 07 33 d9 b0 70 30 bd 76 ae 30
       4.869192e-10 3.1542648e-08 8.7562807e-10 1.2693914e-09
0003f0 00 00 00 00 cc ef f9 33 13 dc fd 31 00 00 00 00
       0.0 1.1638585e-07 7.3882886e-09 0.0

exp_avg f4 [128]
000000 e7 fc f2 b8 f8 8f 00 b9 42 d6 c9 37 09 fc 02 b9
       -0.00011586566 -0.00012260664 2.4060839e-05 -0.00012491657
000010 93 15 43 39 26 7a 63 b7 a8 94 18 39 5b de 15 b9
       0.00018604686 -1.3558694e-05 0.00014551228 -0.00014292581
000020 cc 40 31 b6 62 13 8f b7 78 e4 d6 37 06 8a 0c b9
       -2.6412772e-06 -1.7055954e-05 2.5617177e-05 -0.00013402858
000030 e7 b0 2f b8 ce d5 01 39 54 92 64 b8 c2 b6 69 39
       -4.1888004e-05 0.00012382047 -5.4495715e-05 0.00022288694
000040 e3 13 60 39 6b 57 62 38 31 15 1f b9 74 29 af b8
       0.00021369713 5.3964013e-05 -0.00015171316 -8.3523715e-05
000050 76 37 44 39 d6 80 0b 39 99 a0 fa b7 37 d3 d8 b8
       0.00018712677 0.00013304068 -2.9877106e-05 -0.000103390244
000060 61 bc 70 b8 53 fe 16 b7 b1 ba 11 39 84 2d 59 b8
       -5.73959e-05 -8.999911e-06 0.00013897826 -5.177922e-05
000070 65 42 67 39 92 27 68 b9 ad 84 34 37 2d 8f bc 39
       0.0002205461 -0.00022139985 1.0759727e-05 0.0003596483
000080 08 74 17 39 50 6c bb 39 a7 04 06 39 e8 42 d3 38
       0.00014443707 0.00035748119 0.00012780969 0.00010073726
000090 be 29 37 38 bb 35 70 39 cf 1b 99 b8 ad 5b a0 37
       4.3669475e-05 0.000229082 -7.300788e-05 1.9116176e-05
0000a0 e5 fe fc b8 21 98 2e b9 d1 26 28 b8 1c 2e 11 b8
       -0.00012063774 -0.00016650606 -4.0090472e-05 -3.4613637e-05
0000b0 ca 1c d3 38 98 82 3a 38 3f ae 86 b8 87 4b c7 b8
       0.000100666264 4.446748e-05 -6.422074e-05 -9.5031275e-05
0000c0 0d 01 40 b8 91 b6 2b 39 12 30 8e b8 16 c0 54 b8
       -4.5777346e-05 0.00016375842 -6.7800414e-05 -5.0723633e-05
0000d0 48 af 8d 39 df b6 01 b9 0b c6 09 39 9f cb 6d b8
       0.0002702421 -0.00012370523 0.00013139115 -5.669484e-05
0000e0 4c 0e 84 39 ab ae f3 b8 a6 2b 5b 39 8e 63 7e 39
       0.00025187654 -0.000116196774 0.00020901728 0.00024260415
0000f0 81 ff 44 38 9f 8d e3 37 4d 32 8f 39 05 34 9a b8
       4.6967998e-05 2.7126456e-05 0.00027312562 -7.3529816e-05
000100 af 70 45 b8 82 a4 75 b7 c8 5b b1 b8 74 50 9d b8
       -4.7073405e-05 -1.464144e-05 -8.457113e-05 -7.501329e-05
000110 e0 f3 f2 b7 18 ef 17 39 10 8f 4b 38 f1 d9 20 b9
       -2.8962211e-05 0.00014489552 4.853221e-05 -0.00015339979
000120 36 62 4c b8 a3 1d 47 39 c1 04 73 b8 d2 f0 68 39
       -4.8728856e-05 0.0001898916 -5.7940142e-05 0.00022214957
000130 8a dc b1 39 98 5b 2a 39 d6 19 03 39 e6 88 83 39
       0.00033924385 0.00016246585 0.00012502758 0.00025088264
000140 28 bd 5b 39 f6 36 1a b8 b1 12 82 39 eb 35 81 b8
       0.00020955934 -3.6767648e-05 0.00024809458 -6.161242e-05
000150 55 87 e2 38 d4 fd 22 39 4d 0e 31 39 16 1e 01 39
       0.00010801727 0.00015544082 0.00016885363 0.00012313607
000160 12 1c 01 b9 92 4a 1d 39 1a f2 76 39 90 c7 ef 38
       -0.00012312856 0.00015000466 0.00023550578 0.000114335795
000170 bb d8 df 38 04 f0 c5 b8 88 10 0b b9 4a 42 a8 b8
       0.00010673838 -9.4383984e-05 -0.00013262231 -8.0232116e-05
000180 f9 b2 81 b8 15 2f 41 b8 2f 9b 44 b9 37 bc 17 b9
       -6.1845356e-05 -4.6058634e-05 -0.00018749827 -0.00014470598
000190 1d 86 7b b8 a4 db 32 b8 6d 37 54 39 f0 29 e9 38
       -5.9967966e-05 -4.2643063e-05 0.00020238543 0.00011118117
0001a0 de 85 76 39 ec db 8c 38 32 0a 86 b8 c5 48 33 b8
       0.00023510258 6.716684e-05 -6.391517e-05 -4.2744698e-05
0001b0 07 92 94 b8 d6 24 1d 39 4d 66 99 b7 26 14 79 b8
       -7.08439e-05 0.00014986409 -1.8286659e-05 -5.938499e-05
0001c0 40 70 d1 b8 14 b1 92 39 53 b4 87 39 3b eb 8c b8
       -9.986805e-05 0.00027979224 0.0002588356 -6.719535e-05
0001d0 ef be 66 b8 9a 1b 06 b9 f5 ad f7 38 82 00 1e 39
       -5.5014094e-05 -0.00012789518 0.0001181028 0.00015068243
0001e0 56 78 40 b8 61 07 0c b9 5e 60 a7 b8 9e 13 11 b9
       -4.588844e-05 -0.0001335419 -7.98113e-05 -0.00013835586
0001f0 8a 38 67 39 8f 26 5e b8 78 0b e2 b8 0e a9 f2 b8
       0.00022050939 -5.2964835e-05 -0.00010778656 -0.00011570948

exp_avg_sq f4 [128]
000000 ca b9 51 33 d8 a5 b3 32 46 29 9a 31 d1 14 3a 33
       4.883058e-08 2.091376e-08 4.486682e-09 4.3325432e-08
000010 aa f0 69 34 32 70 04 33 6a 62 13 34 1f cb 50 33
       2.1787369e-07 3.0835686e-08 1.3726245e-07 4.861351e-08
000020 4d 8e 7b 30 78 72 b7 31 f8 d6 4c 32 3c 62 e9 32
       9.151549e-10 5.3390146e-09 1.1923241e-08 2.7169442e-08
000030 6b a6 a5 32 19 47 9f 33 26 c9 cc 32 0a d5 0a 35
       1.9284206e-08 7.416947e-08 2.3840197e-08 5.171902e-07
000040 44 38 0d 35 1c e6 c8 32 18 da 46 33 ac fb 6d 32
       5.260847e-07 2.3387706e-08 4.6298823e-08 1.3852439e-08
000050 7e 4f 7f 34 5e 4f 63 33 6d 57 41 32 cf b2 6f 33
       2.3777645e-07 5.292474e-08 1.1253957e-08 5.580915e-08
000060 74 1f 5d 32 07 44 90 31 0a f4 be 33 ed ab f6 32
       1.2871045e-08 4.1986854e-09 8.891955e-08 2.8716352e-08
000070 47 dc a9 34 15 12 16 34 7c 54 7a 30 dc 64 b6 35
       3.1638976e-07 1.3976417e-07 9.106953e-10 1.3589411e-06
000080 dc 98 24 34 96 e3 46 35 64 62 24 34 76 33 ea 33
       1.53293e-07 7.409193e-07 1.5309485e-07 1.0905835e-07
000090 61 cb 3f 32 6c bf 0c 35 f0 93 a9 32 cf 63 db 31
       1.1163906e-08 5.243262e-07 1.9741464e-08 6.385086e-09
0000a0 57 2e 3b 33 45 0b a5 33 d8 ae 69 32 27 0a 9f 31
       4.3581476e-08 7.685461e-08 1.360214e-08 4.6286632e-09
0000b0 68 3b ac 33 7e d6 0d 33 69 94 90 33 61 df c1 32
       8.02018e-08 3.30242e-08 6.732518e-08 2.2569738e-08
0000c0 d5 d9 ec 32 a6 fd a3 34 35 15 5e 32 77 3c 84 32
       2.7573074e-08 3.054567e-07 1.2926923e-08 1.5394319e-08
0000d0 c0 bb 45 35 06 28 3c 33 76 3e 9f 33 fb c6 14 33
       7.366143e-07 4.3808562e-08 7.415376e-08 3.4639907e-08
0000e0 8d cf 17 35 da d8 98 32 d5 b8 f3 34 53 e5 e4 34
       5.655391e-07 1.7793742e-08 4.539676e-07 4.2635165e-07
0000f0 01 37 db 32 5a 61 22 33 59 14 0c 35 2f 37 84 32
       2.5519968e-08 3.7807105e-08 5.2183674e-07 1.5391917e-08
000100 f8 af 41 32 22 ca 34 31 6c 4a 28 33 c3 c1 84 32
       1.1274089e-08 2.6308347e-09 3.9183234e-08 1.5454935e-08
000110 e9 93 a1 30 9a 69 52 34 1b d3 0f 33 46 98 4a 33
       1.175633e-09 1.9596192e-07 3.348678e-08 4.7170282e-08
000120 06 ab 88 33 26 83 ec 34 53 6d ff 33 5c 59 9c 34
       6.3641025e-08 4.4053849e-07 1.1894249e-07 2.9122282e-07
000130 7f dd 91 35 fd b7 69 34 67 68 a9 33 f5 b4 13 35
       1.0867806e-06 2.176675e-07 7.8886664e-08 5.5025095e-07
000140 24 7a 96 34 94 b9 61 32 99 c7 31 35 d3 80 bb 32
       2.8028546e-07 1.3138919e-08 6.622809e-07 2.1828248e-08
000150 94 c4 10 33 3d 90 d2 34 71 28 0b 34 fe b8 91 33
       3.37064e-08 3.9220495e-07 1.2960096e-07 6.7857385e-08
000160 a5 f1 88 33 ee 76 8d 33 67 ab cb 34 a5 ce b2 33
       6.3769484e-08 6.587457e-08 3.7936408e-07 8.326359e-08
000170 8f ca 8a 33 fb ab 60 33 d6 dc b4 33 ff b1 ac 32
       6.462971e-08 5.231048e-08 8.422073e-08 2.0104379e-08
000180 9c 39 99 32 fe e5 24 32 7a 75 aa 33 63 0c 58 33
       1.7837742e-08 9.598351e-09 7.937611e-08 5.0302685e-08
000190 25 dd 0e 32 42 b2 08 33 2f 43 b6 34 b8 32 a2 33
       8.31577e-09 3.1827092e-08 3.3949024e-07 7.5529385e-08
0001a0 ad 3e 23 35 f4 54 9b 32 53 a8 b9 32 c7 62 d1 32
       6.0813437e-07 1.8083007e-08 2.161338e-08 2.4375721e-08
0001b0 c6 c1 69 33 c8 79 db 33 2c d2 5b 32 1c 96 bc 32
       5.4425776e-08 1.0220134e-07 1.2795265e-08 2.1954342e-08
0001c0 b5 a9 8e 32 3f b4 03 35 5d 76 b1 34 74 b0 92 33
       1.660815e-08 4.9063595e-07 3.305494e-07 6.8307514e-08
0001d0 4a 0b e6 31 ea 44 73 33 1b c7 0a 34 27 03 46 34
       6.6951644e-09 5.6640523e-08 1.2924686e-07 1.8441334e-07
0001e0 a7 5f 16 32 fd e2 41 33 08 fc 98 32 f5 dc 70 33
       8.752898e-09 4.514276e-08 1.780974e-08 5.6080314e-08
0001f0 f3 48 8d 34 8a 21 72 32 d8 99 2b 33 87 ae f6 32
       2.6316374e-07 1.409388e-08 3.995396e-08 2.8717535e-08
