Assets/results/ppo/JumperAgent/JumperAgent-6513.onnx (onnx, 91980 bytes, 6 tensors)

network_body._body_endoder.seq_layers.0.weight f4 [128, 42]
00000000: f3cb fd3c 820a c13e 8f64 77be 20d6 973e
00000010: 65fa 69be ca7e 053e bee5 3d3d d4b1 33be
00000020: ce29 463e 4d41 a8bd d0cf 5ebd 2088 9b3d
00000030: 2b50 773d 4b69 0fbd e20b 2f3e f5d1 07bd
00000040: cc1e 6bbe 8f85 4ebe 2f55 b33c 465f 543d
00000050: 1163 963d d9b1 453e 415e 27be b29c e8bc
00000060: 707b 623c a3d8 82bd 3299 fd3d ee80 f0be
00000070: 220c 6fbe c621 063e a4bd 983d 1605 c1bd
00000080: 623e 163d e191 6abe 7166 dbbd 2e33 6d3a
00000090: 4e11 b7bd 4202 0a3e 548d 533e 1f48 053d
000000a0: 2624 e5bd 51f3 d0bb e120 77bd 5422 72be
000000b0: 4ad4 1c3e d32f 5a3e 1b44 debd 9122 4ebd
000000c0: e7da f13c a46b ef3d 5a38 2fbe de2d 91bd
000000d0: 5eb8 fdbd 96c3 043e 8bad 183e 41bc 5f3e
000000e0: 9056 4ebe 990c 793e a632 943d dcfb ffbd
000000f0: 7b82 febc 8e85 863e 2068 8c3e da19 053e
00000100: 2586 ef3b 4bac f4bd a012 3c3d eb83 2abd
00000110: 78cd 04be fbf8 9dbe 8e3b 79bc bcea 183e
00000120: 9c70 e0be b0dd 04be 0748 51bd 7aeb 9bbe
00000130: 0a69 063e 60fe 083d ba5a 00be 3a97 31bd
00000140: c4c9 20be 0707 5d3d 1b9b 743e 4ca5 2a3e
00000150: fd5b fe3d c2e8 0cbe b1b9 61be 1727 eebd
00000160: ff2b 47be 356f 27bd 3e5a ca3d eb55 c53d
00000170: 1149 2d3e 5013 4a3d 426d 973d 847a 60be
00000180: 4e9f b63d faa3 4cbe 4bbe 8f3c c5ab 363c
00000190: 3d73 f33d b933 2b3e afe9 253e 013b ef3c
000001a0: e186 69bd 249c 23be 5a5b 09bd 2010 613e
000001b0: 65d4 c83d bd09 10be d34e b63d e009 80be
000001c0: f426 3d3e 6c67 323e de23 8fbd 9b04 9fbd
000001d0: 4dc9 533e 3cbd 48be a17e 29bc 33c4 093b
000001e0: da83 8dbd 88be 6cbd 13c6 96be 2fc0 293e
000001f0: b9c2 b4bd 6533 fa3d 04d8 69bc c5ef b43d
00000200: 5f67 bbbc fa96 eabd cedf 02be 3727 093d
00000210: a799 433d 83b0 603d c80d 113e add3 d63d
00000220: 9505 203c 3e0c ec3c 29e6 503e 7c0c 663e
00000230: 999d f8bd 513c e43d 739c 64bd 8441 923c
00000240: ea1d ad3e 6385 61bd 2fdc 37bd b18f 70be
00000250: 9613 c33e 74a2 eb3d 0402 a7bb b8ac 32be
00000260: 54a3 e9bd 7f7c b73e 3334 11bd cb36 92bd
00000270: 0d2e 473e ac7c 013e efec 993e 310f 873d
00000280: 174a 173d 52cb b53d 249c 443e 0bc1 9abd
00000290: 294d 0c3d 9cc7 bc3a 55e1 963d b5f4 d7bd
000002a0: 1655 0bbc be01 7a3a 9c62 d83d 1a53 20be
000002b0: 7d6d f2bd 2b77 47bd 7422 183d df77 49be
000002c0: 2ce5 40bd 5ff7 e23d 90b4 013c f887 773e
000002d0: f2a3 5ebd 7a16 923d 815a 93bd a21f 343e
000002e0: dada e5bd c44d 93bd d60c d1bb 9fab 723e
000002f0: 4e6b 4abe d6d6 aabe c8d4 d83d cfde 64bd
00000300: 0496 62bc 2c07 94bd 7018 d0bd 9a00 bb3d
00000310: 7a66 33be 874c ec3b 63f5 f33c 8b20 4b3d
00000320: 3414 2ebd 093a 963c a2fc a5be 88f0 863d
00000330: 185e 8c3d 720e ebbc bf49 2d3e 291c d53c
00000340: 6cd7 123d a249 d1be 2e90 943e 169f d13d
00000350: 2488 5e3e 750c 36be 5ec3 58bd 3b35 a0bd
00000360: 9959 183e 1d97 b1be d5cc 0d3e 1edd b4be
00000370: d771 9a3e 840f 363e 637e 813d 9c50 a1ba
00000380: c240 8bbe 8783 44be 60f7 993d 56df 093e
00000390: a2bd 333e 1be6 d53d 4ae3 65bd afd3 153e
000003a0: 5395 99bd 2786 0bbe dc61 9cbd 0684 66be
000003b0: 4061 a33e c331 033e 3e96 c1be b847 593d
000003c0: 336d b7bc bd44 263e b4fc 763e 3e01 aebd
000003d0: 0e16 0b3e a391 0bbd 33a2 febd f224 093e
000003e0: 23dc 55be 4bb9 c33e 804a 82be 0bd2 c13d
000003f0: 3e53 24bd 7860 ac3d b8fc ba3c e73a 2dbd
0.03098104 0.3770333 -0.24159454 0.29655552 -0.22849424 0.13036647 0.046361677 -0.17548305
0.19351885 -0.0821558 -0.054397404 0.07594323 0.06037919 -0.035012525 0.17094377 -0.033159215
-0.22960967 -0.20168136 0.021891205 0.051848672 0.07343114 0.19306125 -0.16344549 -0.02839503
0.013823375 -0.063889764 0.12382735 -0.46973366 -0.23344472 0.13098821 0.07458046 -0.09424798
0.036680587 -0.22907211 -0.107128985 0.0009048459 -0.089388475 0.13477424 0.20659381 0.032539483
-0.111885354 -0.006376662 -0.06033409 -0.23645908 0.15315357 0.21307306 -0.10852834 -0.050325934
0.029523326 0.11690453 -0.1711134 -0.070888266 -0.12388681 0.12965235 0.14909951 0.21849157
-0.20150208 0.24321212 0.07236223 -0.1249921 -0.031068077 0.2627377 0.2742319 0.12998143
0.0073096924 -0.11946925 0.0459162 -0.041629713 -0.12969005 -0.3085402 -0.015211953 0.14933294
-0.43835914 -0.12975192 -0.05109408 -0.30453092 0.13126007 0.033445716 -0.1253461 -0.04335711
-0.15701967 0.05396178 0.23887293 0.16664618 0.12419889 -0.13760665 -0.22043492 -0.116285495
-0.19450377 -0.04087754 0.098804936 0.09635528 0.16922404 0.049334824 0.07393886 -0.21921736
0.08917104 -0.19984427 0.017546793 0.0111493515 0.11887214 0.1671895 0.16202424 0.02920294
-0.057013396 -0.15977532 -0.033534385 0.21978807 0.09806136 -0.14066215 0.08901753 -0.25007534
0.1847189 0.17422265 -0.06989263 -0.0776455 0.20682259 -0.19603437 -0.010345132 0.0021021485
-0.06909914 -0.057798892 -0.29447994 0.16577218 -0.08826203 0.12216834 -0.014272694 0.08834795
-0.02287644 -0.11454578 -0.12780687 0.033484664 0.047753956 0.054855835 0.14165413 0.10489593
0.009766956 0.028814431 0.20400299 0.224657 -0.12139434 0.11144317 -0.055813264 0.017853506
0.33811885 -0.055058848 -0.044887718 -0.23492314 0.3810088 0.11505595 -0.005096676 -0.174487
-0.114081055 0.3583717 -0.03545017 -0.07139357 0.1945116 0.12645215 0.30063578 0.065946944
0.036935892 0.08876671 0.19200188 -0.07556351 0.034253273 0.001440275 0.073671974 -0.10544721
-0.008504173 0.0009537003 0.10565683 -0.156567 -0.118372895 -0.04869763 0.037142232 -0.19674633
-0.047093555 0.110823385 0.007916585 0.24172962 -0.05435557 0.07133193 -0.071949966 0.17590192
-0.11223383 -0.07192567 -0.006379704 0.23698281 -0.19767496 -0.33367032 0.1058746 -0.05587655
-0.013829712 -0.072279304 -0.10160911 0.09130974 -0.1751956 0.007211271 0.029780095 0.049591582
-0.042499736 0.01833822 -0.32419306 0.065888464 0.068538845 -0.028693411 0.16922663 0.026014404
0.035849974 -0.4087649 0.2901625 0.10235421 0.21731621 -0.1777819 -0.05292069 -0.07822653
0.14877929 -0.34685603 0.13847668 -0.3532495 0.30164978 0.17779356 0.063229345 -0.0012307349
-0.27197844 -0.19190799 0.07517886 0.13464102 0.17552808 0.1044428 -0.056124963 0.14631532
-0.074991845 -0.13625394 -0.07635853 -0.225113 0.31910133 0.12811951 -0.37809938 0.053046912
-0.022390937 0.16237159 0.24119836 -0.08496331 0.13582632 -0.034074437 -0.12433281 0.13393
-0.20884757 0.38227305 -0.25447464 0.09463891 -0.04011845 0.084168375 0.022825584 -0.0422925

network_body._body_endoder.seq_layers.0.bias f4 [128]
00000000: 0000 0000 0000 0000 0000 0000 0000 0000
00000010: 0000 0000 0000 0000 0000 0000 0000 0000
00000020: 0000 0000 0000 0000 0000 0000 0000 0000
00000030: 0000 0000 0000 0000 0000 0000 0000 0000
00000040: 0000 0000 0000 0000 0000 0000 0000 0000
00000050: 0000 0000 0000 0000 0000 0000 0000 0000
00000060: 0000 0000 0000 0000 0000 0000 0000 0000
00000070: 0000 0000 0000 0000 0000 0000 0000 0000
00000080: 0000 0000 0000 0000 0000 0000 0000 0000
00000090: 0000 0000 0000 0000 0000 0000 0000 0000
000000a0: 0000 0000 0000 0000 0000 0000 0000 0000
000000b0: 0000 0000 0000 0000 0000 0000 0000 0000
000000c0: 0000 0000 0000 0000 0000 0000 0000 0000
000000d0: 0000 0000 0000 0000 0000 0000 0000 0000
000000e0: 0000 0000 0000 0000 0000 0000 0000 0000
000000f0: 0000 0000 0000 0000 0000 0000 0000 0000
00000100: 0000 0000 0000 0000 0000 0000 0000 0000
00000110: 0000 0000 0000 0000 0000 0000 0000 0000
00000120: 0000 0000 0000 0000 0000 0000 0000 0000
00000130: 0000 0000 0000 0000 0000 0000 0000 0000
00000140: 0000 0000 0000 0000 0000 0000 0000 0000
00000150: 0000 0000 0000 0000 0000 0000 0000 0000
00000160: 0000 0000 0000 0000 0000 0000 0000 0000
00000170: 0000 0000 0000 0000 0000 0000 0000 0000
00000180: 0000 0000 0000 0000 0000 0000 0000 0000
00000190: 0000 0000 0000 0000 0000 0000 0000 0000
000001a0: 0000 0000 0000 0000 0000 0000 0000 0000
000001b0: 0000 0000 0000 0000 0000 0000 0000 0000
000001c0: 0000 0000 0000 0000 0000 0000 0000 0000
000001d0: 0000 0000 0000 0000 0000 0000 0000 0000
000001e0: 0000 0000 0000 0000 0000 0000 0000 0000
000001f0: 0000 0000 0000 0000 0000 0000 0000 0000
0.0 0.0 0.0 0.0 0.0 0.0 0.0 0.0
0.0 0.0 0.0 0.0 0.0 0.0 0.0 0.0
0.0 0.0 0.0 0.0 0.0 0.0 0.0 0.0
0.0 0.0 0.0 0.0 0.0 0.0 0.0 0.0
0.0 0.0 0.0 0.0 0.0 0.0 0.0 0.0
0.0 0.0 0.0 0.0 0.0 0.0 0.0 0.0
0.0 0.0 0.0 0.0 0.0 0.0 0.0 0.0
0.0 0.0 0.0 0.0 0.0 0.0 0.0 0.0
0.0 0.0 0.0 0.0 0.0 0.0 0.0 0.0
0.0 0.0 0.0 0.0 0.0 0.0 0.0 0.0
0.0 0.0 0.0 0.0 0.0 0.0 0.0 0.0
0.0 0.0 0.0 0.0 0.0 0.0 0.0 0.0
0.0 0.0 0.0 0.0 0.0 0.0 0.0 0.0
0.0 0.0 0.0 0.0 0.0 0.0 0.0 0.0
0.0 0.0 0.0 0.0 0.0 0.0 0.0 0.0
0.0 0.0 0.0 0.0 0.0 0.0 0.0 0.0

network_body._body_endoder.seq_layers.2.weight f4 [128, 128]
00000000: 1f71 5ebd dec0 c83d b872 54bd 2e91 163e
00000010: ad0c 90bd a5c2 15be 7250 5cbd 6c82 ebbc
00000020: e08f b7bd 0196 fd3c 5d86 17be 46bd 82bd
00000030: e9b0 a7bd 4de9 03be 5692 da3d 9f5f 21bd
00000040: 1d00 d1bb b521 adbd 32e5 c63d b825 1abe
00000050: aa23 b9bd 16b7 cc3c 70b9 0a3d d338 e43d
00000060: 2992 55bb 0cb4 6ebd ea92 adbd 4815 e9bc
00000070: e08d 3bbd 5d80 b6bd 3a8b 553e e207 87bd
00000080: f507 543d 51ad b33d 77b0 643d b834 9ebb
00000090: 9594 a239 0a2e 1cbe f2bc ad3d a2a3 85bd
000000a0: 9378 673e 0fc8 3d3e 277e 99bd 3dd7 f83c
000000b0: b3c2 6abc 5810 50bd d6d4 e3bc 578f 863c
000000c0: c45c 91bd f91a d9bd a36f 2e3e 096e 183e
000000d0: 3e18 683d f550 2f3d 0ddf 7e3d d67b aa3d
000000e0: 6fba 87bd a521 7e3d 7154 f9bc 5d13 8d3b
000000f0: dc02 0cbd 7eb3 00bb 7d65 1dbe 8f3f bfbc
00000100: ea40 80bb 3bd5 c83d 8ec5 23bd ecdb 5cbd
00000110: 7610 973d e981 1b3d 39c1 013c b1b5 b73b
00000120: e7f9 7cbd 9a80 3fbd 5f37 2abd 936a 623d
00000130: ca60 59bd f18c 9e3d e4ee 0d3e 4b78 253e
00000140: 1404 0ebe e986 1cbe 8757 a7bc a4eb 123c
00000150: 0684 d8bd d366 afbd 83fa 16bd 28e7 0e3d
00000160: 35d3 e9bc b0b0 233e 3c1e 853d 9a85 f0bd
00000170: 3be7 fabc ba38 09be af8a d3bd a41f 5cbd
00000180: e240 dd3d 6593 183e 2f79 183e 0a12 26be
00000190: 9f93 9dbd 16bc cf3d c3bf 083e b55f cebd
000001a0: 7643 e03c 3894 91bd 3701 dabc 90e1 e43d
000001b0: fd6f 4a3d 6989 babd 7b79 7e3c de47 a8bc
000001c0: a958 a1bd 04e3 3dbd 11a7 663c fdba 1fbd
000001d0: 0b47 8dbd 687c 1dbe 43ad dc3c 1124 c83d
000001e0: 8814 f8ba 2f8b 13bd 1a23 983d cbed 903d
000001f0: 3d05 8fbd 8955 013e 4919 ac3c 9461 a53d
00000200: c97d 6cbd f992 b53d 10b1 ddbd 6ee0 863d
00000210: e654 e8bd 0b10 e63d 2e7e bdbd 0ef9 a2bd
00000220: 7bd8 01be d35e 8ebd 0993 2bbd 1c55 d33d
00000230: e77e dc3d 6d9d e3bd 3c8e bd3d 5d86 67bd
00000240: eb77 1abe 5e9b d1bd af92 203e f615 1bbd
00000250: 7ad4 cf3c c3dd 903d 45bc 58bd b67c e63d
00000260: 3b5a 8c3d a2ae e1bd 64e4 8c3c aac0 1e3e
00000270: 9e86 00bd 0278 c13d 62be cb3d 17ad 16be
00000280: dfa3 cf3d 8ee7 f53d 4434 3f3c 1c70 383c
00000290: 54ef 00be 0df9 b43c a05b 18be 1b28 993d
000002a0: 958f 513b 5ab9 79bd db2d 0b3d 5fe9 d3bd
000002b0: 7906 27bd 6f4e c5bd 3d8b 97bc c038 cdbc
000002c0: 0235 a33b fb60 bbbd 69d0 b8bd 2d0d a4bc
000002d0: da05 02be 078c 18bd 24be 8cbc 793a 84bd
000002e0: 793c 7e3d 0676 343d 3902 9bbb 9a14 e83c
000002f0: e9b0 3fbc e785 813d 3bc4 243d 0411 c93d
00000300: fd21 31bd 7dc0 22be c081 c33d 871b 36be
00000310: 5174 0dbd 57c1 acbd 0916 09be 3c1d 36bc
00000320: bf6a cb3c 055a 143d 9267 723c 97b4 bb3d
00000330: 2e84 4cbd a9e8 bbbd e7a8 433d 5056 67bd
00000340: e25a c8bb 4077 003e ba0d 82bd 107f 333d
00000350: 7847 23bd 03fc 0d3e a726 adbd b819 de3d
00000360: 12ba 6b3b 3b1e 623d 8664 433d 32e5 33be
00000370: 89c9 c33c 6a5c 14be 03ea 68bc 006c e3bb
00000380: 8cdf 0d3e 0bb3 a23d 9394 9b3d 3413 343e
00000390: 2de9 30be a646 cabb aa18 223e 43d9 a13d
000003a0: 4182 913c d8d7 6dbd 8622 79bc 7e7b 12be
000003b0: a8ad 90bd 026b 293d c1eb da3b bd60 8e3c
000003c0: 64ea 32bd e17d d6bc 33a4 36bb cd6e dd3a
000003d0: 0f33 9e3d 1508 52bd 2083 fb3d ffaf 4cbd
000003e0: 271a 05be 9397 71bd cfbb 463c 4ffe 403d
000003f0: 50fd 8dbc 5440 97bd 3a9b bcbb 65e5 193e
-0.0543071 0.098024115 -0.051867217 0.14703819 -0.07033668 -0.14625032 -0.053787656 -0.028748713
-0.08962989 0.030955316 -0.1479735 -0.06383757 -0.0818804 -0.12881966 0.106724426 -0.039397832
-0.0063781873 -0.08453695 0.09711684 -0.15053451 -0.090400055 0.024989646 0.033868253 0.11143651
-0.003258834 -0.058277175 -0.08475287 -0.02845253 -0.0457896 -0.08911202 0.20853892 -0.065933004
0.0517654 0.08773292 0.055832352 -0.004828062 0.0003100975 -0.15251938 0.08483304 -0.06525351
0.22604589 0.18533348 -0.07494765 0.030376071 -0.0143286465 -0.050796837 -0.027811449 0.016425772
-0.07097772 -0.10600848 0.17034774 0.14885725 0.056663744 0.042801816 0.062224437 0.08324401
-0.06627356 0.062043805 -0.030435773 0.004305287 -0.034182414 -0.0019638236 -0.15370746 -0.023345737
-0.0039139884 0.098062955 -0.039983325 -0.05392067 0.073761865 0.03796569 0.007919603 0.005606376
-0.061761763 -0.046753503 -0.041556712 0.05527742 -0.05307082 0.07741726 0.13860661 0.1615917
-0.13868743 -0.15285839 -0.020427478 0.008967314 -0.105720565 -0.08564534 -0.03686 0.034888417
-0.028543094 0.1598537 0.064999074 -0.117442325 -0.030627837 -0.13400546 -0.10329186 -0.053741112
0.10803391 0.14899977 0.14889978 -0.16217819 -0.07694172 0.101432964 0.13354401 -0.100768484
0.027375918 -0.071083486 -0.026611907 0.11175835 0.049423207 -0.0910824 0.015531893 -0.020542081
-0.07878239 -0.046359077 0.014077918 -0.038996685 -0.06898316 -0.15379488 0.026938086 0.09772504
-0.0018927017 -0.036021408 0.0742857 0.070766054 -0.06983421 0.12630285 0.02100815 0.08075252
-0.057737146 0.088659234 -0.108247876 0.06585775 -0.11344318 0.11233529 -0.092525825 -0.0795766
-0.12680237 -0.0695168 -0.04188827 0.10318968 0.10766392 -0.11114011 0.09255645 -0.056524623
-0.15084808 -0.10234712 0.15680955 -0.03786274 0.025369871 0.07073548 -0.052913923 0.112542555
0.068531476 -0.11019637 0.017198749 0.15503183 -0.03137838 0.09446718 0.09948422 -0.14714466
0.10138678 0.12007056 0.011670176 0.011257198 -0.12591296 0.022091413 -0.14878702 0.07478353
0.003197645 -0.06096778 0.033979278 -0.103472464 -0.040777657 -0.09634101 -0.018499011 -0.025051475
0.0049806843 -0.09149357 -0.09024126 -0.020025814 -0.12697545 -0.037242915 -0.01718051 -0.06456465
0.06206939 0.04405787 -0.0047304896 0.028330136 -0.0116998935 0.06324368 0.040226202 0.098176986
-0.043245304 -0.15893741 0.09546232 -0.17783938 -0.034534756 -0.08435314 -0.13387312 -0.011115368
0.024831174 0.03621866 0.014795201 0.09165304 -0.049930744 -0.09175236 0.0477685 -0.0564788
-0.0061143497 0.1254549 -0.063502744 0.043822348 -0.03986308 0.13865666 -0.08454638 0.10844749
0.003596906 0.05520461 0.04770329 -0.175679 0.02389981 -0.14488378 -0.014215949 -0.006940365
0.13854808 0.07944306 0.07596698 0.1758545 -0.1727645 -0.0061729727 0.15829721 0.079027675
0.017762305 -0.058067173 -0.015205985 -0.14304921 -0.07064372 0.041361816 0.006680936 0.017380113
-0.043680564 -0.02618307 -0.0027868866 0.0016893983 0.077245824 -0.05127724 0.122808695 -0.04997253
-0.12998258 -0.058982443 0.012129738 0.047117528 -0.017332703 -0.073853165 -0.005755809 0.15028913

network_body._body_endoder.seq_layers.2.bias f4 [128]
00000000: 0000 0000 0000 0000 0000 0000 0000 0000
00000010: 0000 0000 0000 0000 0000 0000 0000 0000
00000020: 0000 0000 0000 0000 0000 0000 0000 0000
00000030: 0000 0000 0000 0000 0000 0000 0000 0000
00000040: 0000 0000 0000 0000 0000 0000 0000 0000
00000050: 0000 0000 0000 0000 0000 0000 0000 0000
00000060: 0000 0000 0000 0000 0000 0000 0000 0000
00000070: 0000 0000 0000 0000 0000 0000 0000 0000
00000080: 0000 0000 0000 0000 0000 0000 0000 0000
00000090: 0000 0000 0000 0000 0000 0000 0000 0000
000000a0: 0000 0000 0000 0000 0000 0000 0000 0000
000000b0: 0000 0000 0000 0000 0000 0000 0000 0000
000000c0: 0000 0000 0000 0000 0000 0000 0000 0000
000000d0: 0000 0000 0000 0000 0000 0000 0000 0000
000000e0: 0000 0000 0000 0000 0000 0000 0000 0000
000000f0: 0000 0000 0000 0000 0000 0000 0000 0000
00000100: 0000 0000 0000 0000 0000 0000 0000 0000
00000110: 0000 0000 0000 0000 0000 0000 0000 0000
00000120: 0000 0000 0000 0000 0000 0000 0000 0000
00000130: 0000 0000 0000 0000 0000 0000 0000 0000
00000140: 0000 0000 0000 0000 0000 0000 0000 0000
00000150: 0000 0000 0000 0000 0000 0000 0000 0000
00000160: 0000 0000 0000 0000 0000 0000 0000 0000
00000170: 0000 0000 0000 0000 0000 0000 0000 0000
00000180: 0000 0000 0000 0000 0000 0000 0000 0000
00000190: 0000 0000 0000 0000 0000 0000 0000 0000
000001a0: 0000 0000 0000 0000 0000 0000 0000 0000
000001b0: 0000 0000 0000 0000 0000 0000 0000 0000
000001c0: 0000 0000 0000 0000 0000 0000 0000 0000
000001d0: 0000 0000 0000 0000 0000 0000 0000 0000
000001e0: 0000 0000 0000 0000 0000 0000 0000 0000
000001f0: 0000 0000 0000 0000 0000 0000 0000 0000
0.0 0.0 0.0 0.0 0.0 0.0 0.0 0.0
0.0 0.0 0.0 0.0 0.0 0.0 0.0 0.0
0.0 0.0 0.0 0.0 0.0 0.0 0.0 0.0
0.0 0.0 0.0 0.0 0.0 0.0 0.0 0.0
0.0 0.0 0.0 0.0 0.0 0.0 0.0 0.0
0.0 0.0 0.0 0.0 0.0 0.0 0.0 0.0
0.0 0.0 0.0 0.0 0.0 0.0 0.0 0.0
0.0 0.0 0.0 0.0 0.0 0.0 0.0 0.0
0.0 0.0 0.0 0.0 0.0 0.0 0.0 0.0
0.0 0.0 0.0 0.0 0.0 0.0 0.0 0.0
0.0 0.0 0.0 0.0 0.0 0.0 0.0 0.0
0.0 0.0 0.0 0.0 0.0 0.0 0.0 0.0
0.0 0.0 0.0 0.0 0.0 0.0 0.0 0.0
0.0 0.0 0.0 0.0 0.0 0.0 0.0 0.0
0.0 0.0 0.0 0.0 0.0 0.0 0.0 0.0
0.0 0.0 0.0 0.0 0.0 0.0 0.0 0.0

action_model._discrete_distribution.branches.0.weight f4 [2, 128]
00000000: 7852 ce3c dad9 66bc 1372 063b 2f92 9a3b
00000010: 4155 183b 1509 823c a5db f2ba 0a4c 71bb
00000020: 5b6e 02ba 6895 d03b 56d1 153c 632a 23bc
00000030: 5e51 1f3b 346d 413c 3fc8 c8ba c7f3 38bb
00000040: 13ec 663c f569 453c 0e7d 1dbc 4bb7 30bb
00000050: 2041 d039 6d45 0d3b 1def 96bb c012 bd3c
00000060: 4da2 1cba c733 23bb f121 16bc da98 1ebb
00000070: 9f69 ee3b 1ad0 363b 9f57 873c 5a72 633a
00000080: cdb7 b3bb 5aee 6ebc e753 323b ddd7 343b
00000090: 13e6 f53b 1ee3 b63b 2f74 733c 4537 043b
000000a0: 4b95 8dbb 35f8 123c 7931 08ba ff8a feba
000000b0: b546 6bbb 7273 05bb b0a4 ffb9 979d 5b3b
000000c0: 7b2b 3b3b 1533 03bb 9c31 a139 f79e 92ba
000000d0: 5380 403b 1df1 04bc eb64 253c ea95 d53b
000000e0: 94c3 8dbb 5770 d3bb ebb7 53bc 456f 12bd
000000f0: 5522 923b e0c4 77ba f9bf 49bc 1dab 513c
00000100: 7930 313c 7266 423c caa1 93bb f765 b63c
00000110: baa2 d93b 0bd0 5dbc 3c46 c83a cc93 b73b
00000120: 5f5f 843b b768 ac3b 9e52 41bc d37a 6b3c
00000130: 9a1d e2bb 7349 543a acaa 31bb 730d b2bb
00000140: 0fba 1a3b 8e10 bc3b a5fd 7f3c a34b b4bb
00000150: d28a fb3b a0d9 d13b 86c9 973b 6546 9fbb
00000160: 7bf9 e43b 605d 57bc e614 04bc 8a6b 5ebc
00000170: 33f0 81bc 19b3 ae3a aae5 4ebc f345 253b
00000180: 336b edbb 9732 83bb fb19 973b 7280 033c
00000190: 1a33 da3b 1d3d 9ebb ce4c a23a 8bd2 153c
000001a0: 5088 a43c 4864 1b3c eb1b 6c3c e381 6d3b
000001b0: 606f 14bc 3dc5 44bb bbc7 2abc 895a 1cbb
000001c0: d316 f8bb f3d0 f6bb 12f1 3d3b 0f43 073b
000001d0: cbb7 323a f5c3 9b3b 59e9 b1ba fa4f 7c3c
000001e0: eb40 213c 3750 383c fb39 c6ba eda7 95bb
000001f0: 488b a2bb 53c8 703c 1b22 40bb e1a4 033b
00000200: 9117 133c fa4a 69bc 5283 40ba 2825 363c
00000210: 0b15 573c 99f8 9a3c fbc5 803b 9679 143c
00000220: af17 803b 81f0 40bc 9339 93bc 41e3 083b
00000230: b57d 0dbc 24a3 853c de06 3c3c 13b9 9bb9
00000240: 255a 0d3c 2573 5c3c 73bd 90ba 93c9 52bb
00000250: 7749 27bc 5bf2 303c e225 023c 5ec0 0a3c
00000260: c5c7 ae3c 6d2b 31ba 99d5 3ebc eae3 3bbc
00000270: 5fce ad3c 0b8b 9eba fb62 85bc fb97 debb
00000280: 4796 a23b cf3b 88bb a851 913c 6b02 843b
00000290: 4bd7 ad3b a170 47bb f766 b2bc f747 8c3b
000002a0: 436a 80bb d390 a9bb fb5a debb 225b 84ba
000002b0: ac2b 113b a99f 473c 3bf9 02bc ed28 073b
000002c0: b8b9 bebb 8d51 b23a 1109 273b ddb4 4f3c
000002d0: ec52 a33b 37aa fbbb fb01 b13a c837 b63b
000002e0: 80d2 b6bb b765 f43b 9d98 373c cde0 2dbb
000002f0: 3616 8b3c b4d7 8cbb 383d 6a3b 5dc9 9e3c
00000300: 8bc0 64bb 0756 9538 4b1d 08bc 4786 0abb
00000310: 534e d8bb 7b0f 03bc 3847 86bb 8569 df3b
00000320: 467e 90bb a3b9 223c 3585 f33c eb55 643b
00000330: a009 81bb 9bcd a83b 2c42 14bc ead2 7c3b
00000340: d821 eb3b a343 8dbc 50c6 0e3c ae73 bbb9
00000350: be24 403c 47ca b23c 670c 61bc b241 fc3b
00000360: 1586 7fbb bc7d 843c 7ab7 1c3a 2942 3ebb
00000370: bd84 4a3c 6241 06bb 2b84 88bb 9acd 72bb
00000380: b99c 1a3c 472f 57bc 02ab 0abb b247 e5bb
00000390: 2dfc 033a 1fb3 c6bb 6c07 8bba e44d 453c
000003a0: c8bd fcbb b355 4c3b 4a7c c03b 1cfe 0fb9
000003b0: aa00 9f3b b591 b5bb 62e4 023b cf38 9fbb
000003c0: 4dc3 b83b c197 01bc 2018 9fbb fb9f 93ba
000003d0: 88d2 5d3c 4b9c 6a3b 28d0 da3a d0c5 6d3b
000003e0: 3f35 c7bb 93ca 723c 1ff7 12bc 6745 a53b
000003f0: bfc9 3b3c 75e3 f13b add2 d0bb d750 4fbc
0.025185809 -0.014090026 0.002051477 0.0047171335 0.0023244175 0.015873471 -0.0018528594 -0.0036819004
-0.00049755507 0.006365467 0.009144148 -0.009958836 0.0024309973 0.011805821 -0.0015318467 -0.0028221474
0.01409437 0.012049188 -0.009612335 -0.002696472 0.00039721373 0.0021556274 -0.0046061412 0.02308023
-0.00059751124 -0.0024902688 -0.009163366 -0.0024199993 0.0072757746 0.0027895034 0.016521273 0.00086764025
-0.0054845572 -0.014583195 0.0027210654 0.0027594485 0.0075042336 0.0055812737 0.014859243 0.0020174545
-0.0043207756 0.00897031 -0.000519536 -0.0019420086 -0.00359003 -0.0020363 -0.00048760092 0.003351068
0.0028559852 -0.002001946 0.00030745275 -0.0011186291 0.0029373362 -0.0081141265 0.0100948615 0.0065181153
-0.0043262932 -0.006452601 -0.012922267 -0.035750646 0.004459659 -0.0009451639 -0.012313836 0.012797144
0.010814779 0.011865245 -0.0045053707 0.022265418 0.006641713 -0.013538371 0.001527972 0.0056023356
0.0040396894 0.0052615064 -0.011799483 0.014372545 -0.0069005014 0.0008098103 -0.0027109785 -0.005433732
0.0023609435 0.005739278 0.015624438 -0.0055021807 0.007676461 0.0064041167 0.0046321778 -0.0048606866
0.006987748 -0.013144821 -0.008061623 -0.013575444 -0.015861606 0.0013328522 -0.012627998 0.0025218695
-0.007245445 -0.0040038335 0.0046112514 0.008026229 0.006658924 -0.0048290626 0.0012382509 0.009144436
0.02008453 0.009484358 0.014410953 0.0036240749 -0.009059757 -0.003002479 -0.010423596 -0.0023857674
-0.0075710802 -0.007532233 0.00289828 0.0020639335 0.00068175484 0.0047535845 -0.0013573571 0.015399927
0.009842138 0.011249593 -0.0015123481 -0.0045671375 -0.0049604513 0.0146961985 -0.0029317203 0.002008729
0.008977787 -0.014239067 -0.0007343787 0.011117257 0.013127576 0.018917369 0.003929851 0.0090621915
0.0039090733 -0.011776091 -0.01797179 0.0020887407 -0.008635928 0.016313143 0.011476247 -0.00029701795
0.008627449 0.013455187 -0.0011042788 -0.0032163605 -0.0102103865 0.01079997 0.007943602 0.0084687155
0.021335492 -0.0006758485 -0.011647605 -0.011467913 0.02121657 -0.0012095881 -0.01628255 -0.00679302
0.004961762 -0.0041575204 0.017739132 0.0040286086 0.005305206 -0.0030432122 -0.021777613 0.00428104
-0.0039189174 -0.005174735 -0.006785748 -0.001009796 0.0022151275 0.012184062 -0.0079939915 0.002062376
-0.0058204792 0.0013604626 0.0025487582 0.0126773985 0.0049842503 -0.0076802033 0.0013504619 0.005560849
-0.005579293 0.0074584144 0.011205819 -0.0026531697 0.016978364 -0.0042981748 0.0035742056 0.019383127
-0.0034904804 7.1208975e-05 -0.008307765 -0.0021137164 -0.006601134 -0.007999296 -0.0040978454 0.006817999
-0.004409584 0.009931955 0.029726604 0.003484125 -0.003937915 0.005151463 -0.00904898 0.0038577863
0.0071756653 -0.017244166 0.008714274 -0.00035753608 0.01172751 0.021824969 -0.013735867 0.007698261
-0.0038989831 0.016173236 0.0005978268 -0.0029031134 0.012360749 -0.0020485749 -0.0041661463 -0.0037048818
0.00943678 -0.01313383 -0.0021159058 -0.006997072 0.00050348305 -0.0060638334 -0.001060707 0.012042496
-0.0077130534 0.003117901 0.0058741914 -0.00013732206 0.004852374 -0.0055410513 0.0019972553 -0.004859067
0.005638516 -0.007909716 -0.004855171 -0.0011262888 0.013538964 0.0035798724 0.0016694115 0.0036281236
-0.0060793455 0.014818805 -0.008970051 0.005043674 0.011461674 0.0073818513 -0.0063727708 -0.012653551

action_model._discrete_distribution.branches.0.bias f4 [2]
00000000: 0000 0000 0000 0000
0.0 0.0
