Assets/results/ppo/JumperAgent/JumperAgent-131943.onnx (onnx, 91980 bytes, 6 tensors)

network_body._body_endoder.seq_layers.0.weight f4 [128, 42]
000000 80 6c e1 3d 78 92 8d bd 56 25 4d bd 1f ce 84 3c
       0.11007023 -0.06912702 -0.050084434 0.016211567
000010 bc 07 63 3d 69 41 81 3e 95 f4 8e 3d 41 ff 41 3d
       0.055427298 0.25245216 0.06980244 0.04736257
000020 83 22 cb 3d af f5 a8 3d 36 36 28 3e 1b 5a 52 3e
       0.09918692 0.082499854 0.1642693 0.20542185
000030 b9 d8 74 3e 0a 2e a1 bd 34 7c eb 3d b6 3b 89 3e
       0.23910798 -0.078701094 0.11498299 0.26803368
000040 f6 0f 4f be f2 2c 86 bd 7f 5b 65 3e 23 73 29 3e
       -0.20220932 -0.065515414 0.22398184 0.16547827
000050 6d 18 bc 3d 63 50 93 bc cb 22 a3 bd 9c fa e0 bd
       0.09184346 -0.017982667 -0.079656206 -0.109853
000060 5e ce 14 be 98 f3 5a bc 4e 6d f4 3d 36 4d 94 bb
       -0.14531848 -0.013363741 0.11934911 -0.004525806
000070 95 4b 94 3e b8 38 93 be 46 20 43 3d 96 c9 a3 3c
       0.28963915 -0.2875421 0.0476382 0.019993585
000080 e7 6a 98 bd c4 9d 0e be 6a a2 c5 3d d7 80 a9 3e
       -0.07442265 -0.1392737 0.09650119 0.3310611
000090 f4 65 4f 3e f0 40 06 bd 1e af 8c 3e 88 bb f5 3d
       0.20253736 -0.032776773 0.27477354 0.11998659
0000a0 ba e8 42 3e b4 71 e1 bd f3 18 62 be a4 68 95 be
       0.1903409 -0.11008015 -0.2207983 -0.29181397
0000b0 eb cd 4f bd 80 c4 e4 3b 34 71 a9 3e f3 5a ef be
       -0.050733488 0.0069814324 0.3309418 -0.46749076
0000c0 a4 bf 54 3e 61 32 cb 3d 9e ce 8d 3c 51 0a 65 3d
       0.2077623 0.099217184 0.017310437 0.05591804
0000d0 a1 bd 60 bc e1 0a d3 3b 96 57 c4 bd ff 6c 11 be
       -0.013717086 0.006440506 -0.09587018 -0.14201735
0000e0 b3 0e 0d bd 06 41 34 3c 02 ff 86 3d 11 43 11 be
       -0.034437846 0.011001831 0.06591608 -0.1418574
0000f0 2f 98 23 3d ad 24 8d 3e b2 2c ae 3d cf 9b 97 bd
       0.039940055 0.27567044 0.08504619 -0.07402765
000100 ed 40 da 3c 7b 9d d2 bd 8b 0f 73 3e e4 86 9d bd
       0.026642287 -0.10283943 0.23736398 -0.07691744
000110 92 87 aa 3d 09 73 a5 3d fa 4f a4 bd 3d df d0 3d
       0.08326639 0.08078582 -0.08023067 0.10198829
000120 6f 77 63 bd 91 44 a9 3b a2 72 ba be a6 45 50 bd
       -0.055533823 0.0051656445 -0.36415583 -0.050847672
000130 9d ab 7d bd c3 c9 03 be 04 82 7e 3e 9f fd 45 be
       -0.06193124 -0.12869935 0.24854285 -0.1933503
000140 d2 4d 53 3c 28 58 96 be 50 79 10 bd b5 8b 89 be
       0.012896972 -0.29364133 -0.035271943 -0.268644
000150 65 25 1a 3d 98 42 c2 3d 2e 48 1c be 51 04 60 bd
       0.03763332 0.09485358 -0.1526191 -0.054691616
000160 8e 17 cd 3c 5b b3 91 bd a3 0a 55 3e 48 d3 54 3c
       0.025035646 -0.071142875 0.20804839 0.0129898265
000170 d2 a9 87 3b 5f 94 34 3e c4 cd 0a 3d 1e e3 bd bd
       0.004140117 0.17634724 0.03388764 -0.09271835
000180 69 59 3d 3d 08 f6 73 bd 07 8a 8e 3d 36 2d 34 3e
       0.046227846 -0.059560806 0.069599204 0.17595372
000190 95 51 42 3e cd a6 2e 3d f5 31 c5 3e 58 f6 24 bd
       0.18976434 0.042639542 0.38514677 -0.040273994
0001a0 2b d1 4f be 1e 05 44 3d 6d 8f b7 bd 4b c9 00 be
       -0.20294635 0.047856443 -0.08962903 -0.12576787
0001b0 ef eb 2a 3e 7c 84 de bd ce c7 2f 3e 9c c4 eb bc
       0.16691564 -0.10865113 0.17166063 -0.028780274
0001c0 af fe 98 3d f7 19 83 3d 30 6d 99 3e f6 c3 a1 3e
       0.07470452 0.06401437 0.29966116 0.3159482
0001d0 7e b7 22 3c 0f 11 32 be 26 17 20 3e 29 77 82 3e
       0.009931443 -0.1738932 0.1563383 0.25481537
0001e0 80 56 4d be a1 de f0 3c 14 45 5f 3c 96 4d 46 be
       -0.20052528 0.029403033 0.013627309 -0.19365534
0001f0 8c 8c 31 3e ce 95 62 bd 77 0a 5a 3c 8e bd 61 3e
       0.1733877 -0.055318646 0.013308159 0.22044966
000200 4a d4 0f 3e 79 b4 bb 3e 91 7f c7 bc 7a e4 8d bd
       0.14045826 0.36661127 -0.02435282 -0.06928344
000210 00 63 38 3c f0 6c 8a 3d 4f 1e b0 3d 5d 73 4f be
       0.011254072 0.067590594 0.08599531 -0.20258851
000220 61 56 51 be ce db 54 3e 5d fb 11 3d cf f4 6c 3e
       -0.20443107 0.20786974 0.03564011 0.23140262
000230 e4 9b 09 3d 33 8a 91 3c 4e 7e e9 bc 26 ac d9 3c
       0.033595935 0.017766094 -0.02850261 0.026571345
000240 2b 70 8b bd 25 67 e6 3d 8c 9f 02 3e 21 b4 ce 3e
       -0.06808504 0.11250142 0.12756175 0.40371802
000250 bc a8 aa bd 1d 45 8c bb 79 99 4e bc 35 2f 6f 3d
       -0.08332965 -0.0042807 -0.012609833 0.05839463
000260 90 17 f4 bb d8 fd 3d be a0 71 f7 3d 23 8f c4 3d
       -0.007449098 -0.18553865 0.12082219 0.09597614
000270 23 79 35 3e 41 a8 cc bd 5b 4b 9e 3c 62 18 2e 3d
       0.17721991 -0.099930294 0.019323042 0.042503722
000280 74 17 eb 3c 40 82 9a 3d 79 4d 97 3e 1b 48 31 bd
       0.028697707 0.075443745 0.29551294 -0.043281656
000290 a0 11 c4 bc 6d 65 2f be c9 36 e8 bd 78 d0 57 3d
       -0.023934186 -0.17128535 -0.113385744 0.052689046
0002a0 4d 1b 97 bd d0 2b 62 3d 19 0f 46 3e 90 c2 c4 3e
       -0.07378254 0.055217564 0.19341697 0.3842969
0002b0 08 67 20 bd 4f e0 2a 3e c3 d3 93 be 4b 13 79 bd
       -0.03916076 0.1668713 -0.288725 -0.060809415
0002c0 3e 24 35 3c b6 ff 7d bd d0 39 86 3e 69 14 b2 bc
       0.011056004 -0.062011443 0.26215982 -0.021738248
0002d0 5a 04 dd bc 95 e8 59 3e 5e 15 06 3c 4f 29 28 3d
       -0.026979614 0.21280129 0.008183805 0.04105502
0002e0 0c 78 a4 be bb 29 93 bd 53 a3 3e 3e d5 3a 38 3e
       -0.32122838 -0.07185694 0.18616991 0.17991193
0002f0 fc 04 44 be d3 78 1c bd 8d ba 94 bb f1 5f 50 bd
       -0.19142526 -0.038201164 -0.00453884 -0.050872747
000300 e4 36 1b 3e 42 f3 57 be 15 bf 44 bc 23 42 c3 3c
       0.15157658 -0.21088889 -0.012008448 0.023835247
000310 9a d1 2c be 84 fb 34 3e 62 08 53 3d 98 53 09 bd
       -0.16876832 0.1767407 0.051521666 -0.033526987
000320 d4 35 17 3d 6d b5 ae 3d 69 aa 14 be 94 e6 0b 3e
       0.03691657 0.08530698 -0.14518131 0.13662177
000330 8f d2 b9 3b e4 60 6d 3d 2b fb 81 bd e3 b9 e0 ba
       0.0056708525 0.05795373 -0.063467346 -0.0017145242
000340 d6 87 96 3c df 0d 86 3d 1d 97 0f 3e 6b d9 1f 3d
       0.018375318 0.065456145 0.14022489 0.039025705
000350 30 07 81 be a5 0c 55 3e 53 64 5d be 63 fe 76 bd
       -0.25200796 0.20805605 -0.21620302 -0.060301196
000360 36 d5 35 be 28 fe 63 be d3 af 8c 3d 30 5b 7c bd
       -0.17757115 -0.22264922 0.06869473 -0.0616104
000370 f2 40 6f 3e 88 93 56 ba 99 50 10 3d 97 16 11 be
       0.23364618 -0.0008185436 0.035233114 -0.14168774
000380 7f ec 0e bd 44 54 8c 3e 06 81 28 3d bd e7 38 3e
       -0.03489351 0.2740804 0.04113867 0.18057151
000390 10 ca ac 3d aa ac c8 3d a2 ae 92 bd 55 c5 b1 3d
       0.08436978 0.09798558 -0.07162215 0.08680216
0003a0 12 9d 68 3e ec fa 1a 3d b9 ee 90 bb 99 a8 0c be
       0.22716168 0.037836954 -0.004422989 -0.1373619
0003b0 ba ff b1 3d 7a 3f 02 bf 64 ef 39 3e 13 aa ce be
       0.08691354 -0.5087811 0.18157727 -0.4036413
0003c0 80 cb e5 3b a7 f3 ce 3b 23 5f 2d be 33 3b 1d be
       0.0070127845 0.0063156667 -0.16930823 -0.15354614
0003d0 49 92 8e bc f1 13 15 bd 35 4a bd bd 40 1c d2 3d
       -0.017403739 -0.03639597 -0.092426695 0.102592945
0003e0 1b 46 0a be 75 42 0c 3e 1f 55 ec bb 82 66 59 3e
       -0.13503306 0.13697226 -0.0072122957 0.2123051
0003f0 1d 03 72 bd 2b 67 a0 bd de 52 19 3d 14 5d e0 3c
       -0.059085 -0.07832178 0.037432544 0.027388133

network_body._body_endoder.seq_layers.0.bias f4 [128]
000000 5c 30 19 bb d7 dc bb bb 33 22 4c 3b 13 7a b2 bb
       -0.0023374772 -0.0057331133 0.0031148314 -0.0054466813
000010 4a 18 9d 3b e2 d7 7a bb 66 a5 39 3c 4a bc 8f bb
       0.0047941552 -0.003827565 0.011330938 -0.0043864595
000020 c1 6b 2a 3c 18 d8 cf bb 68 51 46 3c 16 fc 4f bb
       0.010401667 -0.006342899 0.01210437 -0.0031735948
000030 90 14 cf ba c7 45 2a bb 4b 09 ba bb 47 8c 0c bb
       -0.0015798975 -0.0025981532 -0.0056773773 -0.0021445916
000040 9a 93 4e bc d0 81 75 3b cc 6b 13 bc ec 69 6f bb
       -0.012608433 0.0037461407 -0.008997869 -0.003653164
000050 65 87 16 bc 83 2e af bb 16 cb f0 3b 32 2b 43 3c
       -0.009187554 -0.005346121 0.0073484285 0.011912154
000060 c2 cb 50 3b 60 49 14 3c dd 9a 9f bb 9e 6f 90 3c
       0.003185973 0.009050697 -0.004870756 0.017631348
000070 ec 3a cb bb 5f 41 ee 3b 88 d4 23 3c 50 59 14 3c
       -0.0062020924 0.0072709764 0.009999402 0.009054497
000080 a9 7d 42 bc 08 ca 2c bb fe 0b 1f 3b 53 5c 44 3b
       -0.01187078 -0.0026365537 0.0024268623 0.0029962256
000090 54 d1 44 3c 46 53 06 3c b3 be d4 bb 64 b3 ed bb
       0.012012798 0.008198565 -0.0064924597 -0.007254051
0000a0 4a 64 d3 3b 6a 2d f0 bb 42 24 0d 3b 0f c2 a8 bb
       0.0064511644 -0.0073296325 0.0021536504 -0.0051500867
0000b0 90 61 28 bb 43 a1 9c bb bd 11 16 bc 3b 48 61 bb
       -0.0025692917 -0.004779966 -0.009159503 -0.0034375328
0000c0 67 92 0e 3c d3 c7 ef 3b fd b3 1c bb 7f f0 0f bc
       0.008701897 0.007317522 -0.0023910992 -0.008785366
0000d0 67 cd 5a bc 89 62 67 ba 1b dd 85 bc 3a 86 0b 3c
       -0.013354636 -0.00088266336 -0.016340783 0.008515889
0000e0 f5 34 b2 bb 9a 87 70 3a 1a 08 e2 bb e8 73 4f 3c
       -0.005438442 0.00091754796 -0.0068979384 0.012661912
0000f0 bf b9 46 bc d7 5d 54 3c b9 1b 04 3b 3a 15 14 bc
       -0.012129246 0.012961826 0.0020158126 -0.009038264
000100 15 cd f9 3b 0e 4e 99 bb ae f4 60 ba d8 c4 4d bc
       0.0076233246 -0.0046784943 -0.0008581382 -0.012559138
000110 ca e3 0f 3c 10 12 06 3c 83 67 2a 3c 88 6a d5 ba
       0.0087823365 0.008183017 0.010400656 -0.0016282359
000120 e7 9f 9f bc 9c ab bf bb 0c 50 e8 bb eb 65 13 3c
       -0.019485427 -0.005849315 -0.0070896205 0.008996467
000130 a2 9f 95 bc 06 53 e3 3b f0 31 15 3b df 69 1e bc
       -0.018264595 0.0069373874 0.002276536 -0.009668796
000140 bf 0b 93 3b a7 c8 cf bb 27 c1 ed bb 4a 4c b7 ba
       0.004487484 -0.0063410583 -0.0072556916 -0.0013984528
000150 e3 c0 23 3c 3b f9 ab 3b ff 26 55 bb 89 ca dd bb
       0.009994718 0.0052482164 -0.0032524464 -0.006768529
000160 d2 70 34 3c 82 00 fc ba 32 72 1e 3c 85 2c 33 3c
       0.011013227 -0.0019226226 0.009670781 0.010935907
000170 8e ae a7 bb 0f 9b 04 3c 7d fb 50 bc a1 9e e7 3b
       -0.005117244 0.0080936095 -0.012755272 0.0070684706
000180 91 db 1f 3c dd ce 66 3b d0 d3 05 3c aa 97 6a 3c
       0.009756939 0.0035218515 0.008168176 0.014318386
000190 9c 0d a0 3b f8 7a 42 3c e0 dc cb bb 8e d2 cb 3b
       0.004884435 0.011870138 -0.0062213987 0.0062201684
0001a0 ef 33 db 3b 78 b9 30 3c 0d 8a c9 bb 2a a6 5d bc
       0.0066895406 0.010786407 -0.00615049 -0.013528386
0001b0 2b 0f ef 3b 97 a6 1d 3c f3 15 a8 bc c2 af 55 bb
       0.0072955093 0.009622238 -0.020518279 -0.003260598
0001c0 77 54 06 bc 12 e5 9f 3b 29 5f c6 bb 3e 9b db 3b
       -0.008198849 0.004879602 -0.0060538244 0.006701856
0001d0 db 6a 82 3b cd be 15 bb 46 df 0e bc f9 4e c6 bb
       0.0039800233 -0.0022849322 -0.008720225 -0.0060518947
0001e0 74 b7 77 3b 67 ff f6 3b 08 3a ae 3b 26 55 47 bb
       0.0037798556 0.0075377706 0.0053169765 -0.0030415743
0001f0 db 82 0d bc eb 4e a7 3b 00 43 20 3c 45 67 61 bc
       -0.008637155 0.0051058433 0.009781599 -0.0137575315

network_body._body_endoder.seq_layers.2.weight f4 [128, 128]
000000 1f 47 6d 3d a3 38 21 3e 6d 64 1a bc 02 b6 7d be
       0.057929154 0.15744261 -0.009423357 -0.24776462
000010 48 23 9e bd 82 e0 32 bd 1b c6 7a 3c ac 01 b7 3c
       -0.07721573 -0.04367114 0.015306021 0.022339664
000020 02 5a 02 be 35 71 82 bc c8 f8 1c bd 33 2e be 3d
       -0.12729648 -0.015923122 -0.038323194 0.092861556
000030 3c ae 88 bc d1 7e 8a 3d 7b 23 0f 3d 00 8d 11 3d
       -0.016684644 0.067624696 0.034945946 0.03553486
000040 75 e1 89 3d 6d e7 f5 3c 6f 18 75 bd a4 63 d9 bc
       0.06732456 0.030017579 -0.059837755 -0.02653677
000050 70 42 a0 3c 65 88 6b bd 0e da 97 bc 90 ae b2 3c
       0.01956293 -0.057503123 -0.018536594 0.021811754
000060 59 55 03 3e 63 e7 91 3d 22 01 91 bd 72 53 1a bd
       0.12825526 0.07124212 -0.07080294 -0.037677236
000070 3f 29 be 3d 2e 47 50 bd 7d 53 c4 bd 18 ed ae bd
       0.09285211 -0.050849132 -0.095862366 -0.08541316
000080 73 b5 18 3d 6e 4c fe bd 66 15 37 3b 32 52 58 bc
       0.03728242 -0.124169216 0.0027936338 -0.013203191
000090 ef e8 06 be 89 b4 86 3d 3d 14 b1 bd 36 37 49 bd
       -0.13174795 0.06577403 -0.08646438 -0.04912492
0000a0 88 b2 0c bd ec b3 fe 3c d6 82 ba bd 72 b9 62 3d
       -0.03434995 0.031091653 -0.09106986 0.055352636
0000b0 8b e1 ea 3d 6b 38 82 3d 5d 78 ed bd 67 57 2b bd
       0.114688 0.06358417 -0.11595223 -0.0418314
0000c0 19 07 ed 3d 63 db 88 bd 78 a8 94 3d 65 af 0f 3c
       0.115736194 -0.0668247 0.07258695 0.008769845
0000d0 82 4c 3d 3e ee d6 ed bb 99 59 1e 3d ae 48 08 bd
       0.18486217 -0.0072582876 0.038659666 -0.033272438
0000e0 57 c3 86 bc 57 7f 40 3d a4 8b d4 bd 76 37 83 bd
       -0.016450567 0.04699644 -0.10378197 -0.06407063
0000f0 d4 61 e4 3d 6e f4 7e be 55 0d e7 3b 53 3a a5 3d
       0.11151472 -0.2489793 0.00705115 0.08067765
000100 7d 62 7b 3d 14 dd 22 bc 8f af 08 3e e8 fe 49 bc
       0.061373223 -0.009940404 0.1334822 -0.012328841
000110 0a 5a 3b bd 9e 26 34 be e7 84 30 bc 61 cb 14 3d
       -0.045740165 -0.17592856 -0.010773874 0.03632677
000120 b7 c7 02 3c a0 b8 e2 3c c3 b3 ef 3c d8 64 93 3d
       0.007982186 0.027675927 0.029260522 0.07196969
000130 2b fe f8 3c 4e 70 ea bc 7d a8 35 be 27 e0 65 bd
       0.030394634 -0.028618004 -0.17740054 -0.05612197
000140 96 e6 26 3d 63 f9 82 3d 6d 3e fb bc 50 41 9f bd
       0.040747248 0.06395223 -0.030669415 -0.07776129
000150 62 b9 1f 3e 34 e4 99 3d 35 1d 90 3d 97 c2 e0 bd
       0.15598062 0.075142294 0.07036821 -0.10974615
000160 ff 87 90 3d a3 0f b9 3b ad e6 0f 3d 6e b0 e4 bc
       0.07057189 0.005647616 0.0351321 -0.02791616
000170 a3 7d 14 be 30 b3 8f 3d cf b1 9d 3d 8d 14 2c bd
       -0.14501052 0.07016599 0.0769993 -0.042011786
000180 ea 81 50 3d 41 b8 f4 bd 5f 39 8f 3d a9 2a 37 be
       0.050905146 -0.11949206 0.069933645 -0.17887367
000190 14 fd 67 bd 60 fa 1c 3d 4c f5 06 3e 93 f8 c9 3d
       -0.05663784 0.038324714 0.13179511 0.09861865
0001a0 99 e1 66 bd b2 79 c6 bd 3b 8c a3 3c ec d1 93 bd
       -0.05636749 -0.0969118 0.019964328 -0.07217774
0001b0 8f 10 1c 3d c0 be b2 39 2a 2a 33 3d 4d 96 c4 bb
       0.03810173 0.00034092925 0.043741383 -0.0059993626
0001c0 6d 8b fb 3c db f1 a2 bb b4 c4 06 bd 67 f0 15 bc
       0.030706132 -0.004972679 -0.032902434 -0.009151555
0001d0 12 bc 97 bd 99 57 9f bc 57 f9 f5 bd 43 82 81 bd
       -0.074089184 -0.01945095 -0.120104484 -0.063236736
0001e0 35 4d cb 3c 88 ad 8f 3d 81 a8 23 3e a3 50 6d 3d
       0.024817089 0.0701552 0.15982248 0.05793823
0001f0 cd a1 a2 3d f8 f2 c0 3d 05 96 bd 3d bf 13 c8 bd
       0.07941017 0.094213426 0.092571296 -0.09769391
000200 a1 3f fa 3b 16 fc 2c 3e 7b 48 83 bc bf 9a 01 be
       0.0076369797 0.16893038 -0.016025772 -0.12656687
000210 93 18 2a be bd 9d 85 3d 44 29 1b 3e a8 3f 5b bd
       -0.16610937 0.06524227 0.1515246 -0.053527504
000220 b4 0d 06 be 80 6f a9 bd a0 fb 78 3e 78 0f bb 3d
       -0.13091165 -0.0827322 0.24314737 0.0913381
000230 21 71 8b 3e 85 4b 00 be da 36 b4 bd 53 5c 4d be
       0.27234748 -0.12528808 -0.087995246 -0.2005475
000240 45 ea 0a 3d c2 07 35 be 01 56 24 3c bf 9c 64 bd
       0.033914823 -0.1767874 0.010030271 -0.055813547
000250 8b c1 6f 3c ad 24 2c 3d 13 0d b8 3c fb 9c 0b 3d
       0.014633547 0.042027164 0.022467172 0.034085255
000260 16 e6 6a bc ac 67 59 bd 6b 77 b2 bd ce 25 a9 3c
       -0.014337083 -0.053077385 -0.087141834 0.02064791
000270 90 a8 35 3c df 84 27 bd 78 28 21 be d8 c8 18 3d
       0.011087552 -0.0408982 -0.15738094 0.037300915
000280 3b b9 c2 bd a3 e2 68 3c 37 b8 36 bd 3f 77 62 bc
       -0.09507986 0.014214191 -0.044609275 -0.013822376
000290 49 d7 84 bd ba 44 61 bd cf e0 0b 3d d3 55 9e bd
       -0.06486375 -0.054997183 0.03414994 -0.077312134
0002a0 d1 af 5f be 4a c3 6d bc ec bd 78 bd 37 c1 0b be
       -0.21844412 -0.014511893 -0.060728 -0.13647924
0002b0 4d 31 88 bc b9 c1 8f 3d 64 c9 15 3d 81 2b 06 be
       -0.016625071 0.070193715 0.036569014 -0.13102533
0002c0 78 c1 ae ba a4 db d2 39 c8 70 c8 3c ee 24 12 be
       -0.0013332805 0.00040217966 0.02446784 -0.142719
0002d0 15 1f 6d 3d 4b 8a 69 3d dc 19 fd bc fa 6a a6 bd
       0.05789097 0.057016652 -0.03089612 -0.08125873
0002e0 41 0e ab bc 0e bc 02 3d 45 18 06 be 2b 83 29 3d
       -0.02088082 0.031917624 -0.13095196 0.041384857
0002f0 fa db 8d 3c 85 92 f7 3c 39 0f dc 3c 23 59 a0 3c
       0.017316807 0.030221233 0.026862727 0.019573754
000300 1f cf 86 3d a1 ee 0a 3e f1 88 07 3d f6 55 62 3c
       0.06582474 0.13567592 0.033089582 0.01381444
000310 16 58 f4 bc 2d b7 2a 3d f9 85 ad bd 1f 38 8e 3d
       -0.029827159 0.041678596 -0.08472819 0.06944298
000320 43 53 4b 3e 59 87 15 3d 98 39 88 bd 6e 6f 8c bd
       0.1985598 0.03650603 -0.0665161 -0.06857191
000330 8f 07 a0 bc 0d 6f 02 bc f2 1f 18 3d 4f 73 eb 3d
       -0.019534854 -0.007961047 0.03713984 0.11496603
000340 b3 7f 1a 3d 0d 5b e2 bb d3 02 d1 bd ef b2 82 bd
       0.03771944 -0.0069078268 -0.10205617 -0.06381785
000350 4b 9e 36 bd ea da b8 bd 58 c0 3d 3d 44 05 3e bd
       -0.044584554 -0.090261295 0.04632601 -0.04639174
000360 94 3d 5f 3d 15 5f e5 bd 8a 94 16 3b 8d c7 42 bd
       0.054502085 -0.11199776 0.002297672 -0.047553588
000370 b3 3b 0c be f0 30 07 3e 0e 69 02 3d 38 9b 7b 3d
       -0.13694648 0.13202262 0.03183847 0.061427325
000380 f3 09 67 bc b7 1d d6 3d 5e 1c 02 be eb 32 c5 3d
       -0.014101493 0.104548864 -0.12706134 0.096288525
000390 62 cb d1 bc 84 13 94 bd 32 06 57 3e c1 d0 a7 bc
       -0.025609676 -0.07230285 0.20998457 -0.020485284
0003a0 6f 0f df 3d 04 11 be bc 5d 81 fd 3c 17 29 a7 3d
       0.108916156 -0.023201473 0.030945474 0.08162134
0003b0 70 53 2b be 3a ca 3d bc 40 25 0f 3d de ea 1d 3d
       -0.16731048 -0.011583859 0.034947634 0.038554065
0003c0 ef 3f 0e 3e 2d 92 a4 bb 77 11 94 bd 2b 43 de bd
       0.13891576 -0.0050223083 -0.07229894 -0.10852655
0003d0 ff 62 c5 3d 7d 5c 85 3d b8 0e cc bd 74 1b ed bd
       0.09638023 0.06511781 -0.09963745 -0.11577502
0003e0 41 0e 16 bd bf 6b e5 3c 67 0c dd 3c 9f 20 cc bd
       -0.036634687 0.028005479 0.026983453 -0.099671595
0003f0 a4 5b c4 3d ac be f2 bc 27 ae a2 3c 85 d3 56 3c
       0.095877916 -0.029631935 0.019858433 0.013111954

network_body._body_endoder.seq_layers.2.bias f4 [128]
000000 c4 5e f5 bb 8e 7f e6 bb be b5 28 bc ee 95 94 3b
       -0.0074881036 -0.0070342487 -0.010297237 0.0045344746
000010 8f 0b 0e bc 8f 2d 57 3b 97 00 32 3c 3a 85 09 3b
       -0.008669748 0.0032833552 0.010864398 0.002098395
000020 1d 04 56 bc c5 dc 65 3c 85 f3 fa 3b e4 6a ce 3b
       -0.013062504 0.014029686 0.0076584243 0.0062993634
000030 09 37 ae 3b 29 8a eb 3b 14 a1 fc 3b 11 fc c8 bb
       0.0053166193 0.007188101 0.0077096317 -0.0061335643
000040 bf f2 ad 3b 9c 27 17 3c de 17 05 3c 96 23 ad ba
       0.0053084786 0.009225752 0.008123366 -0.0013209458
000050 cf 54 83 3b 2e 75 23 bc d5 75 c3 3b 3d 56 a2 3b
       0.0040079127 -0.009976668 0.0059649744 0.004954128
000060 1f cc 0d 3c 04 04 02 3c b5 9e bd bb a4 c9 b4 3b
       0.008654623 0.007935528 -0.0057867416 0.0055172015
000070 13 a4 b9 bb 0b 95 ee 3b ce 6c 05 3c 89 98 15 bc
       -0.005665311 0.007280951 0.008143617 -0.0091306055
000080 e3 5e a4 3b 5f 63 23 3c dd d5 2d 3c 4e 56 18 3c
       0.005016194 0.009972422 0.010610071 0.00929792
000090 23 5a 0d 3c 99 20 24 3c 74 47 38 bb f2 7e bf bb
       0.008627447 0.0100175375 -0.0028118761 -0.0058439905
0000a0 c6 48 8c 3a 62 54 aa 3a 2b 47 bb bb 3f 86 a3 bb
       0.001070284 0.0012995119 -0.005715271 -0.0049903686
0000b0 86 da a5 bb b6 6c ae bb 82 a0 d5 bb 2d 31 22 ba
       -0.0050614504 -0.005323018 -0.006519378 -0.00061871373
0000c0 8f b5 3b bc ed 2d c1 bb a8 ae b8 bb 29 04 c9 bb
       -0.011456861 -0.0058953674 -0.005636055 -0.006134529
0000d0 b9 a1 0e bb c5 c0 46 bb 23 a2 10 3c bf 96 b1 bb
       -0.0021763875 -0.0030327302 0.008827719 -0.0054195817
0000e0 c1 27 c6 bb 04 e3 db 3b 02 80 c5 bb 5a 17 30 3b
       -0.0060472195 0.006710412 -0.0060272226 0.0026869387
0000f0 5b 1e 19 bc cf f9 ad bb 69 db 02 bc 57 a9 14 bc
       -0.009345616 -0.0053093205 -0.007986882 -0.009073577
000100 5f 6f b3 bb ac 41 d0 3b 10 7d 02 3c 2f c4 12 3c
       -0.005475923 0.006355485 0.007964388 0.008957907
000110 b4 2d fe bb d8 18 0d 3c f9 10 1e 3b 9f 81 94 bb
       -0.007756913 0.00861188 0.0024119003 -0.0045320536
000120 7a d9 43 3c 08 61 df bb 61 e0 6d bb 09 c8 a6 3b
       0.011953706 -0.006816987 -0.003629707 0.005089764
000130 07 3a d6 bb 3e fe 55 bc 11 3c d7 3a 7f c7 ba bb
       -0.006537679 -0.013061104 0.00164211 -0.0057000513
000140 1a d6 a8 bb 0f 6f b1 3b c2 14 32 bb 10 db 02 bc
       -0.005152476 0.0054148505 -0.0027173017 -0.007986799
000150 9f 27 92 bb da 7b 0e bb db 3f eb 3b 81 01 8d bb
       -0.0044602896 -0.0021741302 0.007179243 -0.004303158
000160 38 1d b3 bb d7 d9 a4 bb f5 5f ab 3b da 72 d3 bb
       -0.0054661296 -0.0050308513 0.005229945 -0.0064529004
000170 7d 4e 0b bc ff a1 0e bc 03 3a 35 bc 26 36 ef 3b
       -0.0085026 -0.008705615 -0.011061194 0.007300156
000180 e4 f4 40 3b 25 53 fa bb 1c 80 f1 bb 4b fc d6 bb
       0.0029442841 -0.007639306 -0.007370008 -0.0065608374
000190 f7 19 ed 3b 2c 57 d0 bb 7c 43 6d 3b ed ad fa 3b
       0.0072357613 -0.006358048 0.0036203554 0.007650128
0001a0 85 c9 1e 3c 42 d2 1e 3b 2a 2f 04 bc c5 7e de 3b
       0.009691601 0.002423421 -0.008067885 0.0067900144
0001b0 37 12 1c bc 7b 6c 1a 3c f6 56 f9 3b 65 c5 1c 3c
       -0.009525827 0.009425278 0.0076092435 0.009568547
0001c0 88 9a e8 3b 30 b2 5a bb 66 c7 39 3b 92 78 07 bc
       0.0070984997 -0.0033370368 0.002834761 -0.008268492
0001d0 1a 85 14 bc fa 70 23 3c 51 4e 9f bb 55 f0 c1 bb
       -0.009064937 0.009975666 -0.004861631 -0.0059185424
0001e0 69 d7 b6 bb e3 08 bc 3b 14 c7 82 ba 07 46 88 bb
       -0.005579878 0.005738364 -0.0009977543 -0.0041587385
0001f0 89 05 07 3c 82 27 17 3c 1a 90 eb ba d1 3c b2 3b
       0.008241066 0.009225728 -0.0017972023 0.005439379

action_model._discrete_distribution.branches.0.weight f4 [2, 128]
000000 88 7b 55 bc 84 6b a8 bb 7a 2e 50 bc 95 57 06 3c
       -0.01302994 -0.00513977 -0.012706393 0.008199592
000010 b9 d7 b4 bc bc 0b 26 bc 8f ea ab 3c ee 35 94 3c
       -0.02207552 -0.010134634 0.02098587 0.018092122
000020 00 1c a1 bb 61 b8 78 3c 16 ed a8 3c 9a 6b 7e 3b
       -0.004916668 0.015180678 0.020620864 0.003882146
000030 31 c2 3f 39 cf 07 4d bc d9 2c 04 3c 2a 1f 2e bc
       0.00018287521 -0.012514069 0.008067333 -0.010627547
000040 73 0b 08 3c 42 51 d3 3c dd 19 5f 3c 0f b3 0e 3c
       0.008303511 0.025795583 0.013617006 0.008709683
000050 87 24 8c bb 47 79 87 bc 3f 2b 54 3c 3d e6 18 3c
       -0.0042768153 -0.016537322 0.012949764 0.009332237
000060 fe b0 9e ba 5b d3 01 bc 6d cb 43 3c 97 db 58 bc
       -0.0012107191 -0.007923926 0.011950356 -0.013235948
000070 60 26 a9 bc e9 44 cb b9 66 ac 95 3c 26 33 c2 bc
       -0.020648181 -0.0003877052 0.018270683 -0.02370603
000080 d5 48 ba ba d3 a6 83 ba d9 c7 a2 3c d4 63 3f 3c
       -0.001421238 -0.0010044224 0.019870685 0.011681516
000090 31 98 72 3c 01 09 c0 3b 46 9b 84 3b cf 55 66 bc
       0.014806793 0.0058604483 0.0040468303 -0.014058544
0000a0 ee 5b 04 3b 60 11 28 bc 23 4d 21 bc 19 b6 72 bc
       0.0020196396 -0.010258049 -0.009845051 -0.014813923
0000b0 ac 99 4b bb 9e 80 ab bb 00 09 3f bc a1 c8 00 bb
       -0.0031066937 -0.005233838 -0.011659861 -0.0019650834
0000c0 fc 39 aa bb b3 77 3d bc 37 77 95 bb 17 e2 1d bc
       -0.0051949006 -0.011564183 -0.0045613307 -0.009636424
0000d0 ad 2e 3d 3c ac 98 bd bb 3b dd 0a 3c 63 32 7d 3a
       0.011546773 -0.005786022 0.008475597 0.0009658692
0000e0 cf 99 5f bc 30 e1 93 3b 9f d6 da 3b 5a 07 25 3c
       -0.013647511 0.0045129284 0.006678417 0.0100725535
0000f0 be 4f 58 bc 08 c6 2d 3b 71 1a ab ba 74 c8 bb bb
       -0.013202606 0.002651574 -0.0013054145 -0.005730683
000100 46 91 19 bc 9d fc 26 bb 7d aa 9e 3c 3f 5b 9e 3b
       -0.009373015 -0.002548016 0.019368405 0.0048326547
000110 f3 42 94 bc 94 cb 4a 3c 8f a7 7e b9 18 57 9a 3b
       -0.01809833 0.012377638 -0.00024285748 0.0047100894
000120 9b 59 63 3c 6d 1a d7 3b 50 4b 68 bc 60 99 d3 3b
       0.013876344 0.0065644295 -0.014178112 0.0064574927
000130 2b a5 d3 ba 64 77 c5 ba cc bd b3 ba 78 06 d4 bb
       -0.0016147246 -0.0015065488 -0.001371318 -0.0064704977
000140 51 f2 19 3c 6f 74 29 bc e2 1d 46 3c 47 31 4b bb
       0.009396152 -0.010342701 0.012092086 -0.0031004713
000150 85 42 17 bb 74 d5 7e bb eb e7 93 3a 73 52 30 bc
       -0.002308042 -0.0038884552 0.0011284327 -0.010761845
000160 a4 10 71 bc 9b 1a aa bb c7 53 7c 3b 67 4d 00 bc
       -0.01471344 -0.00519116 0.0038502084 -0.007830954
000170 19 2b c6 bc 79 07 8a bc 75 0d 51 bc 64 48 27 3c
       -0.024190472 -0.016849266 -0.012759556 0.01021013
000180 d8 b9 e8 bb 55 27 17 bc 15 1b 2b bc 9a 83 0a bc
       -0.0071022324 -0.009225686 -0.010443469 -0.008454228
000190 b8 45 62 3c 54 b6 68 bc 3d e9 11 ba ff b5 94 ba
       0.013810568 -0.014203627 -0.0005566066 -0.0011345743
0001a0 75 ee 92 3c dc 8a 88 ba 8b e8 88 bc cd 45 81 3c
       0.01793597 -0.001041736 -0.016712448 0.015780354
0001b0 4b f3 73 bc c7 0f e1 3c 73 00 47 bc ed 19 b4 3c
       -0.0148895485 0.027473344 -0.012146103 0.021985019
0001c0 e3 e7 0b 3c 19 71 67 b9 f1 72 ac 3b 6e 99 09 bc
       0.008539173 -0.00022072009 0.0052627255 -0.008398397
0001d0 7f f3 b9 bb af b1 98 3c de da e4 3b 6a 52 fa bb
       -0.005674779 0.018639414 0.006984099 -0.007639219
0001e0 07 d1 22 3b 62 3d 3f 3c c7 b2 cf 3a f4 f7 87 ba
       0.0024843828 0.01167235 0.0015846126 -0.0010373578
0001f0 5d cc d8 3c 8a d5 60 3c 4a 9f 03 3c 80 07 12 35
       0.026464636 0.013722787 0.008033583 5.440015e-07
000200 18 80 94 3c f2 12 b1 3b bf da 97 3a 7c bf 86 b9
       0.018127486 0.00540387 0.0011585577 -0.0002570114
000210 69 e6 46 3c 5a 93 0c bb fb 05 6b bb 6b 6b f8 3b
       0.012139895 -0.0021450133 -0.003586172 0.0075811646
000220 12 8f 17 3c 47 63 49 bc a0 3f 06 bb 6f 2f 0c bb
       0.009250419 -0.012291736 -0.00204847 -0.0021390577
000230 ae d8 88 3a ae e1 ab bc e7 9d 3b 3c c2 01 f4 3a
       0.0010440552 -0.020981636 0.011451221 0.0018616247
000240 aa 53 6e bc c5 63 f5 bb 30 d9 23 bb 65 85 11 3c
       -0.014546314 -0.0074887 -0.002500128 0.008881901
000250 7a 4e a0 3b 10 75 e6 3b bf 45 4d bc 3c 5a 86 bb
       0.0048921676 0.007032998 -0.012528836 -0.0041001122
000260 3c 37 91 bc c5 07 d7 bb 89 b7 32 3c e8 b9 22 bb
       -0.017726533 -0.0065622055 0.010908016 -0.0024830047
000270 f9 aa 41 ba ee 8d 95 bc f0 b5 93 bb d9 0a 25 3c
       -0.00073878426 -0.018256154 -0.0045077726 0.010073387
000280 13 d8 f4 3b 12 c2 9f bc 2f a1 84 bc cb 22 95 bc
       0.007472047 -0.01950172 -0.01619014 -0.018205067
000290 27 d6 36 bc 32 91 c2 bc fe 52 0f bb 32 71 0a 3b
       -0.011159456 -0.023750875 -0.0021869536 0.0021124599
0002a0 86 ec 83 3c 70 99 f2 3b 77 6f 2d bc 7e 09 3f 3b
       0.016103994 0.007403545 -0.010585657 0.0029149945
0002b0 d2 6e 6f 3b 68 f0 6c 3a ea 49 34 3c 80 9c 60 3b
       0.003653456 0.0009038509 0.011003951 0.0034272969
0002c0 89 f2 f9 3b a8 24 42 3b b5 d4 9b bb d4 cf 06 bc
       0.0076277894 0.00296239 -0.0047555813 -0.008228261
0002d0 c3 9b b2 bb 7c 6e 8c bc 67 34 62 bc 91 2c b5 3c
       -0.005450697 -0.017142527 -0.013806439 0.022115977
0002e0 41 7d e0 3b bd 44 80 bb ed 58 3a 3c 5f e0 c7 ba
       0.006850869 -0.0039144442 0.011373741 -0.0015249363
0002f0 3a 53 47 3c bc c9 88 3b 97 bc ee 3c d6 f2 7b 3c
       0.012165839 0.0041744392 0.029142661 0.015377721
000300 b1 01 81 3c e6 c9 a6 bc d3 48 ba bc 84 52 b1 ba
       0.015747877 -0.020359945 -0.022739803 -0.001352862
000310 04 72 a5 3c 82 a2 79 bc 76 fe 3b 3b ee 2c a0 3b
       0.020195968 -0.015236499 0.0028685606 0.0048881685
000320 aa c9 64 bc c5 6a 7c 3c ca dc 33 3b bc 7d 1a 3b
       -0.013964096 0.015406315 0.0027444833 0.0023573479
000330 67 93 db 3a 0a 64 91 3c 05 15 56 bc 18 45 19 bc
       0.0016752303 0.017747898 -0.013066535 -0.009354852
000340 70 1f c8 3c 42 c7 45 ba 30 49 1b 3b a0 93 01 3c
       0.024429053 -0.00075446453 0.0023694746 0.007908732
000350 bf 3b 54 bc 28 df 9b 3b c9 02 d6 3a 11 0f 0a bb
       -0.012953698 0.004756827 0.0016327734 -0.002106611
000360 06 d9 5c 3c 15 b4 16 3c 18 ca d9 3a b8 51 20 3c
       0.013479477 0.009198208 0.0016616015 0.009785108
000370 5d 12 74 3b 0d cc 8d 3c 1a a0 e6 3b 05 12 f5 ba
       0.003724239 0.017309213 0.0070381286 -0.0018697387
000380 2b f5 67 3c c7 f8 06 3b b2 ce 88 3c 60 f6 f7 3b
       0.014157574 0.002059506 0.016700123 0.007567212
000390 94 01 3d bc c1 62 71 ba 76 0a 80 3b 2f 58 e9 bb
       -0.011536021 -0.0009208136 0.003907497 -0.007121108
0003a0 7d 38 0d bc de 1a 0a 3c 07 be c3 3c 3e 03 54 3a
       -0.008619425 0.008429257 0.023894323 0.00080876413
0003b0 83 6f 35 3c 56 7d 86 bb a0 89 c5 3b 1f 4a a8 bc
       0.01107395 -0.0041042967 0.006028369 -0.020543156
0003c0 a2 73 17 bd a0 69 2d bc 30 0c 9b 3b 19 da 31 3c
       -0.03697551 -0.010584265 0.0047316775 0.010855221
0003d0 3e be 14 3c 2e a9 30 bc fe 49 2d 3b 29 78 6c 3c
       0.00907856 -0.010782523 0.0026441808 0.014432945
0003e0 9b e9 d6 3b 26 81 2c bc 8f 60 0c bc 5a 16 17 bc
       0.0065586097 -0.010528838 -0.008567943 -0.009221638
0003f0 d7 6c e2 bc 98 4d 87 bc 6f af b2 bb bb f5 4e bb
       -0.02763979 -0.016516492 -0.005453042 -0.0031579572

action_model._discrete_distribution.branches.0.bias f4 [2]
000000 4c d5 04 3c 4d d5 04 bc
       0.008107495 -0.0081074955
