Assets/results/ppo/JumperAgent/JumperAgent-131943.pt (torch, 546980 bytes, 33 tensors)

network_body._body_endoder.seq_layers.0.weight f4 [128, 42]
00000000: 806c e13d 7892 8dbd 5625 4dbd 1fce 843c
00000010: bc07 633d 6941 813e 95f4 8e3d 41ff 413d
00000020: 8322 cb3d aff5 a83d 3636 283e 1b5a 523e
00000030: b9d8 743e 0a2e a1bd 347c eb3d b63b 893e
00000040: f60f 4fbe f22c 86bd 7f5b 653e 2373 293e
00000050: 6d18 bc3d 6350 93bc cb22 a3bd 9cfa e0bd
00000060: 5ece 14be 98f3 5abc 4e6d f43d 364d 94bb
00000070: 954b 943e b838 93be 4620 433d 96c9 a33c
00000080: e76a 98bd c49d 0ebe 6aa2 c53d d780 a93e
00000090: f465 4f3e f040 06bd 1eaf 8c3e 88bb f53d
000000a0: bae8 423e b471 e1bd f318 62be a468 95be
000000b0: ebcd 4fbd 80c4 e43b 3471 a93e f35a efbe
000000c0: a4bf 543e 6132 cb3d 9ece 8d3c 510a 653d
000000d0: a1bd 60bc e10a d33b 9657 c4bd ff6c 11be
000000e0: b30e 0dbd 0641 343c 02ff 863d 1143 11be
000000f0: 2f98 233d ad24 8d3e b22c ae3d cf9b 97bd
00000100: ed40 da3c 7b9d d2bd 8b0f 733e e486 9dbd
00000110: 9287 aa3d 0973 a53d fa4f a4bd 3ddf d03d
00000120: 6f77 63bd 9144 a93b a272 babe a645 50bd
00000130: 9dab 7dbd c3c9 03be 0482 7e3e 9ffd 45be
00000140: d24d 533c 2858 96be 5079 10bd b58b 89be
00000150: 6525 1a3d 9842 c23d 2e48 1cbe 5104 60bd
00000160: 8e17 cd3c 5bb3 91bd a30a 553e 48d3 543c
00000170: d2a9 873b 5f94 343e c4cd 0a3d 1ee3 bdbd
00000180: 6959 3d3d 08f6 73bd 078a 8e3d 362d 343e
00000190: 9551 423e cda6 2e3d f531 c53e 58f6 24bd
000001a0: 2bd1 4fbe 1e05 443d 6d8f b7bd 4bc9 00be
000001b0: efeb 2a3e 7c84 debd cec7 2f3e 9cc4 ebbc
000001c0: affe 983d f719 833d 306d 993e f6c3 a13e
000001d0: 7eb7 223c 0f11 32be 2617 203e 2977 823e
000001e0: 8056 4dbe a1de f03c 1445 5f3c 964d 46be
000001f0: 8c8c 313e ce95 62bd 770a 5a3c 8ebd 613e
00000200: 4ad4 0f3e 79b4 bb3e 917f c7bc 7ae4 8dbd
00000210: 0063 383c f06c 8a3d 4f1e b03d 5d73 4fbe
00000220: 6156 51be cedb 543e 5dfb 113d cff4 6c3e
00000230: e49b 093d 338a 913c 4e7e e9bc 26ac d93c
00000240: 2b70 8bbd 2567 e63d 8c9f 023e 21b4 ce3e
00000250: bca8 aabd 1d45 8cbb 7999 4ebc 352f 6f3d
00000260: 9017 f4bb d8fd 3dbe a071 f73d 238f c43d
00000270: 2379 353e 41a8 ccbd 5b4b 9e3c 6218 2e3d
00000280: 7417 eb3c 4082 9a3d 794d 973e 1b48 31bd
00000290: a011 c4bc 6d65 2fbe c936 e8bd 78d0 573d
000002a0: 4d1b 97bd d02b 623d 190f 463e 90c2 c43e
000002b0: 0867 20bd 4fe0 2a3e c3d3 93be 4b13 79bd
000002c0: 3e24 353c b6ff 7dbd d039 863e 6914 b2bc
000002d0: 5a04 ddbc 95e8 593e 5e15 063c 4f29 283d
000002e0: 0c78 a4be bb29 93bd 53a3 3e3e d53a 383e
000002f0: fc04 44be d378 1cbd 8dba 94bb f15f 50bd
00000300: e436 1b3e 42f3 57be 15bf 44bc 2342 c33c
00000310: 9ad1 2cbe 84fb 343e 6208 533d 9853 09bd
00000320: d435 173d 6db5 ae3d 69aa 14be 94e6 0b3e
00000330: 8fd2 b93b e460 6d3d 2bfb 81bd e3b9 e0ba
00000340: d687 963c df0d 863d 1d97 0f3e 6bd9 1f3d
00000350: 3007 81be a50c 553e 5364 5dbe 63fe 76bd
00000360: 36d5 35be 28fe 63be d3af 8c3d 305b 7cbd
00000370: f240 6f3e 8893 56ba 9950 103d 9716 11be
00000380: 7fec 0ebd 4454 8c3e 0681 283d bde7 383e
00000390: 10ca ac3d aaac c83d a2ae 92bd 55c5 b13d
000003a0: 129d 683e ecfa 1a3d b9ee 90bb 99a8 0cbe
000003b0: baff b13d 7a3f 02bf 64ef 393e 13aa cebe
000003c0: 80cb e53b a7f3 ce3b 235f 2dbe 333b 1dbe
000003d0: 4992 8ebc f113 15bd 354a bdbd 401c d23d
000003e0: 1b46 0abe 7542 0c3e 1f55 ecbb 8266 593e
000003f0: 1d03 72bd 2b67 a0bd de52 193d 145d e03c
0.11007023 -0.06912702 -0.050084434 0.016211567 0.055427298 0.25245216 0.06980244 0.04736257
0.09918692 0.082499854 0.1642693 0.20542185 0.23910798 -0.078701094 0.11498299 0.26803368
-0.20220932 -0.065515414 0.22398184 0.16547827 0.09184346 -0.017982667 -0.079656206 -0.109853
-0.14531848 -0.013363741 0.11934911 -0.004525806 0.28963915 -0.2875421 0.0476382 0.019993585
-0.07442265 -0.1392737 0.09650119 0.3310611 0.20253736 -0.032776773 0.27477354 0.11998659
0.1903409 -0.11008015 -0.2207983 -0.29181397 -0.050733488 0.0069814324 0.3309418 -0.46749076
0.2077623 0.099217184 0.017310437 0.05591804 -0.013717086 0.006440506 -0.09587018 -0.14201735
-0.034437846 0.011001831 0.06591608 -0.1418574 0.039940055 0.27567044 0.08504619 -0.07402765
0.026642287 -0.10283943 0.23736398 -0.07691744 0.08326639 0.08078582 -0.08023067 0.10198829
-0.055533823 0.0051656445 -0.36415583 -0.050847672 -0.06193124 -0.12869935 0.24854285 -0.1933503
0.012896972 -0.29364133 -0.035271943 -0.268644 0.03763332 0.09485358 -0.1526191 -0.054691616
0.025035646 -0.071142875 0.20804839 0.0129898265 0.004140117 0.17634724 0.03388764 -0.09271835
0.046227846 -0.059560806 0.069599204 0.17595372 0.18976434 0.042639542 0.38514677 -0.040273994
-0.20294635 0.047856443 -0.08962903 -0.12576787 0.16691564 -0.10865113 0.17166063 -0.028780274
0.07470452 0.06401437 0.29966116 0.3159482 0.009931443 -0.1738932 0.1563383 0.25481537
-0.20052528 0.029403033 0.013627309 -0.19365534 0.1733877 -0.055318646 0.013308159 0.22044966
0.14045826 0.36661127 -0.02435282 -0.06928344 0.011254072 0.067590594 0.08599531 -0.20258851
-0.20443107 0.20786974 0.03564011 0.23140262 0.033595935 0.017766094 -0.02850261 0.026571345
-0.06808504 0.11250142 0.12756175 0.40371802 -0.08332965 -0.0042807 -0.012609833 0.05839463
-0.007449098 -0.18553865 0.12082219 0.09597614 0.17721991 -0.099930294 0.019323042 0.042503722
0.028697707 0.075443745 0.29551294 -0.043281656 -0.023934186 -0.17128535 -0.113385744 0.052689046
-0.07378254 0.055217564 0.19341697 0.3842969 -0.03916076 0.1668713 -0.288725 -0.060809415
0.011056004 -0.062011443 0.26215982 -0.021738248 -0.026979614 0.21280129 0.008183805 0.04105502
-0.32122838 -0.07185694 0.18616991 0.17991193 -0.19142526 -0.038201164 -0.00453884 -0.050872747
0.15157658 -0.21088889 -0.012008448 0.023835247 -0.16876832 0.1767407 0.051521666 -0.033526987
0.03691657 0.08530698 -0.14518131 0.13662177 0.0056708525 0.05795373 -0.063467346 -0.0017145242
0.018375318 0.065456145 0.14022489 0.039025705 -0.25200796 0.20805605 -0.21620302 -0.060301196
-0.17757115 -0.22264922 0.06869473 -0.0616104 0.23364618 -0.0008185436 0.035233114 -0.14168774
-0.03489351 0.2740804 0.04113867 0.18057151 0.08436978 0.09798558 -0.07162215 0.08680216
0.22716168 0.037836954 -0.004422989 -0.1373619 0.08691354 -0.5087811 0.18157727 -0.4036413
0.0070127845 0.0063156667 -0.16930823 -0.15354614 -0.017403739 -0.03639597 -0.092426695 0.102592945
-0.13503306 0.13697226 -0.0072122957 0.2123051 -0.059085 -0.07832178 0.037432544 0.027388133

network_body._body_endoder.seq_layers.0.bias f4 [128]
00000000: 5c30 19bb d7dc bbbb 3322 4c3b 137a b2bb
00000010: 4a18 9d3b e2d7 7abb 66a5 393c 4abc 8fbb
00000020: c16b 2a3c 18d8 cfbb 6851 463c 16fc 4fbb
00000030: 9014 cfba c745 2abb 4b09 babb 478c 0cbb
00000040: 9a93 4ebc d081 753b cc6b 13bc ec69 6fbb
00000050: 6587 16bc 832e afbb 16cb f03b 322b 433c
00000060: c2cb 503b 6049 143c dd9a 9fbb 9e6f 903c
00000070: ec3a cbbb 5f41 ee3b 88d4 233c 5059 143c
00000080: a97d 42bc 08ca 2cbb fe0b 1f3b 535c 443b
00000090: 54d1 443c 4653 063c b3be d4bb 64b3 edbb
000000a0: 4a64 d33b 6a2d f0bb 4224 0d3b 0fc2 a8bb
000000b0: 9061 28bb 43a1 9cbb bd11 16bc 3b48 61bb
000000c0: 6792 0e3c d3c7 ef3b fdb3 1cbb 7ff0 0fbc
000000d0: 67cd 5abc 8962 67ba 1bdd 85bc 3a86 0b3c
000000e0: f534 b2bb 9a87 703a 1a08 e2bb e873 4f3c
000000f0: bfb9 46bc d75d 543c b91b 043b 3a15 14bc
00000100: 15cd f93b 0e4e 99bb aef4 60ba d8c4 4dbc
00000110: cae3 0f3c 1012 063c 8367 2a3c 886a d5ba
00000120: e79f 9fbc 9cab bfbb 0c50 e8bb eb65 133c
00000130: a29f 95bc 0653 e33b f031 153b df69 1ebc
00000140: bf0b 933b a7c8 cfbb 27c1 edbb 4a4c b7ba
00000150: e3c0 233c 3bf9 ab3b ff26 55bb 89ca ddbb
00000160: d270 343c 8200 fcba 3272 1e3c 852c 333c
00000170: 8eae a7bb 0f9b 043c 7dfb 50bc a19e e73b
00000180: 91db 1f3c ddce 663b d0d3 053c aa97 6a3c
00000190: 9c0d a03b f87a 423c e0dc cbbb 8ed2 cb3b
000001a0: ef33 db3b 78b9 303c 0d8a c9bb 2aa6 5dbc
000001b0: 2b0f ef3b 97a6 1d3c f315 a8bc c2af 55bb
000001c0: 7754 06bc 12e5 9f3b 295f c6bb 3e9b db3b
000001d0: db6a 823b cdbe 15bb 46df 0ebc f94e c6bb
000001e0: 74b7 773b 67ff f63b 083a ae3b 2655 47bb
000001f0: db82 0dbc eb4e a73b 0043 203c 4567 61bc
-0.0023374772 -0.0057331133 0.0031148314 -0.0054466813 0.0047941552 -0.003827565 0.011330938 -0.0043864595
0.010401667 -0.006342899 0.01210437 -0.0031735948 -0.0015798975 -0.0025981532 -0.0056773773 -0.0021445916
-0.012608433 0.0037461407 -0.008997869 -0.003653164 -0.009187554 -0.005346121 0.0073484285 0.011912154
0.003185973 0.009050697 -0.004870756 0.017631348 -0.0062020924 0.0072709764 0.009999402 0.009054497
-0.01187078 -0.0026365537 0.0024268623 0.0029962256 0.012012798 0.008198565 -0.0064924597 -0.007254051
0.0064511644 -0.0073296325 0.0021536504 -0.0051500867 -0.0025692917 -0.004779966 -0.009159503 -0.0034375328
0.008701897 0.007317522 -0.0023910992 -0.008785366 -0.013354636 -0.00088266336 -0.016340783 0.008515889
-0.005438442 0.00091754796 -0.0068979384 0.012661912 -0.012129246 0.012961826 0.0020158126 -0.009038264
0.0076233246 -0.0046784943 -0.0008581382 -0.012559138 0.0087823365 0.008183017 0.010400656 -0.0016282359
-0.019485427 -0.005849315 -0.0070896205 0.008996467 -0.018264595 0.0069373874 0.002276536 -0.009668796
0.004487484 -0.0063410583 -0.0072556916 -0.0013984528 0.009994718 0.0052482164 -0.0032524464 -0.006768529
0.011013227 -0.0019226226 0.009670781 0.010935907 -0.005117244 0.0080936095 -0.012755272 0.0070684706
0.009756939 0.0035218515 0.008168176 0.014318386 0.004884435 0.011870138 -0.0062213987 0.0062201684
0.0066895406 0.010786407 -0.00615049 -0.013528386 0.0072955093 0.009622238 -0.020518279 -0.003260598
-0.008198849 0.004879602 -0.0060538244 0.006701856 0.0039800233 -0.0022849322 -0.008720225 -0.0060518947
0.0037798556 0.0075377706 0.0053169765 -0.0030415743 -0.008637155 0.0051058433 0.009781599 -0.0137575315

network_body._body_endoder.seq_layers.2.weight f4 [128, 128]
00000000: 1f47 6d3d a338 213e 6d64 1abc 02b6 7dbe
00000010: 4823 9ebd 82e0 32bd 1bc6 7a3c ac01 b73c
00000020: 025a 02be 3571 82bc c8f8 1cbd 332e be3d
00000030: 3cae 88bc d17e 8a3d 7b23 0f3d 008d 113d
00000040: 75e1 893d 6de7 f53c 6f18 75bd a463 d9bc
00000050: 7042 a03c 6588 6bbd 0eda 97bc 90ae b23c
00000060: 5955 033e 63e7 913d 2201 91bd 7253 1abd
00000070: 3f29 be3d 2e47 50bd 7d53 c4bd 18ed aebd
00000080: 73b5 183d 6e4c febd 6615 373b 3252 58bc
00000090: efe8 06be 89b4 863d 3d14 b1bd 3637 49bd
000000a0: 88b2 0cbd ecb3 fe3c d682 babd 72b9 623d
000000b0: 8be1 ea3d 6b38 823d 5d78 edbd 6757 2bbd
000000c0: 1907 ed3d 63db 88bd 78a8 943d 65af 0f3c
000000d0: 824c 3d3e eed6 edbb 9959 1e3d ae48 08bd
000000e0: 57c3 86bc 577f 403d a48b d4bd 7637 83bd
000000f0: d461 e43d 6ef4 7ebe 550d e73b 533a a53d
00000100: 7d62 7b3d 14dd 22bc 8faf 083e e8fe 49bc
00000110: 0a5a 3bbd 9e26 34be e784 30bc 61cb 143d
00000120: b7c7 023c a0b8 e23c c3b3 ef3c d864 933d
00000130: 2bfe f83c 4e70 eabc 7da8 35be 27e0 65bd
00000140: 96e6 263d 63f9 823d 6d3e fbbc 5041 9fbd
00000150: 62b9 1f3e 34e4 993d 351d 903d 97c2 e0bd
00000160: ff87 903d a30f b93b ade6 0f3d 6eb0 e4bc
00000170: a37d 14be 30b3 8f3d cfb1 9d3d 8d14 2cbd
00000180: ea81 503d 41b8 f4bd 5f39 8f3d a92a 37be
00000190: 14fd 67bd 60fa 1c3d 4cf5 063e 93f8 c93d
000001a0: 99e1 66bd b279 c6bd 3b8c a33c ecd1 93bd
000001b0: 8f10 1c3d c0be b239 2a2a 333d 4d96 c4bb
000001c0: 6d8b fb3c dbf1 a2bb b4c4 06bd 67f0 15bc
000001d0: 12bc 97bd 9957 9fbc 57f9 f5bd 4382 81bd
000001e0: 354d cb3c 88ad 8f3d 81a8 233e a350 6d3d
000001f0: cda1 a23d f8f2 c03d 0596 bd3d bf13 c8bd
00000200: a13f fa3b 16fc 2c3e 7b48 83bc bf9a 01be
00000210: 9318 2abe bd9d 853d 4429 1b3e a83f 5bbd
00000220: b40d 06be 806f a9bd a0fb 783e 780f bb3d
00000230: 2171 8b3e 854b 00be da36 b4bd 535c 4dbe
00000240: 45ea 0a3d c207 35be 0156 243c bf9c 64bd
00000250: 8bc1 6f3c ad24 2c3d 130d b83c fb9c 0b3d
00000260: 16e6 6abc ac67 59bd 6b77 b2bd ce25 a93c
00000270: 90a8 353c df84 27bd 7828 21be d8c8 183d
00000280: 3bb9 c2bd a3e2 683c 37b8 36bd 3f77 62bc
00000290: 49d7 84bd ba44 61bd cfe0 0b3d d355 9ebd
000002a0: d1af 5fbe 4ac3 6dbc ecbd 78bd 37c1 0bbe
000002b0: 4d31 88bc b9c1 8f3d 64c9 153d 812b 06be
000002c0: 78c1 aeba a4db d239 c870 c83c ee24 12be
000002d0: 151f 6d3d 4b8a 693d dc19 fdbc fa6a a6bd
000002e0: 410e abbc 0ebc 023d 4518 06be 2b83 293d
000002f0: fadb 8d3c 8592 f73c 390f dc3c 2359 a03c
00000300: 1fcf 863d a1ee 0a3e f188 073d f655 623c
00000310: 1658 f4bc 2db7 2a3d f985 adbd 1f38 8e3d
00000320: 4353 4b3e 5987 153d 9839 88bd 6e6f 8cbd
00000330: 8f07 a0bc 0d6f 02bc f21f 183d 4f73 eb3d
00000340: b37f 1a3d 0d5b e2bb d302 d1bd efb2 82bd
00000350: 4b9e 36bd eada b8bd 58c0 3d3d 4405 3ebd
00000360: 943d 5f3d 155f e5bd 8a94 163b 8dc7 42bd
00000370: b33b 0cbe f030 073e 0e69 023d 389b 7b3d
00000380: f309 67bc b71d d63d 5e1c 02be eb32 c53d
00000390: 62cb d1bc 8413 94bd 3206 573e c1d0 a7bc
000003a0: 6f0f df3d 0411 bebc 5d81 fd3c 1729 a73d
000003b0: 7053 2bbe 3aca 3dbc 4025 0f3d deea 1d3d
000003c0: ef3f 0e3e 2d92 a4bb 7711 94bd 2b43 debd
000003d0: ff62 c53d 7d5c 853d b80e ccbd 741b edbd
000003e0: 410e 16bd bf6b e53c 670c dd3c 9f20 ccbd
000003f0: a45b c43d acbe f2bc 27ae a23c 85d3 563c
0.057929154 0.15744261 -0.009423357 -0.24776462 -0.07721573 -0.04367114 0.015306021 0.022339664
-0.12729648 -0.015923122 -0.038323194 0.092861556 -0.016684644 0.067624696 0.034945946 0.03553486
0.06732456 0.030017579 -0.059837755 -0.02653677 0.01956293 -0.057503123 -0.018536594 0.021811754
0.12825526 0.07124212 -0.07080294 -0.037677236 0.09285211 -0.050849132 -0.095862366 -0.08541316
0.03728242 -0.124169216 0.0027936338 -0.013203191 -0.13174795 0.06577403 -0.08646438 -0.04912492
-0.03434995 0.031091653 -0.09106986 0.055352636 0.114688 0.06358417 -0.11595223 -0.0418314
0.115736194 -0.0668247 0.07258695 0.008769845 0.18486217 -0.0072582876 0.038659666 -0.033272438
-0.016450567 0.04699644 -0.10378197 -0.06407063 0.11151472 -0.2489793 0.00705115 0.08067765
0.061373223 -0.009940404 0.1334822 -0.012328841 -0.045740165 -0.17592856 -0.010773874 0.03632677
0.007982186 0.027675927 0.029260522 0.07196969 0.030394634 -0.028618004 -0.17740054 -0.05612197
0.040747248 0.06395223 -0.030669415 -0.07776129 0.15598062 0.075142294 0.07036821 -0.10974615
0.07057189 0.005647616 0.0351321 -0.02791616 -0.14501052 0.07016599 0.0769993 -0.042011786
0.050905146 -0.11949206 0.069933645 -0.17887367 -0.05663784 0.038324714 0.13179511 0.09861865
-0.05636749 -0.0969118 0.019964328 -0.07217774 0.03810173 0.00034092925 0.043741383 -0.0059993626
0.030706132 -0.004972679 -0.032902434 -0.009151555 -0.074089184 -0.01945095 -0.120104484 -0.063236736
0.024817089 0.0701552 0.15982248 0.05793823 0.07941017 0.094213426 0.092571296 -0.09769391
0.0076369797 0.16893038 -0.016025772 -0.12656687 -0.16610937 0.06524227 0.1515246 -0.053527504
-0.13091165 -0.0827322 0.24314737 0.0913381 0.27234748 -0.12528808 -0.087995246 -0.2005475
0.033914823 -0.1767874 0.010030271 -0.055813547 0.014633547 0.042027164 0.022467172 0.034085255
-0.014337083 -0.053077385 -0.087141834 0.02064791 0.011087552 -0.0408982 -0.15738094 0.037300915
-0.09507986 0.014214191 -0.044609275 -0.013822376 -0.06486375 -0.054997183 0.03414994 -0.077312134
-0.21844412 -0.014511893 -0.060728 -0.13647924 -0.016625071 0.070193715 0.036569014 -0.13102533
-0.0013332805 0.00040217966 0.02446784 -0.142719 0.05789097 0.057016652 -0.03089612 -0.08125873
-0.02088082 0.031917624 -0.13095196 0.041384857 0.017316807 0.030221233 0.026862727 0.019573754
0.06582474 0.13567592 0.033089582 0.01381444 -0.029827159 0.041678596 -0.08472819 0.06944298
0.1985598 0.03650603 -0.0665161 -0.06857191 -0.019534854 -0.007961047 0.03713984 0.11496603
0.03771944 -0.0069078268 -0.10205617 -0.06381785 -0.044584554 -0.090261295 0.04632601 -0.04639174
0.054502085 -0.11199776 0.002297672 -0.047553588 -0.13694648 0.13202262 0.03183847 0.061427325
-0.014101493 0.104548864 -0.12706134 0.096288525 -0.025609676 -0.07230285 0.20998457 -0.020485284
0.108916156 -0.023201473 0.030945474 0.08162134 -0.16731048 -0.011583859 0.034947634 0.038554065
0.13891576 -0.0050223083 -0.07229894 -0.10852655 0.09638023 0.06511781 -0.09963745 -0.11577502
-0.036634687 0.028005479 0.026983453 -0.099671595 0.095877916 -0.029631935 0.019858433 0.013111954

network_body._body_endoder.seq_layers.2.bias f4 [128]
00000000: c45e f5bb 8e7f e6bb beb5 28bc ee95 943b
00000010: 8f0b 0ebc 8f2d 573b 9700 323c 3a85 093b
00000020: 1d04 56bc c5dc 653c 85f3 fa3b e46a ce3b
00000030: 0937 ae3b 298a eb3b 14a1 fc3b 11fc c8bb
00000040: bff2 ad3b 9c27 173c de17 053c 9623 adba
00000050: cf54 833b 2e75 23bc d575 c33b 3d56 a23b
00000060: 1fcc 0d3c 0404 023c b59e bdbb a4c9 b43b
00000070: 13a4 b9bb 0b95 ee3b ce6c 053c 8998 15bc
00000080: e35e a43b 5f63 233c ddd5 2d3c 4e56 183c
00000090: 235a 0d3c 9920 243c 7447 38bb f27e bfbb
000000a0: c648 8c3a 6254 aa3a 2b47 bbbb 3f86 a3bb
000000b0: 86da a5bb b66c aebb 82a0 d5bb 2d31 22ba
000000c0: 8fb5 3bbc ed2d c1bb a8ae b8bb 2904 c9bb
000000d0: b9a1 0ebb c5c0 46bb 23a2 103c bf96 b1bb
000000e0: c127 c6bb 04e3 db3b 0280 c5bb 5a17 303b
000000f0: 5b1e 19bc cff9 adbb 69db 02bc 57a9 14bc
00000100: 5f6f b3bb ac41 d03b 107d 023c 2fc4 123c
00000110: b42d febb d818 0d3c f910 1e3b 9f81 94bb
00000120: 7ad9 433c 0861 dfbb 61e0 6dbb 09c8 a63b
00000130: 073a d6bb 3efe 55bc 113c d73a 7fc7 babb
00000140: 1ad6 a8bb 0f6f b13b c214 32bb 10db 02bc
00000150: 9f27 92bb da7b 0ebb db3f eb3b 8101 8dbb
00000160: 381d b3bb d7d9 a4bb f55f ab3b da72 d3bb
00000170: 7d4e 0bbc ffa1 0ebc 033a 35bc 2636 ef3b
00000180: e4f4 403b 2553 fabb 1c80 f1bb 4bfc d6bb
00000190: f719 ed3b 2c57 d0bb 7c43 6d3b edad fa3b
000001a0: 85c9 1e3c 42d2 1e3b 2a2f 04bc c57e de3b
000001b0: 3712 1cbc 7b6c 1a3c f656 f93b 65c5 1c3c
000001c0: 889a e83b 30b2 5abb 66c7 393b 9278 07bc
000001d0: 1a85 14bc fa70 233c 514e 9fbb 55f0 c1bb
000001e0: 69d7 b6bb e308 bc3b 14c7 82ba 0746 88bb
000001f0: 8905 073c 8227 173c 1a90 ebba d13c b23b
-0.0074881036 -0.0070342487 -0.010297237 0.0045344746 -0.008669748 0.0032833552 0.010864398 0.002098395
-0.013062504 0.014029686 0.0076584243 0.0062993634 0.0053166193 0.007188101 0.0077096317 -0.0061335643
0.0053084786 0.009225752 0.008123366 -0.0013209458 0.0040079127 -0.009976668 0.0059649744 0.004954128
0.008654623 0.007935528 -0.0057867416 0.0055172015 -0.005665311 0.007280951 0.008143617 -0.0091306055
0.005016194 0.009972422 0.010610071 0.00929792 0.008627447 0.0100175375 -0.0028118761 -0.0058439905
0.001070284 0.0012995119 -0.005715271 -0.0049903686 -0.0050614504 -0.005323018 -0.006519378 -0.00061871373
-0.011456861 -0.0058953674 -0.005636055 -0.006134529 -0.0021763875 -0.0030327302 0.008827719 -0.0054195817
-0.0060472195 0.006710412 -0.0060272226 0.0026869387 -0.009345616 -0.0053093205 -0.007986882 -0.009073577
-0.005475923 0.006355485 0.007964388 0.008957907 -0.007756913 0.00861188 0.0024119003 -0.0045320536
0.011953706 -0.006816987 -0.003629707 0.005089764 -0.006537679 -0.013061104 0.00164211 -0.0057000513
-0.005152476 0.0054148505 -0.0027173017 -0.007986799 -0.0044602896 -0.0021741302 0.007179243 -0.004303158
-0.0054661296 -0.0050308513 0.005229945 -0.0064529004 -0.0085026 -0.008705615 -0.011061194 0.007300156
0.0029442841 -0.007639306 -0.007370008 -0.0065608374 0.0072357613 -0.006358048 0.0036203554 0.007650128
0.009691601 0.002423421 -0.008067885 0.0067900144 -0.009525827 0.009425278 0.0076092435 0.009568547
0.0070984997 -0.0033370368 0.002834761 -0.008268492 -0.009064937 0.009975666 -0.004861631 -0.0059185424
-0.005579878 0.005738364 -0.0009977543 -0.0041587385 0.008241066 0.009225728 -0.0017972023 0.005439379

action_model._discrete_distribution.branches.0.weight f4 [2, 128]
00000000: 887b 55bc 846b a8bb 7a2e 50bc 9557 063c
00000010: b9d7 b4bc bc0b 26bc 8fea ab3c ee35 943c
00000020: 001c a1bb 61b8 783c 16ed a83c 9a6b 7e3b
00000030: 31c2 3f39 cf07 4dbc d92c 043c 2a1f 2ebc
00000040: 730b 083c 4251 d33c dd19 5f3c 0fb3 0e3c
00000050: 8724 8cbb 4779 87bc 3f2b 543c 3de6 183c
00000060: feb0 9eba 5bd3 01bc 6dcb 433c 97db 58bc
00000070: 6026 a9bc e944 cbb9 66ac 953c 2633 c2bc
00000080: d548 baba d3a6 83ba d9c7 a23c d463 3f3c
00000090: 3198 723c 0109 c03b 469b 843b cf55 66bc
000000a0: ee5b 043b 6011 28bc 234d 21bc 19b6 72bc
000000b0: ac99 4bbb 9e80 abbb 0009 3fbc a1c8 00bb
000000c0: fc39 aabb b377 3dbc 3777 95bb 17e2 1dbc
000000d0: ad2e 3d3c ac98 bdbb 3bdd 0a3c 6332 7d3a
000000e0: cf99 5fbc 30e1 933b 9fd6 da3b 5a07 253c
000000f0: be4f 58bc 08c6 2d3b 711a abba 74c8 bbbb
00000100: 4691 19bc 9dfc 26bb 7daa 9e3c 3f5b 9e3b
00000110: f342 94bc 94cb 4a3c 8fa7 7eb9 1857 9a3b
00000120: 9b59 633c 6d1a d73b 504b 68bc 6099 d33b
00000130: 2ba5 d3ba 6477 c5ba ccbd b3ba 7806 d4bb
00000140: 51f2 193c 6f74 29bc e21d 463c 4731 4bbb
00000150: 8542 17bb 74d5 7ebb ebe7 933a 7352 30bc
00000160: a410 71bc 9b1a aabb c753 7c3b 674d 00bc
00000170: 192b c6bc 7907 8abc 750d 51bc 6448 273c
00000180: d8b9 e8bb 5527 17bc 151b 2bbc 9a83 0abc
00000190: b845 623c 54b6 68bc 3de9 11ba ffb5 94ba
000001a0: 75ee 923c dc8a 88ba 8be8 88bc cd45 813c
000001b0: 4bf3 73bc c70f e13c 7300 47bc ed19 b43c
000001c0: e3e7 0b3c 1971 67b9 f172 ac3b 6e99 09bc
000001d0: 7ff3 b9bb afb1 983c deda e43b 6a52 fabb
000001e0: 07d1 223b 623d 3f3c c7b2 cf3a f4f7 87ba
000001f0: 5dcc d83c 8ad5 603c 4a9f 033c 8007 1235
00000200: 1880 943c f212 b13b bfda 973a 7cbf 86b9
00000210: 69e6 463c 5a93 0cbb fb05 6bbb 6b6b f83b
00000220: 128f 173c 4763 49bc a03f 06bb 6f2f 0cbb
00000230: aed8 883a aee1 abbc e79d 3b3c c201 f43a
00000240: aa53 6ebc c563 f5bb 30d9 23bb 6585 113c
00000250: 7a4e a03b 1075 e63b bf45 4dbc 3c5a 86bb
00000260: 3c37 91bc c507 d7bb 89b7 323c e8b9 22bb
00000270: f9aa 41ba ee8d 95bc f0b5 93bb d90a 253c
00000280: 13d8 f43b 12c2 9fbc 2fa1 84bc cb22 95bc
00000290: 27d6 36bc 3291 c2bc fe52 0fbb 3271 0a3b
000002a0: 86ec 833c 7099 f23b 776f 2dbc 7e09 3f3b
000002b0: d26e 6f3b 68f0 6c3a ea49 343c 809c 603b
000002c0: 89f2 f93b a824 423b b5d4 9bbb d4cf 06bc
000002d0: c39b b2bb 7c6e 8cbc 6734 62bc 912c b53c
000002e0: 417d e03b bd44 80bb ed58 3a3c 5fe0 c7ba
000002f0: 3a53 473c bcc9 883b 97bc ee3c d6f2 7b3c
00000300: b101 813c e6c9 a6bc d348 babc 8452 b1ba
00000310: 0472 a53c 82a2 79bc 76fe 3b3b ee2c a03b
00000320: aac9 64bc c56a 7c3c cadc 333b bc7d 1a3b
00000330: 6793 db3a 0a64 913c 0515 56bc 1845 19bc
00000340: 701f c83c 42c7 45ba 3049 1b3b a093 013c
00000350: bf3b 54bc 28df 9b3b c902 d63a 110f 0abb
00000360: 06d9 5c3c 15b4 163c 18ca d93a b851 203c
00000370: 5d12 743b 0dcc 8d3c 1aa0 e63b 0512 f5ba
00000380: 2bf5 673c c7f8 063b b2ce 883c 60f6 f73b
00000390: 9401 3dbc c162 71ba 760a 803b 2f58 e9bb
000003a0: 7d38 0dbc de1a 0a3c 07be c33c 3e03 543a
000003b0: 836f 353c 567d 86bb a089 c53b 1f4a a8bc
000003c0: a273 17bd a069 2dbc 300c 9b3b 19da 313c
000003d0: 3ebe 143c 2ea9 30bc fe49 2d3b 2978 6c3c
000003e0: 9be9 d63b 2681 2cbc 8f60 0cbc 5a16 17bc
000003f0: d76c e2bc 984d 87bc 6faf b2bb bbf5 4ebb
-0.01302994 -0.00513977 -0.012706393 0.008199592 -0.02207552 -0.010134634 0.02098587 0.018092122
-0.004916668 0.015180678 0.020620864 0.003882146 0.00018287521 -0.012514069 0.008067333 -0.010627547
0.008303511 0.025795583 0.013617006 0.008709683 -0.0042768153 -0.016537322 0.012949764 0.009332237
-0.0012107191 -0.007923926 0.011950356 -0.013235948 -0.020648181 -0.0003877052 0.018270683 -0.02370603
-0.001421238 -0.0010044224 0.019870685 0.011681516 0.014806793 0.0058604483 0.0040468303 -0.014058544
0.0020196396 -0.010258049 -0.009845051 -0.014813923 -0.0031066937 -0.005233838 -0.011659861 -0.0019650834
-0.0051949006 -0.011564183 -0.0045613307 -0.009636424 0.011546773 -0.005786022 0.008475597 0.0009658692
-0.013647511 0.0045129284 0.006678417 0.0100725535 -0.013202606 0.002651574 -0.0013054145 -0.005730683
-0.009373015 -0.002548016 0.019368405 0.0048326547 -0.01809833 0.012377638 -0.00024285748 0.0047100894
0.013876344 0.0065644295 -0.014178112 0.0064574927 -0.0016147246 -0.0015065488 -0.001371318 -0.0064704977
0.009396152 -0.010342701 0.012092086 -0.0031004713 -0.002308042 -0.0038884552 0.0011284327 -0.010761845
-0.01471344 -0.00519116 0.0038502084 -0.007830954 -0.024190472 -0.016849266 -0.012759556 0.01021013
-0.0071022324 -0.009225686 -0.010443469 -0.008454228 0.013810568 -0.014203627 -0.0005566066 -0.0011345743
0.01793597 -0.001041736 -0.016712448 0.015780354 -0.0148895485 0.027473344 -0.012146103 0.021985019
0.008539173 -0.00022072009 0.0052627255 -0.008398397 -0.005674779 0.018639414 0.006984099 -0.007639219
0.0024843828 0.01167235 0.0015846126 -0.0010373578 0.026464636 0.013722787 0.008033583 5.440015e-07
0.018127486 0.00540387 0.0011585577 -0.0002570114 0.012139895 -0.0021450133 -0.003586172 0.0075811646
0.009250419 -0.012291736 -0.00204847 -0.0021390577 0.0010440552 -0.020981636 0.011451221 0.0018616247
-0.014546314 -0.0074887 -0.002500128 0.008881901 0.0048921676 0.007032998 -0.012528836 -0.0041001122
-0.017726533 -0.0065622055 0.010908016 -0.0024830047 -0.00073878426 -0.018256154 -0.0045077726 0.010073387
0.007472047 -0.01950172 -0.01619014 -0.018205067 -0.011159456 -0.023750875 -0.0021869536 0.0021124599
0.016103994 0.007403545 -0.010585657 0.0029149945 0.003653456 0.0009038509 0.011003951 0.0034272969
0.0076277894 0.00296239 -0.0047555813 -0.008228261 -0.005450697 -0.017142527 -0.013806439 0.022115977
0.006850869 -0.0039144442 0.011373741 -0.0015249363 0.012165839 0.0041744392 0.029142661 0.015377721
0.015747877 -0.020359945 -0.022739803 -0.001352862 0.020195968 -0.015236499 0.0028685606 0.0048881685
-0.013964096 0.015406315 0.0027444833 0.0023573479 0.0016752303 0.017747898 -0.013066535 -0.009354852
0.024429053 -0.00075446453 0.0023694746 0.007908732 -0.012953698 0.004756827 0.0016327734 -0.002106611
0.013479477 0.009198208 0.0016616015 0.009785108 0.003724239 0.017309213 0.0070381286 -0.0018697387
0.014157574 0.002059506 0.016700123 0.007567212 -0.011536021 -0.0009208136 0.003907497 -0.007121108
-0.008619425 0.008429257 0.023894323 0.00080876413 0.01107395 -0.0041042967 0.006028369 -0.020543156
-0.03697551 -0.010584265 0.0047316775 0.010855221 0.00907856 -0.010782523 0.0026441808 0.014432945
0.0065586097 -0.010528838 -0.008567943 -0.009221638 -0.02763979 -0.016516492 -0.005453042 -0.0031579572

action_model._discrete_distribution.branches.0.bias f4 [2]
00000000: 4cd5 043c 4dd5 04bc
0.008107495 -0.0081074955

exp_avg f4 [128, 42]
00000000: 0000 0000 3f2a af38 0000 0000 0000 0000
00000010: b1a1 9eb6 e4d0 78b6 96ac ba38 d59c ff36
00000020: 0000 0000 0000 0000 0699 95b7 2120 93b7
00000030: 0000 0000 106f 2b38 7143 d599 3b3d 01b3
00000040: 8931 1f38 aa42 2538 dc24 bb38 216a 0e37
00000050: 0000 0000 0000 0000 03c8 9eb7 686f 9bb7
00000060: 0000 0000 7098 2838 85e7 321b 1616 c2b2
00000070: 1c00 2238 88b1 2838 5928 bb38 e65a be32
00000080: 0000 0000 0000 0000 efa0 2fb7 b8ca 2eb7
00000090: 0000 0000 1bc3 f11b 0000 0000 dfcf df35
000000a0: dfc0 a138 d459 a238 0000 0000 e8b7 27b8
000000b0: 0000 0000 0000 0000 4092 ba35 b4c7 94b5
000000c0: 74ba 1bb8 e86a 4fb6 0000 0000 0000 0000
000000d0: 66b9 d935 aee7 c735 0000 0000 45e4 84b7
000000e0: dea1 269a c9d1 b932 dd10 bfb7 3ac7 c3b7
000000f0: e8d3 1bb8 b7c3 5bb6 0000 0000 0000 0000
00000100: a999 f535 5227 e135 0000 0000 5b15 82b7
00000110: aa80 a21b 0a37 5432 e0cb c1b7 e2f3 c6b7
00000120: a9da 1bb8 05b8 a4b2 0000 0000 0000 0000
00000130: b182 beb5 3305 c1b5 0000 0000 bd9b 951c
00000140: 0000 0000 53a9 26b5 b348 1fb8 12bb 1fb8
00000150: 0000 0000 016a 8639 0000 0000 0000 0000
00000160: 8ea4 e3b6 0390 3336 5b95 8a39 ac86 5d37
00000170: 0000 0000 0000 0000 3462 eab7 0273 e5b7
00000180: 0000 0000 765b df38 90e5 7d1a 1524 20b3
00000190: 2013 1639 602d 1a39 ceb5 8a39 2c9f 7f37
000001a0: 0000 0000 0000 0000 a375 fdb7 ca0c f7b7
000001b0: 0000 0000 96ff d638 66e4 b79b 139d 0ab3
000001c0: bb3f 1a39 8783 1e39 24b7 8a39 948c cc32
000001d0: 0000 0000 0000 0000 21dd 7bb7 c9c6 79b7
000001e0: 0000 0000 8dd1 ab9b 0000 0000 9172 9e36
000001f0: a561 8039 4fce 8039 0000 0000 d351 b637
00000200: 0000 0000 0000 0000 712d 78b5 b171 b8b4
00000210: 5dfb a937 719c 0936 0000 0000 0000 0000
00000220: 22e8 c9b5 93c3 c4b5 0000 0000 38e7 6037
00000230: 3034 3a99 4d8d 13b2 e9bc f836 23b4 0537
00000240: f195 a837 054a 3c36 0000 0000 0000 0000
00000250: 5b76 0cb6 fcf4 04b6 0000 0000 4956 4937
00000260: 1d7a 201b 3406 d5b1 24e5 1337 2cde 1b37
00000270: 6198 a837 7495 9b31 0000 0000 0000 0000
00000280: 6bc9 3d35 d02a 3e35 0000 0000 bd3f db1b
00000290: 0000 0000 24bf c7b3 2558 af37 2835 af37
000002a0: 0000 0000 31e0 61b5 0000 0000 0000 0000
000002b0: daec d534 d18c 4e35 528d b2b5 9851 61b5
000002c0: 0000 0000 0000 0000 3cc1 e735 0adc e435
000002d0: 0000 0000 10a4 36b6 ff2a dc19 bcbe 6ab1
000002e0: 5424 1936 bf8e 1336 7685 b8b5 8ee2 89b5
000002f0: 0000 0000 0000 0000 8e79 0336 215c 0036
00000300: 0000 0000 a3a5 41b6 7ebc eb9b bfdc d7b0
00000310: 2c06 2436 bc54 1c36 d73e b8b5 2fce 8631
00000320: 0000 0000 0000 0000 3e86 7835 4d60 7735
00000330: 0000 0000 083d 8d9c 0000 0000 34a3 00b2
00000340: 80ce e9b4 a043 eab4 0000 0000 51c8 2638
00000350: 0000 0000 0000 0000 23e8 5db5 d97b 2735
00000360: 14f6 2b38 5a18 2736 0000 0000 0000 0000
00000370: 4ab7 98b6 c903 95b6 0000 0000 f816 8f37
00000380: 9e73 3198 ca80 8331 3f82 b737 0264 bc37
00000390: b2ba 2c38 dfa5 3436 0000 0000 0000 0000
000003a0: fda2 a5b6 86fc a0b6 0000 0000 cf53 8e37
000003b0: 6755 081b 097a 2231 8948 b837 71ef bd37
000003c0: d2b8 2c38 dcf9 afb1 0000 0000 0000 0000
000003d0: 252a 16b6 0d8b 14b6 0000 0000 f807 051b
000003e0: 0000 0000 d02b 7e35 0058 1f38 9206 2038
000003f0: 0000 0000 5356 0d39 0000 0000 0000 0000
0.0 8.352519e-05 0.0 0.0 -4.7275903e-06 -3.707647e-06 8.901318e-05 7.61785e-06
0.0 0.0 -1.7833441e-05 -1.7538727e-05 0.0 4.0873012e-05 -2.2050923e-23 -3.0090842e-08
3.7954687e-05 3.940115e-05 8.9237205e-05 8.48857e-06 0.0 0.0 -1.8928205e-05 -1.8529317e-05
0.0 4.019629e-05 1.4798623e-22 -2.2594616e-08 3.862391e-05 4.021966e-05 8.92437e-05 2.2160247e-08
0.0 0.0 -1.0468283e-05 -1.0418407e-05 0.0 3.999619e-22 0.0 1.6675293e-06
7.713003e-05 7.741494e-05 0.0 -3.998718e-05 0.0 0.0 1.3900644e-06 -1.108498e-06
-3.7128528e-05 -3.0907631e-06 0.0 0.0 1.6221718e-06 1.4894083e-06 0.0 -1.5841923e-05
-3.445875e-23 2.1632234e-08 -2.2776827e-05 -2.3338584e-05 -3.7152233e-05 -3.2747464e-06 0.0 0.0
1.8298643e-06 1.677525e-06 0.0 -1.5507152e-05 2.68838e-22 1.23525385e-08 -2.310233e-05 -2.3717006e-05
-3.7158523e-05 -1.9175795e-08 0.0 0.0 -1.4194139e-06 -1.4381134e-06 0.0 9.90025e-22
0.0 -6.208622e-07 -3.797626e-05 -3.8082777e-05 0.0 0.0002563745 0.0 0.0
-6.784284e-06 2.6756904e-06 0.0002643269 1.3203982e-05 0.0 0.0 -2.7940703e-05 -2.7352482e-05
0.0 0.000106505046 5.2504613e-23 -3.728572e-08 0.0001431224 0.00014703488 0.00026456866 1.52362445e-05
0.0 0.0 -3.021473e-05 -2.945065e-05 0.0 0.00010251922 -3.042241e-22 -3.2273487e-08
0.00014710326 0.00015117052 0.00026457862 2.3812653e-08 0.0 0.0 -1.5012251e-05 -1.488784e-05
0.0 -2.8424996e-22 0.0 4.722104e-06 0.00024486813 0.00024567774 0.0 2.1734193e-05
0.0 0.0 -9.2453325e-07 -3.4355392e-07 2.026342e-05 2.0505652e-06 0.0 0.0
-1.5043227e-06 -1.4660058e-06 0.0 1.3405275e-05 -9.626514e-24 -8.588654e-09 7.412968e-06 7.969359e-06
2.0096983e-05 2.8057268e-06 0.0 0.0 -2.0930518e-06 -1.9812132e-06 0.0 1.2000623e-05
1.3274347e-22 -6.199821e-09 8.815234e-06 9.290448e-06 2.0098118e-05 4.5280846e-09 0.0 0.0
7.070109e-07 7.0842816e-07 0.0 3.62717e-22 0.0 -9.301428e-08 2.0902671e-05 2.0886378e-05
0.0 -8.4145273e-07 0.0 0.0 3.9846674e-07 7.6945895e-07 -1.3303163e-06 -8.3937766e-07
0.0 0.0 1.726708e-06 1.7051364e-06 0.0 -2.721561e-06 2.2764833e-23 -3.4159902e-09
2.2819922e-06 2.1987796e-06 -1.374791e-06 -1.0273232e-06 0.0 0.0 1.9591275e-06 1.9127112e-06
0.0 -2.8855654e-06 -3.89993e-22 -1.5706049e-09 2.4441497e-06 2.3295133e-06 -1.3727357e-06 3.9233536e-09
0.0 0.0 9.258255e-07 9.2154806e-07 0.0 -9.346374e-22 0.0 -7.487689e-09
-4.354988e-07 -4.36351e-07 0.0 3.9764043e-05 0.0 0.0 -8.266672e-07 6.239257e-07
4.0998755e-05 2.4899114e-06 0.0 0.0 -4.5512907e-06 -4.4409867e-06 0.0 1.7057624e-05
-2.2935086e-24 3.8272434e-09 2.187595e-05 2.2457916e-05 4.118187e-05 2.691864e-06 0.0 0.0
-4.9363575e-06 -4.797769e-06 0.0 1.6966746e-05 1.1277251e-22 2.3643472e-09 2.1968286e-05 2.2642054e-05
4.1180123e-05 -5.121576e-09 0.0 0.0 -2.2376273e-06 -2.2134657e-06 0.0 1.1004077e-22
0.0 9.468613e-07 3.799051e-05 3.815309e-05 0.0 0.00013478966 0.0 0.0

exp_avg_sq f4 [128, 42]
00000000: 0000 0000 3ad9 0b31 0000 0000 0000 0000
00000010: 5006 ef2e b334 412f da06 1831 42c2 972e
00000020: 0000 0000 0000 0000 9e04 d42e 8878 dc2e
00000030: 0000 0000 4571 1230 c300 0c27 bd17 202e
00000040: ebe1 c930 daac cb30 d84f 1c31 2448 752e
00000050: 0000 0000 0000 0000 9cb5 bf2e 9317 c22e
00000060: 0000 0000 bbf2 b92f 126c 6228 c4c1 652e
00000070: b154 f530 65a6 f530 9fa3 1c31 fc76 c92d
00000080: 0000 0000 0000 0000 34d1 bc2e 9223 bf2e
00000090: 0000 0000 ea26 5629 0000 0000 3cb3 4e2f
000000a0: fe1e 0e31 f1aa 0d31 0000 0000 e5f5 4530
000000b0: 0000 0000 0000 0000 7ab4 a92e 5f63 df2e
000000c0: 08d5 5830 d8a8 342e 0000 0000 0000 0000
000000d0: 3b9f cb2b cb73 112d 0000 0000 134b 0d2f
000000e0: 97da 4e27 8bf5 012e 4938 2430 a9a4 2530
000000f0: 665b 5730 2b3c 552e 0000 0000 0000 0000
00000100: cd61 ca2b 9cfe 782c 0000 0000 4e1b a02e
00000110: 640b 3629 bf11 542e a298 3730 e4f5 3730
00000120: 2214 5a30 adbc da2d 0000 0000 0000 0000
00000130: 2069 5d2c 97a8 992c 0000 0000 79db 982a
00000140: 0000 0000 7234 0b2f 14c0 3b30 cb27 3c30
00000150: 0000 0000 b4f9 9732 0000 0000 0000 0000
00000160: 0439 862f 9aab 5230 2b66 a032 a6fd 2b2f
00000170: 0000 0000 0000 0000 86b7 902f 56f9 962f
00000180: 0000 0000 52d6 8131 82d5 1028 6c27 9c2e
00000190: b00c 5b32 f323 5d32 0bb4 a132 6447 c82e
000001a0: 0000 0000 0000 0000 3bb5 812f a1f5 832f
000001b0: 0000 0000 a0dc 2731 6141 ee29 d573 fe2e
000001c0: fb6c 8232 73a6 8232 7cad a032 ddec 5e2e
000001d0: 0000 0000 0000 0000 472b 7e2f 6347 802f
000001e0: 0000 0000 c8bd 0a2a 0000 0000 0d83 7a30
000001f0: ad6c 9932 27ca 9832 0000 0000 c90a 3d30
00000200: 0000 0000 0000 0000 3e78 802d 225d 252e
00000210: 94dd 4130 7bf9 cd2d 0000 0000 0000 0000
00000220: f6ee 212d 2a43 382d 0000 0000 6a3d 542f
00000230: 91b6 5f26 8aa2 9d2c 97c4 fb2f 1a3b fd2f
00000240: 9a90 4430 06d8 792d 0000 0000 0000 0000
00000250: 6bf2 332d 5570 3b2d 0000 0000 1348 ff2e
00000260: d746 7b28 2701 eb2c df72 1930 17d5 1930
00000270: c93a 4330 65f9 8e2c 0000 0000 0000 0000
00000280: e555 572d 2772 5c2d 0000 0000 9109 5529
00000290: 0000 0000 1a10 ae2e 493d 2f30 35c0 2f30
000002a0: 0000 0000 710f b530 0000 0000 0000 0000
000002b0: c5b4 4b2e c9a1 c12e 37c3 b630 0c0e c32e
000002c0: 0000 0000 0000 0000 d294 5f2d 0eb3 a32d
000002d0: 0000 0000 0ba6 1330 1b7f b927 c7e9 882d
000002e0: 29fb 4530 428f 4830 28cb b730 9745 432e
000002f0: 0000 0000 0000 0000 8ccf 9a2d 87df ac2d
00000300: 0000 0000 24d4 7c2f 7872 5329 1cf3 ea2d
00000310: ffc2 8e30 624a 8f30 c2bc bc30 4601 832d
00000320: 0000 0000 0000 0000 2a9e ac2d 899e b92d
00000330: 0000 0000 7d14 4f2a 0000 0000 3e45 7f2f
00000340: 0dae 9430 cb64 9730 0000 0000 d6cd 9130
00000350: 0000 0000 0000 0000 d784 0a2e 5b46 a02e
00000360: 3e28 9630 7e1c 202e 0000 0000 0000 0000
00000370: 2c85 082e c9a9 142e 0000 0000 07ac 182f
00000380: 61d5 ac26 da81 4d2c c99d 7230 c7c3 7330
00000390: dee1 9430 6428 d82d 0000 0000 0000 0000
000003a0: dd8c 0f2e 56fd 132e 0000 0000 383e 9c2e
000003b0: 9693 b027 331c cd2c 02a5 8430 1804 8530
000003c0: 308f 9930 8df0 192d 0000 0000 0000 0000
000003d0: df59 102e 56bb 132e 0000 0000 4181 a628
000003e0: 0000 0000 352f 5a2f d479 7030 b89e 7330
000003f0: 0000 0000 ef05 bd31 0000 0000 0000 0000
0.0 2.0350641e-09 0.0 0.0 1.0869583e-10 1.757197e-10 2.2122806e-09 6.901192e-11
0.0 0.0 9.641464e-11 1.00258524e-10 0.0 5.3275456e-10 1.9429316e-15 3.6400872e-11
1.4688885e-09 1.4819321e-09 2.2746374e-09 5.5770624e-11 0.0 0.0 8.717935e-11 8.826286e-11
0.0 3.3823774e-10 1.2568954e-14 5.224067e-11 1.7850167e-09 1.7873388e-09 2.2793996e-09 2.2903894e-11
0.0 0.0 8.586412e-11 8.691993e-11 0.0 4.7551298e-14 0.0 1.8799268e-10
2.0681337e-09 2.061537e-09 0.0 7.201762e-10 0.0 0.0 7.717289e-11 1.0158518e-10
7.888308e-10 4.1077225e-11 0.0 0.0 1.4468213e-12 8.268007e-12 0.0 1.2850547e-10
2.870674e-15 2.954929e-11 5.974284e-10 6.0260646e-10 7.834643e-10 4.8484033e-11 0.0 0.0
1.4380108e-12 3.5384256e-12 0.0 7.280808e-11 4.0421998e-14 4.821898e-11 6.6791916e-10 6.6924444e-10
7.933655e-10 2.486752e-11 0.0 0.0 3.1464345e-12 4.3672388e-12 0.0 2.7152914e-13
0.0 1.2660609e-10 6.8303163e-10 6.845055e-10 0.0 1.7692265e-08 0.0 0.0
2.441497e-10 7.6641415e-10 1.8672912e-08 1.5642473e-10 0.0 0.0 2.632385e-10 2.7462005e-10
0.0 3.7787595e-09 8.039903e-15 7.1010614e-11 1.27503625e-08 1.2872067e-08 1.882474e-08 9.1076285e-11
0.0 0.0 2.3593735e-10 2.400329e-10 0.0 2.442711e-09 1.05806646e-13 1.15711586e-10
1.518355e-08 1.5209684e-08 1.8705343e-08 5.0687333e-11 0.0 0.0 2.311654e-10 2.3333788e-10
0.0 1.2322706e-13 0.0 9.1135705e-10 1.7860964e-08 1.7787057e-08 0.0 6.8773126e-10
0.0 0.0 1.4605313e-11 3.7599375e-11 7.052787e-10 2.3416593e-11 0.0 0.0
9.20485e-12 1.04741025e-11 0.0 1.9303106e-10 7.761609e-16 4.480254e-12 4.579632e-10 4.6062426e-10
7.1509876e-10 1.4201978e-11 0.0 0.0 1.02288e-11 1.0654662e-11 0.0 1.16088604e-10
1.394866e-14 6.6792297e-12 5.582432e-10 5.5963895e-10 7.1024125e-10 4.063571e-12 0.0 0.0
1.22404075e-11 1.2530899e-11 0.0 4.73038e-14 0.0 7.915464e-11 6.375172e-10 6.393777e-10
0.0 1.3173872e-09 0.0 0.0 4.631741e-11 8.805363e-11 1.3297726e-09 8.8700686e-11
0.0 0.0 1.2709127e-11 1.861047e-11 0.0 5.371425e-10 5.1485623e-15 1.5565228e-11
7.20251e-10 7.296316e-10 1.3372743e-09 4.4399675e-11 0.0 0.0 1.7599942e-11 1.9653402e-11
0.0 2.2994634e-10 4.6950697e-14 2.6710682e-11 1.0387281e-09 1.042576e-09 1.3732449e-09 1.4893541e-11
0.0 0.0 1.9624375e-11 2.1102469e-11 0.0 1.8392402e-13 0.0 2.3216715e-10
1.0817885e-09 1.1015343e-09 0.0 1.0608641e-09 0.0 0.0 3.1495553e-11 7.288455e-11
1.0925374e-09 3.6405094e-11 0.0 0.0 3.10411e-11 3.3802103e-11 0.0 1.3885436e-10
1.1992734e-15 2.9204334e-12 8.8263313e-10 8.86811e-10 1.0832613e-09 2.4574294e-11 0.0 0.0
3.2639547e-11 3.3648938e-11 0.0 7.105111e-11 4.9009826e-15 5.829581e-12 9.651162e-10 9.678187e-10
1.1172911e-09 8.750456e-12 0.0 0.0 3.282163e-11 3.3590318e-11 0.0 1.8485757e-14
0.0 1.9843756e-10 8.748462e-10 8.862844e-10 0.0 5.5012985e-09 0.0 0.0

exp_avg f4 [128]
00000000: 2740 a538 58e3 21b8 6cdb 8239 6890 ae37
00000010: 8fd3 edb4 b750 2338 09c0 0939 ca36 2db5
00000020: cef2 9d38 e471 0038 44da 3139 c937 0b38
00000030: 93f6 0037 372c 8237 931d 1038 e8ed e237
00000040: 948b 9b36 5561 2338 4726 0db8 55af d638
00000050: 4674 0cb8 5260 7db8 f8bc 8e37 cea3 8039
00000060: ab5b 6cb8 b244 6d39 7d03 85b8 4b5d 2839
00000070: e605 acb8 1f54 7db8 5da2 95b7 92e4 6d39
00000080: d6f6 e0b7 7fef 3636 eff1 9638 2b9c c236
00000090: 0ad0 2839 5ef0 b437 2298 6cb8 505b 7b37
000000a0: a233 5db8 596b 0bb8 2fe8 8fb8 b9e5 2538
000000b0: 4154 6a38 b81a 4bb8 4100 f8b7 6308 2538
000000c0: 2337 1eb6 a83b 92b7 fe7f fdb7 dc70 d4b8
000000d0: 1842 bab7 7bbb 7d38 27d6 81b7 97d1 ab38
000000e0: e85a 6ab8 01a4 0038 7bed 4eb7 a5c9 9139
000000f0: e1f0 a8b7 bce9 2939 bdd0 8f38 428a a2b7
00000100: 6e74 2cb8 5e48 79b8 d743 06b8 459e 11b8
00000110: 9290 ba37 8dba 3e39 879b d0b7 c6ad cd38
00000120: 6bd1 b6b7 c43f 39b9 a61c a5b8 366d 6a39
00000130: 11d5 5eb8 a599 5a37 89be a3b7 295b 36b8
00000140: c3a2 9ab8 3f4c 4eb8 a25c 33b8 a95e e138
00000150: c771 8bb7 f5af 31b8 7c46 a6b8 fccb b437
00000160: b717 4837 0ef8 6a38 0f2f e9b7 2952 3538
00000170: 752e 1a38 d88f 4238 6a2a 44b7 c4bc f438
00000180: c65f 73b7 9968 e538 084d c735 12c9 ca38
00000190: 6450 6838 ad89 4e39 69ed a4b8 5ddf 4738
000001a0: e321 e338 fb52 81b8 7e62 24b8 7bda d5b7
000001b0: d260 2a37 6afa bf39 c996 9db7 c764 57b4
000001c0: 406b 3fb7 3399 54b8 f516 98b8 3b6a f037
000001d0: 15b7 2c39 2c53 1437 0e55 9ab7 669f 9fb7
000001e0: 3807 9fb8 4ef8 6eb6 72bb 9d37 7b87 e4b7
000001f0: 78b1 7e38 c5f3 a938 021b 5238 ae3e abb8
7.8797624e-05 -3.859712e-05 0.00024959014 2.080966e-05 -4.429862e-07 3.89374e-05 0.00013136877 -6.452725e-07
7.531569e-05 3.0623647e-05 0.00016961346 3.3192136e-05 7.686805e-06 1.5517797e-05 3.435982e-05 2.7052083e-05
4.635609e-06 3.8952876e-05 -3.365267e-05 0.00010236973 -3.348689e-05 -6.0409606e-05 1.7015715e-05 0.00024536107
-5.6352157e-05 0.00022627672 -6.342584e-05 0.00016056483 -8.202698e-05 -6.0398244e-05 -1.783779e-05 0.0002268723
-2.6817823e-05 2.7259518e-06 7.197621e-05 5.799831e-06 0.00016099229 2.1569602e-05 -5.640847e-05 1.4982026e-05
-5.2738593e-05 -3.3240158e-05 -6.862019e-05 3.955301e-05 5.5868415e-05 -4.8423855e-05 -2.9564022e-05 3.9346876e-05
-2.3575928e-06 -1.7432336e-05 -3.0219551e-05 -0.000101299695 -2.2203705e-05 6.0494505e-05 -1.547772e-05 8.1929546e-05
-5.587461e-05 3.067032e-05 -1.233385e-05 0.00027806792 -2.0139329e-05 0.00016204169 6.857652e-05 -1.9376286e-05
-4.111643e-05 -5.9433623e-05 -3.201127e-05 -3.4718094e-05 2.2240249e-05 0.00018189308 -2.4867955e-05 9.8075296e-05
-2.1793609e-05 -0.0001766673 -7.873149e-05 0.00022356663 -5.3127358e-05 1.3029586e-05 -1.9519839e-05 -4.347708e-05
-7.373609e-05 -4.9185237e-05 -4.2763197e-05 0.00010746468 -1.6623073e-05 -4.236396e-05 -7.9286256e-05 2.155266e-05
1.19264505e-05 5.6020966e-05 -2.7797678e-05 4.323028e-05 3.6759728e-05 4.638717e-05 -1.1692386e-05 0.00011669987
-1.4506228e-05 0.00010939054 1.4849074e-06 9.669563e-05 5.538798e-05 0.00019696979 -7.8643505e-05 4.765332e-05
0.000108305154 -6.166656e-05 -3.9192375e-05 -2.5493317e-05 1.0155332e-05 0.00036616932 -1.8786073e-05 -2.0060098e-07
-1.1409458e-05 -5.0687417e-05 -7.252201e-05 2.8659697e-05 0.00016471402 8.840852e-06 -1.8397837e-05 -1.9028503e-05
-7.5830554e-05 -3.5609296e-06 1.8803144e-05 -2.7242806e-05 6.07236e-05 8.1039536e-05 5.0093055e-05 -8.1655904e-05

exp_avg_sq f4 [128]
00000000: f554 1a31 1816 6330 66c3 9e32 e9cb 4430
00000010: 38c2 c230 94ee 9930 2c1f ca31 3403 232d
00000020: e0ac b331 9472 9731 aa7b 8b32 63a3 9730
00000030: 2084 3930 9717 992f db96 d832 89d2 8c31
00000040: 96a7 9a30 0e9e 8031 0925 a230 1e77 9931
00000050: c01c 6431 c52c 0e31 460c d931 92de cc32
00000060: 4891 cb30 b650 d532 24a9 aa30 8ee6 3432
00000070: 6ec6 1731 12bd 1231 6c2a 1c2f 4220 ae32
00000080: 7c63 9b30 1960 8731 3077 2331 eb8c 7930
00000090: 4e55 6432 e8d1 4531 d4bf 1232 1e2d 7530
000000a0: c167 da30 1f7a c630 6ae0 b930 71b5 3a31
000000b0: 3693 2331 5063 6930 72ea 902f dd8f 4931
000000c0: 3902 c82f d0f0 b92f f0b6 de2f aba6 b232
000000d0: de1a 0730 965a 0331 d4a8 7e2e 3f64 5c32
000000e0: d249 6c31 22a3 2530 b130 6e2f 339f 1233
000000f0: 0250 1e30 8008 8032 a7be ef30 d6c5 1330
00000100: 1e7c 3631 e369 ce30 e8e8 892f 9989 6f30
00000110: 27dc e431 80af b332 c4fa 742f bc77 9131
00000120: 81e2 c22f 4608 f331 216b b231 547e 8832
00000130: 4243 f030 073a de30 eae0 0530 4467 a130
00000140: b977 bc30 fd75 0b31 ea5d f830 1856 8931
00000150: 6c3f f62f 6e00 5830 2de8 6d33 4faf 1031
00000160: d0b1 832e 8486 c230 c80e d62f 6a56 3331
00000170: 8f08 9831 d4b3 5731 2a0f 7830 d6f0 9332
00000180: 661c 9231 44bb cf31 c57f 9730 39b4 5f31
00000190: e50c a030 0265 a132 0ac2 7531 9569 8431
000001a0: ffe5 0432 9d3d 0531 772d 5831 9118 1031
000001b0: 3a85 0731 54b5 8d33 8817 1231 3d3e 302d
000001c0: ba64 3f30 d57f 4930 17de 9f30 56bc 5231
000001d0: 6447 3232 f41c fc2f 8de6 1031 9652 832f
000001e0: ee1c e430 50dd 6130 0ac8 8d30 3087 7830
000001f0: 777c e031 32ac 2a31 c741 7731 8e87 0032
2.2458242e-09 8.2613516e-10 1.8482478e-08 7.159416e-10 1.4170558e-09 1.1200023e-09 5.8825176e-09 9.2661885e-12
5.2292393e-09 4.4077044e-09 1.6237966e-08 1.1033133e-09 6.749037e-10 2.78473e-10 2.521431e-08 4.0984713e-09
1.1252606e-09 3.743259e-09 1.1797577e-09 4.466428e-09 3.319471e-09 2.0689168e-09 6.3169265e-09 2.3849939e-08
1.4811485e-09 2.4833167e-08 1.2417201e-09 1.0529801e-08 2.2086186e-09 2.135327e-09 1.4203189e-10 2.0270935e-08
1.130601e-09 3.939942e-09 2.3787372e-09 9.078593e-10 1.3290743e-08 2.878659e-09 8.541935e-09 8.9194596e-10
1.5891076e-09 1.4441105e-09 1.3524304e-09 2.71697e-09 2.3803302e-09 8.490604e-10 2.636003e-10 2.9331126e-09
3.6381367e-10 3.3822412e-10 4.051155e-10 2.0797719e-08 4.9150894e-10 1.91145e-09 5.7902863e-11 1.2828479e-08
3.4384482e-09 6.0258476e-10 2.1663273e-10 3.4138065e-08 5.7593763e-10 1.4905027e-08 1.7443725e-09 5.375943e-10
2.6555038e-09 1.5018568e-09 2.5085645e-10 8.714323e-10 6.6607018e-09 2.091815e-08 2.228076e-10 4.2336676e-09
3.5449335e-10 7.0731714e-09 5.192661e-09 1.5889931e-08 1.7481414e-09 1.6169118e-09 4.870474e-10 1.1743642e-09
1.3712828e-09 2.029423e-09 1.8071067e-09 3.9970125e-09 4.4792203e-10 7.8580953e-10 5.5392025e-08 2.105441e-09
5.988776e-11 1.4153589e-09 3.8936876e-10 2.609705e-09 4.4247552e-09 3.1388838e-09 9.0243424e-10 1.7222572e-08
4.2523878e-09 6.0457825e-09 1.102301e-09 3.2553216e-09 1.1645197e-09 1.87888e-08 3.576249e-09 3.853709e-09
7.735706e-09 1.938907e-09 3.145798e-09 2.0968722e-09 1.9720816e-09 6.5988075e-08 2.1259172e-09 1.0018261e-11
6.9628536e-10 7.3305034e-10 1.1631894e-09 3.0666079e-09 1.0377196e-08 4.5859105e-10 2.108581e-09 2.3887442e-10
1.6597406e-09 8.2169027e-10 1.0315955e-09 9.041399e-10 6.533408e-09 2.4836138e-09 3.598062e-09 7.481402e-09
