Assets/results/ppo/JumperAgent/JumperAgent-249759.pt (torch, 546980 bytes, 33 tensors)

network_body._body_endoder.seq_layers.0.weight f4 [128, 42]
00000000: 1006 ca3a 58dd d33c c8d1 aabd c199 f43d
00000010: a435 bc3d f13e 843e 0015 0d3d 6998 053e
00000020: 6ef9 ed3c 498d 473d d57f 21be cb4e 903b
00000030: d861 abbd cd15 3b3e b865 aabc f9bd 90bd
00000040: b3d3 05be afc5 eebd e265 463d 3c2e 913d
00000050: 8e73 c3bd 3e3b 1f3e 3188 db3d 553d 73bd
00000060: 7478 ac3d dddd d5bd d82a 873d c395 01bd
00000070: c5dd 22be 356f a63e b9c7 b43d 3054 023e
00000080: 174e 303e fc49 fc3d 50c5 e1bd 21c8 d4bd
00000090: ac65 a83d e2f8 df3d 674d 933e b778 4b3e
000000a0: ce46 4f3c 6dad ef3d 8db7 9abd 93c5 823c
000000b0: 7754 cabd 0a29 163e d99c 0dbe ea92 16bd
000000c0: 96d3 353e 5761 413e ac23 30be 0eb0 543e
000000d0: 1dc1 1a3e d600 0cbf 6f30 4b3e ef88 e03d
000000e0: c8ff 73bd c469 c43a 8942 efbe 7664 f0bb
000000f0: 2615 033d f93d 77bc fd35 4b3e a6e0 27bd
00000100: 8706 8ebd b729 e9bd a0ed aebd 64ad 983d
00000110: 0a8a da3c 198b 79be 5ed8 b6bd 71fe 9a3d
00000120: 672c 3b3e b6c1 5b3d 6705 4b3c 2142 54bd
00000130: 78fe 4a3e 1e75 59bb b591 8ebc 66f8 1c3e
00000140: 1d58 98bd e6a9 183e 85b4 b03d dd8f a2bc
00000150: c00f d7bd 6a61 853d 273b c53d c57a 82bd
00000160: 49b1 80bd 66a4 503d 0506 8d3d 68e4 10be
00000170: 0b85 623e 874f 12be 0186 edbd cfd8 c13d
00000180: 5718 013e 2af9 dc3c 5a86 80bd bae7 02be
00000190: a1b1 c1bd f76a 9d3e d125 19be 8865 913d
000001a0: 9cdf 05be 195d c53d f391 373e ecf2 3fbe
000001b0: 1c12 a0bd de0b a23d 6008 31bd d3cd 13be
000001c0: 9db1 aebd e488 84be b323 82be 0033 db3c
000001d0: 6b3c b13e 55c1 a53d ed02 b83c dfa5 123d
000001e0: 1b05 0b3e a7f5 50bd b747 ab3d 933f b6bd
000001f0: 8709 03be 8206 7d3d bd56 0fbe 4042 a2bd
00000200: 26ab d8bc ca0c 9bbc 48c6 83be b228 30be
00000210: a8cf 09bd c997 863d e25c 86be 6d9e b6bc
00000220: 1033 96bc 93e9 983d 2338 5fbd 03c7 423e
00000230: 20c5 7ebc 2f61 293d 36c8 66be 9250 063e
00000240: 0dbe 9bbc a436 e53c bb89 f2bb c7e2 923e
00000250: f291 723e eaad f93d ac47 493d 2e27 743e
00000260: 2a4d 553e 676d 29bc 033c 3e3e d80f 673d
00000270: ef31 ac3d 2f4d 163e d47d dc3d 8b37 e8bd
00000280: a3c7 a6bd f91f 75be d143 13be 9a8f 8b3d
00000290: 22ba 36be 12eb 993e 70a8 d6bd 94e3 13be
000002a0: 6bdc a33d 70d9 e23d 428a cb3a ef53 e63d
000002b0: 8032 233d 34bb 62bd ecd8 e03d 9e5a f83d
000002c0: ca9f f3bd f73f 38bd b87f e73d 6a66 243e
000002d0: 88a9 eabd dc78 f43d 0150 033e 1eb4 643e
000002e0: f8e1 85be 3933 60bd f839 0abe d5b2 113c
000002f0: ebbc 003e be5e 4b3e 82a4 443e 0009 b5bd
00000300: 9bac 4a3e ac9e fabc 31d3 a5bd 3267 32be
00000310: 0af9 f93d 90f2 fe3d 8f0e 283e 9aa3 b0bc
00000320: 6e74 d6bd 7642 893c 9ce1 aebd e04c 663e
00000330: 2455 893b 9768 15be 7bab 043e b9e1 bb3d
00000340: 1a85 c4bb 5f88 233e 23a3 f83d b602 5ebe
00000350: 630b c9bd 0f95 e43d 816d a33d db97 3bbd
00000360: a29a 2d3e 69c8 41bd 6d8b 803e 6b27 e7bc
00000370: 9ee8 103e c6a3 e53d a63c 073e ad6f bcbd
00000380: bbfc 46be 8b14 823d 49f4 73be 08b9 093e
00000390: f50a 563e 8a46 cdbd f771 bc3d 365f 82be
000003a0: a2de 573e 4105 12be ab45 f4bd 7b93 b93d
000003b0: 0fed 44bd ee1a 34bd b9de a03d b2be cd3d
000003c0: 879b 8cb9 5d44 5ebe 718f 6d3e b85b 77be
000003d0: f345 963e 4752 303e 2db1 6b3c 7e8a 453e
000003e0: 1677 f4bd 57e6 b03d 18c4 45bd 0e71 34bd
000003f0: 4354 0b3e 0b37 363d f54a 3bbe 02ff 653e
0.0015413184 0.02586238 -0.08340794 0.11943389 0.09189919 0.2582927 0.034443855 0.13046421
0.029049601 0.048718724 -0.1577142 0.004403924 -0.083682716 0.18270035 -0.020800456 -0.070674844
-0.13069038 -0.11658799 0.048437007 0.07088897 -0.09543525 0.15549943 0.10719336 -0.059384663
0.08421412 -0.10442708 0.06599969 -0.031636965 -0.15904911 0.3250672 0.088271566 0.12727427
0.17217289 0.12318799 -0.110239625 -0.10389734 0.08222517 0.109361425 0.2876999 0.19870268
0.0126511585 0.11703 -0.07554541 0.015963351 -0.09879392 0.14664093 -0.13829364 -0.036761202
0.17756495 0.18884788 -0.17201108 0.20770285 0.1511273 -0.54688776 0.19842695 0.10963618
-0.059570104 0.0014985134 -0.4673045 -0.0073361946 0.03200259 -0.015090459 0.19844814 -0.040985726
-0.06934839 -0.113849096 -0.08541417 0.07454947 0.02667715 -0.24369468 -0.089279875 0.07568062
0.18278657 0.053651534 0.012391425 -0.051820878 0.19823635 -0.003318138 -0.017403463 0.15329131
-0.07438681 0.14908561 0.08628181 -0.01984399 -0.10501051 0.06512721 0.09630423 -0.06371073
-0.062838145 0.050938033 0.06885914 -0.1414963 0.22121064 -0.1428815 -0.11597825 0.09465181
0.12606941 0.02697428 -0.062756255 -0.12783709 -0.09457708 0.3074567 -0.14955832 0.07099444
-0.13073581 0.096368976 0.17926769 -0.18745011 -0.07815954 0.0791242 -0.043220878 -0.14433984
-0.08529971 -0.2588569 -0.2541786 0.026757717 0.34616408 0.08093516 0.022462333 0.03580272
0.13576166 -0.051015522 0.08363288 -0.088988446 -0.12796603 0.061773784 -0.13997932 -0.079227924
-0.026448797 -0.018926997 -0.25737214 -0.17203024 -0.033645302 0.065719195 -0.2624274 -0.02229234
-0.018334895 0.07466426 -0.054496896 0.1902123 -0.015549928 0.041352447 -0.22537312 0.13116673
-0.019011522 0.027980156 -0.0074016727 0.28688642 0.23688486 0.121913746 0.049140617 0.23843071
0.20830217 -0.010341025 0.1857758 0.056411594 0.084079616 0.1467788 0.10766187 -0.11338719
-0.081435464 -0.23937978 -0.14381339 0.06814499 -0.17844442 0.30062157 -0.10481346 -0.14442283
0.08001026 0.11076629 0.0015528875 0.11246478 0.039843082 -0.055354312 0.109788746 0.12126659
-0.11895712 -0.044982877 0.11303657 0.16054693 -0.11458117 0.119371146 0.12823488 0.22334334
-0.26148963 -0.05473635 -0.13498676 0.008892735 0.12572066 0.1986036 0.1920338 -0.08839607
0.19792406 -0.030593239 -0.08096922 -0.17422178 0.122057036 0.12448609 0.16411804 -0.021562386
-0.10471426 0.016755324 -0.08539125 0.22490263 0.0041910578 -0.14590679 0.1295604 0.091739126
-0.0059973123 0.1596999 0.12140491 -0.21680722 -0.09816625 0.11161243 0.079798706 -0.045799118
0.16953519 -0.047310267 0.25106373 -0.028217038 0.14151236 0.11212878 0.1320673 -0.09200988
-0.19432347 0.063515745 -0.23823656 0.1344949 0.20902617 -0.1002322 0.092014246 -0.25463265
0.21081021 -0.14259817 -0.119273506 0.09061333 -0.04807764 -0.043970995 0.07854981 0.10046138
-0.00026818758 -0.21705766 0.2319925 -0.24156082 0.29350242 0.17218886 0.014385504 0.19291112
-0.11936776 0.08637684 -0.048282713 -0.04405313 0.13606362 0.044486087 -0.18290313 0.22460559

network_body._body_endoder.seq_layers.0.bias f4 [128]
00000000: 84c1 69ba 820b ac3c fd60 61bc 1bc3 673c
00000010: 4734 2a3c 501f d5bb f261 8f3c d6d6 6f3c
00000020: 7dbf 673c d6f0 873c d0a1 113d 705d 5c3a
00000030: 56c4 173b e1aa e7bb 3347 a63c f644 9a3c
00000040: 5b2b 283d 7d8b e73c df32 823c 686a 053c
00000050: e73f 2f3c 14b4 23bc d3bd e03b d279 12bc
00000060: 5ec6 be3c d82d 8f3c 8679 1f37 c618 09bd
00000070: 43db a23c d7d4 723a bb7e 943c 5419 a13a
00000080: 12e9 913c 79f3 be3c a1c9 943c e87d 3f3c
00000090: 610a 6c3c f6ae b8bc 4224 2cbb da45 4ebc
000000a0: aebe b1bc 476b a43c c273 12b9 b80c 8c3c
000000b0: 632d 5d3b 705b 1d3c 06af 6a3a 78d4 533c
000000c0: b544 8b3c e871 663c 8480 143d d34d 25bc
000000d0: f932 c7bc 8d5f 9b3c ebae a43b 7bce ed3c
000000e0: 0494 923c 22f4 85bc 90d7 9e3c 354f fc3b
000000f0: deb0 d5ba 9d78 433d 78d2 05bc c23d 363c
00000100: 4daf 423c 1d2b a13c 1255 773c 7788 813c
00000110: 925c a23b fbea 9c3c 5f38 3a3c a230 823c
00000120: 913d 023d 16cb 343c 0f5d d63b 6636 663c
00000130: 508e 113c 927d 7aba c49c bd3c 5447 ab3c
00000140: 4ce0 533b 4d4a 1fbc 62a0 0cbc 79f4 603c
00000150: 6070 e93b e8b2 1f3d 8071 60bc 1526 4b38
00000160: 94e8 613a ee9c d938 a207 033d 261a 3f3c
00000170: ae3a cd3c 8724 823c 5882 813c 9065 313c
00000180: 468c baba 41c6 f43b eeb5 693c 8648 c43c
00000190: 1906 a03c e6f0 583c 46be ac3c 61da b23c
000001a0: f925 763c fc0d 11bb 806b 673c ece8 55bb
000001b0: 98fe cfbb 8c10 8b3c 9d22 533c a683 173c
000001c0: 980d 313d 83de 2a3c b30b 55bd 4431 723c
000001d0: 5fdf 203b a988 af3c 098e 183c 421d ec3c
000001e0: 3d40 b23c 7d8e d4bb 1031 2b3c 217d ac3c
000001f0: 4dad b03c d6ac 913c bb2f 003d 08d9 27bc
-0.00089170807 0.021001581 -0.013756034 0.014145638 0.01038844 -0.006503977 0.017502759 0.014638623
0.014144775 0.016594332 0.035554707 0.0008406257 0.0023157797 -0.007069931 0.020297622 0.018831711
0.041056972 0.028264755 0.015893398 0.008143045 0.010696388 -0.009991664 0.0068585663 -0.008940177
0.023287948 0.017477915 9.505433e-06 -0.03347089 0.019879943 0.0009263283 0.018126836 0.0012290874
0.017811332 0.023309456 0.01816255 0.011687733 0.014406771 -0.022544365 -0.0026266729 -0.012589896
-0.021697368 0.020070685 -0.00013966768 0.017095909 0.0033748976 0.00960432 0.0008952472 0.0129290745
0.017000536 0.014065243 0.036255375 -0.0100893555 -0.024316298 0.01896646 0.0050257347 0.029029122
0.017892845 -0.016351763 0.019389898 0.007699872 -0.0016303321 0.047722448 -0.008167855 0.011123123
0.011882615 0.019673878 0.015095966 0.015812142 0.004954883 0.019155016 0.011365979 0.01589233
0.031796996 0.011034748 0.006541855 0.014051056 0.008884028 -0.00095554546 0.02314604 0.020908035
0.0032329736 -0.0097223045 -0.00858316 0.013730162 0.007123992 0.038988978 -0.0136989355 4.843444e-05
0.00086177257 0.00010376597 0.0319897 0.011663949 0.025052395 0.015886558 0.015809223 0.010827437
-0.0014232479 0.007469923 0.014264567 0.023960363 0.019534158 0.013241028 0.021086823 0.021832647
0.015023702 -0.002213358 0.014124751 -0.0032640053 -0.0063474886 0.016975664 0.01288667 0.009247696
0.043225855 0.0104290275 -0.05201311 0.014782254 0.0024547202 0.02142747 0.009311208 0.028822545
0.021759147 -0.0064867125 0.010448709 0.02105576 0.021567011 0.01778261 0.03129552 -0.010244615

network_body._body_endoder.seq_layers.2.weight f4 [128, 128]
00000000: d458 46bd 5175 803c c338 333e 9172 afbc
00000010: d2a6 8cbd 8207 113d 74e0 b63d 0685 993d
00000020: ca24 623c a2d4 963d 67cf a03c 42c4 9c3c
00000030: 0b7a 77bd 4d14 9c3d 0d9b e3bc 32b0 523e
00000040: be13 4d3e d522 08bd 0b11 00be b0b3 27be
00000050: 9820 5f3d e628 c83d 251c 933c b8eb a43d
00000060: 1e75 b73d 7dbe c7bd acbf e13d e887 9bbd
00000070: ac5b fabd 61ee fe3c 7ab1 4e3c 51c0 323e
00000080: df59 0a3e c1d9 afbd aa49 26be 0752 eebb
00000090: fe2e daba 2211 dbbb 84fe 503d 9a28 10bd
000000a0: 88e4 52bd 94b4 1fbd ff97 883c c26c 83bb
000000b0: ee08 b8bd a87d 3ebd 2207 a73d f22a fabd
000000c0: e648 093e e5fc 71bd 1a61 853d 487f 223b
000000d0: b81e 1e3d 8986 253d 606b 813c bee8 a3bd
000000e0: e578 1f3d 80ca 423d e9ad 8bbd ba6b 5e3c
000000f0: f6a3 083e b527 853d 2a1f 113d 5025 79be
00000100: 82da c6bd 61d0 0bbe 7a24 43bc 9de3 8fbd
00000110: 3d3a 813d b5d0 6abb 2da6 013c bc38 dd3a
00000120: 5418 433d 7ef4 f7bc e583 2bbb c72b 85bc
00000130: 1490 09bd bf49 abbc 064b 4ebe 1c8e 16be
00000140: d8ad 6c3d 47ea 8d3d cd3a 94bd 95f0 3f3d
00000150: 826e 87bd 495d 04bc 65de 2d3d 3951 9bbd
00000160: 67c3 443b 8132 083d e080 62bc 95eb 18be
00000170: c255 803d a740 f2bd 08a3 033c 5f16 533d
00000180: 9e11 aa3b d92e 8c3d 42e2 b73d a51c 25bd
00000190: 2bed b73d d1c4 9a3d 9d0c bbbd 3758 7d3d
000001a0: f282 52be fabd c9bc 8905 b1bb b231 58bd
000001b0: b23a 49be 048f 2e3e af7f ab3b 6e40 90bd
000001c0: 4b91 ea3d e807 6dbc 468d b6bd a4a5 8cbd
000001d0: 0a20 da3d 0734 363e 823f 7d3b e6c8 6bbc
000001e0: f67e 043e 378f 9dbc 3c37 153e 7dc2 cebd
000001f0: dae8 543c 6afe c43d 8a6b 073d f960 27be
00000200: 971c f83d 6909 a83d 69d9 4f3d 35be 223e
00000210: 23ed cdbd fb47 02bd aca2 2fbd 2b66 33be
00000220: 6fd9 273d 516f 8bbd 15c0 b3bd 0f8a d23d
00000230: f99e 133e 9db3 833b 6692 f1bd acc7 8cbd
00000240: 0816 33bc 06f3 9c3d f842 883a 4cfd 813d
00000250: a847 993d 4a7a 773d 88b6 4d3c 8035 a83d
00000260: 4594 8bbc b10b 963d 9ca7 843d 6fdc de3c
00000270: 218b a43d 87f5 e1bd f640 34bd de1e c0bd
00000280: 5f24 de3d 86c3 953c b031 3d3d fd42 613e
00000290: 50eb c8bc 9edf e33c a41b 83bc 6985 543d
000002a0: edec 4fbe 10f8 03bd 66f3 933d 1380 7d3d
000002b0: b146 5abb 3df8 c83c d4ba 42bd 6415 0abd
000002c0: 0075 07bd 57e8 9c3d 1f77 b0bd 5dcf 48bd
000002d0: 3010 2bbe a081 a7bd 6612 323d c139 033d
000002e0: cc63 e73c 42f8 1a3e 0057 d2bd 7b77 193c
000002f0: 7431 cf3d ebb3 b63d f6e1 003e 8da6 a53d
00000300: 32b4 273d 4ef4 9cba 9268 973d 3f18 d3bd
00000310: 3abf 84bd 487c c03d 92ec fb3c 9bc1 993d
00000320: 5c62 283c 1b50 223b 6f9d 983d 3e97 34bc
00000330: 76e5 4fbd 3e0f 053e fe47 393e 2028 843e
00000340: 26d1 113e 577b 3ebd 9a18 9abc 5b3c 89bd
00000350: a4f5 013d 55eb 833d 9c0d bf3d b3a0 80bd
00000360: ce32 aabd 18d2 c63c cc59 0a3e d29e 763b
00000370: 9b65 40be 3554 1c3d 880c 50bd 0454 81bd
00000380: 1eee e9bd 0624 813b 6dad babc 3861 a63d
00000390: dc33 be3d 62ca 5ebb 1a56 fa3c d6fc 06be
000003a0: e643 8c3d 982b 07be def2 35bd 593f 4ebc
000003b0: 03ca 8b3d cf04 c6bc 44b1 813d 8838 3bbd
000003c0: 35e1 8bbb a9d6 2a3d a691 c23a 7a7a 0a3e
000003d0: c61b 35bd 8405 90bd a035 f1bd fab6 633d
000003e0: f11f 853d a7d0 4d3c f392 623d b0cb 033e
000003f0: dbec fcbd 77d7 d73c a97b 463e 2a0d 41bb
-0.048424557 0.01568094 0.17502122 -0.021416934 -0.06867756 0.03540755 0.0892953 0.07496075
0.0138027165 0.07364775 0.019630147 0.019136552 -0.060419124 0.076210596 -0.027783895 0.20575026
0.20027062 -0.033236343 -0.12506501 -0.16377139 0.054474443 0.09773426 0.017957756 0.08052772
0.08957885 -0.0975313 0.11022887 -0.075942814 -0.12224516 0.031119527 0.012615556 0.17456175
0.13510846 -0.08586455 -0.16239038 -0.007272962 -0.0016646085 -0.006685392 0.051023975 -0.03519497
-0.051487476 -0.038990572 0.01667404 -0.0040107677 -0.08986078 -0.046506554 0.08155657 -0.122152224
0.13406715 -0.05907907 0.06512661 0.0024795104 0.038603514 0.040411506 0.01579827 -0.080033764
0.038933653 0.0475564 -0.0682028 0.013575489 0.13343796 0.06501714 0.03543011 -0.2433064
-0.09709646 -0.13653709 -0.011910552 -0.07025836 0.06309936 -0.0035829965 0.007913155 0.001687787
0.047630623 -0.03026795 -0.0026171145 -0.016256226 -0.03358467 -0.020909188 -0.20145807 -0.14702648
0.057782978 0.069294505 -0.07237778 0.046860296 -0.066128746 -0.008078882 0.04244842 -0.07583851
0.0030023695 0.03325129 -0.0138246715 -0.14933617 0.06266357 -0.11828738 0.008034475 0.051535007
0.0051900884 0.06844873 0.08978702 -0.04031052 0.08980783 0.07557071 -0.09133265 0.061851706
-0.20557764 -0.02462672 -0.005402271 -0.05278177 -0.19651297 0.17046744 0.005233727 -0.07043539
0.11453494 -0.014467217 -0.089136645 -0.06867531 0.10650642 0.17793284 0.003864259 -0.01439116
0.12939057 -0.01923333 0.14571851 -0.100956894 0.012994969 0.09618838 0.03306154 -0.16345586
0.12114828 0.0820492 0.050744448 0.1589287 -0.10054996 -0.031806927 -0.042879745 -0.17519443
0.040978845 -0.06808341 -0.08776871 0.10280239 0.14416112 0.0040192143 -0.117955014 -0.06874022
-0.010930546 0.076635405 0.0010395935 0.06347141 0.074843705 0.06041936 0.012555726 0.08213329
-0.017038474 0.07326449 0.064772815 0.02720472 0.08034349 -0.11033159 -0.044007264 -0.093808874
0.10846781 0.01828171 0.046189964 0.2199821 -0.024526268 0.02781659 -0.016004391 0.051885042
-0.20305224 -0.032218993 0.07224159 0.06188972 -0.0033306296 0.024532432 -0.047541454 -0.033711806
-0.033070564 0.07661503 -0.086164705 -0.049025882 -0.16705394 -0.08179021 0.043474577 0.0320375
0.028245829 0.15133765 -0.102705 0.009366865 0.10116854 0.089210354 0.12586197 0.08088408
0.040943332 -0.0011974664 0.07392992 -0.10307359 -0.06481786 0.09398705 0.030752454 0.075076304
0.010277357 0.0024766985 0.07451903 -0.011022387 -0.05075594 0.12994096 0.18093869 0.25811863
0.1423994 -0.046504345 -0.018810559 -0.06700965 0.0317284 0.064413704 0.09328768 -0.06280651
-0.083104715 0.024270102 0.13510817 0.0037631285 -0.1878876 0.038166244 -0.0507932 -0.06314853
-0.114223704 0.003941062 -0.022787774 0.08124012 0.09287235 -0.0033995141 0.030558635 -0.13182387
0.06848888 -0.13200223 -0.04442107 -0.012588345 0.0682564 -0.024172215 0.06332639 -0.04570821
-0.00426879 0.041708622 0.0014844432 0.13523284 -0.04421594 -0.07032302 -0.11777806 0.055594422
0.06500233 0.012561954 0.055315923 0.1287067 -0.12349864 0.026347859 0.1938311 -0.002945731

network_body._body_endoder.seq_layers.2.bias f4 [128]
00000000: 0896 2f3c a4e0 7a3b 8a2f e5bb 8366 a0bb
00000010: 2da5 013c 8d58 523c bcaa 763c 0e49 263c
00000020: c138 873c ab7c 3d3c da5b 6ab9 c40c d93b
00000030: 4a7d f63b 5d64 e03b 8486 583c f932 f4bb
00000040: 5587 363c 1601 513b e53f d73c 9334 723c
00000050: 4ae3 0eba 5ad5 413c dbfb 273b 3f66 243c
00000060: c7c1 813c b998 1b3b 999e aa3c 2a49 473b
00000070: d512 61b9 06dd b03c b7e8 133c 142b 403c
00000080: 17a7 8d3c 83a0 873c cf94 093c 8430 0f3c
00000090: 53e8 83bb 519d 063c 73cb e63b 0ba2 883c
000000a0: 6526 ca3b 9dfa e63b fd39 663c 4bf7 e13b
000000b0: c466 793c 4785 b8bb 62b5 9f3c cf13 723c
000000c0: a8b0 f839 4e6a ee3a 3ee7 543c 79ce 3e3c
000000d0: e692 623c 3396 903c d8e8 433c 6de4 8c3c
000000e0: 7af8 353c 170e 4c3b 2659 553c c449 833c
000000f0: 5521 7c3c 79b7 1a3c 00ac 533b 53d7 b23c
00000100: 3a40 533c 8c7e 5f3b 4716 413c 4565 2c3c
00000110: a3e1 4c3c 9590 563c e779 ec3a 174c c83b
00000120: 3b5e c43b b7ab 6a3c e600 fe3b a994 1d3c
00000130: bda7 7d3c a560 343c 15a5 4d3b f57e 0ebc
00000140: 6eaa 1f3c 1057 383c 5853 b53b 8f2e a33c
00000150: 7897 113c afc4 953c 3f8e 603c 4d08 453c
00000160: ba0a 823b 7121 9f3c d7c1 643c 8594 433b
00000170: 7c2b a33c 069c 213c 33a0 8c3c 776c 2f3c
00000180: c3ee 213c 4546 333c 305e 2d3c 4407 d239
00000190: 5fad f33b d27b aa3c 66e1 2f3c 7fcb 3fba
000001a0: baff 373c a74e d9bb 149e 563c a7a6 c33c
000001b0: 62f2 04bc b6b7 b43b 0732 843c 3a21 823c
000001c0: de21 9e3c 20a1 513c fd92 813c fbbf b73c
000001d0: be1e c8bb 7462 da3b 8a4d ff3b f059 833c
000001e0: 1cbb 483c 4ed4 a83c c418 193c 64ba 533c
000001f0: ed9b 3d3c cdfa f73b d7ff 623c d2ed 783c
0.010716923 0.003828087 -0.0069941925 -0.004895033 0.007912916 0.012838495 0.015055355 0.0101492535
0.016506555 0.011565368 -0.00022350196 0.0066238362 0.00752226 0.0068479017 0.013215665 -0.0074523655
0.011140664 0.0031891516 0.026275584 0.0147830425 -0.0005450739 0.011830652 0.0025632295 0.010034143
0.01583947 0.0023742153 0.020827578 0.00304086 -0.00021464688 0.021589767 0.0090276515 0.011729021
0.017291589 0.01655603 0.008397295 0.008739594 -0.004025498 0.008216218 0.007043296 0.01667883
0.0061691278 0.0070489184 0.014051911 0.0068959347 0.015222255 -0.0056311223 0.01949567 0.014775231
0.00047433865 0.001818964 0.012994586 0.011645907 0.013828969 0.017649746 0.01195737 0.017198766
0.011106605 0.0031136328 0.013021743 0.016026385 0.015388806 0.009443157 0.0032298565 0.02183119
0.012893731 0.0034102527 0.0117850965 0.010522191 0.012504968 0.0130959945 0.0018041701 0.0061125862
0.0059926785 0.014323167 0.007751572 0.009617963 0.015481886 0.01100937 0.0031378914 -0.008697261
0.009745223 0.011251226 0.005533617 0.019919662 0.008886211 0.018282263 0.013705789 0.012025905
0.003968564 0.019425126 0.013962231 0.0029843163 0.019918196 0.009863859 0.017166233 0.010707012
0.009883585 0.0109420465 0.010581538 0.00040059735 0.007436439 0.020810995 0.0107348915 -0.0007316395
0.011230404 -0.0066316905 0.013099212 0.023883177 -0.008114429 0.005515064 0.016137136 0.015884984
0.019303259 0.012794763 0.01581716 0.02243041 -0.0061071804 0.0066645686 0.007791226 0.016034096
0.012251642 0.020609047 0.0093442835 0.012922857 0.01157282 0.0075677396 0.013854942 0.0151934195

action_model._discrete_distribution.branches.0.weight f4 [2, 128]
00000000: 8711 7a3d 706a b3bc 2808 253b 5316 88bc
00000010: 43a7 0f3d 7040 e83c 00b5 233d 4b22 e93c
00000020: 3b0a 213d ab58 84bc 94b1 7bbc 7977 d43c
00000030: bf18 a2bc 9e53 bd3c 0663 5d3d d385 7c3b
00000040: d019 d63c fe97 6ebc a92c 44bd dbe0 c43c
00000050: 008d a5bb 6975 0dbd 2c98 c5bc 6963 f43c
00000060: b42a 2cbd fac6 f43b a955 77bd 64f9 a2bc
00000070: 67bd 41bc 7c41 36bd 80d9 0e3d e59a 35bd
00000080: b8ac 063d 58e5 cebc 733e f03c 2d2a f33c
00000090: fa90 dc3b 8ec1 e53c f1e2 e9bc ce2a 523d
000000a0: 8c00 9938 06b8 9abc 7cba 843c d700 20bd
000000b0: f5a6 683d 96c0 ba38 cf5c 363d 2143 853c
000000c0: f560 e13c 8da0 b43b 4e5d b73c f7fa 873c
000000d0: e589 b8bc 9723 1b3d 8d7a e3bc d7ea 4fbd
000000e0: 6c51 11bd 9532 a23c c5d6 2fbd 0e9d 8c3d
000000f0: 542b 0dbd 3ee2 4cbd 37cd 8cbc a748 5cbd
00000100: ddf5 f7bc 4441 823c 0bb7 28bd cc2e 9c3c
00000110: f203 c9bc 3269 153d ff1c 91bc 2f34 0c3d
00000120: d135 0cbc af24 0d3d 7cc3 153d 5f12 08bd
00000130: 71b4 59bd 0f92 c9bc f22a ca3c c385 5cbb
00000140: a59b 03bd 339c 28bd 44fd 6b3d 2832 503d
00000150: b8dc f8bc ac00 4ebd 1431 d1bc 6a40 2fbd
00000160: 7881 113d b4e9 653d e6c0 0bbd d874 913c
00000170: bef0 633d fca4 0dbd 6d59 533c 64a0 cf3c
00000180: e898 d6bc 0d4b 2cbd 157b 04bd 63bf 46bd
00000190: ad2c 6fbd 72ad 39bd d827 0b3d fd16 febc
000001a0: 34b9 b13c 4da9 02bc 7c6b 273d cf6c 163d
000001b0: 5c81 88bb c38f 823c 99a8 d13c e47d 153d
000001c0: b7e2 253d aff0 55bd 9e06 5c3d 5274 303c
000001d0: 6333 a9bc fc0a 98bc d95e 01bd c3a2 483b
000001e0: a484 3abd c794 29bd 54af 83bc 6018 25bd
000001f0: 4e6d 62bd 22f9 babc ea10 edbc 6082 86bd
00000200: c9bf 31bd 56bc 6e3c 963f 12bb 6403 403a
00000210: 8323 26bd c213 a0bc 8a67 31bd 8594 e9bc
00000220: b046 03bd 6451 133d 01dd a23c 1a0e e0bc
00000230: b03f 093d a18d 88bc d56a 4cbd 852d 003c
00000240: c43c 8fbc cb26 323b 3ed3 4e3d 7c27 3abd
00000250: 77ae 893c a924 f83c 090c aa3c 0fa9 b6bc
00000260: fe1b 563d db12 e13b 357b 1e3d 5adb 773d
00000270: 2bdb 683c 5022 1a3d 7b48 38bd 938f 063d
00000280: 98bb 18bd dd11 2f3d d746 eebc d8c1 bebc
00000290: f630 02bc 967e 07bd 89ce a73c 0421 43bd
000002a0: 766b 45bc 99a7 e13c 48fc 1dbd fa58 203d
000002b0: f1f1 53bd 1e15 7cbc 3cb4 37bd 07c5 2abd
000002c0: 6eee d2bc 04a6 42bb d8ed 81bc b777 f0bb
000002d0: 3101 023d 2ba1 81bc 2420 133d f4f0 1f3d
000002e0: 4d09 ea3c 1990 b9bc 5df4 723d 35d1 3fbd
000002f0: b4fe 143d dde4 543c 28bf 33bb 97b9 033d
00000300: 6540 143d ed5f 1bbd 26fa 2d3d b2f2 d4bc
00000310: ce75 ef3c c69a 3cbd ddda 413c 3f41 38bd
00000320: 532c 113c cde0 46bd 43cd 1dbd 4109 bc3c
00000330: 99d1 5d3d 7af7 303d 610b abbc 9913 623c
00000340: eab0 993c 72fb fc3c af84 cabc 7e2a 42bd
00000350: 42d4 e73c 2771 393d 7c30 193d 1839 743d
00000360: 4e2e 23bd 6634 11bd 37aa 143d 6816 12bb
00000370: 23a3 7abd 5de5 e43c 9288 d8bc 18e2 56bc
00000380: 0556 bc3c 1825 0f3d e966 003d 6a45 0e3d
00000390: 6b9f 5a3d 6156 543d d8ff 3dbd 8ad9 893c
000003a0: ef69 01bd 535f 903b e17e 4fbd 727c 2abd
000003b0: 32c5 c63b 8630 0cbd b75b 25bd 497a 16bd
000003c0: 3820 85bc 8ff9 223d a4d8 26bd 9a40 f3bc
000003d0: 18ed 2a3b 8532 cb3c f8cd 4a3d e500 9cbc
000003e0: 8261 453d 5e17 213d 2d19 8f3c 6dc8 123d
000003f0: 5f85 593d bca5 cd3c 5e1c b03c a9c3 5c3d
0.06105187 -0.02190134 0.0025181863 -0.016612208 0.035071623 0.028351039 0.039967537 0.028458735
0.039316397 -0.016155561 -0.015362162 0.025935875 -0.01978719 0.02311116 0.054049514 0.0038531914
0.026135355 -0.014562605 -0.047894154 0.024033 -0.005052209 -0.0345358 -0.024120413 0.029832559
-0.042032912 0.007470009 -0.060384426 -0.01989431 -0.011824942 -0.044496045 0.034875393 -0.044337172
0.03287956 -0.025255844 0.029326653 0.029683197 0.0067311497 0.028046396 -0.028550597 0.051310353
7.2957104e-05 -0.018886577 0.016202204 -0.0390633 0.056799848 8.905043e-05 0.044522103 0.016267361
0.027512053 0.005512303 0.022383358 0.016599162 -0.02252669 0.037875738 -0.027768398 -0.05076107
-0.03547804 0.01979951 -0.04292943 0.06865893 -0.03446515 -0.05002045 -0.017187698 -0.053780224
-0.030268604 0.015900262 -0.04119019 0.019065283 -0.024538014 0.036477275 -0.017714022 0.034229454
-0.008557753 0.034458812 0.03656338 -0.033220645 -0.053150598 -0.024605779 0.024678681 -0.0033649064
-0.032130856 -0.04116459 0.05761458 0.050829083 -0.030378684 -0.05029361 -0.025536098 -0.04278604
0.03552386 0.05613108 -0.03411951 0.01775591 0.05564951 -0.03458117 0.012899739 0.025345035
-0.026195958 -0.04206376 -0.032343943 -0.048522364 -0.058392216 -0.045331426 0.033973545 -0.031016821
0.021694757 -0.007974935 0.04087399 0.03672486 -0.0041658115 0.015937692 0.025593089 0.03649701
0.040499415 -0.052231487 0.05371725 0.01076992 -0.020654386 -0.018559925 -0.031584594 0.0030614592
-0.045536652 -0.04140165 -0.016074814 -0.04030645 -0.055280022 -0.022823874 -0.02893873 -0.06567836
-0.04339579 0.01457127 -0.0022315732 0.0007324724 -0.04056121 -0.019540671 -0.043311633 -0.028513202
-0.032049835 0.035966292 0.019880773 -0.027350474 0.033508003 -0.016669096 -0.04990657 0.007823353
-0.01748503 0.0027183767 0.050494425 -0.04544781 0.016806824 0.030290918 0.020757692 -0.02229741
0.05227279 0.006868703 0.038691718 0.060511924 0.01421241 0.03763038 -0.044990998 0.032851767
-0.03728828 0.042741645 -0.029086513 -0.023285791 -0.0079462435 -0.033079706 0.020484226 -0.047638908
-0.012049546 0.027545737 -0.038570672 0.039147355 -0.051744405 -0.015385894 -0.04484962 -0.041691806
-0.025748458 -0.0029701004 -0.015860483 -0.00733849 0.031739417 -0.015823921 0.035919324 0.03904815
0.028568888 -0.022651719 0.059315074 -0.046830375 0.036375716 0.012994018 -0.002742717 0.032159414
0.036194224 -0.03793328 0.04247489 -0.025994632 0.029230978 -0.04604604 0.011831966 -0.0449841
0.008860665 -0.04855423 -0.03852583 0.022953631 0.054154966 0.043204762 -0.02087945 0.013798618
0.018761117 0.030881617 -0.024721472 -0.047403805 0.028299455 0.045273926 0.037399754 0.05962476
-0.03983908 -0.03545036 0.036295142 -0.0022291187 -0.061190736 0.0279414 -0.02643231 -0.013115428
0.022990236 0.034947485 0.031348143 0.034734167 0.05337469 0.05184019 -0.04638657 0.016827364
-0.031595167 0.004405895 -0.05065811 -0.041622587 0.006065988 -0.034225963 -0.04037067 -0.036737714
-0.016250715 0.03978878 -0.04073395 -0.02969389 0.002608126 0.024804363 0.049512833 -0.019043395
0.048188694 0.039328925 0.01746806 0.035835672 0.05310571 0.025103442 0.021497902 0.053897534

action_model._discrete_distribution.branches.0.bias f4 [2]
00000000: 69c6 6bbb 6ac6 6b3b
-0.0035976416 0.0035976418

exp_avg f4 [128, 42]
00000000: 0000 0000 c2e4 4838 1e65 c1b8 0000 0000
00000010: a65a 3337 3d9f f136 b93b 90b7 3b3d cb38
00000020: b743 deb8 0000 0000 3320 f7b6 92dc b3b6
00000030: 0000 0000 0696 5537 a793 3fb9 b725 8239
00000040: 22c1 f9b8 3f2d c9b8 1872 4935 c5e8 b1b7
00000050: 617b c2b6 0000 0000 2686 f7b6 fc6e feb5
00000060: 0000 0000 4948 d1b7 9e7c dcb8 e2eb df35
00000070: 3cb0 b738 3c43 a738 ebee 1538 ba0f 1837
00000080: ee4f 8bb8 0000 0000 7e87 49b7 d7d2 76b6
00000090: 0000 0000 bd0d 5c01 8c3c 8cb8 cb52 4638
000000a0: 2526 42b6 e843 dab6 0000 0000 6f9b f238
000000b0: 5092 c3b8 0000 0000 3744 d836 8d57 fd37
000000c0: 48ee b738 f12a 7f38 a27f e0b8 0000 0000
000000d0: f0b5 53b7 08a0 c9b6 0000 0000 ebb9 c337
000000e0: dc4d 05b9 7ed4 4539 ef6d 86b8 db8b f3b7
000000f0: 72b2 e738 1b59 c1b8 f77f c237 0000 0000
00000100: 9d5f 53b7 83ba a0b6 0000 0000 d501 2fb8
00000110: db14 3ab8 5891 4fb6 b595 e638 7e55 e838
00000120: be6b d438 ae80 48b7 e406 34b8 0000 0000
00000130: 4d2b 93b7 2e04 1eb7 0000 0000 88d6 d501
00000140: 0d80 6eb8 95cd db38 9017 88b6 675d 06b5
00000150: 0000 0000 3384 a9b6 fc02 2db7 0000 0000
00000160: 1a92 5435 8b2a 9fb6 9064 a8b7 fb5f 2937
00000170: 2598 a6b6 0000 0000 ee27 c734 b2ba bbb5
00000180: 0000 0000 22aa 5cb5 73a6 1fb7 ce1f 5b37
00000190: 8db5 a9b7 88de a5b7 fe62 beb7 a636 9a37
000001a0: aecd 31b7 0000 0000 6a4c b534 8bc9 2cb5
000001b0: 0000 0000 8d8f 02b6 c78c 81b6 c7bc 4bb7
000001c0: 2256 ed34 8898 37b5 bfc7 39b7 c068 4f37
000001d0: 59b3 7eb7 0000 0000 939a 36b5 c302 6ab5
000001e0: 0000 0000 1af0 b401 2cd3 2cb6 227f 35b7
000001f0: e92a e5b4 eb6e c1b5 0000 0000 37b6 9338
00000200: 1f3b f8b8 0000 0000 8173 cd36 f794 4537
00000210: 75eb ee37 1215 9b38 cba6 00b9 0000 0000
00000220: 29c0 b4b7 cd6d a0b7 0000 0000 922f 9237
00000230: 6d55 54b9 a56e 5f39 0ea8 a6b8 4209 7ab8
00000240: 8090 0e38 9c42 a3b8 04b0 c437 0000 0000
00000250: 397d b3b7 2536 8cb7 0000 0000 7ac8 04b8
00000260: b385 d8b8 2741 6d37 0e58 9138 3dff 8938
00000270: 2a88 0d38 66c6 8ab7 5836 20b8 0000 0000
00000280: 1394 aeb7 301f 64b7 0000 0000 04b8 0b02
00000290: 656c 73b8 1ae9 3338 a7fc d4b5 f3ad 9fb6
000002a0: 0000 0000 10d9 0238 027e 13b8 0000 0000
000002b0: 404e 6a36 42c4 4537 105b 0b38 91e0 7837
000002c0: 13ea 13b8 0000 0000 b3a4 5eb7 4c21 35b7
000002d0: 0000 0000 8346 c036 9915 9eb8 d073 ab38
000002e0: 1d56 9bb7 e821 2fb7 6fb8 1838 3e72 05b8
000002f0: 5cca 0a37 0000 0000 42e3 5fb7 9c3a 30b7
00000300: 0000 0000 8b26 2bb7 ce43 07b8 221a 9036
00000310: 5524 0538 fef0 fb37 b4cf de37 11c2 47b5
00000320: ca8f 30b7 0000 0000 c149 84b7 588a 54b7
00000330: 0000 0000 c89a 2201 d23e d5b7 f2d6 2938
00000340: 4d32 d2b4 fe7f 04b5 0000 0000 24d2 c5b7
00000350: db70 8b38 0000 0000 51fe 1cb7 b6de dcb6
00000360: a531 5236 c7b7 67b8 ab5c 8138 0000 0000
00000370: fe28 c937 fec2 d137 0000 0000 1f4c 23b7
00000380: f003 db38 5635 0bb9 7689 b838 58eb 9b38
00000390: 4373 b2b7 db24 4537 8c01 9f37 0000 0000
000003a0: 8451 ca37 fe0f b437 0000 0000 9ee9 ae37
000003b0: d508 f937 a07e 3438 4805 37b8 dae6 22b8
000003c0: e73c 4db8 fbaf 0035 1216 5838 0000 0000
000003d0: 5cba ff37 b55f e037 0000 0000 aee5 6a81
000003e0: 5643 e437 4b35 dab7 da25 5a36 4650 a736
000003f0: 0000 0000 34fe c236 6cc5 e937 0000 0000
0.0 4.7896763e-05 -9.221792e-05 0.0 1.0690337e-05 7.2008975e-06 -1.7193948e-05 9.6911994e-05
-0.00010598398 0.0 -7.364922e-06 -5.3602935e-06 0.0 1.2730719e-05 -0.00018270184 0.00024823632
-0.00011909219 -9.5928546e-05 7.5044363e-07 -2.1208436e-05 -5.7960137e-06 0.0 -7.3767906e-06 -1.8956775e-06
0.0 -2.4948402e-05 -0.00010513629 1.6683446e-06 8.758946e-05 7.975704e-05 3.5746878e-05 9.063568e-06
-6.6429246e-05 0.0 -1.201208e-05 -3.6779581e-06 0.0 4.0417475e-38 -6.686998e-05 4.7283986e-05
-2.8930456e-06 -6.5048116e-06 0.0 0.00011568411 -9.3255774e-05 0.0 6.445243e-06 3.020072e-05
8.770503e-05 6.083673e-05 -0.00010704926 0.0 -1.2618941e-05 -6.008897e-06 0.0 2.3332386e-05
-0.00012712873 0.00018866544 -6.410095e-05 -2.9032983e-05 0.000110481764 -9.219554e-05 2.318619e-05 0.0
-1.2598842e-05 -4.7900844e-06 0.0 -4.1724958e-05 -4.436528e-05 -3.0930005e-06 0.0001099514 0.00011078546
0.00010129016 -1.19508895e-05 -4.292176e-05 0.0 -1.7543929e-05 -9.418507e-06 0.0 7.855168e-38
-5.686288e-05 0.000104810264 -4.055859e-06 -5.005481e-07 0.0 -5.0519825e-06 -1.0312298e-05 0.0
7.918876e-07 -4.743522e-06 -2.0073989e-05 1.0095532e-05 -4.9648975e-06 0.0 3.709569e-07 -1.3986921e-06
0.0 -8.220396e-07 -9.515893e-06 1.3060822e-05 -2.0230911e-05 -1.9773157e-05 -2.2695862e-05 1.8383678e-05
-1.0597911e-05 0.0 3.3769476e-07 -6.4368277e-07 0.0 -1.9455067e-06 -3.8608882e-06 -1.2143696e-05
4.420736e-07 -6.8394775e-07 -1.1073366e-05 1.23625505e-05 -1.5181337e-05 0.0 -6.802522e-07 -8.717581e-07
0.0 6.6466086e-38 -2.5752915e-06 -1.0818041e-05 -4.2685795e-07 -1.4411902e-06 0.0 7.0434464e-05
-0.00011836574 0.0 6.1229225e-06 1.1776799e-05 2.8481454e-05 7.3949006e-05 -0.00012269166 0.0
-2.1547154e-05 -1.9124616e-05 0.0 1.7426708e-05 -0.00020249719 0.00021308156 -7.9467995e-05 -5.9613267e-05
3.3990014e-05 -7.784853e-05 2.3446984e-05 0.0 -2.1396774e-05 -1.6714514e-05 0.0 -3.165796e-05
-0.00010324586 1.414147e-05 6.93054e-05 6.580211e-05 3.3743832e-05 -1.6543268e-05 -3.8197584e-05 0.0
-2.0811369e-05 -1.359712e-05 0.0 1.0264917e-37 -5.8036665e-05 4.289402e-05 -1.5868762e-06 -4.7588196e-06
0.0 3.119657e-05 -3.5164885e-05 0.0 3.4914265e-06 1.178781e-05 3.322499e-05 1.4834238e-05
-3.526553e-05 0.0 -1.3270578e-05 -1.0796193e-05 0.0 5.7302545e-06 -7.53805e-05 8.175487e-05
-1.851754e-05 -1.0438707e-05 3.641139e-05 -3.1816067e-05 8.272556e-06 0.0 -1.3344748e-05 -1.05040635e-05
0.0 -1.0201368e-05 -3.2249656e-05 4.2945767e-06 3.1743508e-05 3.0033752e-05 2.6561182e-05 -7.441568e-07
-1.0523896e-05 0.0 -1.576997e-05 -1.2668395e-05 0.0 2.986575e-38 -2.5420832e-05 4.0492923e-05
-3.9152147e-07 -4.9360085e-07 0.0 -2.3582084e-05 6.6490575e-05 0.0 -9.357537e-06 -6.582438e-06
3.1321335e-06 -5.5245848e-05 6.16846e-05 0.0 2.3980156e-05 2.5005542e-05 0.0 -9.73328e-06
0.00010443467 -0.00013275942 8.799408e-05 7.434812e-05 -2.1272926e-05 1.1750696e-05 1.8954997e-05 0.0
2.4118235e-05 2.1465119e-05 0.0 2.0851203e-05 2.9687226e-05 4.3033273e-05 -4.363552e-05 -3.8838807e-05
-4.893253e-05 4.79398e-07 5.1518968e-05 0.0 3.048515e-05 2.6747448e-05 0.0 -4.31438e-38
2.7211074e-05 -2.6012442e-05 3.2506564e-06 4.986333e-06 0.0 5.8112437e-06 2.7867696e-05 0.0

exp_avg_sq f4 [128, 42]
00000000: 0000 0000 ab5e f633 7a10 3a34 0000 0000
00000010: 835e 6030 4a99 9832 f706 f533 e886 e633
00000020: e4c9 4733 0000 0000 3149 0b31 5b32 e631
00000030: 0000 0000 be4b 7132 8b3c 2a34 8516 6233
00000040: 6d85 6933 2c26 7433 98d3 3c34 62a3 9d33
00000050: 53f7 f032 0000 0000 1ff8 1131 1056 8e31
00000060: 0000 0000 6d73 2f31 ea8f 3c33 b080 4934
00000070: 3885 2633 5dd1 2e33 dc98 4934 3439 d333
00000080: 9ab4 a831 0000 0000 506a 6431 303c 9f31
00000090: 0000 0000 f8f8 c62a 1405 bb31 57f2 8a34
000000a0: 8879 5830 f948 0f31 0000 0000 9308 4434
000000b0: 3c17 0234 0000 0000 8ff5 112f 2b11 2132
000000c0: ee1f 0234 acfe 0134 e6e4 0633 0000 0000
000000d0: 8b54 0131 8fad a031 0000 0000 a107 2933
000000e0: 95bc 5134 d98e d432 3aa3 a232 2af4 d132
000000f0: c18c 5434 5876 9d33 ec3b b532 0000 0000
00000100: 3359 1b31 41fe 7b31 0000 0000 94a3 e931
00000110: c53c a333 2e4c 0c34 0fd1 7a33 a022 8733
00000120: dc95 7f34 b4e1 9233 c6fa f130 0000 0000
00000130: 1b5b b731 65f0 d931 0000 0000 a9b0 c72b
00000140: 94c4 f531 ec1a 9634 b781 332f b4a9 1431
00000150: 0000 0000 4541 b430 ce19 2f31 0000 0000
00000160: 23ff 312d 316b c02f dd1d f330 bce0 f12f
00000170: 6b5b b530 0000 0000 0c9d a82f bfcf c92f
00000180: 0000 0000 1930 302f a8b9 cc30 6a59 6230
00000190: f468 dd30 91af d930 ec1c ff30 8540 4f30
000001a0: 464d 8330 0000 0000 fff6 a92f 4791 b62f
000001b0: 0000 0000 d082 f82e 17c9 ee2f fe90 4831
000001c0: 5881 fa2f 48df fc2f a144 b630 5727 0731
000001d0: d572 bd2f 0000 0000 0a7e c72f f6e9 ce2f
000001e0: 0000 0000 0181 462b 8dd5 762e 37f5 5831
000001f0: 17d1 0c2d 2f47 b22d 0000 0000 3797 0a34
00000200: 2814 0d34 0000 0000 cc6a c22f a9bd 3a32
00000210: 3def c733 d862 db33 ecc6 0c33 0000 0000
00000220: 4e17 d131 3c84 1c32 0000 0000 e057 c732
00000230: 9d46 2e34 f6c7 f432 a0e1 0233 bec6 1333
00000240: f585 1c34 49bf a633 7a2a 8a32 0000 0000
00000250: 3d99 da31 86fc 0632 0000 0000 f838 8c31
00000260: 2672 7433 a4f4 0e34 2e0e 4333 38a7 4d33
00000270: c516 3834 c527 b233 f61c d630 0000 0000
00000280: 2883 f431 db34 0e32 0000 0000 53d1 282c
00000290: bf4c b331 b0f7 7534 cb14 db2f 2f68 fc30
000002a0: 0000 0000 81af aa33 d6c4 5b33 0000 0000
000002b0: 520d ee2f 36ab d431 92e0 6433 6944 5e33
000002c0: 743b 3332 0000 0000 d58e e631 86fc 0d32
000002d0: 0000 0000 9cf1 0a32 a4a5 c033 3dc2 7732
000002e0: 3c0d 7532 ffd4 9032 61df b233 5000 1033
000002f0: 479a d831 0000 0000 23d9 ea31 7616 0332
00000300: 0000 0000 e67a d430 1ffc b532 bc90 8333
00000310: 0ab4 3033 b0fa 3433 8d10 d833 abf7 d732
00000320: 7ca7 1b30 0000 0000 ff54 0732 a0b3 1132
00000330: 0000 0000 8df9 732a b36f 4531 84fe f733
00000340: d3a9 3330 88f5 d430 0000 0000 b5c2 5f33
00000350: 98c7 4033 0000 0000 2986 562f 2db8 df31
00000360: 5fc7 4233 977b dd32 2167 4232 0000 0000
00000370: 5b71 1132 6473 3232 0000 0000 fd2e ce31
00000380: 8851 7633 760a 7932 8fe6 a132 10af b032
00000390: d535 8c33 07ef 3e32 f88e 0332 0000 0000
000003a0: 377a 1432 993b 2532 0000 0000 0470 cd30
000003b0: eb04 7032 108b 4d33 85a2 e632 ffbc ef32
000003c0: dc52 9133 cc4e 9032 7f9f 0431 0000 0000
000003d0: 8bf7 3032 6321 3c32 0000 0000 ad62 ab2a
000003e0: 14cf 9f30 9842 af33 d593 c72e 870e 3630
000003f0: 0000 0000 fac1 6e33 b739 9533 0000 0000
0.0 1.1472488e-07 1.7328594e-07 0.0 8.1625035e-10 1.7764837e-08 1.14099684e-07 1.0734749e-07
4.6516917e-08 0.0 2.0268767e-09 6.6996058e-09 0.0 1.4045268e-08 1.5854509e-07 5.2640207e-08
5.437089e-08 5.6845394e-08 1.7585842e-07 7.3406014e-08 2.8052147e-08 0.0 2.1241318e-09 4.142528e-09
0.0 2.5531464e-09 4.390305e-08 1.87664e-07 3.877105e-08 4.0702947e-08 1.8775194e-07 9.835858e-08
4.9099755e-09 0.0 3.3238798e-09 4.6343516e-09 0.0 3.5344622e-13 5.4429936e-09 2.5880829e-07
7.875305e-10 2.085072e-09 0.0 1.8257042e-07 1.2115646e-07 0.0 1.3274913e-10 9.375337e-09
1.211881e-07 1.210671e-07 3.1407488e-08 0.0 1.8820028e-09 4.676344e-09 0.0 3.9355317e-08
1.9533248e-07 2.4745008e-08 1.8933509e-08 2.4441835e-08 1.9795245e-07 7.332409e-08 2.1098423e-08 0.0
2.2606172e-09 3.6669834e-09 0.0 6.799789e-09 7.601333e-08 1.306623e-07 5.83978e-08 6.2927256e-08
2.3803244e-07 6.83971e-08 1.7606332e-09 0.0 5.3363585e-09 6.342861e-09 0.0 1.4188833e-12
7.152787e-09 2.7959265e-07 1.6326039e-10 2.16333e-09 0.0 1.3115274e-09 2.548052e-09 0.0
1.0117937e-11 3.500076e-10 1.7689065e-09 4.3997328e-10 1.3195466e-09 0.0 3.067061e-10 3.67093e-10
0.0 1.6024194e-10 1.489572e-09 8.2345386e-10 1.6109696e-09 1.5838727e-09 1.8561912e-09 7.539785e-10
9.553467e-10 0.0 3.0916422e-10 3.3208833e-10 0.0 1.1300971e-10 4.343483e-10 2.918625e-09
4.556664e-10 4.5997184e-10 1.3261748e-09 1.9667448e-09 3.4460493e-10 0.0 3.6287445e-10 3.763742e-10
0.0 7.052276e-13 5.6123595e-11 3.1571525e-09 8.004506e-12 2.0267869e-11 0.0 1.2907263e-07
1.3138981e-07 0.0 3.5364278e-10 1.0869749e-08 9.310177e-08 1.0215962e-07 3.277721e-08 0.0
6.08535e-09 9.110462e-09 0.0 2.320661e-08 1.6230702e-07 2.849627e-08 3.047319e-08 3.440686e-08
1.4577365e-07 7.764772e-08 1.608463e-08 0.0 6.362056e-09 7.857244e-09 0.0 4.081013e-09
5.6914494e-08 1.331378e-07 4.5414872e-08 4.7882367e-08 1.7144619e-07 8.296005e-08 1.557878e-09 0.0
7.1162454e-09 8.277506e-09 0.0 2.3990434e-12 5.2183107e-09 2.2907511e-07 3.9850642e-10 1.8365024e-09
0.0 7.948166e-08 5.1168932e-08 0.0 4.3301412e-10 6.1894765e-09 5.3289632e-08 5.175062e-08
1.0432689e-08 0.0 6.710119e-09 8.264697e-09 0.0 8.087593e-09 8.9708266e-08 1.4421457e-08
1.4263886e-08 1.6860666e-08 8.329403e-08 3.3527897e-08 6.3039667e-09 0.0 6.834982e-09 7.630311e-09
0.0 1.545996e-09 2.1185825e-08 6.12649e-08 4.1141938e-08 4.2137515e-08 1.00612944e-07 2.514192e-08
5.662668e-10 0.0 7.87736e-09 8.480953e-09 0.0 2.1669316e-13 2.8730767e-09 1.154813e-07
6.5361155e-10 1.5494814e-09 0.0 5.209832e-08 4.4885013e-08 0.0 1.951085e-10 6.5110926e-09
4.5350472e-08 2.5783988e-08 1.1315735e-08 0.0 8.465885e-09 1.03872e-08 0.0 6.000731e-09
5.735049e-08 1.4496086e-08 1.8847713e-08 2.0568706e-08 6.52905e-08 1.1113804e-08 7.657711e-09 0.0
8.642522e-09 9.617815e-09 0.0 1.494755e-09 1.3970957e-08 4.785676e-08 2.684943e-08 2.7909207e-08
6.767161e-08 1.6799639e-08 1.9299191e-09 0.0 1.0300833e-08 1.09506315e-08 0.0 3.0444172e-13
1.1627628e-09 8.161186e-08 9.0757325e-11 6.623186e-10 0.0 5.5590114e-08 6.9488514e-08 0.0

exp_avg f4 [128]
00000000: d50e 0db8 6c35 f237 f67b 74b7 595b 2fb8
00000010: 0604 00b5 21b9 0c38 0049 c837 4524 5436
00000020: 78a4 a5b9 d969 51b6 3997 1e39 b834 6eb8
00000030: d35e 2bb6 509b 6737 c7d4 c238 d8b7 b337
00000040: 6b1f f638 fa43 2a37 bb15 5538 87a3 03b9
00000050: 78e8 40b8 2ce1 34b8 8d90 0cb8 2c99 c336
00000060: 6577 83b9 1aa5 f1b7 c80b bab5 3135 9937
00000070: 9bcf aab8 f75e 0c38 f83d 62b7 b6bc 64b8
00000080: 4b86 a837 9cdb 30b8 f3d3 16b9 7792 1ab9
00000090: c719 2fb9 6489 3337 ebec d1b8 3549 08b9
000000a0: 5b89 cf37 fedf 3537 b804 a7b7 81d3 18b9
000000b0: 74fc 5d37 0d71 9cb8 f803 bf38 cea5 d8b8
000000c0: 8977 2137 f86e bcb8 dd8e 7f38 c680 5938
000000d0: f528 b837 351b f336 e2f9 b0b8 394c 9bb8
000000e0: ebc0 59b7 0d44 c637 2565 4cb9 be13 86b7
000000f0: 6bb5 0938 4b3b 1eb7 82f3 bc36 61c5 aab8
00000100: 005f a4b6 2cbf 71b6 0e13 94b7 0203 c7b7
00000110: f895 9638 8251 8638 c833 0539 ff58 23b9
00000120: 9c09 44b8 f70a 5438 6ede 9ab8 405b c036
00000130: 6326 9237 09ed 5db8 1468 44b9 5ec8 31b9
00000140: e3eb 6737 2300 20b8 8c7d 57b7 11c6 a4b7
00000150: 1602 48b8 e4e5 9437 8c96 bab7 e501 1538
00000160: f06d f8b5 f43a 2eb9 e4ab dfb9 648d bbb9
00000170: 3adc 1eb8 70ac fb37 c8bf 39b9 c168 60b7
00000180: 3c5c 8eb7 a0d7 f238 000b 61b8 51a5 bcb9
00000190: 0910 c1b7 5376 cf37 3dbd 5739 af65 1538
000001a0: 6467 16b8 8b4b b2b8 e266 e8b8 5601 8cb7
000001b0: fc02 bfb8 3674 b6b7 2da2 deb8 d768 70b5
000001c0: 1bc5 52b9 99d2 c938 c9ff fc37 9e32 11b9
000001d0: de42 8439 820d 9138 d3e7 c0b8 63bd ae38
000001e0: 0fbd 4d37 f0a8 8638 491b ccb7 cc09 35b9
000001f0: 9195 a2b8 20c9 a438 12a5 bbb8 8779 90b7
-3.3630833e-05 2.8873525e-05 -1.4572395e-05 -4.1808325e-05 -4.768957e-07 3.3551016e-05 2.3875851e-05 3.1611573e-06
-0.0003159379 -3.1205038e-06 0.00015124389 -5.679272e-05 -2.553618e-06 1.3804834e-05 9.290274e-05 2.1424072e-05
0.00011736046 1.0148617e-05 5.0803395e-05 -0.00012554052 -4.599287e-05 -4.3125052e-05 -3.3513224e-05 5.8292844e-06
-0.00025075223 -2.880632e-05 -1.3861509e-06 1.826379e-05 -8.144901e-05 3.3467044e-05 -1.3485078e-05 -5.4535187e-05
2.0089696e-05 -4.2166197e-05 -0.00014384072 -0.00014741147 -0.00016698903 1.070122e-05 -0.00010010026 -0.00012997242
2.4740284e-05 1.0840593e-05 -1.9910149e-05 -0.00014574641 1.3231405e-05 -7.459717e-05 9.108329e-05 -0.00010330566
9.624179e-06 -8.985208e-05 6.092979e-05 5.185676e-05 2.1953581e-05 7.2451317e-06 -8.438878e-05 -7.4051735e-05
-1.2979125e-05 2.3635128e-05 -0.00019492635 -1.5983238e-05 3.2832304e-05 -9.431339e-06 5.6311846e-06 -8.1429964e-05
-4.8986403e-06 -3.6023075e-06 -1.7651848e-05 -2.372405e-05 7.180491e-05 6.4048e-05 0.00012703158 -0.00015578045
-4.673899e-05 5.055495e-05 -7.384723e-05 5.732669e-06 1.7422431e-05 -5.2911262e-05 -0.00018730789 -0.00016954678
1.3823595e-05 -3.81471e-05 -1.284423e-05 -1.9642555e-05 -4.768566e-05 1.7750026e-05 -2.2243032e-05 3.5526133e-05
-1.8509436e-06 -0.00016615895 -0.00042661943 -0.00035772764 -3.7875237e-05 3.000183e-05 -0.00017714419 -1.337583e-05
-1.697067e-05 0.000115796225 -5.3654425e-05 -0.00035981325 -2.301486e-05 2.4731422e-05 0.00020574495 3.561907e-05
-3.5859077e-05 -8.5017724e-05 -0.000110817855 -1.6689923e-05 -9.1081456e-05 -2.1750206e-05 -0.000106159925 -8.955953e-07
-0.00020100588 9.623654e-05 3.015985e-05 -0.00013847134 0.00025226822 6.916655e-05 -9.198454e-05 8.3322426e-05
1.2262971e-05 6.421085e-05 -2.43314e-05 -0.00017265155 -7.752621e-05 7.857592e-05 -8.9476016e-05 -1.7222728e-05

exp_avg_sq f4 [128]
00000000: ab35 9034 8336 9a34 ca9e 7731 63db 8134
00000010: 5ef4 0634 d636 ca33 e430 0234 b159 0f32
00000020: d19c 6235 463c 1a33 17b4 aa35 3210 0633
00000030: 7186 1a34 a74a bc32 dc7c 6834 c500 4634
00000040: f61b cf34 7171 7633 af15 3533 ce45 7c34
00000050: 70df 0534 85db 3e32 29a9 8233 2adc 6032
00000060: aab1 a134 5975 6933 0bee 9c33 819b 1131
00000070: b1a5 fc33 d25b 1935 4d62 2d32 3f56 1735
00000080: d75d 0233 f17b 8332 6dff 0d35 2482 8034
00000090: 5dbc 8134 0333 3932 2c4c 9b33 6446 7d34
000000a0: 6d9d 9732 0d1c 5835 f93c 8533 a1fe b834
000000b0: cb2f 0532 f46e 9734 a9e1 8234 46f2 6b35
000000c0: 49dd 9735 cd73 f133 b31d 9535 cfb9 c834
000000d0: cc43 9831 c685 2733 18e8 e533 d15b 1333
000000e0: 87bd d634 a5e8 2132 6b94 6635 e206 bd34
000000f0: f241 1b34 d6a6 6a33 2152 eb30 a510 1235
00000100: db80 1835 7c0c 3a33 65da 5e34 f6fb 2032
00000110: 6ccc 2334 89b9 2435 131c b434 e4a0 ce34
00000120: 75fc 3f32 4cd2 d733 8b01 f434 8f63 0630
00000130: 11f9 1635 548f 9f34 a778 5535 0791 3935
00000140: 6c81 ec32 d61d a132 f4c4 b331 bd2b 3433
00000150: 6c4d 8f33 486f 9134 8076 1f32 0eb1 8c33
00000160: fa3b c131 4722 7c34 a138 bf35 9224 1935
00000170: ce8e b434 e357 ed32 207c 3535 d3f9 d233
00000180: 38a0 3634 fc10 a534 f5b5 6c34 eb59 e635
00000190: 2035 8933 5f1d 3f34 6f01 4f35 cf4f 0934
000001a0: 4c30 9a34 d860 ab34 05d1 5035 392e ea33
000001b0: 481c 1134 569c 4033 cc21 6f34 463b 9031
000001c0: c0cf c734 ef4a 3735 6bdd 4f31 65b0 5f35
000001d0: b2e7 1d35 7b03 8133 343d 0c34 d7e4 3934
000001e0: 138b 8e35 e9f7 2734 7863 0d34 c6e9 f034
000001f0: 2c5d 3735 0d16 0835 6504 ff34 7458 2434
2.686114e-07 2.8724398e-07 3.6033492e-09 2.4187747e-07 1.2568623e-07 9.4163326e-08 1.212498e-07 8.344089e-09
8.441976e-07 3.5910737e-08 1.27184e-06 3.1214036e-08 1.4391277e-07 2.1920028e-08 2.1652107e-07 1.8440467e-07
3.85771e-07 5.7379513e-08 4.2162068e-08 2.3494724e-07 1.2467876e-07 1.11093685e-08 6.084367e-08 1.3088576e-08
3.0117855e-07 5.4356267e-08 7.307616e-08 2.118867e-09 1.17648035e-07 5.713056e-07 1.0092276e-08 5.637739e-07
3.035333e-08 1.530677e-08 5.2898287e-07 2.3936548e-07 2.4165175e-07 1.0780016e-08 7.2316055e-08 2.3588069e-07
1.7650303e-08 8.050709e-07 6.204386e-08 3.4457938e-07 7.752486e-09 2.820667e-07 2.4378576e-07 8.7896876e-07
1.1314779e-06 1.1243501e-07 1.1110009e-06 3.7388097e-07 4.43149e-09 3.9004384e-08 1.0705861e-07 3.430961e-08
3.9998505e-07 9.424331e-09 8.5897653e-07 3.5209e-07 1.445949e-07 5.4634107e-08 1.7121843e-09 5.441346e-07
5.681192e-07 4.3317854e-08 2.0754813e-07 9.370515e-09 1.5254926e-07 6.136475e-07 3.354804e-07 3.8487553e-07
1.1175065e-08 1.00499705e-07 4.5449664e-07 4.88904e-10 5.6241794e-07 2.9720343e-07 7.9524256e-07 6.9128913e-07
2.753287e-08 1.8756435e-08 5.2319766e-09 4.1949296e-08 6.6730394e-08 2.7089322e-07 9.281962e-09 6.551464e-08
5.623858e-09 2.3481799e-07 1.424709e-06 5.705016e-07 3.3631517e-07 2.7630398e-08 6.760838e-07 9.82433e-08
1.7008358e-07 3.0746003e-07 2.2045408e-07 1.7162505e-06 6.389223e-08 1.7798946e-07 7.7115595e-07 1.2788153e-07
2.8719876e-07 3.1921695e-07 7.77902e-07 1.0904882e-07 1.3514466e-07 4.484567e-08 2.2270905e-07 4.19769e-09
3.7217796e-07 6.8281855e-07 3.0248326e-09 8.333066e-07 5.882422e-07 6.007664e-08 1.3060782e-07 1.7312719e-07
1.06203e-06 1.5643276e-07 1.3167835e-07 4.4873576e-07 6.8308395e-07 5.0696036e-07 4.750065e-07 1.5305869e-07
