Assets/results/ppo/JumperAgent/JumperAgent-25780.onnx (onnx, 91980 bytes, 6 tensors)

network_body._body_endoder.seq_layers.0.weight f4 [128, 42]
00000000: e8db 21be f158 783d 3c9d 133e 3e0f 2a3c
00000010: cc06 8b3d 1899 313d 5f12 663d 0563 86bd
00000020: 8f86 a93d a3a9 1abe c7de 25bd 2782 ecbd
00000030: f09e c8bc bfe3 2d3e e6ae 493d 6146 2a3c
00000040: 45b3 8ebe 04d8 e0bc 1324 6b3e 3332 a8bd
00000050: 3e5c 00be 5728 673d 9709 b5bd 82e5 d43e
00000060: c0d7 373e 450e 1cbe c7aa 59bc 6b9e dbbd
00000070: 0fe6 a63e 399a 16be b299 693e 41a1 85be
00000080: 0955 3dbd 80a8 e6bc e36b 953d 69b8 943b
00000090: 9461 d03d bc6c 7fbe b1eb 72bd d8be 9abd
000000a0: feee cb3d f365 c3bd c9dd 873e 400d 2f3d
000000b0: 9240 8b3e cc3c dc3d 9246 933b c3ac f9bd
000000c0: 9d2f 58bd 961f 23bd 8006 0bbd a37a 4e3e
000000d0: 31dd fcbd cdb7 0abe 1875 f33e dca0 c4bd
000000e0: 6c5e 343e 9e8b 863e e1f9 ce3c 0242 71bc
000000f0: c1c3 803c 9dd1 cf3b 40b1 193e 56ca 65bd
00000100: ef75 653c ae2c 193e adde 36be 9ef5 64bc
00000110: 9454 783e 6379 053c 6c8c 353e 02be 1abe
00000120: 3e5c 02be 60fe 103e 4588 64be 5df6 e93d
00000130: 92fe a7be 4926 cbbd 875e 1e3e 6608 5ebd
00000140: 1ec4 933c 65f5 293d 1a75 963e 609d adbe
00000150: 11f6 3fbe 3b6c 24be 2fff 803c 4b29 23be
00000160: d9a6 2abe 6d35 e43b 678c 36be 05c2 bf3e
00000170: 44e2 363e 839e 553d 9130 a33d 79e8 6e3d
00000180: a26b 393e 5a6d 2e3e 07c9 7d3d 4527 143e
00000190: 12ac 54bd 0ebf 7fbe 2156 013e 0da4 d33d
000001a0: 8f80 6dbe 8978 a8be 56f6 8dbe eb77 0b3e
000001b0: fb67 af3d bea2 673d 1134 273e 30b3 b1bc
000001c0: 9fef 433e 7177 35bc f8d9 973d 3957 babd
000001d0: 898e 0dbe f183 d0bd 56a2 2e3e 70eb 8a3e
000001e0: fb9c 8a3d 69da 073e 0186 8bbe def2 bfbd
000001f0: 6e9a 0cbe d511 54bd f135 15be 187b aebd
00000200: b5d6 09bb c66a 2b3d fb81 f2bb c009 2d3c
00000210: fddb 0cbd c91a e9bc 480b 1bbe 197f c63c
00000220: eda1 93bd fc16 00bd 479a 673d 1b06 5d3e
00000230: 3148 223d 8c26 97bd 7426 a5be 4d95 463d
00000240: bbb7 053e a112 af3d 2533 1b3e f734 8fbd
00000250: c5dd 853e 838f b33d abac 1a3d 758c 8abc
00000260: 98b4 2bbb 17bb eb3c 67a9 67be daab 0ebd
00000270: 8f60 f9bd 76bd ba3e 85aa 0c3e 7459 9cbd
00000280: dc9b 9ebd e961 7e3e ba34 523d 18a6 f1bc
00000290: 92e8 983d 9304 5e3d d39f b23e 8262 e2bd
000002a0: 22f8 873e c967 14bd f335 1c3d 89f9 633e
000002b0: 071c 953c ee6a 903d fe4d aa3e 03bb a5bc
000002c0: 3a11 98be a18b 623d 59b0 ee3c af3c 6a3e
000002d0: 6216 bf3d f96e 19bd 377c 9dbd e86f 043d
000002e0: 4cfc 1b3d c665 203e 22b8 8c3c e97a 9dbd
000002f0: a3d2 25be 2f19 893e a1bf 07be 553d c0bd
00000300: c87a 313e 8145 8ebc 708e 643e 9bca 5fbd
00000310: 4f9b b23d 0e52 093e 8d37 8fbe 91cf 863e
00000320: 42f2 09be 3771 b1bc 905a 2f3d 3c76 f53d
00000330: 0982 a23d 2e57 f83d d06a 593c 69e1 563e
00000340: 15f2 27bb b13e 9c3c 2d5b c3bd a0a4 38be
00000350: e54d e43d 5ac3 68be b234 c63e 673e a63c
00000360: c4c3 32be cdfe 6fbd 8da2 a3bc 818c e93d
00000370: 9762 f03c 7ace 90bd a915 24bc fdad 913a
00000380: 547c 003e c03b 733e 569a abbd 23e8 5e3d
00000390: 10ac 0d3e b6b4 f93c 3c7c 01bd e00b 2e3d
000003a0: ab0f e2bd 7dd7 22bd 6e56 08bd 3476 573d
000003b0: aaba 7fbd cf28 1e3e d0c5 c5bc ce7e d33e
000003c0: 2bd9 4f3d 0358 eabd c6d4 583d b0b1 28be
000003d0: 95c1 09bb fc84 79bd 3547 0a3e 49bf b83d
000003e0: a392 1c3b 31a5 90bd 2326 473e fa5f 5cbd
000003f0: d316 783e 965b f53c 5a11 64be 7f80 883e
-0.15806544 0.060631696 0.14415449 0.010379611 0.06788406 0.043358892 0.056169864 -0.06561855
0.08277618 -0.15103774 -0.04049566 -0.11548262 -0.02448985 0.1698141 0.04923906 0.010392756
-0.27871147 -0.027446754 0.2296298 -0.082127 -0.12535188 0.056434955 -0.0883972 0.4158135
0.17953396 -0.15239818 -0.013285345 -0.10723575 0.32597396 -0.14707269 0.22812536 -0.2609959
-0.046223674 -0.028156519 0.072959684 0.004538585 0.101748616 -0.24943823 -0.059306804 -0.07555932
0.099576935 -0.0954093 0.26536396 0.042737246 0.271977 0.107537836 0.0044944966 -0.12191155
-0.052779783 -0.039825045 -0.033941746 0.2016397 -0.123468764 -0.13546677 0.47550273 -0.09600994
0.17614144 0.26278394 0.025265636 -0.01472521 0.015718343 0.0063421265 0.15009022 -0.056101166
0.014005168 0.1495845 -0.17858382 -0.013974575 0.24251014 0.008146617 0.17729348 -0.15111545
-0.127305 0.14159536 -0.22317608 0.11423943 -0.3281141 -0.09919412 0.15465747 -0.054207228
0.018037852 0.041493792 0.29386216 -0.3390913 -0.1874621 -0.16056912 0.015746681 -0.15933721
-0.1666521 0.0069643767 -0.17826997 0.37452713 0.17859751 0.05215312 0.07968248 0.058327172
0.18107465 0.17033902 0.061959293 0.14468105 -0.05192191 -0.24975225 0.12630512 0.103340246
-0.23193572 -0.3290446 -0.27727002 0.13619964 0.085647546 0.056551687 0.16328456 -0.021691889
0.19134377 -0.01107584 0.07414621 -0.09098668 -0.13823904 -0.10181416 0.17054114 0.2713275
0.06768223 0.1326691 -0.27250674 -0.09372495 -0.13730785 -0.05177482 -0.14571358 -0.08519572
-0.0021032516 0.041849874 -0.007400749 0.010561407 -0.034389485 -0.028455155 -0.15141022 0.024230527
-0.07208619 -0.03127192 0.056543615 0.2158436 0.03961963 -0.07380399 -0.322559 0.048482228
0.13058369 0.08548475 0.15156229 -0.06992524 0.2614576 0.08767607 0.037762325 -0.016912678
-0.0026200172 0.028775735 -0.22623216 -0.03483186 -0.1217662 0.36472672 0.13736923 -0.07634249
-0.077445716 0.24842037 0.051319815 -0.029498145 0.07466234 0.05420358 0.3488756 -0.11053945
0.26556498 -0.03623179 0.038137387 0.22263159 0.018201841 0.07051645 0.33262628 -0.020230776
-0.29700643 0.05530894 0.029136823 0.22874711 0.09330441 -0.037459347 -0.07689708 0.032333285
0.038082406 0.15663823 0.017177645 -0.07689459 -0.16193633 0.26777026 -0.13256694 -0.09386698
0.17331994 -0.017367126 0.2231996 -0.05463658 0.08721029 0.13410208 -0.2797207 0.26330236
-0.1347132 -0.02166043 0.042810977 0.11985442 0.079349585 0.12126003 0.013270095 0.20984425
-0.002562647 0.019072862 -0.09538875 -0.1803155 0.1114767 -0.2273077 0.38712078 0.020293428
-0.17457491 -0.058592606 -0.019974971 0.11403752 0.029343886 -0.07070632 -0.01001493 0.0011114475
0.12547427 0.23753262 -0.083790466 0.0544206 0.13835168 0.030481678 -0.03161262 0.042491794
-0.11038145 -0.039756287 -0.03328555 0.05260296 -0.062433876 0.15445255 -0.024142176 0.41307682
0.050744217 -0.11442568 0.05293729 -0.16474032 -0.0021019925 -0.06091784 0.13503726 0.0902086
0.0023891113 -0.07062758 0.19448142 -0.053802468 0.24227457 0.029950898 -0.22272244 0.26660535

network_body._body_endoder.seq_layers.0.bias f4 [128]
00000000: b1e8 7e3c 896c 85bc 28e1 573c c685 723c
00000010: a544 683c 940c 40bc ffb5 5d3b 2ed7 5e3c
00000020: 8c4c 143c 5227 783c 240b 853c aeac 6d3c
00000030: c56c 1f3c ede3 673c f667 6ebc 2e9a 76bc
00000040: a62d 6cbc e2d9 69bc 2258 73bc cc20 5abc
00000050: 0496 573c ac0a 723c 76db 843b 8532 193a
00000060: 0584 1abc 39ba 6c3c fe0a 623c 29ab 3fbc
00000070: e7ad 513c cff7 47bc fe85 773c 5b81 d6bb
00000080: 1462 3a3c 5a1a 7dbc 2602 883c f01d 75ba
00000090: f016 243c d371 753c 4e7a 1a3b 60af c9ba
000000a0: 39b5 5b3c 6e69 2b3c b929 2a3c 82df 043c
000000b0: 57b2 71bc 2b8d 743c 32e1 833c cdb2 29bc
000000c0: 4728 fd3b ae16 843c 53d1 edbb 5920 733c
000000d0: fb83 603c 80e5 f63b 572f 0d3c 103e 7bbc
000000e0: dd03 45bc 3f67 723c f0ae 57bc 97d4 643c
000000f0: ecdb 2f3b 66f0 30bc a32d 5fbc fe35 823c
00000100: d3d1 1ebc 01fd 1cbc b90c 71bc 8f1c 8d3c
00000110: e25f 363b b425 52bc 68b3 2f3c 50fe 793b
00000120: 60dd 9bbb bcc7 58bc b0c0 52bc 5461 713c
00000130: 6a5a 333c 32e0 563c 699d 13bc ad9b 4a3c
00000140: 8f4a 7a3c f78a 483c 67c1 643c c644 703c
00000150: 705f 74bc 17a5 5abc 9b69 4abb d8d6 7b3c
00000160: 1c41 713c f097 c73b 7007 5cbc 4c40 6e3c
00000170: 5741 14bc 8135 e03b 5de6 c9bb 3a7c 37bc
00000180: bcae 5b3c 4af9 b73b fc36 413c dd46 4ebc
00000190: 83b5 66bc 31b9 4dbc c34e 863c 312e 603c
000001a0: 1fa2 fc3a 07f4 7b3c c32c 79bc 523c 8fbb
000001b0: c21f 503c 2fca 2abc 7d63 0dba f37f 72bb
000001c0: f845 4b3c 3e10 983b a3eb 11bc 4893 41bc
000001d0: ba6b 6f3c d6aa 5dbc 0497 703c a015 713c
000001e0: a5d5 a53a 42ba 5ebc b393 4fbc 2c12 233c
000001f0: b43a 55bb 8b2a 863c 22b1 55bc 02c3 7f3c
0.015558408 -0.016287105 0.01317624 0.014802402 0.014176522 -0.011721749 0.0033830402 0.0136011075
0.009051453 0.015146093 0.016240664 0.014506502 0.0097305225 0.014153463 -0.014551153 -0.015051408
-0.01441518 -0.014273139 -0.0148525555 -0.013313483 0.013158325 0.014773052 0.004054482 0.0005844015
-0.00943089 0.014448696 0.013796566 -0.011698523 0.012797809 -0.012205078 0.01510763 -0.006546182
0.011375923 -0.015448177 0.016602587 -0.00093504693 0.010015234 0.014980751 0.0023571434 -0.0015387349
0.013409906 0.010462148 0.010385924 0.008109929 -0.014751992 0.014926235 0.016098592 -0.010357571
0.0077257487 0.016124096 -0.0072576194 0.014839255 0.013703342 0.0075346828 0.008617244 -0.015334621
-0.012024847 0.014795124 -0.013164267 0.013966701 0.0026833965 -0.010799503 -0.0136217205 0.015894886
-0.009693581 -0.009581805 -0.014712506 0.017225532 0.0027828147 -0.012826372 0.010723926 0.0038145967
-0.0047566146 -0.013231214 -0.012863323 0.0147326775 0.010946849 0.013114976 -0.0090096975 0.012366218
0.015276565 0.012240163 0.013962126 0.014664834 -0.014915332 -0.013345025 -0.00308857 0.015371047
0.014724996 0.0060911104 -0.013429508 0.014541697 -0.009048781 0.0068423157 -0.0061614946 -0.0111990515
0.013408359 0.0056144344 0.011792894 -0.012590137 -0.014081362 -0.01255636 0.016394978 0.013682888
0.001927439 0.015378005 -0.015208426 -0.0043712044 0.012702884 -0.010424181 -0.0005393548 -0.0037002533
0.012406819 0.004640608 -0.008906278 -0.0118149 0.014613086 -0.0135295 0.014684442 0.014714628
0.0012652172 -0.013594212 -0.012669492 0.009953063 -0.003253621 0.016377708 -0.01304272 0.015610458

network_body._body_endoder.seq_layers.2.weight f4 [128, 128]
00000000: 8171 29be 1414 eabd 4d4e 13bd db42 98bd
00000010: 8ca4 c0bd a596 52be ca22 63be 8521 383d
00000020: 3e86 313e d673 8ebd bb8b 4e3d 7fb0 02bd
00000030: 1d78 9bbd 1aff 21bd d615 db3c e35b b9bc
00000040: 9b83 353e 505f 573d 9561 35bd 4f90 a9bd
00000050: cebc d1bd 7161 74bd 4829 f13d 4211 8cbd
00000060: f103 5eba b166 cfbb 3bcf 15bd 3d61 0d3e
00000070: 42d5 42be b37a c63d a2a8 f03c c0f2 473c
00000080: 9c5a 1cbd f53c 82bc 57a5 ff3d 4f86 a73d
00000090: 089e 3bbe 2bf4 d1bd 2fef 8fbc 6e74 dbbc
000000a0: bf00 313c 469d 8ebd 0ad4 aebd 6c93 d83d
000000b0: baf1 b9bd 33b3 0b3e 48cd 863d 7f99 95bd
000000c0: 622d 6f3d 205b 9f3d 0f9c 91bc 6af1 b3bd
000000d0: ecf4 5bbb 507a 1cbe 1163 1f3e 021f 2ebe
000000e0: 7ae2 d13d 43ba c63d c3c6 633d f66c 393d
000000f0: 4b1a de3c 2f55 8abc ef27 febd bbe1 d23c
00000100: 352a 80bd a3ba 6e3d 706b 963d 3070 bb3b
00000110: b2bf 98bc 009e 9f3d 0f9a dabd 02ac 743c
00000120: da38 cd3c 174d c7bd 58f1 083e 3526 8c3d
00000130: a2d8 503c 84ca cbbc 3d60 2a3e 33dd 4e3e
00000140: 72a5 70bd 72ff 21be 26cf 35be 907b 8dbd
00000150: d11d 453d d4ef 5bbc 4a9c 8c3d 91ce 5c3e
00000160: ad8e 00be 3df4 02bc d5d9 093d e749 d0bc
00000170: fdbd eb3d 80a3 343d 9a26 52bd 2574 de3d
00000180: 6b4c b3bb 16eb ef3d ee41 be3b ecd1 b53d
00000190: 250d 713c bb5f 25bd 2a8f 86bc 024c 0c3e
000001a0: 5679 94bc 0abd 09bd e4f3 55bd f4e4 453e
000001b0: 469e 24bc d114 31bd fae6 3d3d ff11 7d3c
000001c0: 1d64 9a3d 7fd7 d23d e1ab 04bc 676c 1f3e
000001d0: 387c fb3d d2b4 25bd f6cd 983d ddf5 09bd
000001e0: feb6 323c c936 2c3c a0fc 92bc a1d8 02bd
000001f0: 1aa5 c63d d46f 6bbd 1aa4 92bd 2c66 9dbd
00000200: ed70 f1bc 6eff ac3d 6ead 183e 6489 fa3c
00000210: c28b 01bd cf49 89bd 18af 9b3c ed1c f0bd
00000220: ef1d eebd 2120 2cbd 8d8f 1c3d 4e1c a9bd
00000230: ce81 2c3b d10d 4dbd 7d47 7bbb 7f48 b2bd
00000240: 6973 c63d 9257 2b3e f671 173a 03e1 27be
00000250: 4da2 31be 1780 833d 089c 0a3c ee2b 343b
00000260: 2eef bfbc 8026 6cbd 8cb0 fe3d 86a2 fcbd
00000270: d10d 083d 4799 c7bd c2d2 863c 69b0 84bc
00000280: 2c96 62bd bac6 1fbc 28b5 0fbd 7ee5 28be
00000290: 1bd2 193d 1804 1f3d 1008 8fbd a114 843b
000002a0: fbb1 293d 7d3e 45bd ac74 053e 520f 393b
000002b0: fceb 1cbc e755 0bbd 3ed1 b5ba 7a5a 6f3d
000002c0: 1241 22be 5481 ebbd 7ddb 0ebd 9a04 523c
000002d0: 3d23 e73d 5e5f dabc bd6e ed3c ac42 8bbd
000002e0: cb04 cc3c 32fc 903d 7d78 af3d f782 243d
000002f0: 1e5b 773c d50c b43d b88c 593d af88 95bd
00000300: aed3 bfbc e765 bebd 1375 c2bd 98e3 3b3d
00000310: 401b 433e 685d 83bd e6ac 30be d9ae e93d
00000320: 2e89 783c c473 c63c 4c6f b03c c08a ab3d
00000330: a417 a13d 20c1 c93c 0e3b 733a b974 8f3c
00000340: 70aa bc3d a4bd 0c3e 716e 09bd 1755 9f3d
00000350: 4045 84bd 77a9 bcbc 3432 23be e389 b43d
00000360: dd1c c03c c2ce bbbc f6dc 233e c24a c83d
00000370: 2e21 0fbd ccf1 41bd 1977 ebbd 2173 be3c
00000380: 668f f5bc 9145 c6bd 8e8e 933d 7b13 11be
00000390: 21b8 22be 4273 8e3c 1681 a4bc 4130 f2bd
000003a0: 7dd7 ef3d 2fa3 db3d b70a 5d3d 1e89 2fbe
000003b0: 3ec8 09bc aada b0bd 2fc4 9e3d 545f 003d
000003c0: a1e3 a43c 6706 da3d 3faa c0bc 32a2 0dbc
000003d0: de11 6bbd 1a25 9a3d 19e9 ae3d b014 bbbb
000003e0: 459a f4bd 2507 033d 84b5 d0bd 3562 4d3d
000003f0: 0863 b6bc 8786 203e 8b5b d3bd f6a5 9f3c
-0.16547205 -0.11429611 -0.035963345 -0.07434627 -0.09406385 -0.20565279 -0.2218124 0.04495384
0.17336366 -0.06955688 0.050426226 -0.0319066 -0.07591269 -0.039549924 0.02674381 -0.022626823
0.17725985 0.05258113 -0.044282515 -0.08279478 -0.1024109 -0.05966324 0.11775452 -0.06839229
-0.0008469215 -0.0063293804 -0.036574584 0.13806625 -0.19026664 0.09691372 0.029377285 0.012203872
-0.03817235 -0.015898207 0.12482708 0.08179914 -0.18322003 -0.102516495 -0.017570106 -0.026788916
0.010803401 -0.06963591 -0.08536537 0.105749935 -0.09079309 0.13642578 0.06582123 -0.07304668
0.05839289 0.077810526 -0.01777461 -0.087862805 -0.0033562733 -0.15281034 0.15565135 -0.17004016
0.10248275 0.09703495 0.055609476 0.04526993 0.027112147 -0.016886322 -0.124099605 0.025742402
-0.0625805 0.05828346 0.07344711 0.005720161 -0.018646095 0.07793808 -0.106739156 0.014933588
0.025051523 -0.097315006 0.13373315 0.06843225 0.012746962 -0.02487684 0.16638274 0.20201568
-0.05875153 -0.15820101 -0.17754802 -0.06908333 0.04812414 -0.013423879 0.06865747 0.21563174
-0.12554426 -0.007992801 0.033655006 -0.025425864 0.11510847 0.04410124 -0.051306345 0.108619966
-0.005471756 0.11714761 0.0058061993 0.0887793 0.014712607 -0.0403745 -0.016425688 0.1370087
-0.018124264 -0.033627547 -0.052234545 0.1932562 -0.010047501 -0.043232743 0.046362855 0.015446185
0.07538626 0.10295009 -0.00809762 0.15568696 0.12279552 -0.040455647 0.07461159 -0.03368174
0.010907887 0.010511109 -0.017942727 -0.031944875 0.096994594 -0.057479694 -0.07160206 -0.07685503
-0.029472793 0.08447157 0.14909908 0.030583091 -0.031627424 -0.06703531 0.01900439 -0.11724267
-0.11626803 -0.042022828 0.03822284 -0.08257352 0.0026322487 -0.050062004 -0.003834217 -0.08705234
0.096899815 0.16732624 0.00057771744 -0.16394429 -0.17347069 0.064209156 0.008460052 0.0027492004
-0.02342948 -0.057653904 0.124360174 -0.123356864 0.0332163 -0.09746032 0.016457919 -0.0161974
-0.055318996 -0.00975197 -0.035084873 -0.16493794 0.037553888 0.038822263 -0.0698396 0.0040307795
0.0414295 -0.048155297 0.13032788 0.0028237891 -0.009577747 -0.03401747 -0.0013871563 0.058435895
-0.15845135 -0.11499277 -0.03487729 0.01281848 0.11286018 -0.026656803 0.028983468 -0.06799826
0.02490463 0.070793524 0.08567903 0.04016396 0.015097408 0.0879151 0.053112715 -0.07301461
-0.023416366 -0.0929678 -0.094949864 0.045871347 0.19053364 -0.064143 -0.17253456 0.11410303
0.015169425 0.024225123 0.021537445 0.08376074 0.07865837 0.024628222 0.0009278514 0.017511712
0.09212196 0.13744217 -0.03355259 0.077799015 -0.06458521 -0.023030026 -0.1593712 0.08815362
0.023451263 -0.022925738 0.16002259 0.09779884 -0.034943752 -0.047349736 -0.114973255 0.023248257
-0.029975604 -0.096812375 0.072049245 -0.14167587 -0.15890552 0.017388944 -0.020081084 -0.1182561
0.11711023 0.10724484 0.053965297 -0.1714215 -0.008409558 -0.08635457 0.07752263 0.031340912
0.020128073 0.106457524 -0.02351868 -0.008644627 -0.057390086 0.07526608 0.085405536 -0.0057092533
-0.11943487 0.031989235 -0.10190871 0.050142486 -0.022264019 0.15676318 -0.10320195 0.019488316

network_body._body_endoder.seq_layers.2.bias f4 [128]
00000000: 0e78 69bc e167 2f3c 4aab 28bc 99d0 683c
00000010: 7763 6f3c 6645 53bc 98c9 49bc f794 69bc
00000020: 824d 63bc c244 ccbb cea3 4fbc da22 4ebc
00000030: fdab 693c f947 673c 043e 60bc 56b1 5abc
00000040: 98da 6fbb de27 62bc 7fbb 47bc cee0 47bc
00000050: 9a20 793c c405 45bc 2f4d 603c e756 62bc
00000060: 3d1d 4a3c 8c86 68bc e3c2 753c 8234 e33b
00000070: bf0a 733c dad4 73bc bb50 61bc 74fc 753c
00000080: 94b4 5fbc e8a4 103c a7cd 7d3c f2f9 f6bb
00000090: cabf 763c 8c82 4dbc c814 9a3b 2f03 fdbb
000000a0: 1b3c 5e3c 2e4a 503c 80b3 4ebc c1d5 723c
000000b0: d26a 653c 1a4a 603c 914d 43bc f135 703c
000000c0: 230d 683c 1f21 5abc 7490 5fbc ba17 57bc
000000d0: ae41 65bc 0ba6 f8bb 2be5 383c c8a7 633c
000000e0: 16cb 783c e026 41bc d213 4d3c 0750 683c
000000f0: 7f3c e0ba ef9e 49bc 4062 6dbc 78e6 53bc
00000100: 5bc7 683c 7e3f 263c fb18 61bc 87b2 4b3b
00000110: 75eb 1ebc 0d18 67bc 0588 6f3c 6b3f 3b3c
00000120: 474a 7e3c 775b 56bc 8b0a 733c e243 2cbc
00000130: dea0 693c 06ed 6a3c 2b70 5ebc 97a9 26bc
00000140: acea 713a 7a9d 1dba ce41 2abc efc3 4a3c
00000150: 6f22 6b3c b811 5a3c fc40 61bc 7f4d 54bc
00000160: 2372 5cbc 1efa 433c 4cf3 6c3c 3f72 513c
00000170: 5cca f23b 2e44 2aba 218d 42bc a097 713c
00000180: 3c53 59bb 7ba1 693c 4e6a 743c 8497 753c
00000190: 0239 653b bf6a 5b3c bb9e 7ebb d3e1 44bc
000001a0: 4882 5bbc 3f2d 14ba 72e8 2c3c 531b 4ebc
000001b0: 3876 63bc 8c43 16bb 44a3 4dbc 776a 0ebc
000001c0: 8f14 14bc 97c6 3c3c e79a 603c 9f56 6e3c
000001d0: 6c74 203c 49df 4abc d345 6f3c da64 5dbc
000001e0: 0d2f 673c 62b1 673c b7dd 503c c5c4 263c
000001f0: 1c57 683c a55e 06bc 1f57 263c 0e4b 56bc
-0.014249815 0.010705919 -0.010294745 0.01420989 0.014611117 -0.012894964 -0.01231613 -0.014256707
-0.01387346 -0.0062337825 -0.012673331 -0.012581551 0.014262197 0.014116281 -0.013686661 -0.013347944
-0.0036598798 -0.01380345 -0.012190699 -0.012199594 0.015205527 -0.0120253 0.013690277 -0.013814664
0.0123360725 -0.014192235 0.015000078 0.0069337497 0.014834105 -0.014882291 -0.013752158 0.015013803
-0.013653893 0.008828379 0.015490926 -0.00753712 0.0150603745 -0.012543332 0.0047021843 -0.007721327
0.013564135 0.012712998 -0.012616038 0.014821471 0.014002519 0.013689542 -0.011920349 0.014661298
0.014163288 -0.013313561 -0.01364528 -0.013128215 -0.01399271 -0.0075881532 0.011285107 0.013894983
0.015185138 -0.011789054 0.012516933 0.014179236 -0.0017107873 -0.012305959 -0.014488757 -0.012933366
0.014207686 0.010146974 -0.013738866 0.0031081752 -0.009699692 -0.014104855 0.014619832 0.011428694
0.015520639 -0.01308333 0.014834057 -0.010514231 0.014259545 0.014338737 -0.013576548 -0.010172269
0.0009228389 -0.00060125405 -0.010391666 0.012375816 0.014351471 0.013309889 -0.013748404 -0.01295793
-0.013454947 0.011961488 0.014462303 0.012783586 0.007409377 -0.0006495145 -0.011874468 0.014745623
-0.0033161184 0.014259691 0.014917923 0.014989737 0.0034976606 0.0133921495 -0.0038851935 -0.012016731
-0.013397761 -0.0005652494 0.010553466 -0.012579757 -0.013883166 -0.0022928445 -0.012551133 -0.008692375
-0.009038105 0.011521957 0.013708807 0.014547019 0.009793382 -0.012382337 0.01460405 -0.013512814
0.014110339 0.014141412 0.012748173 0.010178749 0.014180925 -0.008201276 0.010152607 -0.013079418

action_model._discrete_distribution.branches.0.weight f4 [2, 128]
00000000: 667c 37bc c55f 263c dcfd c2bc d5fe a33c
00000010: cf4d 8f3c b55c 7dbc 47ce 06bc d36f a3bc
00000020: f071 82bc 2602 383b 4d49 84bc 2bef 4abc
00000030: 181a d33c 0de9 dc3c 5fc8 4abc 210a e1bc
00000040: e165 df3a 7524 6dbc 1a18 b7bc 6bd5 06bd
00000050: 0fbb 823c 3161 e2bc c07a 503c 1fa6 2ebc
00000060: f896 f13b 0b49 e2bb 9bb0 073c 0ee7 54bb
00000070: 2744 d83b aec4 e8bb 5842 8bbc d1ac 9a3b
00000080: 649f cabc 8ae9 3a3b f75e ac3c b4e2 06bc
00000090: 8ce0 103c 7bf5 5dbc f173 35bb 10ef 45bb
000000a0: a5ce 833a 1924 073c ae32 d3bc 4b58 a93c
000000b0: b67b 8a3c aaeb 383c 1ca8 93bc f41d 8e3c
000000c0: 3ee5 863c 9796 71bc 1266 b9ba 3958 98bc
000000d0: e2f3 f4bb 177f 8cbb 2b10 b83c 487c c53c
000000e0: 322d a13c c24b 48bc 22bb 0f3c 6a23 bd3b
000000f0: 6a0d 313b fd63 b9bc 0c07 50bc 6161 aebc
00000100: fb39 543c 3d8b 743c eb29 c2bc a09a 61bc
00000110: 82be b4bb 1eea 67bc b48f a53b 98da 203c
00000120: 2eec 533c ec9f 7e39 ac7d 693c ba13 b0bc
00000130: 8783 843c 3e1e 573b 6bbc 8cbc 514e a13b
00000140: 48c1 37bc e446 5cba ca20 6bbc 310e 423b
00000150: 1c85 f2bb 8363 bf3c 24eb 75bc f821 0abc
00000160: 0447 0abc 3ce0 123c 146b e03c 833a edb9
00000170: 2862 5a3c 53d6 aa3a 8c5c 9cbc 8e37 113c
00000180: a32c fbbb 8c67 ce3c d1f8 713c 4abf 6c3c
00000190: e303 e63b 6c08 243c 25c7 7b3c 570e f6bc
000001a0: 3b76 55bc 0305 f43b 6158 723b 8312 ccbc
000001b0: fb82 e7bc 37a7 06bc 9726 f8bb d4cc ca3b
000001c0: deb7 3abb f611 943c 85d6 af3c 65f4 793c
000001d0: e13b 4b3c b627 89bc 95ae d53c d150 1fbc
000001e0: fcdf e93c e41a e13c 4a42 d4bb 745a d23b
000001f0: f73a 9e3c 5798 4fbb 9301 9d3c 6ffc a7bc
00000200: bcf5 9d3b 9de9 80bc b70b 653c 3203 a2bb
00000210: b606 3ebc 7e40 dd3c 7368 813c 908c 3f3c
00000220: e033 453c b349 95bb 474c c53c 77c8 e73c
00000230: 7527 8bbc 52b5 5bbc 78aa 0f3c 850a b53b
00000240: 9074 213c 366d 573c c21a 833c 8302 d1ba
00000250: 70c5 56bc ef61 783c 4c7e cdbc 1fee b53c
00000260: da12 26bc 9105 d73c 9340 76bc c817 cabc
00000270: 1518 c8bc d02b c13b 62ff 4e3c 4321 b5bc
00000280: 38db e53b e0d6 9a3a d0c4 eebb cc93 a03b
00000290: 32c8 c0bc 007c 6e3c 4b2d 40ba c244 40bb
000002a0: 061d 95bc 959f 13bc 5921 8d3c 6c0b 89bc
000002b0: 30c3 c6bc fb0c 4cbc 20d8 423c a17f aabc
000002c0: 5426 9ebc ce64 8c3c ce1a 6e3c b4ed 9b3c
000002d0: 1de0 a83c c4e0 553b 4f03 0d3b 288b 9ebc
000002e0: 4819 e6bc 295a 683c 818c 42bc 30f9 92bc
000002f0: b842 16bc 9bb0 fd3c 78d1 8a3c 2715 4a3c
00000300: 8822 2cbc 69cc 0cbc fd2d 153c 8e47 1cbc
00000310: 0750 9cb9 0611 693c 4bd3 bebc e6e7 bfbb
00000320: 1b69 76bc b72a ac3c 9eaa b5bc 42c6 81bc
00000330: 296f 9abc c6d1 66bc 4f5d 8d3c 0765 2d3c
00000340: 1e01 963a b714 60bc 974f 8e3b 65de 2cbc
00000350: 3e96 c2bc aa27 10bc 7005 443c 80e5 ba3c
00000360: 02d6 c53c ff6a b1bb 8708 30bc 6ce3 d3bb
00000370: c604 3dbc 164d 8e3c 25f0 4f3b 8360 20bc
00000380: 96a6 b2bc b552 e6bc b033 a5bc e405 6cbc
00000390: daa4 4cbc 1638 0ebd a302 bc3b 2384 5c3c
000003a0: f842 883c 6359 c1bb d31d 3abb 9f50 f23c
000003b0: 1b61 013c ff9c cd3b 64f0 873c 0cef 9b3b
000003c0: c183 fd3a 14b4 813b df0b bdbc 0c94 f9bb
000003d0: 6af3 1cbc 42fa 9f3c 4f20 90bc a2d7 293c
000003e0: 60ef 39bc 13d3 0abc f61a f1bc 280f 8bbc
000003f0: 3d63 9bbc 5523 9e3c 58c5 fdbb 6c94 813c
-0.0111990925 0.010154669 -0.02380269 0.020018974 0.017493157 -0.015463998 -0.008227891 -0.019950783
-0.01592347 0.0028077452 -0.016148234 -0.012386124 0.025769278 0.026966596 -0.012376874 -0.02747065
0.0017043912 -0.014474024 -0.02235036 -0.032918375 0.015958337 -0.027634235 0.012724578 -0.010659724
0.007372733 -0.00690568 0.008281852 -0.0032486352 0.0065999213 -0.007103524 -0.016999409 0.0047203084
-0.024734206 0.0028520548 0.021041377 -0.008232761 0.008842599 -0.013547297 -0.0027687515 -0.0030202307
0.0010056092 0.008248352 -0.025781002 0.020671984 0.016904693 0.011286655 -0.018024497 0.017348267
0.016466733 -0.014745376 -0.0014144799 -0.018596755 -0.007475362 -0.004287611 0.022468647 0.024107113
0.019674871 -0.012225093 0.008772643 0.005772044 0.0027016052 -0.022630686 -0.012696993 -0.021286668
0.012953277 0.014925775 -0.023701629 -0.013769776 -0.0055158744 -0.014154939 0.005052531 0.009817742
0.012934728 0.00024282903 0.014251154 -0.021493781 0.016175998 0.0032824422 -0.017179688 0.004922666
-0.011215515 -0.00084028975 -0.014351079 0.002961051 -0.007401122 0.02336288 -0.015009675 -0.00843095
-0.008439783 0.008964594 0.027394809 -0.00045247757 0.013329066 0.0013033844 -0.019087099 0.008863343
-0.007665233 0.02519586 0.014768795 0.014449904 0.0070195063 0.010011774 0.015367304 -0.030036135
-0.013028677 0.0074468865 0.0036978947 -0.02491117 -0.028260699 -0.008218578 -0.0075729596 0.006188968
-0.002849094 0.01807497 0.021464596 0.015256022 0.012404413 -0.016742568 0.026084224 -0.009723858
0.028549187 0.027478643 -0.006477629 0.0064194743 0.019315226 -0.0031676495 0.01916579 -0.020506112
0.0048205536 -0.015736395 0.013979844 -0.0049442286 -0.01159828 0.027008291 0.015796876 0.011691228
0.012036294 -0.004555905 0.024084223 0.028293831 -0.016986588 -0.013409929 0.00876867 0.0055249357
0.009854451 0.0131485965 0.01600397 -0.0015946183 -0.013108596 0.015160068 -0.025084637 0.022208272
-0.0101363305 0.026247771 -0.015030044 -0.024669543 -0.024425546 0.0058951154 0.01263413 -0.022110587
0.0070146583 0.0011813305 -0.0072866455 0.0049004313 -0.02353296 0.014555931 -0.0007330968 -0.0029337858
-0.018202316 -0.009010215 0.017227815 -0.01672908 -0.024262995 -0.012454267 0.0118923485 -0.020812811
-0.019305386 0.017137911 0.014532758 0.019034244 0.020614678 0.0032635191 0.0021516865 -0.019353464
-0.028088227 0.014181652 -0.011874319 -0.017941087 -0.00917118 0.030968001 0.016945586 0.012334145
-0.01050628 -0.008593657 0.009105203 -0.009538544 -0.00029814264 0.01422525 -0.023294112 -0.005856502
-0.0150397075 0.021016462 -0.022176083 -0.015841607 -0.018851833 -0.0140881 0.017256407 0.010583169
0.0011444425 -0.013676814 0.004342984 -0.01055107 -0.023753282 -0.008798519 0.011964187 0.022814512
0.024149898 -0.0054143663 -0.010744221 -0.00646632 -0.011536783 0.017370742 0.003172883 -0.009788635
-0.02180795 -0.02811561 -0.020166248 -0.014405701 -0.012490476 -0.034721456 0.005737619 0.013459238
0.016633496 -0.0059005483 -0.0028399124 0.029579459 0.007896687 0.006274819 0.01659412 0.004758721
0.0019341634 0.0039582346 -0.02307695 -0.0076165255 -0.009579519 0.019528512 -0.017593531 0.010366352
-0.011348575 -0.008473176 -0.029431801 -0.016975 -0.018968219 0.019303957 -0.0077444725 0.015817843

action_model._discrete_distribution.branches.0.bias f4 [2]
00000000: c3fa 493c c5fa 49bc
0.012327853 -0.0123278545
