Assets/results/ppo/JumperAgent/JumperAgent-41371.pt (torch, 546980 bytes, 33 tensors)

network_body._body_endoder.seq_layers.0.weight f4 [128, 42]
000000 3a aa 9c 3c 00 74 f4 3d 5f 80 67 3c 22 b6 92 3d
       0.01912414 0.11936188 0.014129727 0.07163645
000010 4a fa 72 3d d7 d7 86 be 01 7c 82 bd 56 3c 03 3f
       0.059320726 -0.26336548 -0.06371308 0.5126394
000020 d8 0e 2e 3e 0b 1e 24 be 3f c6 53 bd 7a 3f 07 bc
       0.1699785 -0.16027085 -0.051702734 -0.00825488
000030 31 d1 e1 3c 11 d6 47 bd 9b db 9f be 70 2d e1 bd
       0.02756557 -0.048788134 -0.31222233 -0.10994995
000040 54 87 87 3e 07 59 f6 bd d9 eb be 3e 1e 39 e6 3c
       0.26470435 -0.12028699 0.37289312 0.028103407
000050 ae 2e 7c be 8c 0d 0c 3e ac 22 3d be e2 a1 88 3c
       -0.24627182 0.13677043 -0.18470258 0.016678754
000060 43 37 24 3e ae 16 bc 3d ce 46 db 3d 15 ec 88 3e
       0.16036706 0.09184013 0.10706864 0.26742616
000070 7e b1 0c 3d f9 6a 0b 3e fa b4 b5 bc 27 d2 ea bd
       0.034348957 0.13615026 -0.022181023 -0.11465865
000080 db cd 15 be 4d e3 bb 3e be 25 84 bb 53 5c 09 3e
       -0.14629309 0.36696854 -0.0040328195 0.13414125
000090 7a e9 b1 be 8b 9b 95 3e 07 55 bb 3b 28 9e 10 bf
       -0.3474844 0.29220232 0.005716923 -0.5649133
0000a0 ae 55 e5 3a 3d cf f1 bc bf dc 7f 3d 95 66 46 be
       0.0017496848 -0.029517764 0.06246638 -0.1937507
0000b0 a8 d3 e7 3c c3 c2 3a 3d 58 f8 b2 be 59 20 02 bd
       0.028299168 0.045595895 -0.34955096 -0.03176913
0000c0 8f 3c 25 3d 05 4b 20 3d 8e cf 9c bc 2d f7 dc bd
       0.040340956 0.039134044 -0.019141939 -0.107893325
0000d0 c2 6f 9d 3d 43 cb 2b be 09 10 ac bd 47 75 1c 3e
       0.07687332 -0.16776757 -0.08401496 0.15279113
0000e0 3d b4 31 be 6b b5 79 3e 51 72 2e bd 3c ba 1e 3e
       -0.17353912 0.24385612 -0.04258949 0.1550073
0000f0 da 94 19 be 44 76 d4 bb 72 b4 94 3e 02 c8 34 bd
       -0.14998189 -0.006483825 0.2904392 -0.044136055
000100 4e 2f ae bd 2e 85 2c 3e fc a1 a9 3d 58 be 57 be
       -0.085051164 0.16847679 0.08282849 -0.21068704
000110 65 d9 8f 3d 44 56 a0 3c ca 75 a0 3c 60 a4 11 bd
       0.070238866 0.019572385 0.019587416 -0.03555715
000120 4a d2 90 be 68 43 93 3d 8e 29 11 3e 7e 0f 51 3e
       -0.28285438 0.07190591 0.14176008 0.20416066
000130 73 72 29 be f4 6c 9f bd 75 64 b8 3c d2 b3 4b be
       -0.16547565 -0.07784453 0.02250884 -0.19892815
000140 fe 82 87 bc 8f df dd 3c b4 0e e3 3d 0c ac e4 3d
       -0.016541954 0.02708414 0.11086789 0.11165628
000150 88 5b 62 bd b1 c8 bc 3d 23 fb 58 3d 41 b0 15 3c
       -0.055263072 0.09217966 0.052973878 0.0091362605
000160 7b ac 35 3e 12 fd 1b 3e 3e 01 8e 3d 22 01 8e 3e
       0.17741577 0.15233257 0.06933831 0.2773524
000170 14 18 95 bd ef 14 05 be 98 88 3a bc 8b bd 5e 3d
       -0.07279983 -0.12996267 -0.011385106 0.05437998
000180 da ac 60 3e d1 bc 09 3e 02 45 ae 3d 07 8a 4e be
       0.21940938 0.13450934 0.08509256 -0.20169841
000190 61 f0 b6 3d 01 9d 78 bb f5 18 99 3e 9c 90 0f be
       0.089325674 -0.0037935378 0.29901853 -0.14020008
0001a0 d4 6c b4 bc f0 c1 ef 3a 97 4c 80 3c dd 69 0c 3e
       -0.02202455 0.0018292051 0.01566152 0.13712259
0001b0 6f 37 82 3d 03 c3 70 bd ec 33 c5 bc 71 3c 4b be
       0.06358229 -0.058779728 -0.02407261 -0.19847275
0001c0 4b cb 44 3e 88 f8 11 3c 43 1c 23 3e 44 de 66 bd
       0.19218175 0.008909352 0.1592875 -0.056364313
0001d0 8f 76 aa bc 7d 05 48 bd 88 26 eb bd 8a e7 8b 3d
       -0.020808486 -0.04883336 -0.11481959 0.06831272
0001e0 2f f0 d3 3c 04 42 84 bc 0b 96 17 3c 7e 38 10 be
       0.025871364 -0.01614476 0.009252082 -0.1408405
0001f0 5c 99 8d be 3d 53 9a 3d f2 c8 d1 3e f7 ad 49 3e
       -0.27656066 0.07535408 0.40973622 0.19695269
000200 06 ba 85 bc 52 2e 66 3e ad a1 fa 3b e7 9d 32 3e
       -0.016324054 0.22478607 0.007648668 0.17443047
000210 96 7e bc 3d 03 da 60 be 96 53 24 3d 71 43 51 3e
       0.09203832 -0.21958165 0.040118776 0.20435883
000220 5a 8a 8b 3d a6 54 08 be 5c fc 43 3d 7f 7f f3 bd
       0.06813498 -0.13313541 0.04784809 -0.11889552
000230 7c 83 a6 bd c4 ef 62 3d af 77 b5 bd 0a 8b 0e 3e
       -0.081305474 0.05540444 -0.088607185 0.13920227
000240 7e 51 37 bd 78 72 b1 3e 73 9b 8a 3d c9 71 04 3e
       -0.04475545 0.34657645 0.06767931 0.1293403
000250 2c 25 93 be 28 81 16 3e 0d 99 17 3b c8 75 af 3d
       -0.28739297 0.14697707 0.0023131997 0.08567387
000260 c6 64 6a 3e 65 46 ce bc a5 1f d7 3c 66 64 92 3d
       0.22890005 -0.025180051 0.026260206 0.07148056
000270 ba 3e 3c 3a 03 fd 1f 3e e7 5b 8b 3e b6 17 ef 3d
       0.0007180978 0.1562386 0.27218553 0.116744444
000280 44 86 11 bd 96 e7 44 be 93 62 32 3b c5 f6 06 be
       -0.035528436 -0.19228968 0.00272194 -0.13180073
000290 1c f9 1a bd 5d 18 a1 bd ab 43 af 3c ff 09 a7 be
       -0.037835225 -0.07865975 0.021394571 -0.32624814
0002a0 76 7c e1 bd 9a 1c 83 3d a5 c4 09 be 30 42 79 bc
       -0.11010067 0.0640194 -0.1345392 -0.015213534
0002b0 9a 63 1e bd 54 0d d2 bd c2 98 c0 3d 57 c7 1f 3e
       -0.038669206 -0.102564484 0.09404136 0.15603386
0002c0 a6 06 95 3e 38 13 81 bd 08 3f b1 3d 31 e0 3d be
       0.29106635 -0.06302494 0.086546004 -0.18542553
0002d0 c3 50 6b 3e b1 cd 12 bd 7c 8c 0c 3e bb ed c2 3d
       0.22980027 -0.035840694 0.13725466 0.09518
0002e0 72 2a 86 bd fc fe f8 bd 85 e9 84 3d 9a c7 c0 3d
       -0.065510646 -0.121580094 0.06489853 0.09413071
0002f0 0f d1 03 bf 8f 41 b9 bd 7d 43 50 3d 8a 21 66 3e
       -0.51490873 -0.090457074 0.05084561 0.22473732
000300 81 fe 90 3d b5 96 c8 3d 6a b9 28 3d 5d 15 06 bd
       0.07079793 0.0979437 0.04119245 -0.032735217
000310 d1 a2 fb 3d 96 de dc bc db c0 48 be 75 6d e1 3d
       0.12286914 -0.026961606 -0.19604819 0.110072054
000320 03 38 c6 3d 0d c3 26 bd 43 90 1b 3b 30 25 29 be
       0.09678652 -0.04071336 0.002373711 -0.16518092
000330 62 36 c4 3d 8c 98 e6 bd 7d 63 5e 3e 39 82 28 be
       0.09580685 -0.11259565 0.2171764 -0.16455926
000340 42 4b dc bd f4 b2 f8 3d 87 42 44 3e 55 29 8e bc
       -0.10756542 0.121435076 0.19166003 -0.017353693
000350 91 74 91 be ae e2 1b 3e be 32 af 3d 43 7d 10 be
       -0.28409246 0.1522319 0.085546 -0.14110284
000360 75 46 c3 bd e7 6c 1c 3e 5d f2 2e bd 5e 97 86 3b
       -0.09534923 0.15275918 -0.042711604 0.0041074
000370 48 d9 16 3e 3c db 0c 3e a5 86 47 bd cc dd 9c bd
       0.14731324 0.13755506 -0.04871239 -0.07659492
000380 63 78 5c 3e 60 28 ee 3d 2a ce e3 3d 4b 4f 10 bc
       0.21530299 0.11628795 0.11123307 -0.008807967
000390 d9 1e c3 be 89 a4 a2 3e 45 73 0f 3d 3f d1 40 3e
       -0.38109472 0.31766155 0.03502204 0.18829821
0003a0 37 4e 1f 3d 30 df c7 be 41 28 77 3e 82 da 18 be
       0.03889295 -0.39037466 0.2413645 -0.14927104
0003b0 b1 21 79 be a9 fb 89 bd 26 0c 31 bd 7a a3 cb bb
       -0.24329259 -0.067374535 -0.043224476 -0.0062145563
0003c0 5e 89 6e bb c3 24 47 3e 5f cf ec 3d b9 79 2f 3e
       -0.0036397795 0.19447617 0.115629904 0.17136277
0003d0 eb fb ce 3c d1 1a a7 bc b5 d9 8f bb 9c e2 78 be
       0.025266608 -0.02039853 -0.0043899664 -0.24305195
0003e0 fe 4e b9 3c ee 8a 0b be d8 fa f5 3d 5b 37 d7 bb
       0.022620674 -0.13627216 0.12010735 -0.006567878
0003f0 83 7b a6 bd 8b 2f 22 be bc da b6 3c 0e 62 d6 bc
       -0.08129027 -0.15838449 0.022321098 -0.026169803

network_body._body_endoder.seq_layers.0.bias f4 [128]
000000 0e 7c e5 39 f9 f1 0a bb ae 51 0e ba 50 b1 db 3b
       0.00043770712 -0.0021201356 -0.00054290413 0.006704487
000010 b1 bd fe 3b c7 3f 9d bb bb e4 e8 3b b1 7f 58 bc
       0.007774078 -0.0047988626 0.007107345 -0.013214038
000020 7f da 0e 3c c9 7a 15 bc 14 95 d3 bb 3b 44 04 bc
       0.008719086 -0.009123513 -0.0064569805 -0.008072908
000030 44 eb 07 3c 2a eb 3c ba 46 80 fa 3b f4 fc 30 bb
       0.008295838 -0.0007206673 0.007644686 -0.002700624
000040 0e a8 dd 3b 6e 05 70 3b 23 89 02 bc 91 23 23 3c
       0.0067644184 0.003662433 -0.007967266 0.00995721
000050 a7 f9 91 bb 0b d1 f8 3b 95 74 ae ba bd 7f 9d 3b
       -0.0044548097 0.0075932792 -0.0013309891 0.0048064874
000060 e3 0d 56 3c 09 3d 3c 3b 49 44 66 3b e6 78 27 39
       0.013064834 0.0028722903 0.0035135916 0.00015971399
000070 6d 1d 33 bc 28 27 21 bc ec ad c0 3b 4e 08 96 3b
       -0.010932309 -0.009835996 0.005880108 0.0045786267
000080 85 40 e1 3b 42 a7 1d 3c 46 91 25 bc d7 1c fa bb
       0.0068741464 0.009622397 -0.010105437 -0.0076328325
000090 d3 a4 fa 3b 16 92 b3 3b 96 08 03 3c 17 77 93 3b
       0.007649043 0.0054800613 0.0079976525 0.0045002806
0000a0 62 68 07 bb 3d eb c4 3b 6d 09 c7 3b 40 56 18 3c
       -0.0020661582 0.006009488 0.0060741217 0.009297907
0000b0 f1 96 fd 3b d4 be 47 3c 8e b6 3a 3c 30 99 db bb
       0.007738941 0.012191493 0.0113960635 -0.006701611
0000c0 61 98 40 39 87 56 a0 bb 10 f2 9b 3b 38 01 20 3b
       0.00018367312 -0.0048931274 0.0047590807 0.002441479
0000d0 db ef fa bb a8 2a 9a 3b 07 35 b5 bb 22 6f 11 3c
       -0.0076579875 0.004704792 -0.005530003 0.008876594
0000e0 ac 01 8c 39 8a b2 04 3c 18 48 e7 3b 2b a9 89 bb
       0.00026704127 0.008099208 0.007058155 -0.0042010746
0000f0 60 75 e2 3b a2 2f 43 3b 80 16 e3 bb b4 f9 b9 bb
       0.006910965 0.002978303 -0.0069301724 -0.005675519
000100 f5 85 a7 bb 9e e9 74 3b 88 d9 d0 3b 05 f6 f2 3b
       -0.0051124045 0.0037370692 0.006373588 0.0074145817
000110 ae b5 93 bb 6e ef 90 3b c0 54 12 bc 72 85 e7 3b
       -0.004507742 0.0044230735 -0.008931339 0.0070654685
000120 9a 6e 0f 3c d8 7f 06 3c 0c 6a b1 bb 97 a2 14 3c
       0.008754397 0.008209191 -0.005414253 0.009071968
000130 48 17 b7 3b 9a 09 a9 bb 27 e3 5a 3c ad d4 25 bc
       0.005587492 -0.0051586153 0.013359821 -0.010121507
000140 fd 87 cf b9 d9 da a9 b8 9d 0f a9 bb 37 5e 28 bc
       -0.00039583436 -8.0993115e-05 -0.005159332 -0.010276369
000150 2e 1c 0e bc 85 53 0c bb 27 2c 07 bc 60 41 6a bb
       -0.008673711 -0.0021412086 -0.008250273 -0.0035744533
000160 fc 94 c9 3b f3 01 1f bc ad b7 b0 3b 55 21 a3 3a
       0.0061517935 -0.009705055 0.0053929896 0.0012445847
000170 95 be 1c bc 88 1c 17 3c 81 a9 75 3b 54 ba 65 3b
       -0.009566923 0.009223111 0.0037485065 0.0035053687
000180 0a 72 e0 3b cf 50 0b bc 9b 34 c6 3b f8 9c 38 3c
       0.006849532 -0.008503153 0.0060487515 0.011267893
000190 4e ea a2 3b 98 47 2b bc f7 4d ea bb 35 20 89 3b
       0.004971779 -0.010454081 -0.0071504074 0.0041847476
0001a0 94 a2 31 bb ee 77 fb 3b f3 b9 08 3c b0 33 d3 3b
       -0.002710496 0.007674209 0.008345115 0.0064453706
0001b0 f3 d9 31 bb d3 5c a1 bb 0a ac a6 3b f1 cd e7 3b
       -0.0027137964 -0.0049243956 0.0050864266 0.0070741107
0001c0 0d a9 af 3b 96 60 55 3b e6 33 b3 bb 89 4a 17 bc
       0.0053607286 0.003255879 -0.0054688333 -0.009234079
0001d0 dc 5f 77 bb 7a 70 02 3c 65 5d 10 bb c8 66 bf bb
       -0.0037746346 0.007961387 -0.0022028324 -0.00584111
0001e0 9e bf d8 ba a5 04 9a 3b 82 b9 88 3a 35 db f5 3b
       -0.0016536599 0.0047002607 0.0010431262 0.007502938
0001f0 dc 49 f2 ba 3c 3f 0f bc 25 c5 f4 3b 92 dd 66 bb
       -0.0018485147 -0.008743104 0.0074697905 -0.003522728

network_body._body_endoder.seq_layers.2.weight f4 [128, 128]
000000 6d 2a f7 bc 95 36 9b bd ee e7 cd bd 46 d2 8f 3d
       -0.030171597 -0.0757877 -0.10054003 0.07022528
000010 c4 20 6e 3d a2 99 cf bd aa 17 fe 3d 14 fd db 3c
       0.058136716 -0.10136725 0.12406857 0.026854075
000020 01 49 75 bc d8 81 eb bd a8 e8 c5 3c 2c f0 a7 bc
       -0.014971019 -0.11499375 0.02415879 -0.020500265
000030 cd 3e cd bd 22 ad 3e 3d 4b f8 8a bc e8 ea b7 3d
       -0.10021744 0.04655183 -0.016964098 0.08980352
000040 62 44 fd bd 10 a1 3c 3d 42 53 47 be 3a 96 5d 3e
       -0.123665586 0.04605204 -0.19465354 0.21639338
000050 6b 26 13 be cb e9 38 3e 57 c9 d8 bd 76 10 09 be
       -0.14370124 0.18057935 -0.105852775 -0.13385186
000060 2b c8 42 3d 4f 45 7c bd 6b 77 3f 3d e3 ba 3b 3d
       0.047554176 -0.061589535 0.046744745 0.045832526
000070 7a 5b 25 3e c1 94 2a 3c 22 66 c0 bd 68 e3 32 be
       0.16148177 0.010411442 -0.0939448 -0.17469561
000080 7e 7a 56 3d 3a ed 45 bc f6 f4 2d be 29 e8 9e bd
       0.05236291 -0.012080485 -0.16987976 -0.07759125
000090 a0 f1 e4 3c c3 4b 44 bc 03 a4 b7 3d 40 b4 cb 3d
       0.027947247 -0.011980954 0.0896683 0.09946489
0000a0 61 b1 57 3d ed 0d 69 bc 0f b8 22 bd 1a 4e 37 3c
       0.052659396 -0.014224512 -0.039726313 0.011188054
0000b0 f2 66 1c bd fe 92 27 bc 23 c5 cd bd d8 14 a7 3b
       -0.038184114 -0.010227917 -0.100473665 0.0050989203
0000c0 51 da 36 3d f7 f9 7f 3d 05 94 b7 3d 08 71 5a bc
       0.044641796 0.062494244 0.08963779 -0.013332613
0000d0 87 3e 07 be 98 9b 0a bd 6e c3 81 3d bc ef 0d bc
       -0.13207446 -0.033839792 0.063361034 -0.008663114
0000e0 b9 cd 10 3e f0 8a 3c 3e 69 32 c2 3d 75 25 81 bb
       0.14140977 0.18412375 0.09482271 -0.003941233
0000f0 01 53 e7 bc ec fc a0 3d 18 b4 8b bc 4c 5c 46 3d
       -0.028237822 0.07860741 -0.017053649 0.048427865
000100 ea 6c b0 bc 2c 43 ae bd e2 a7 be bd 5d 4c fb 3c
       -0.02153631 -0.08508906 -0.09309365 0.030676061
000110 ae c4 89 3d 66 c7 42 3d 7d 4d 36 3e 48 0c d2 3d
       0.06726967 0.047553442 0.17802997 0.10256249
000120 38 1c e8 bd 1f ca cf bd 80 07 06 be 01 77 e1 bc
       -0.11333507 -0.101459734 -0.13088799 -0.027522566
000130 08 e5 f3 bd f4 82 11 bd fb ac e0 3d 7e 56 cf bd
       -0.119089186 -0.035525277 0.109704934 -0.10123919
000140 df a6 3b 3e 45 4a 2b 3d a6 b5 87 3c 26 a0 86 3d
       0.18325375 0.041818876 0.016566109 0.06573515
000150 9b f1 b4 3c 0c 30 52 3d c9 72 34 3d d6 e3 2b 3c
       0.022087863 0.051315352 0.04405478 0.010491332
000160 c7 01 53 3c 14 09 b8 3c 28 c1 7e 3d 23 8f a4 3e
       0.012878842 0.022465266 0.062195927 0.32140455
000170 7c 8f 12 be 08 30 a6 bd 16 3d 15 3d 3e fe 3e 3d
       -0.14312547 -0.0811463 0.03643521 0.046629183
000180 da 0d 0f 3c 61 0a ca 3d cd 80 8f bd 37 e9 d0 3d
       0.00873133 0.09865261 -0.07006989 0.10200732
000190 79 65 bd bc 60 ce 0e be be df 53 bd cf 05 ac bc
       -0.023119675 -0.13945913 -0.05172705 -0.020998864
0001a0 75 ce a1 bc 4e 18 74 3d 2a bf 50 bd 44 2b 10 3e
       -0.019751767 0.05959349 -0.05096356 0.14079005
0001b0 d2 e4 a0 bd 34 1e 74 3d 53 bf 48 3e 5d be 06 3d
       -0.07856144 0.059599116 0.19604234 0.03289639
0001c0 f1 e9 da bd 8c d3 c0 3b 46 eb b5 bd 57 4d dc 3d
       -0.10689152 0.0058845934 -0.088827655 0.10756939
0001d0 47 cd 60 bc c4 29 ef 3d 4c ef 44 bd f0 ca 9b 3d
       -0.013720817 0.11677888 -0.048079774 0.07607067
0001e0 63 21 fe bd 4c 82 77 3e 54 15 82 bd ac 21 9a bd
       -0.12408712 0.24170798 -0.06351724 -0.07525954
0001f0 fc 73 65 bd 1f cd ed 3d 67 c0 b4 bc d2 9f 9c 3d
       -0.056018814 0.11611389 -0.0220644 0.07647671
000200 8c 77 99 bd bd 47 c2 3d 92 05 3a 3e eb cc 16 be
       -0.07493505 0.09486339 0.18166187 -0.14726608
000210 cf aa 22 be 6e de 0a bd fc 6f 4b be 6d fc 54 bd
       -0.15885471 -0.03390353 -0.19866937 -0.051998544
000220 03 53 93 bb 78 1c 96 bd 0b 48 40 bc 59 2b cc bd
       -0.0044959798 -0.07329649 -0.011735926 -0.099692054
000230 7c 9b 77 bd ce bf 38 be 72 c1 26 ba 8e 70 9c bd
       -0.060451016 -0.18041918 -0.0006361223 -0.076386556
000240 90 7b cf bd 5e 56 db 3c 73 ce c4 3d 2e f5 54 3d
       -0.101309896 0.026774582 0.096096896 0.051991634
000250 8a 65 8e bd fc 90 e1 3b 9c 2c 9d bd 69 e1 b9 bd
       -0.06952961 0.0068837386 -0.07674524 -0.09076197
000260 69 bf e1 3c bc 01 e0 bc 38 a2 7c 3d 0c a2 e3 bc
       0.027557092 -0.027344577 0.06167814 -0.02778723
000270 98 4c cd bb 30 27 f7 3d c2 9b bf bd 2b 0b 05 bd
       -0.006265234 0.12068021 -0.0935588 -0.032481354
000280 74 f1 a8 3d 41 f3 1e be f1 2d a0 bc 9e c0 c1 3d
       0.082491785 -0.15522482 -0.019553157 0.09460567
000290 10 54 1a be 49 46 b2 3d 92 ef 3d bd 30 30 2c 3d
       -0.1507113 0.08704812 -0.04637105 0.042038143
0002a0 86 55 89 3d fd d7 3c be 00 b7 6c bc b1 1c 89 bd
       0.067057654 -0.18441768 -0.0144479275 -0.066949256
0002b0 b1 f9 b2 bd 8d 57 83 bd e6 ed 0d be 83 b4 aa 3d
       -0.08739031 -0.06413183 -0.13860282 0.08335211
0002c0 44 46 d0 3d 87 b6 2e 3d ee b1 d3 bd ca 93 05 be
       0.10169652 0.04265454 -0.10336672 -0.13044658
0002d0 de b0 15 3e 7d 58 c2 bd f9 40 83 bc e8 ab 44 be
       0.1461825 -0.09489534 -0.016022192 -0.19206202
0002e0 90 e8 46 3d 68 d2 fa bd 41 d5 b7 bd 0c 1a 13 bd
       0.048561633 -0.12247163 -0.08976222 -0.035913512
0002f0 17 cb e6 ba 27 71 be 3d be d9 d7 3d 56 3b fa 3d
       -0.0017608133 0.09298926 0.10539578 0.12218349
000300 8c c7 90 39 40 c3 91 3c 8a cd e7 bd ee d3 7e 3d
       0.00027614494 0.017793298 -0.113185 0.06221383
000310 e2 34 d4 bd 40 89 dd bc 79 07 ae 3d 7c 48 b2 3c
       -0.10361649 -0.027042985 0.08497519 0.021763079
000320 79 5e 21 be 0a 82 aa 3b fa e6 23 bc 62 80 6e 3c
       -0.15758695 0.00520349 -0.0100038 0.014556976
000330 a2 ab a6 bd 32 42 26 3d e5 93 eb bc d6 46 f6 3c
       -0.08138205 0.040590473 -0.028757045 0.030063074
000340 e4 d9 18 bd a2 c0 1b be 0a 2a 93 3e 81 c8 37 3d
       -0.03731717 -0.15210202 0.2874301 0.04486895
000350 4a bb 0b bd 44 01 2c 3d dc e1 ed 3c 66 94 c7 bc
       -0.03411416 0.041993394 0.029038362 -0.024362754
000360 c2 1b 87 3d 44 fa cf 3d a5 a7 89 ba 1a 62 bb 3d
       0.06597091 0.10155156 -0.0010502232 0.09149571
000370 94 8f 7c 3e ff dd 38 3d d2 24 b2 bd 97 9d 05 3c
       0.24664146 0.045133587 -0.08698429 0.008155248
000380 95 8c 17 3e ac 78 cf bd 58 1a d3 bd 36 aa 24 3c
       0.14799722 -0.10130438 -0.10307759 0.010050347
000390 17 51 a9 bd a6 96 8f 3d fd b1 76 3d 47 fc 45 bd
       -0.0826742 0.07011156 0.060228337 -0.048336294
0003a0 26 48 2e bd e6 77 17 bd c3 ba 1d be 0e 9b ef 3d
       -0.042549275 -0.03697958 -0.15403275 0.11699496
0003b0 93 d5 74 bc 40 d0 78 bb 88 b5 20 3e 06 3e 2f 3d
       -0.014943498 -0.0037965924 0.15694249 0.04278376
0003c0 18 5b d6 3d 2a 4d 0a be 55 aa 2d 3d 97 fc d4 3c
       0.104665935 -0.13505998 0.04239877 0.02599935
0003d0 0e e1 2d 3d a9 12 db bd a6 40 93 3b 2a ba 98 3d
       0.042450957 -0.106969185 0.0044937907 0.07457383
0003e0 cc e7 ad 3d a7 47 74 bd 2e c2 9e 3d 50 a7 59 3d
       0.08491477 -0.059638645 0.077518806 0.053138077
0003f0 f6 03 cc bd 7d 89 61 bd dd 7d f7 bc 5c ed ba 3d
       -0.09961693 -0.05506276 -0.030211383 0.09127304

network_body._body_endoder.seq_layers.2.bias f4 [128]
000000 ac e9 e8 3b 68 b4 e8 bb 80 0b 0e 3c 1e 80 a4 bb
       0.007107934 -0.007101584 0.008669734 -0.0050201556
000010 9e 3a c2 3b 40 ca ce 3b a8 1e d9 3b 24 9c f3 bb
       0.005927398 0.006310731 0.006625969 -0.007434385
000020 71 be d0 bb f0 77 f7 3b 33 19 c3 bb 7c cd ca 3b
       -0.0063703586 0.0075521395 -0.0059539317 0.0061890464
000030 1c f4 14 3c 38 9e 86 3b 39 8a d5 3b dc 20 c9 3b
       0.009091403 0.0041082166 0.0065167216 0.0061379503
000040 18 9f e8 bb 17 7f 4e bb c4 05 f7 3b 9e d7 14 3c
       -0.0070990436 -0.0031508857 0.007538529 0.00908461
000050 41 74 e2 3b c9 51 e3 3b dd 8b f8 3b 83 b9 e3 bb
       0.006910831 0.00693724 0.0075850324 -0.006949605
000060 83 4c 1a bc f4 67 e7 3b 5f 7b c9 bb 90 d6 07 3c
       -0.009417656 0.0070619527 -0.00614874 0.008290902
000070 8e a4 ee 3b 95 36 dc bb e3 85 ea 3b 97 3d df bb
       0.0072828 -0.006720374 0.007157074 -0.006812762
000080 22 5a f7 3b ad 4e fe bb 31 b3 2b 3c 38 a6 d2 3b
       0.0075485865 -0.0077608437 0.010479734 0.006428506
000090 26 32 02 bc bf a0 18 bc b6 dc 0e 3c 23 6d d1 3b
       -0.007946527 -0.009315669 0.008719614 0.006391184
0000a0 44 8b c6 bb e3 1c 01 3c 08 c4 cf 3b 51 bc a5 3b
       -0.006059082 0.007880422 0.0063405074 0.0050578495
0000b0 34 71 dc 3b f8 24 22 3b b6 1a f0 3b 1e 4e d9 3b
       0.006727362 0.0024741273 0.007327403 0.0066316267
0000c0 3d d9 9b bb 51 9a 00 3c 21 9c 1f bb 5f af 07 3c
       -0.0047561214 0.007849292 -0.0024354535 0.008281558
0000d0 8a 90 a8 bb 15 9e ea 3b ee 7b 01 bc 75 2e ec bb
       -0.0051441835 0.007159958 -0.007903082 -0.0072076865
0000e0 fd 4f 16 bc 71 86 4f bc 04 62 dc 3b c6 10 11 bc
       -0.009174344 -0.012666331 0.0067255516 -0.008854097
0000f0 17 6e d4 3b f2 08 f8 bb 58 c4 11 3c e2 9b ec bb
       0.0064828503 -0.0075694257 0.00889691 -0.007220731
000100 9b 61 18 bc 85 e5 dc 3b b6 51 b3 bb 81 48 41 39
       -0.009300615 0.006741228 -0.005472387 0.00018432924
000110 05 86 bf 3b 1d 54 da bb ff 39 d7 3b 4f f2 a3 bb
       0.005844834 -0.006662859 0.006568193 -0.0050032507
000120 6d 93 05 3c 96 eb f1 3b 2e cc fd 3b 5f 6c cd 3b
       0.008152825 0.0073828204 0.0077452874 0.0062690224
000130 eb 25 1b bc 91 0c 8f ba 1f d9 c1 bb 58 52 18 3a
       -0.00946949 -0.0010913779 -0.0059157754 0.000581061
000140 d7 1d e3 3b f4 bb e0 bb 5f 6a 28 bb 1e 9f f6 bb
       0.0069310474 -0.0068583433 -0.0025698168 -0.0075262925
000150 2c 58 09 3c 8f d6 01 3c 04 46 c3 bb 11 f1 13 bc
       0.008382838 0.00792469 -0.0059592742 -0.009029643
000160 12 a1 05 bc 43 1d 99 3a d0 78 d7 3b 99 30 0b bc
       -0.008156078 0.0011681694 0.0065756813 -0.008495473
000170 7f e9 13 3c ce e3 18 bc 51 e6 95 bb a5 14 7b 3b
       0.009027838 -0.009331657 -0.004574575 0.0038311866
000180 0e 5e b3 bb 27 d4 c1 bb 11 f7 da 3b 67 b7 02 bc
       -0.0054738587 -0.005915183 0.0066822846 -0.007978297
000190 4e 1b da 3b e9 20 8b 3a 41 c1 cb bb ed 85 15 bc
       0.006656087 0.0010614666 -0.006218106 -0.009126169
0001a0 16 d0 c4 bb ff e6 52 bb c8 7a d9 3b e0 88 6a 3b
       -0.006006251 -0.0032181141 0.006636951 0.003578715
0001b0 20 16 22 3c 07 1b 06 bc 0f 9d b6 3b 6f 73 06 bc
       0.00989297 -0.008185155 0.005572922 -0.008206232
0001c0 cc 57 be 3b 89 8c 50 3a 46 14 e7 3b 51 a1 15 bc
       0.005808806 0.00079555117 0.0070519773 -0.009132699
0001d0 e1 4d c3 3b 41 95 33 3b 4a 09 e5 ba b8 d5 cd bb
       0.0059602116 0.0027402195 -0.0017474082 -0.006281581
0001e0 f8 ca e0 3b ec e0 2b ba e4 71 b5 3b fd 84 f6 ba
       0.0068601333 -0.00065566483 0.0055372585 -0.0018807944
0001f0 a0 98 d3 bb 80 3b da 3b da 21 10 3c 0a 15 07 3c
       -0.0064574033 0.006659925 0.008797133 0.008244762

action_model._discrete_distribution.branches.0.weight f4 [2, 128]
000000 b9 3c 16 bb 7d 8a 10 3b 88 b7 a5 3c bc cf 93 bc
       -0.0022924377 0.0022055202 0.020229116 -0.018043391
000010 b5 21 a7 3b 54 03 f0 3b 93 ab 12 3c fd b4 10 bc
       0.0051004537 0.0073246155 0.008952039 -0.0088322135
000020 f5 38 49 bc 77 06 99 3c 87 c8 c0 bb 7e d5 10 3c
       -0.012281646 0.01867984 -0.0058832797 0.008839963
000030 cf cb 0d bc 6b 3e 1e bb 9b 2b ec bb fc 79 d7 3b
       -0.008654549 -0.002414609 -0.0072073466 0.006575821
000040 50 24 89 ba 8a 4c aa bb 38 06 bb bb 06 5d 99 3b
       -0.0010463092 -0.0051971124 -0.0057075284 0.0046802787
000050 d2 42 23 3c 77 9b 55 3c 38 67 24 3c 65 e6 a1 3a
       0.009964662 0.013037554 0.010034375 0.0012351988
000060 8f db 4a 3c 20 78 ab 3b 4b bc 61 bc a1 56 87 3c
       0.012381448 0.005232826 -0.013777803 0.0165208
000070 12 d0 97 3c 25 6f e5 bc 37 16 81 3c 33 42 0b bc
       0.018531833 -0.0280071 0.015757663 -0.00849967
000080 7d c7 6c 3c c6 03 8f bb 99 95 89 ba a1 4c a0 3a
       0.014451859 -0.0043644635 -0.0010496854 0.0012229868
000090 b5 3a 90 3a 7d 88 2c bc f8 b5 91 3b e0 a7 d0 3a
       0.0011003824 -0.010530588 0.004446741 0.0015919171
0000a0 2c b2 29 bc 6a 9b 61 3c 4b 89 20 3c dd 47 33 3b
       -0.010357421 0.013769964 0.009798358 0.0027356066
0000b0 2d d6 53 3c 28 03 15 bc df 7e e5 3b 74 70 37 3c
       0.012929481 -0.009094991 0.0070036496 0.0111962445
0000c0 0c 28 d5 3b 80 a7 a6 3c fe 57 01 bc 5d df 90 bb
       0.006505018 0.020343542 -0.007894514 -0.004421158
0000d0 8f 04 aa bc 50 73 fc bb 1e 78 eb 3b cd b2 52 bc
       -0.020754127 -0.007704176 0.00718595 -0.012860012
0000e0 5b 8f 39 bc 96 54 1d 3b 4f e4 c1 3c fa 18 9c 39
       -0.0113256825 0.0024006716 0.023668436 0.00029773248
0000f0 f1 5d 3a 3b 6a 0f 60 bb 01 8b f8 3b 45 21 7d bc
       0.002843734 -0.0034188875 0.00758493 -0.015449827
000100 72 66 bd 3b 39 c8 e7 bb 8e 4b bc bb 8a db 26 3b
       0.0057800347 -0.007073429 -0.0057463115 0.0025460445
000110 0f 8b 04 bc 7a 8e 5f bc df d5 c4 bb 80 94 68 bc
       -0.008089795 -0.013644809 -0.0060069407 -0.014195561
000120 bb 39 2a 3c 7f 44 61 bc 26 8d 90 38 93 29 a1 3b
       0.010389741 -0.013749241 6.892746e-05 0.004918286
000130 2a 40 3a bc 1c 4a c4 bb 16 4e 4e bc 34 9e f6 3b
       -0.011367837 -0.00599028 -0.012591859 0.0075261835
000140 d0 ae 5e 3c 5a dd d9 bb bc 52 4b 3b d6 ce 20 bc
       0.013591483 -0.0066487016 0.0031024655 -0.0098149385
000150 5f 34 cf 3b b7 78 06 bc ad 07 8b bc 2b 95 1c bd
       0.006323382 -0.008207492 -0.016971434 -0.038228195
000160 0c 64 29 bc 3a dd 23 bc 65 49 e4 3b e9 24 70 3b
       -0.010338794 -0.010001475 0.006966757 0.0036643094
000170 05 69 bf 3b 25 7b 2a 3c 30 4c a0 bc 53 92 7f 3c
       0.0058413767 0.0104053365 -0.019567579 0.015598851
000180 61 46 cb bc 44 b0 5a bc 38 eb 83 3c 5a 1e 92 3a
       -0.024813833 -0.013347689 0.016103372 0.0011147961
000190 72 92 4f 3c 31 cc 8d bb 50 05 80 bc 10 1b db 3b
       0.012669193 -0.00432732 -0.015627533 0.0066865757
0001a0 a0 b2 dd 3b b3 d7 3c bc fc 48 ef ba 55 c8 15 3a
       0.0067656785 -0.011526036 -0.0018256004 0.0005713751
0001b0 0d 26 39 bc c4 7b f9 bb 05 60 00 3c b7 98 c7 bb
       -0.011300576 -0.007613631 0.007835393 -0.006091203
0001c0 c2 28 70 3b aa b6 62 bb 58 75 2d 3b f1 b6 50 3b
       0.0036645387 -0.003459374 0.0026467647 0.0031847323
0001d0 b3 fa 72 3b f2 9c ca bb b3 fe d6 ba 5d 4a 81 bc
       0.0037075698 -0.00618326 -0.001640281 -0.01578253
0001e0 cf 1c 20 3c 6b 04 88 3a 4f e0 0d 3c 48 d8 5c 3a
       0.0097724935 0.0010377293 0.008659436 0.00084245624
0001f0 4a 14 0e bc 49 38 55 3b c2 ed 1e 3c 14 37 36 3c
       -0.0086718295 0.003253477 0.009700241 0.01112153
000200 06 4a a5 bc 29 4e 1d 3c 7d 40 24 bc 9f 78 53 3c
       -0.020176899 0.009601154 -0.010025141 0.012907176
000210 85 80 99 ba dc d5 a2 bb 80 f7 82 bc 22 db 87 3b
       -0.0011711275 -0.0049693417 -0.015987158 0.0041459957
000220 a1 fc 2d 3c de 7b 26 bb 1c ca ef 38 9a c1 bc 3a
       0.010619313 -0.002540342 0.00011434054 0.001440096
000230 c4 a0 8f bb 5e 99 29 3a 7f 56 d9 ba b4 4f 86 bb
       -0.0043831784 0.0006469692 -0.0016581564 -0.004098857
000240 dd 43 78 3c 8a e3 ee 3b 76 2c c0 3b ad b2 43 3c
       0.015152899 0.0072903084 0.005864675 0.011944455
000250 73 b3 9f bb 02 6d 70 bc 44 97 ab b9 df 7f c5 3b
       -0.004873687 -0.014674427 -0.00032728363 0.0060272063
000260 7e be a0 3c b0 26 71 bc 03 ec aa 3b 02 ed 02 bc
       0.019622084 -0.0147186965 0.005216123 -0.007991077
000270 9d c9 b1 bb 68 c6 2f 3c b2 fd 79 bc 32 80 ad 3c
       -0.0054256455 0.010728456 -0.01525824 0.021179292
000280 07 09 6f bc ec 9b 7c 3c 06 1c a7 bc 05 b4 09 bc
       -0.014589555 0.015418034 -0.020399105 -0.008404736
000290 29 ec 72 3b 2d b1 3b 3c 1d 02 a0 bc f5 cd 3c bc
       0.0037067032 0.011455816 -0.019532258 -0.011523713
0002a0 5f a7 f6 39 f6 30 03 bc ac 04 19 bc af 4f 20 bc
       0.00047045478 -0.008007279 -0.009339493 -0.009784623
0002b0 5c 43 4a bc e3 ea b8 bb b2 67 0d bc a7 2f 87 39
       -0.012345161 -0.005643235 -0.00863068 0.0002578471
0002c0 30 c7 cb 3b 62 8b 53 bc 35 c6 a3 3b 19 9b 4c 3b
       0.0062188134 -0.012911649 0.0049979934 0.0031220375
0002d0 97 f8 11 3c 96 91 f0 3b 5e ae 1e 3c dc 08 0b 3b
       0.008909366 0.007341574 0.009685127 0.0021214997
0002e0 9b 4f 14 bb 55 18 c6 bb a1 32 eb 3b 1e 05 12 bc
       -0.0022630456 -0.006045381 0.0071776663 -0.008912353
0002f0 11 85 1d bc 38 ec 3a 3c c4 2c 87 bc 70 3c 36 3c
       -0.009614245 0.011408858 -0.016500838 0.011122808
000300 d4 13 ca ba af 19 ba bc b8 d5 b5 3b a1 cc 4c bb
       -0.0015417286 -0.022717325 0.005549159 -0.0031249898
000310 2d 85 8f bc c6 e8 2e 3a 85 66 8e bc 46 40 74 3c
       -0.017519558 0.0006672259 -0.01738287 0.014907902
000320 18 a7 87 bb 4f 71 37 bc f1 a3 a9 bc 64 7c 53 bc
       -0.004139792 -0.0111964485 -0.020708056 -0.012908075
000330 a5 cf 26 3c af 73 92 ba 26 4e a2 3c f5 36 1c bb
       0.010181342 -0.0011173392 0.019812655 -0.0023836468
000340 50 6e 2e bc df 98 3d 3c f9 9e 61 bb a5 ab 14 3b
       -0.010646418 0.011572092 -0.003442703 0.0022685316
000350 78 f0 7f bc b2 9e 6c bb 5d 47 f8 3b 31 1c 82 3c
       -0.015621297 -0.0036105332 0.0075768665 0.015882583
000360 45 88 87 3a 73 72 05 3c 2d 91 0d 3b 49 ca ba bb
       0.0010340294 0.008144963 0.0021601424 -0.005700384
000370 00 cc 83 3b 22 7a a9 ba 95 b6 f6 3b 44 3c 15 3a
       0.0040221214 -0.0012930075 0.0075290897 0.0005692879
000380 14 90 93 3b b4 19 81 3c c2 22 bb bb f6 19 43 3c
       0.0045032594 0.015759327 -0.0057109306 0.011908045
000390 f1 13 7b bc 4f b7 11 3a a4 b7 59 3c 18 0f 81 3c
       -0.015324579 0.0005558626 0.013288412 0.015754268
0003a0 a3 06 32 bc de 0c 2d 3b 6c 41 73 bc 87 01 54 3c
       -0.01086584 0.0026405375 -0.014847141 0.012939817
0003b0 54 99 96 3a d9 be 92 3b 09 3e 0d 3b da ec 19 bb
       0.0011489787 0.004478317 0.0021551868 -0.0023487122
0003c0 84 b8 1d 3c fe 52 af 3a db 12 16 bb 0e ad 98 3c
       0.0096265115 0.0013376174 -0.0022899422 0.018637206
0003d0 ed d7 ac ba 30 29 0a bc 8b b0 06 3c 75 ba 37 3c
       -0.001318691 -0.008432671 0.008220802 0.011213888
0003e0 42 f4 92 bc c9 56 01 bc ab ea 3f 3b 42 49 87 bb
       -0.017938737 -0.007894226 0.002928416 -0.004128606
0003f0 19 0f 1b 3b 7b af 96 bb 55 49 a4 3b 4b 5c 44 bc
       0.0023660122 -0.0045985556 0.0050136247 -0.011984895

action_model._discrete_distribution.branches.0.bias f4 [2]
000000 67 a8 ef 3b 6a a8 ef bb
       0.0073137763 -0.0073137777

exp_avg f4 [128, 42]
000000 00 00 00 00 a2 33 55 b0 1e dc 65 b2 00 00 00 00
       0.0 -7.7562323e-10 -1.3379603e-08 0.0
000010 d2 1f cc 34 5c e4 c9 34 83 7e 1c b0 94 7c 16 b2
       3.8021113e-07 3.760532e-07 -5.6932253e-10 -8.759475e-09
000020 17 a7 76 b1 58 ee 0f 30 d3 2d cb 34 20 78 c9 34
       -3.589269e-09 5.2361804e-10 3.7845038e-07 3.752657e-07
000030 00 00 00 00 43 bc 96 30 d3 e3 18 b0 d7 88 1b b2
       0.0 1.0967444e-09 -5.5621036e-10 -9.053301e-09
000040 75 18 c9 34 32 1c c9 34 a3 97 0e b2 92 16 bd b1
       3.7456962e-07 3.7459682e-07 -8.299966e-09 -5.50319e-09
000050 8a 51 c5 af 58 ee 0f 30 cd d8 cb 34 e1 7b ca 34
       -3.5892028e-10 5.2361804e-10 3.796944e-07 3.7715566e-07
000060 00 00 00 00 4f f8 2d af 07 c9 d9 30 c0 97 1b b2
       0.0 -1.5822475e-10 1.5845963e-09 -9.056691e-09
000070 59 9f c8 34 1f b1 c8 34 58 3c 50 b2 7d 77 fd b0
       3.7368844e-07 3.7381776e-07 -1.2120914e-08 -1.8442133e-09
000080 30 24 1e b0 d4 cd 90 30 f6 c3 cb 34 c2 a8 ca 34
       -5.753149e-10 1.0535879e-09 3.7954277e-07 3.774822e-07
000090 00 00 00 00 1e e8 ad aa 06 12 7a 2b f7 c9 13 b2
       0.0 -3.0892037e-13 8.8842855e-13 -8.602448e-09
0000a0 ca 3f c9 34 16 3d c9 34 00 00 00 00 2d 39 a7 32
       3.748558e-07 3.7483613e-07 0.0 1.946736e-08
0000b0 12 a1 de b2 00 00 00 00 69 e0 fd 35 e9 37 fd 35
       -2.5917448e-08 0.0 1.8915281e-06 1.8866241e-06
0000c0 2f 5d 61 b0 12 4d 1b 32 ba 79 43 b2 2b 27 d7 30
       -8.1986945e-10 9.039711e-09 -1.1378171e-08 1.5654441e-09
0000d0 81 39 fd 35 95 46 fd 35 00 00 00 00 69 a1 c0 32
       1.8866705e-06 1.8870511e-06 0.0 2.2425143e-08
0000e0 f8 af 82 31 15 76 99 b2 55 e3 fb 35 25 42 fc 35
       3.8035033e-09 -1.7865242e-08 1.876712e-06 1.8794714e-06
0000f0 16 ab 07 b2 09 35 62 b2 cd 6b 8f 30 2b 27 d7 30
       -7.896935e-09 -1.316699e-08 1.0435258e-09 1.5654441e-09
000100 e1 7c ff 35 95 85 ff 35 00 00 00 00 e1 84 a4 30
       1.9035325e-06 1.9037858e-06 0.0 1.1970337e-09
000110 c3 82 b8 32 69 41 ad b2 75 ac fc 35 31 2e fd 35
       2.1479883e-08 -2.0169596e-08 1.8825655e-06 1.8863412e-06
000120 69 f0 ae b2 8d 92 e9 b1 71 ef 11 31 15 ec c3 31
       -2.0365592e-08 -6.7978534e-09 2.1236384e-09 5.7020864e-09
000130 2d 9b ff 35 79 87 ff 35 00 00 00 00 3f a0 a0 2c
       1.9044143e-06 1.9038408e-06 0.0 4.5652644e-12
000140 e5 57 45 2d 0c 99 e9 b1 0d c0 fc 35 a9 06 fd 35
       1.121767e-11 -6.798592e-09 1.8831357e-06 1.8851907e-06
000150 00 00 00 00 e8 97 99 b3 a1 43 96 33 00 00 00 00
       0.0 -7.152249e-08 6.997221e-08 0.0
000160 31 c4 fd b5 f1 c2 fa b5 ae 26 15 31 f2 b2 0f b3
       -1.8907068e-06 -1.8683187e-06 2.170434e-09 -3.3457532e-08
000170 36 85 d8 32 15 ba fd b1 c1 2a fc b5 e1 d4 fb b5
       2.5206287e-08 -7.384424e-09 -1.8787906e-06 -1.8762913e-06
000180 00 00 00 00 fe 72 d4 b3 c3 2b bf b2 4c 50 2d 33
       0.0 -9.892936e-08 -2.2255227e-08 4.035273e-08
000190 c1 1f f3 b5 91 2d f5 b5 18 c8 36 33 1d aa 42 33
       -1.8114152e-06 -1.8267184e-06 4.255716e-08 4.5323862e-08
0001a0 d5 76 24 b2 15 ba fd b1 30 bf 03 b6 78 47 03 b6
       -9.573076e-09 -7.384424e-09 -1.9631807e-06 -1.9562121e-06
0001b0 00 00 00 00 7f 20 ae b1 72 4b d3 b3 5a 4b 5e 33
       0.0 -5.067761e-09 -9.8391766e-08 5.1756935e-08
0001c0 41 08 f7 b5 81 44 f9 b5 24 a8 ca 33 07 be 1d 31
       -1.8405336e-06 -1.8571883e-06 9.4369426e-08 2.2954525e-09
0001d0 f0 c2 0a b1 05 7f a4 b2 c0 0d 04 b6 38 b5 03 b6
       -2.0192452e-09 -1.9149875e-08 -1.9677536e-06 -1.9626004e-06
0001e0 00 00 00 00 ee f1 4e ad f8 20 bf ad 8f d0 35 b1
       0.0 -1.17634635e-11 -2.1728827e-11 -2.6457518e-09
0001f0 b1 66 f8 b5 51 86 f9 b5 00 00 00 00 49 34 ab 31
       -1.8507327e-06 -1.8591037e-06 0.0 4.982699e-09
000200 d1 7b 0c 31 00 00 00 00 9b 38 98 b5 21 21 98 b5
       2.0443063e-09 0.0 -1.1341357e-06 -1.1334524e-06
000210 5e 2c 2f b0 29 2f 35 32 68 66 08 30 1a ca af b0
       -6.372768e-10 1.054631e-08 4.962204e-10 -1.2790367e-09
000220 bf 80 98 b5 d5 58 98 b5 00 00 00 00 52 e0 8d 31
       -1.1362353e-06 -1.1350736e-06 0.0 4.1291424e-09
000230 96 07 a1 b0 69 58 52 31 f3 15 98 b5 01 12 98 b5
       -1.1716448e-09 3.0609277e-09 -1.1331271e-06 -1.1330122e-06
000240 24 98 71 30 13 58 b0 31 3c 6a ae 2f 1a ca af b0
       8.7891494e-10 5.132287e-09 3.17259e-10 -1.2790367e-09
000250 af f4 97 b5 5b e2 97 b5 00 00 00 00 c3 7e e8 2f
       -1.1321589e-06 -1.1316255e-06 0.0 4.2290624e-10
000260 d9 2e 58 31 93 7c c7 31 33 89 98 b5 e9 69 98 b5
       3.1458767e-09 5.8058247e-09 -1.1364813e-06 -1.1355706e-06
000270 b6 7e 12 32 c1 62 07 b1 a2 c1 30 af 42 c4 ec b0
       8.527129e-09 -1.970122e-09 -1.6075899e-10 -1.722704e-09
000280 bd e7 97 b5 2b d1 97 b5 00 00 00 00 62 31 c2 aa
       -1.1317821e-06 -1.1311253e-06 0.0 -3.449559e-13
000290 fd e6 03 ac a6 4c a4 31 f1 40 98 b5 b1 37 98 b5
       -1.8744444e-12 4.781742e-09 -1.1343783e-06 -1.1341091e-06
0002a0 00 00 00 00 75 8a 97 b2 7f de f2 30 00 00 00 00
       0.0 -1.7641677e-08 1.7671055e-09 0.0
0002b0 1c ec 7a b5 24 18 7b b5 35 c5 31 b0 2d e8 5e b2
       -9.347584e-07 -9.3539916e-07 -6.4672473e-10 -1.2974891e-08
0002c0 69 e3 85 30 3b 89 0d 2f b4 d2 7b b5 64 25 7c b5
       9.741657e-10 1.287263e-10 -9.38114e-07 -9.3931726e-07
0002d0 00 00 00 00 1c 90 a6 b2 22 1a 0c b2 12 f7 b4 31
       0.0 -1.9390477e-08 -8.155014e-09 5.266778e-09
0002e0 d4 33 79 b5 e4 4a 7a b5 f0 d7 07 2d a5 ae b5 31
       -9.283515e-07 -9.324124e-07 7.721809e-12 5.287648e-09
0002f0 aa 98 59 30 3b 89 0d 2f 0e 6d 80 b5 d2 57 80 b5
       7.916109e-10 1.287263e-10 -9.568482e-07 -9.562302e-07
000300 00 00 00 00 ca 19 69 b0 43 b4 a0 b2 44 61 1b 32
       0.0 -8.4801555e-10 -1.8708425e-08 9.044303e-09
000310 b4 5b 7c b5 2c 34 7d b5 07 2d ec 31 82 40 88 af
       -9.401076e-07 -9.4325765e-07 6.873623e-09 -2.4784091e-10
000320 a0 55 0c 2f cc dd ac 2f 56 8a 80 b5 7a 79 80 b5
       1.2763346e-10 3.1444214e-10 -9.577004e-07 -9.572097e-07
000330 00 00 00 00 c0 09 9a ac ed 96 5d 2c f7 ba 38 b2
       0.0 -4.3780257e-12 3.148977e-12 -1.07527205e-08
000340 2c a4 7b b5 fc 43 7c b5 00 00 00 00 30 73 6e 30
       -9.374369e-07 -9.3976246e-07 0.0 8.6747587e-10
000350 5b 6f c9 b2 00 00 00 00 b3 87 16 36 03 18 16 36
       -2.3450118e-08 0.0 2.243073e-06 2.2365718e-06
000360 e6 b5 a4 2f 35 27 78 b2 ee cd 4f b2 b7 1a b3 31
       2.9960673e-10 -1.44444146e-08 -1.2095809e-08 5.2126228e-09
000370 03 6d 16 36 33 6c 16 36 00 00 00 00 ad ec 71 32
       2.2415195e-06 2.2414722e-06 0.0 1.408186e-08
000380 be 22 96 31 72 c6 92 b2 3b ec 14 36 d3 26 15 36
       4.3695243e-09 -1.708688e-08 2.2191223e-06 2.2225329e-06
000390 1f ac e1 b1 b0 90 fc b2 24 f4 5f 31 b7 1a b3 31
       -6.5679298e-09 -2.9402457e-08 3.2589549e-09 5.2126228e-09
0003a0 2f dc 16 36 7f e4 16 36 00 00 00 00 1e 53 4b 31
       2.2479906e-06 2.2484744e-06 0.0 2.9587635e-09
0003b0 87 dd 49 32 c3 16 0d b3 2f 3b 16 36 47 48 16 36
       1.1750109e-08 -3.2849822e-08 2.2386191e-06 2.2393813e-06
0003c0 18 48 37 b3 9f bf e3 b0 76 b3 41 31 41 5e 46 32
       -4.2673577e-08 -1.6570886e-09 2.8187208e-09 1.1546548e-08
0003d0 8f 06 17 36 97 f7 16 36 00 00 00 00 7d d8 1b 2d
       2.250457e-06 2.2495858e-06 0.0 8.8588e-12
0003e0 43 a1 39 2d c1 09 b3 b2 e3 08 16 36 c3 15 16 36
       1.055184e-11 -2.0842778e-08 2.2356915e-06 2.2364409e-06
0003f0 00 00 00 00 9c 7a 8c b2 ec 0c 2d 33 00 00 00 00
       0.0 -1.6353901e-08 4.0291454e-08 0.0

exp_avg_sq f4 [128, 42]
000000 00 00 00 00 19 30 96 2b 79 9e 1b 2d 00 00 00 00
       0.0 1.0671491e-12 8.845918e-12 0.0
000010 c6 42 17 2d 9b c9 2b 2d de 1a f6 2b 5c e0 2e 2d
       8.598183e-12 9.76499e-12 1.7486808e-12 9.940573e-12
000020 b1 82 f4 2a 3c cd 93 29 0d 8f 12 2d 97 f7 21 2d
       4.3433792e-13 6.563714e-14 8.330903e-12 9.206766e-12
000030 00 00 00 00 4e 22 e8 2a 18 8e 86 2b a0 eb a7 2c
       0.0 4.1235282e-13 9.560712e-13 4.772585e-12
000040 c2 a7 5d 2d f0 6b 5d 2d 8b 49 2f 2d 83 f2 8b 2b
       1.2599645e-11 1.25863625e-11 9.963928e-12 9.943855e-13
000050 9e 69 63 29 3c cd 93 29 f3 48 17 2d d8 93 1e 2d
       5.0495734e-14 6.563714e-14 8.599554e-12 9.014088e-12
000060 00 00 00 00 92 ea 25 2a 30 7d 9c 2a 8f f8 fe 2c
       0.0 1.4736327e-13 2.7798033e-13 7.2467097e-12
000070 bd 1e 53 2d 59 52 52 2d fd e3 3d 2d 8e 9f 69 2a
       1.2000787e-11 1.1955403e-11 1.079403e-11 2.0749914e-13
000080 ca b7 8d 28 e8 73 bf 29 41 c1 1b 2d 91 9f 20 2d
       1.573385e-14 8.5022104e-14 8.853641e-12 9.130378e-12
000090 00 00 00 00 ce 68 11 26 50 05 e1 26 2c 28 0f 2d
       0.0 5.044902e-16 1.5613951e-15 8.137529e-12
0000a0 1b 3c 5c 2d 5e 18 5a 2d 00 00 00 00 9e c1 87 2d
       1.2518898e-11 1.2397276e-11 0.0 1.5433706e-11
0000b0 ed c8 a2 2d 00 00 00 00 f0 fc 47 2f e3 69 4a 2f
       1.8506497e-11 0.0 1.8188806e-10 1.8409411e-10
0000c0 68 c6 06 2b a7 25 b4 2d ba f4 0a 2d 47 fd 61 2b
       4.7881707e-13 2.0480352e-11 7.898732e-12 8.028755e-13
0000d0 62 c3 48 2f c0 43 4b 2f 00 00 00 00 0a 98 9b 2d
       1.8259308e-10 1.8486812e-10 0.0 1.7688979e-11
0000e0 cc a1 11 2c 57 f9 83 2d be 7f 4b 2f d0 3a 4c 2f
       2.0695555e-12 1.5003705e-11 1.8508126e-10 1.8574586e-10
0000f0 ca a9 9c 2c 06 92 88 2d 8b 28 7b 2d 47 fd 61 2b
       4.452637e-12 1.5526257e-11 1.42767005e-11 8.028755e-13
000100 ba 8a 41 2f af a3 4a 2f 00 00 00 00 82 fa 45 2c
       1.7602533e-10 1.8429945e-10 0.0 2.8134444e-12
000110 cd fa 76 2d ab 6e 8f 2d 10 12 4d 2f 39 f6 4d 2f
       1.403917e-11 1.6306364e-11 1.8651058e-10 1.8732117e-10
000120 34 47 72 2d 4b ed 48 2d be 14 b4 2c 0b 0b 36 2d
       1.3771918e-11 1.1421373e-11 5.1182105e-12 1.0347954e-11
000130 57 4e 44 2f 15 c6 49 2f 00 00 00 00 ec 85 84 27
       1.7853928e-10 1.8351216e-10 0.0 3.678256e-15
000140 17 bc 4b 29 7e 34 9a 2d 12 dd 48 2f b9 ba 49 2f
       4.5238197e-14 1.7531084e-11 1.8268434e-10 1.8347181e-10
000150 00 00 00 00 a8 97 1a 30 e1 1a 59 2f 00 00 00 00
       0.0 5.624039e-10 1.9745584e-10 0.0
000160 4a f7 82 31 58 75 86 31 e7 a7 02 2f 43 ae c6 2f
       3.8116115e-09 3.9132537e-09 1.1883082e-10 3.613981e-10
000170 06 ed 15 2e cd 88 8c 2d d4 78 90 31 6f 70 91 31
       3.4089197e-11 1.5976909e-11 4.204688e-09 4.2328376e-09
000180 00 00 00 00 8c cc 9c 2f 52 f0 04 30 65 23 8f 2e
       0.0 2.8521574e-10 4.8362836e-10 6.5091744e-11
000190 c0 34 8e 31 62 e2 8e 31 b3 b5 90 2f cf 70 07 2f
       4.138741e-09 4.1584807e-09 2.6322552e-10 1.2318256e-10
0001a0 5a 8d eb 2e cd 88 8c 2d 3d 2b 88 31 f7 ed 8b 31
       1.0711672e-10 1.5976909e-11 3.9630366e-09 4.072486e-09
0001b0 00 00 00 00 b4 70 5e 2e c0 fa 7a 2f fc 89 17 2f
       0.0 5.0577056e-11 2.2826452e-10 1.3782392e-10
0001c0 0d 0f 9a 31 7b ed 98 31 9e 27 ea 2f 89 87 fe 2d
       4.483701e-09 4.4507806e-09 4.2592502e-10 2.8936646e-11
0001d0 36 2c 1a 2e 44 ee c1 2e 12 06 87 31 48 16 8b 31
       3.5054813e-11 8.8189483e-11 3.9297072e-09 4.0479655e-09
0001e0 00 00 00 00 c9 15 0b 29 00 75 a5 29 71 70 19 30
       0.0 3.0883096e-14 7.347768e-14 5.5820865e-10
0001f0 ae 53 86 31 ef 88 86 31 00 00 00 00 e3 25 a5 2c
       3.9094266e-09 3.915481e-09 0.0 4.6937883e-12
000200 27 3c d5 2b 00 00 00 00 a6 93 ce 2d 51 b5 d0 2d
       1.5151256e-12 0.0 2.3485058e-11 2.3727383e-11
000210 4a 93 34 2c 86 88 26 2c 40 a0 3a 2b 57 d4 39 2b
       2.56613e-12 2.3665805e-12 6.6302866e-13 6.6019884e-13
000220 73 f8 d3 2d 85 32 d3 2d 00 00 00 00 b2 0e 20 2b
       2.4098256e-11 2.4010358e-11 0.0 5.686381e-13
000230 7d b4 8c 2c 8c 8b 0e 2b 99 0b d1 2d 25 e7 d4 2d
       3.9990775e-12 5.0642194e-13 2.37657e-11 2.4204258e-11
000240 9d 24 4b 2c 76 27 01 2c 6e 71 e7 29 57 d4 39 2b
       2.886836e-12 1.8353908e-12 1.0278138e-13 6.6019884e-13
000250 33 6f d7 2d 52 e6 d6 2d 00 00 00 00 9e cc 87 2a
       2.4492052e-11 2.4431266e-11 0.0 2.41228e-13
000260 2b 14 b1 2a 66 6d f3 2b 74 60 ec 2d e3 3a ed 2d
       3.145551e-13 1.7296553e-12 2.6872927e-11 2.6969931e-11
000270 e2 fd a8 2c 7e b5 fe 2a 9f 99 9c 29 3b e7 3f 2b
       4.803034e-12 4.52454e-13 6.954441e-14 6.817773e-13
000280 1a c2 da 2d 60 3f da 2d 00 00 00 00 c8 1f 96 24
       2.4869929e-11 2.4811875e-11 0.0 6.510597e-17
000290 83 6c de 25 64 7f ac 2c f9 c1 d4 2d 1a 39 d5 2d
       3.8584392e-16 4.9026772e-12 2.418775e-11 2.4240655e-11
0002a0 00 00 00 00 0f 12 8c 2e 79 a5 df 2c 00 00 00 00
       0.0 6.369671e-11 6.3564124e-12 0.0
0002b0 25 28 03 2f 43 45 05 2f 57 9c 9f 2c f3 81 45 2d
       1.1928643e-10 1.2120886e-10 4.536409e-12 1.1227008e-11
0002c0 da aa 90 2c e0 f3 81 29 f0 b0 30 2f fe ed 2f 2f
       4.1116945e-12 5.7710564e-14 1.6069968e-10 1.6000709e-10
0002d0 00 00 00 00 ba 0f 4a 2d b2 15 6e 2e 98 76 63 2c
       0.0 1.1485863e-11 5.4134204e-11 3.2324473e-12
0002e0 d7 2d 04 2f 0b 97 0a 2f 6a 84 c3 2c ca e6 c8 2c
       1.2021616e-10 1.2604688e-10 5.5569343e-12 5.7099646e-12
0002f0 ab 4e b0 2a e0 f3 81 29 30 a3 2d 2f b7 2b 2d 2f
       3.1318467e-13 5.7710564e-14 1.5792234e-10 1.5749789e-10
000300 00 00 00 00 35 76 0b 2c 04 93 1c 2d d2 cb e4 2c
       0.0 1.9818706e-12 8.900217e-12 6.5027784e-12
000310 51 68 3a 2f 82 70 39 2f 39 55 34 2d 03 d3 22 2c
       1.6953662e-10 1.6865623e-10 1.0250739e-11 2.313872e-12
000320 eb 90 73 2a f1 aa 0a 2a c3 c0 2f 2f c7 3e 30 2f
       2.1633014e-13 1.231617e-13 1.598464e-10 1.602941e-10
000330 00 00 00 00 f5 f5 45 28 8b 85 62 29 13 73 9b 2e
       0.0 1.098903e-14 5.029791e-14 7.069025e-11
000340 de e8 fd 2e 3c e2 fd 2e 00 00 00 00 0f b5 b9 2e
       1.15464735e-10 1.1545295e-10 0.0 8.4449885e-11
000350 dd f7 f5 2d 00 00 00 00 dd 5b 1d 30 3f 67 1f 30
       2.7963349e-11 0.0 5.7246813e-10 5.7990585e-10
000360 ab 41 cf 2c e7 89 34 2e 82 9e 8c 2d 29 2b 38 2d
       5.8905845e-12 4.1049743e-11 1.5986549e-11 1.04687726e-11
000370 ec 5e 28 30 18 c1 28 30 00 00 00 00 2d af c6 2d
       6.1252936e-10 6.1392447e-10 0.0 2.2587788e-11
000380 c5 54 96 2e fa d1 8a 2d 72 16 24 30 27 02 25 30
       6.8362684e-11 1.5782032e-11 5.969475e-10 6.002971e-10
000390 b2 bc 53 2d 90 bc 81 2e 66 e9 ed 2d 29 2b 38 2d
       1.203586e-11 5.899736e-11 2.704743e-11 1.04687726e-11
0003a0 48 99 1b 30 bf ef 1f 30 00 00 00 00 7c c2 95 2d
       5.66065e-10 5.818456e-10 0.0 1.7025707e-11
0003b0 1a 35 9e 2c 38 38 07 2e 76 43 30 30 70 2a 30 30
       4.4965255e-12 3.074538e-11 6.4124295e-10 6.4088734e-10
0003c0 47 a3 68 2e 46 e8 92 2d fe 1d 03 2d 26 d6 0f 2e
       5.2895712e-11 1.6701428e-11 7.4531475e-12 3.2704638e-11
0003d0 5e 22 1d 30 9f 26 21 30 00 00 00 00 fb a2 76 28
       5.7165106e-10 5.862634e-10 0.0 1.3691084e-14
0003e0 ab d4 a3 29 86 de ab 2e 50 52 1f 30 a5 24 1f 30
       7.275546e-14 7.815708e-11 5.7960836e-10 5.789594e-10
0003f0 00 00 00 00 33 d0 5e 2f 4c d1 27 2f 00 00 00 00
       0.0 2.026475e-10 1.5262919e-10 0.0

exp_avg f4 [128]
000000 51 86 c4 34 76 03 fd 35 47 fb fd b5 08 47 97 b5
       3.6605573e-07 1.8850976e-06 -1.89231e-06 -1.127105e-06
000010 3a 2e 7f b5 55 03 15 36 6c fb 84 34 07 5e 70 33
       -9.506217e-07 2.220467e-06 2.476985e-07 5.5964872e-08
000020 8d b7 2f 36 ed d5 87 35 2c cf 59 35 a0 2c 0b 36
       2.6183873e-06 1.0120544e-06 8.1140274e-07 2.073859e-06
000030 d0 53 8a b5 9b 70 95 33 c7 0a 35 b6 cf cb 66 33
       -1.0306194e-06 6.958836e-08 -2.6977375e-06 5.373641e-08
000040 a8 27 60 b6 d4 cf 60 36 b0 07 83 36 bb 56 88 b6
       -3.3401684e-06 3.3499573e-06 3.904999e-06 -4.0632126e-06
000050 fc 91 5b 35 c0 fb fb b5 16 71 c0 33 64 5b 6e b3
       8.179629e-07 -1.8774226e-06 8.961267e-08 -5.5496812e-08
000060 b5 f9 2e b5 72 de 10 36 71 12 f9 b5 52 a7 d6 36
       -6.518342e-07 2.1587152e-06 -1.8557313e-06 6.3971756e-06
000070 59 9b f4 b3 25 54 50 b4 20 8c 3c b6 65 36 df 34
       -1.1390393e-07 -1.9402121e-07 -2.8095747e-06 4.1576564e-07
000080 1b c3 a4 b5 8e ed 08 b6 b7 d7 57 36 30 5b e1 35
       -1.2275735e-06 -2.0403854e-06 3.216306e-06 1.6790345e-06
000090 cf 97 53 b5 9b d6 29 b5 06 a0 ee b5 ab 71 57 b6
       -7.8824536e-07 -6.32697e-07 -1.7778955e-06 -3.210366e-06
0000a0 03 5e ec 36 f7 a7 d2 b5 62 b7 d2 b5 a9 98 a4 b6
       7.0442925e-06 -1.5695103e-06 -1.5699591e-06 -4.905353e-06
0000b0 b6 e5 31 37 2c e3 e5 35 e8 d2 c1 b5 14 b9 d3 b5
       1.0603506e-05 1.7127945e-06 -1.4441002e-06 -1.577459e-06
0000c0 c7 b8 8e 36 4e b8 96 36 d6 a8 1b 36 74 ac 99 36
       4.2534407e-06 4.4918042e-06 2.3195075e-06 4.5798315e-06
0000d0 fb e0 05 36 0b 01 2d b4 66 41 d0 35 d4 3b 1e b6
       1.99495e-06 -1.611226e-07 1.5516241e-06 -2.357866e-06
0000e0 88 90 72 36 90 ab 2c b6 55 e1 db b5 91 e1 e7 34
       3.6144938e-06 -2.572986e-06 -1.6382352e-06 4.3191224e-07
0000f0 3b 3d 67 36 0e f2 98 34 b6 06 d8 36 85 ee 84 35
       3.4457323e-06 2.8488324e-07 6.438083e-06 9.904185e-07
000100 78 eb c7 b5 73 d3 a2 35 2b 37 bf b5 4d bf 01 35
       -1.4895186e-06 1.213148e-06 -1.4246665e-06 4.8334624e-07
000110 10 80 29 b5 b2 05 50 34 3a a3 f4 35 1c 02 41 b5
       -6.314376e-07 1.9373581e-07 1.8226922e-06 -7.190117e-07
000120 a3 33 dc 36 05 56 68 b5 34 86 b4 b4 c4 64 05 b6
       6.5625222e-06 -8.655191e-07 -3.3625258e-07 -1.9877198e-06
000130 3a e1 56 b6 5d 56 84 34 cd 82 1a b5 f3 5f 55 b5
       -3.2019584e-06 2.4649754e-07 -5.755981e-07 -7.948831e-07
000140 83 9a 70 36 84 62 e1 b4 77 aa 90 35 55 fc 89 35
       3.5852725e-06 -4.1981195e-07 1.0778448e-06 1.0280734e-06
000150 e7 71 6b 35 20 4f 8b 36 f0 86 cc b4 b3 76 91 36
       8.771007e-07 4.151734e-06 -3.809614e-07 4.335155e-06
000160 6c 5b b8 b5 08 6b 33 b6 ad 17 10 36 ab c0 85 b5
       -1.3735676e-06 -2.673538e-06 2.1471453e-06 -9.965346e-07
000170 7a da c9 35 c7 0b 17 b4 9d 9a cc b5 99 f5 83 b6
       1.5039252e-06 -1.4067255e-07 -1.5244183e-06 -3.9326956e-06
000180 38 8f 02 b6 1d be 17 b4 fd 79 ca b6 e0 05 de b4
       -1.9454874e-06 -1.4132134e-07 -6.0342704e-06 -4.1354997e-07
000190 0f 1e 45 34 89 3a c4 33 f7 2c 92 34 b3 62 4e 34
       1.835799e-07 9.137609e-08 2.7227335e-07 1.9221152e-07
0001a0 14 3f fb 36 2d 49 61 b6 dd 04 39 b6 4a 63 9f b5
       7.487726e-06 -3.3570207e-06 -2.756998e-06 -1.187532e-06
0001b0 fb 1a 8b b5 96 97 d6 b4 93 2c 55 35 8f 94 73 b6
       -1.0364159e-06 -3.99709e-07 7.941355e-07 -3.6296294e-06
0001c0 90 dc d7 33 4e ce 81 b4 b2 5c 55 36 5a 64 09 34
       1.0051838e-07 -2.417823e-07 3.179343e-06 1.2795627e-07
0001d0 bd d5 ab 36 a9 1f 81 b5 84 41 12 37 fa c9 47 36
       5.1210795e-06 -9.620463e-07 8.717532e-06 2.9770877e-06
0001e0 3a 4b 40 36 46 f7 50 35 f6 4d a1 36 c4 c1 38 b5
       2.8654017e-06 7.784587e-07 4.8072498e-06 -6.882731e-07
0001f0 2e f5 e2 b4 6d 27 34 b6 28 9b ca b5 93 49 89 37
       -4.2274172e-07 -2.684504e-06 -1.5095329e-06 1.6365933e-05
