Assets/results/ppo/JumperAgent/JumperAgent-45064.onnx (onnx, 91980 bytes, 6 tensors)

network_body._body_endoder.seq_layers.0.weight f4 [128, 42]
0	0x3e40b6aa	0.18819681
1	0x3e2992ae	0.1655986
2	0xbdc2ffe3	-0.09521463
3	0x3c4666b0	0.012109444
4	0x3e040805	0.12893684
5	0xbe39984e	-0.18124506
6	0x3d0e1614	0.034689024
7	0xbe772337	-0.24134527
8	0xbc810b5d	-0.015752489
9	0xbcdf87c8	-0.027286425
10	0x3dc5b9ac	0.09654555
11	0xbc8ee745	-0.017444262
12	0xbdd989cf	-0.10621988
13	0x3e43f827	0.19137631
14	0xbddd363d	-0.10801361
15	0xbe6ac344	-0.2292605
16	0x3da77c1a	0.08177967
17	0xbd888724	-0.06666401
18	0xbb6f7206	-0.003653647
19	0xbe12f11c	-0.14349788
20	0x3e57662a	0.21035066
21	0x3d555420	0.05208218
22	0x3e155208	0.14582074
23	0x3ddfc609	0.10926444
24	0xbe4c0a8c	-0.19925898
25	0xbe7e600a	-0.24841323
26	0xbe02f27e	-0.12787816
27	0x3e078288	0.13233387
28	0xbe34106a	-0.17584386
29	0x3e62e59a	0.22157899
30	0x3d2ad11c	0.04170333
31	0x3e6b09f9	0.22953023
32	0x3e30f60d	0.17281361
33	0x3d2485a3	0.04016651
34	0x3d22d5bc	0.039754614
35	0xbe0aa481	-0.13539316
36	0xbc535d54	-0.012900669
37	0xbcf1f7ce	-0.029537108
38	0x3e32381b	0.17404215
39	0x3e8f6894	0.28009474
40	0x3e0eb952	0.13937882
41	0x3d00cd2b	0.031445663
42	0x3e9d0b53	0.30672702
43	0x3e5d8ad5	0.21634991
44	0x3d7195b5	0.058980662
45	0xbc673aa1	-0.014113099
46	0xbdbc9f25	-0.09210042
47	0x3dc3ea3d	0.09566162
48	0x3e484046	0.19555768
49	0x3dd0ee2e	0.10201679
50	0x3c398760	0.01132378
51	0xbdfe7918	-0.124254405
52	0xbd529e81	-0.051420692
53	0xbe9e97c4	-0.30975163
54	0x3cd550c5	0.02603949
55	0xbdfbea5f	-0.12300562
56	0x3c905e48	0.017623082
57	0x3e2de8a0	0.1698327
58	0x3e250d4d	0.16118355
59	0x3c4006dc	0.011720385
60	0xbe3f4397	-0.18678127
61	0xbc8235db	-0.01589482
62	0x3d975dd1	0.07390941
63	0xbdba9be5	-0.09111766
64	0x3c75faf3	0.015013444
65	0xbdbd0c43	-0.09230854
66	0xbd39e3b8	-0.045383185
67	0x3e748201	0.23877718
68	0xbaddb7c1	-0.0016915725
69	0xbe6edc72	-0.2332628
70	0xbe00ba9d	-0.12571187
71	0xbe3587e1	-0.17727615
72	0x3ce604ae	0.028078403
73	0xbd7b52d4	-0.061358288
74	0x3ad4dc6f	0.0016240011
75	0xbd6d086f	-0.05786937
76	0x3e80ca0b	0.25154147
77	0xbdfb7531	-0.12278212
78	0xbc7a8ae6	-0.015291905
79	0x3df3ae02	0.11898424
80	0xbe8f0beb	-0.2793878
81	0xbdde5e8c	-0.10857877
82	0xbe51a172	-0.20471743
83	0xbd806f4a	-0.06271227
84	0x3d6902fa	0.056887604
85	0xbdc7b304	-0.097509414
86	0x3d83aa91	0.06429017
87	0x3e567d8f	0.20946334
88	0xbd58afc7	-0.05290201
89	0x3db1fe0b	0.08691033
90	0xbd2521a8	-0.0403153
91	0x3b2dc4b2	0.0026514945
92	0x3d33b7b4	0.043876365
93	0x3cf487d1	0.029849919
94	0xbd913211	-0.070896275
95	0xbdd8d870	-0.10588157
96	0x3dc6f378	0.09714407
97	0xbe01caca	-0.12675014
98	0xbe996713	-0.29961452
99	0x3dbcbda1	0.09215856
100	0x3e15321c	0.14569896
101	0x3de154ac	0.11002478
102	0x3b1d3e80	0.0023993552
103	0xbe802b01	-0.2503281
104	0x3c4827a2	0.01221648
105	0x3e9d4dda	0.3072346
106	0x3d21be9d	0.039488424
107	0x3e7be2a1	0.24598171
108	0xbea20c8a	-0.31650192
109	0xbebad3c8	-0.364897
110	0xbe3cbfd1	-0.18432547
111	0x3be21ade	0.0069001755
112	0xbde25171	-0.1105069
113	0x3e01ccbb	0.12675755
114	0x3d67052a	0.05640141
115	0xbdbcbc2f	-0.09215581
116	0xbe2443fc	-0.16041559
117	0xbca7f92d	-0.020504558
118	0xbdd974e7	-0.106180005
119	0x3d9353a3	0.07193687
120	0xbe3a1572	-0.18172243
121	0xbe15a3a9	-0.14613213
122	0x3ed8099b	0.42194828
123	0x3d245328	0.040118366
124	0x3e8b1ed8	0.2717197
125	0x3d3d63dd	0.046237815
126	0xbce9f081	-0.028557064
127	0xbdc633d5	-0.09677855
128	0x3ed965ac	0.42460382
129	0xbefa68b0	-0.48907995
130	0x3e0a3bff	0.13499449
131	0xbde245f3	-0.11048498
132	0xbe4bf1b0	-0.19916415
133	0xbd221124	-0.039567128
134	0x3e18fabc	0.14939398
135	0x3dcf9628	0.10136062
136	0x3e2e248d	0.1700613
137	0x3ca95dca	0.020674605
138	0xbe2343af	-0.15943788
139	0xbe123972	-0.14279726
140	0x3e72942d	0.23689337
141	0x3e275df3	0.16344433
142	0xbddfed6f	-0.10933959
143	0x3ea52d56	0.3226115
144	0x3e0ac7d8	0.13552797
145	0x3e6a7363	0.22895579
146	0x3e425326	0.18977031
147	0xbdaa9746	-0.08329634
148	0xbda05178	-0.07828039
149	0xbe50c076	-0.20385918
150	0xbe0c23bd	-0.13685508
151	0x3d14de60	0.036344886
152	0xbd93b8b0	-0.07212961
153	0xbd84d866	-0.06486587
154	0x3c95c8c6	0.018284213
155	0xbe2ef34f	-0.17085002
156	0x3d8bd332	0.06827392
157	0xbda278bf	-0.07933187
158	0xbe6cf749	-0.23141207
159	0x3e57c7a7	0.21072255
160	0x3e36307c	0.17791933
161	0x3d792537	0.060826506
162	0x3e932bd1	0.28744367
163	0x3d943d1b	0.072382174
164	0x3e0fc356	0.14039358
165	0x3df1ddc7	0.11809879
166	0x3c5d0d6a	0.013491968
167	0x3cd7334a	0.026269574
168	0xbd16fd2a	-0.03686253
169	0x3e32788d	0.17428799
170	0x3db26465	0.08710555
171	0xbdf13e6a	-0.11779483
172	0x3b44cc6d	0.0030029074
173	0xbe22f40b	-0.15913408
174	0xbe9e61ce	-0.30933994
175	0xbd4c88ae	-0.049935035
176	0x3dcae6a1	0.0990727
177	0x3d2028f6	0.039101563
178	0xbb297ade	-0.0025860588
179	0xbdcac49c	-0.099007815
180	0xbdeaf243	-0.11471989
181	0xbe0bddd4	-0.1365884
182	0xbe80f450	-0.25186396
183	0xbbcceffc	-0.0062541943
184	0x3de0de4a	0.10979898
185	0x3e19bd58	0.15013635
186	0xbd1b45e0	-0.037908435
187	0xbe4ad52a	-0.19807878
188	0xbcc49d40	-0.024000764
189	0x3d98e32a	0.07465203
190	0xbddcdb80	-0.10784054
191	0x3d85513c	0.06509635
192	0xbdee2e0c	-0.116298765
193	0x3ed0afe8	0.40759206
194	0x3dc5b568	0.09653741
195	0x3e626c66	0.22111663
196	0xbde12589	-0.109934874
197	0xbdfc86bc	-0.12330386
198	0x3dba4022	0.090942636
199	0x3dfb8576	0.12281315
200	0x3d26bef4	0.04070945
201	0xbd0043cd	-0.03131466
202	0x3e78e801	0.24307252
203	0xbde958a8	-0.11393863
204	0xbe21f30c	-0.15815371
205	0x3e15bf09	0.14623655
206	0xbd232c23	-0.039837014
207	0xbe585ab0	-0.21128345
208	0x3e144cfa	0.14482489
209	0xbd98d762	-0.07462956
210	0x3db45c0d	0.0880662
211	0x3c84f088	0.016227975
212	0xbe45d622	-0.19319966
213	0xbd20f646	-0.039297365
214	0x3e01f7c7	0.12692176
215	0x3cb95175	0.02262185
216	0x3df9b1df	0.12192129
217	0x3dbc2635	0.09186975
218	0x3dcc3e48	0.09972817
219	0x3e2c9908	0.16855252
220	0x3db8d86a	0.09025653
221	0xbd194641	-0.037420515
222	0x3bad124d	0.0052817226
223	0x3db54653	0.08851304
224	0xbccab197	-0.024742885
225	0x3e3489cf	0.17630695
226	0xbd303028	-0.043014675
227	0xbd62ab09	-0.055338893
228	0x3e779131	0.2417648
229	0xbd9c3517	-0.076273136
230	0x3dc8ef8c	0.09811315
231	0xbd2adb4f	-0.041713055
232	0xbcfabf82	-0.030608896
233	0xbd5bfc48	-0.05370739
234	0x3e128931	0.14310147
235	0xbd1e6f0f	-0.038680132
236	0xbc7c2212	-0.015388982
237	0x3d4f34dc	0.05058752
238	0xbd4efca5	-0.05053391
239	0x3df91ead	0.12164054
240	0x3d28e661	0.04123533
241	0x3e13b66b	0.14425056
242	0xbea1ff23	-0.31639966
243	0x3c56755e	0.013089506
244	0x3d99abb7	0.07503455
245	0xbe1935ce	-0.14961931
246	0xbe9ab60c	-0.30217016
247	0x3dc045e1	0.09388328
248	0x3e92bf1f	0.2866144
249	0x3e8d52e3	0.276023
250	0x3e16ea5e	0.14737841
251	0x3e90c297	0.2827346
252	0x3abb20cc	0.0014276742
253	0x3d8eec3f	0.06978654
254	0xbe4f2ca2	-0.2023187
255	0x3e3b64af	0.18300126

network_body._body_endoder.seq_layers.0.bias f4 [128]
0	0x3c513f27	0.012771404
1	0xbc5154bc	-0.01277655
2	0x3c4aecbc	0.012385543
3	0x3c2ed443	0.010670724
4	0x3935622a	0.00017298074
5	0x3c7bbcec	0.015364867
6	0xbc4ee560	-0.012627929
7	0x3bb956b5	0.0056560882
8	0x3b38ac3b	0.002817883
9	0x3c563a8d	0.013075483
10	0xbc6ed365	-0.014576768
11	0x3c5e6640	0.013574183
12	0x3c3c7a8d	0.011503828
13	0x3c40a081	0.011757017
14	0x3c30cf49	0.010791608
15	0x3c2002cb	0.009766291
16	0xbba20a9f	-0.004945114
17	0x3a980074	0.0011596815
18	0x3b76a8c4	0.0037637213
19	0xbc484680	-0.01222384
20	0xbc37aa67	-0.011210061
21	0x3c681969	0.0141662145
22	0x3c657875	0.01400577
23	0x3c4caffc	0.01249313
24	0x3c42e74b	0.011895965
25	0x3c59ca1e	0.013292817
26	0x3c39bbcd	0.011336279
27	0x3c67c878	0.014146917
28	0xbbdc9fd1	-0.006732919
29	0x3c6fd719	0.014638686
30	0xbc619cca	-0.013770292
31	0xbc50a95d	-0.012735692
32	0x3c3c3cb1	0.011489079
33	0x3c3bea22	0.011469396
34	0xbae95000	-0.0017800331
35	0x3c5b4044	0.013382021
36	0x3c620e0b	0.013797293
37	0x3c62db2c	0.0138462
38	0xbaaa661c	-0.0013000402
39	0xbba0a8ee	-0.0049029505
40	0xbb9e5c4f	-0.0048327814
41	0x3c41c733	0.011827278
42	0xbbefac96	-0.007314275
43	0xbb38cdc0	-0.0028198808
44	0x3c40c4bd	0.011765656
45	0x3c600575	0.013673176
46	0xbbf0c4b9	-0.00734767
47	0x3b44341b	0.0029938284
48	0xba217fd3	-0.000616071
49	0x3c45bb64	0.012068603
50	0xbc711a0e	-0.014715685
51	0x3a9a8086	0.001178757
52	0x3c43f256	0.011959633
53	0x3c6e36f1	0.014539466
54	0x3c334108	0.010940798
55	0x3c1d710b	0.009609471
56	0x3c409eeb	0.011756639
57	0xbc50552f	-0.012715622
58	0xbc5f284e	-0.013620449
59	0xbc4a355c	-0.012341823
60	0xbbe79fcf	-0.007068611
61	0x3c301420	0.010746986
62	0xbbeed75c	-0.0072888564
63	0xbbe8a6fc	-0.007099984
64	0x3c52c52a	0.01286439
65	0xbb8e99f6	-0.0043518497
66	0xbc753230	-0.014965579
67	0x3c447137	0.011989883
68	0xbc215db3	-0.009849
69	0xbc361921	-0.01111439
70	0x3bda1945	0.0066558444
71	0x3c1ad5bb	0.009450371
72	0xbb2eecd1	-0.0026691447
73	0xbc580ec6	-0.013187116
74	0xbc3fef9c	-0.011714842
75	0x3c34a9e3	0.011026832
76	0xbc395a4e	-0.011313034
77	0x3c3ddc0d	0.011588109
78	0xbc3aa3e4	-0.011391614
79	0x3c4f1af6	0.012640705
80	0xbc27af56	-0.010234674
81	0x3c6c5e7e	0.014426826
82	0x3c5989b5	0.013277461
83	0x3c5c6cb3	0.01345365
84	0x3c53c0f9	0.012924426
85	0xbc3a2745	-0.011361902
86	0x3c5e91b6	0.013584545
87	0xbb397ac9	-0.0028301945
88	0xbbeeb09a	-0.007284236
89	0xbc5c0ae8	-0.013430335
90	0x3c8994b1	0.016794534
91	0x3c4fdbb3	0.012686658
92	0xbc4ac924	-0.012377057
93	0xb92fc616	-0.00016763093
94	0xbbace18f	-0.005275912
95	0x3bc685b5	0.0060584196
96	0x3c6e9f99	0.014564418
97	0x3c4af30a	0.012387047
98	0xba3bf8d9	-0.0007170565
99	0xbb956f40	-0.004560381
100	0x3c43c0ad	0.011947793
101	0xbb685be5	-0.0035455164
102	0xbb98d235	-0.0046637305
103	0x3c588da6	0.013217365
104	0x3c1b760e	0.009488596
105	0x3c71ecef	0.014765962
106	0x3c3fda3e	0.011709748
107	0xbb9bb2bd	-0.004751532
108	0xbc37e43c	-0.011223849
109	0xbc5abaee	-0.013350232
110	0x3c532c1a	0.012888933
111	0xbc2972f0	-0.010342345
112	0xbc3b2d44	-0.011424366
113	0xbc690de4	-0.014224503
114	0xbba7e057	-0.005123179
115	0x3c5317e7	0.012884117
116	0xbc75b757	-0.014997325
117	0x3c546ceb	0.012965421
118	0xbacb0af3	-0.0015490934
119	0x3c4c22f9	0.01245951
120	0x3c658fd7	0.014011345
121	0x3c5e3069	0.013561347
122	0xbc806374	-0.015672423
123	0xbc3dc4bd	-0.011582551
124	0x3c1218c5	0.008917038
125	0x3c54b7e9	0.012983301
126	0x3c64c529	0.013963022
127	0x3c65bb9e	0.014021782

network_body._body_endoder.seq_layers.2.weight f4 [128, 128]
0	0x3d6fa2fc	0.058505043
1	0x3d02fddb	0.031980377
2	0x3c9e7a19	0.01934533
3	0xbc80f046	-0.015739571
4	0xbdeac3d2	-0.11463131
5	0xbd1b790d	-0.03795724
6	0x3dbb05fc	0.09132001
7	0x3cd8d4cc	0.026468657
8	0xbdfd7a23	-0.12376811
9	0xbd1d25c9	-0.038366113
10	0xbd2fd43e	-0.04292702
11	0xbbc210d2	-0.0059224153
12	0xbe01c84e	-0.12674066
13	0xbc91fc86	-0.017820608
14	0x3df9537a	0.12174125
15	0xbe04007d	-0.12890811
16	0x3e044116	0.12915453
17	0xbd03ef07	-0.032210376
18	0xbc805f19	-0.015670346
19	0xbe0ad127	-0.13556348
20	0x3e1b9d73	0.15196781
21	0xbcc3db1a	-0.023908187
22	0xbd968632	-0.073498145
23	0x3d575338	0.052569598
24	0xbd05ba19	-0.03264818
25	0xbdf398ba	-0.11894365
26	0x3d471383	0.048602592
27	0xbd0a8397	-0.0338169
28	0x3d5f73ec	0.05455391
29	0xbdc52177	-0.096255235
30	0x3e072bbf	0.13200282
31	0x3c495c0f	0.012290015
32	0x3cdcbe22	0.026946131
33	0xbd406144	-0.04696776
34	0x3cc018ca	0.02344932
35	0xbb7fe43f	-0.0039045957
36	0x3c91627d	0.017747158
37	0x3c70f7da	0.01470753
38	0xbd3796b6	-0.044821464
39	0xbd5a5dc8	-0.053312093
40	0xbc44db24	-0.012015138
41	0x3dfe0739	0.12403721
42	0xbcf17af5	-0.029477576
43	0x3e590d76	0.21196541
44	0x3c81c933	0.01584301
45	0x3dbb8478	0.09156126
46	0x3e11d890	0.14242768
47	0x3d3f7c7e	0.046749584
48	0xbdf05229	-0.11734421
49	0x3e1d69e6	0.15372428
50	0x3d68f080	0.056869984
51	0x3d354f2c	0.044264957
52	0x3e0d0e31	0.13774945
53	0xbcb98274	-0.022645213
54	0xbc68b672	-0.014203655
55	0x3aca4ccb	0.0015434263
56	0x3d03c599	0.032170866
57	0xbd3cf6ee	-0.046133928
58	0xbd1e28c6	-0.038613103
59	0x3ca88e19	0.02057557
60	0xbdd5474e	-0.10413991
61	0xbc98a88c	-0.018635057
62	0xbdc85129	-0.09781105
63	0xbc1a37ae	-0.009412689
64	0x3de05054	0.109528214
65	0xbb051dfe	-0.0020312066
66	0xbb4fe767	-0.003172362
67	0x3e15fc64	0.1464706
68	0x3d903a9c	0.07042429
69	0xbd35e0d9	-0.044403885
70	0xbe3cfd52	-0.18456009
71	0xbd56d73c	-0.052451357
72	0x3e009dd3	0.12560205
73	0x3c907aa2	0.0176366
74	0xbd8838c1	-0.0665145
75	0x3d6ec0de	0.0582894
76	0xbd8302b3	-0.06396999
77	0x3e121bf8	0.14268482
78	0x3c94f6e7	0.018184138
79	0x3da8202d	0.08209262
80	0xbb51893a	-0.0031972663
81	0xbde3679a	-0.11103745
82	0xbd2b8729	-0.041876946
83	0x3ca8d50e	0.020609405
84	0xbd672c46	-0.056438707
85	0x3c2aaec6	0.010417646
86	0x3cd6bd8a	0.026213426
87	0xbe1128fd	-0.14175792
88	0xbdd183ba	-0.10230203
89	0x3d3dd01b	0.046341043
90	0x3dce5572	0.10074891
91	0x3e0096cf	0.12557529
92	0x3c9b636d	0.018968308
93	0x3d00e795	0.031470854
94	0xbd91864c	-0.07105693
95	0xbc8c5ae0	-0.017133176
96	0x3d0274ec	0.031849787
97	0xbcd2ebe3	-0.025747245
98	0x3d976d6f	0.0739392
99	0x3ca6cb63	0.020360654
100	0x3d1275bb	0.035756808
101	0x3ddf7623	0.10911205
102	0xbd93b204	-0.07211688
103	0xbdb40dfd	-0.087917306
104	0xbd916c7d	-0.071007706
105	0xbd7e077a	-0.06201885
106	0xbd7ef334	-0.062243655
107	0x3c85ffe6	0.016357373
108	0xbcc328f5	-0.02382324
109	0x3c87c4fd	0.016573424
110	0xbd9bbb78	-0.07604116
111	0x3e0ad804	0.13558966
112	0x3d8bd0ad	0.06826911
113	0x3bd1257e	0.0063826432
114	0xbd33ef5c	-0.043929443
115	0x3d493727	0.049124863
116	0xbc8b27c8	-0.016986743
117	0xbd09b6a1	-0.033621434
118	0x3de58bb9	0.112082906
119	0xbe130806	-0.1435853
120	0xbe2cd9a9	-0.16879906
121	0xbcc8290d	-0.024433637
122	0x3e14fad7	0.14548813
123	0xbda4662d	-0.08027301
124	0x3db6a479	0.089180894
125	0xbc0ac122	-0.008468898
126	0xbe07e548	-0.13271058
127	0x3da6e2f2	0.08148755
128	0xbde07370	-0.10959518
129	0xbe75edc7	-0.24016486
130	0xbcc207d8	-0.02368538
131	0x3cd7b81b	0.026332906
132	0xbb666220	-0.0035153702
133	0xbd36bcff	-0.044613834
134	0xbbc02771	-0.005864077
135	0xbd8d68cf	-0.06904756
136	0xbdaee0db	-0.085389815
137	0xbc2b138b	-0.010441671
138	0x3b98acb7	0.004659261
139	0xbdbb2177	-0.09137242
140	0x3d6681e1	0.056276206
141	0xbd96c2ca	-0.07361372
142	0xbe2d4ffd	-0.16925044
143	0xbe29b487	-0.16572772
144	0xbd29764c	-0.041372582
145	0xbc2601dc	-0.010132279
146	0x3d9b7d87	0.07592302
147	0x3b7617c4	0.0037550787
148	0x3d3f7491	0.046742026
149	0xbcfd566c	-0.030924998
150	0x3bd46ccc	0.006482696
151	0x3da40b88	0.08010012
152	0xbd469faf	-0.04849213
153	0x3cfe73b8	0.031061038
154	0x3d14a492	0.03628976
155	0x3b82d902	0.0039931545
156	0xbdd9e3da	-0.10639162
157	0x3dd6a3c6	0.10480456
158	0xbd9ce747	-0.076613
159	0xbd251583	-0.04030372
160	0x3de13425	0.10996274
161	0x3e0beed0	0.13665318
162	0x3ccbd645	0.024882445
163	0x3d002c19	0.031292055
164	0xbc26b87c	-0.01017582
165	0x3d42b090	0.047531664
166	0x3d298aa3	0.04139198
167	0xbd22a09d	-0.039703954
168	0x3c870896	0.016483586
169	0xbd7c1a31	-0.061548416
170	0xbe0f316f	-0.13983701
171	0x3e3ce19b	0.18445437
172	0x3cf2ef02	0.029654983
173	0xbc6b188f	-0.014349117
174	0x3d7afc53	0.06127579
175	0x3db0a2b4	0.08624783
176	0x3c36963e	0.011144219
177	0xbd0da31b	-0.034579378
178	0x3d8eb839	0.069687314
179	0xbd109280	-0.035295963
180	0x3daeec1f	0.0854113
181	0x3d89bcce	0.06725465
182	0x3d142084	0.03616382
183	0x3aa10899	0.0012285887
184	0x3d63eb30	0.055644214
185	0x3deb36f6	0.11485092
186	0xbda17c66	-0.07885055
187	0x3d096f60	0.03355348
188	0xbde2c195	-0.11072079
189	0xbe29039a	-0.1650528
190	0x3dbabfd1	0.09118617
191	0xbe0f8397	-0.14015041
192	0x3c941dbe	0.018080588
193	0xbe1af037	-0.15130697
194	0x3dd260d4	0.10272375
195	0xbde22012	-0.11041273
196	0xbcb5fec7	-0.022216214
197	0x3d0cbafe	0.034358017
198	0xbd77f851	-0.060539547
199	0x3e3fdddd	0.18736978
200	0xbe14c455	-0.1452802
201	0xbd2c9c15	-0.04214104
202	0xbba8bf48	-0.0051497556
203	0xbe5d925b	-0.21637861
204	0x3d06498a	0.032784976
205	0xbb5a00d8	-0.0033264663
206	0xbe31fdf3	-0.1738203
207	0x3d96ad8c	0.0735732
208	0xbcafadfd	-0.021445269
209	0x3cbca435	0.023027519
210	0x3ca5f11c	0.020256571
211	0xbc42acb0	-0.011881992
212	0xbdd32475	-0.10309688
213	0x3db836db	0.08994838
214	0xbd9d959a	-0.0769455
215	0x3cac3032	0.021019075
216	0x3dd7720e	0.10519801
217	0x3d47f42a	0.048816837
218	0xbd352a03	-0.04422952
219	0x3a98cd65	0.0011657892
220	0xbc78e482	-0.015191199
221	0x3c620635	0.013795425
222	0xbc05735c	-0.00814518
223	0xbd67e33e	-0.0566132
224	0xbc84c617	-0.016207738
225	0xbd4cf179	-0.050034974
226	0x3c8b8eb0	0.017035812
227	0x3d7a4766	0.061103247
228	0x3ca614e1	0.020273628
229	0x3ccc0fd0	0.024909884
230	0x3d752799	0.059852216
231	0x3afd5de9	0.0019330356
232	0x394bcce4	0.00019435916
233	0x3d87c353	0.06629052
234	0xbd041597	-0.032247152
235	0xbc352d19	-0.011058115
236	0xbbbfc945	-0.0058528506
237	0xbe06ffe2	-0.13183549
238	0xbcb56ab9	-0.022145616
239	0x3e045386	0.12922487
240	0xbb822c0e	-0.003972537
241	0xbd7e46a4	-0.062079087
242	0x3d6ab367	0.057299998
243	0xbd016785	-0.031592865
244	0xbe065e19	-0.13121833
245	0xbc2e694c	-0.010645222
246	0x3dc90cd5	0.09816901
247	0xbd9b000a	-0.07568367
248	0xbd912bbd	-0.070884205
249	0x3d00a852	0.031410523
250	0xbd9b68b1	-0.07588328
251	0x3c59e107	0.01329828
252	0x3cd7ae9d	0.02632838
253	0xbe589abe	-0.2115278
254	0xb9c52003	-0.0003759862
255	0xbd74d404	-0.059772506

network_body._body_endoder.seq_layers.2.bias f4 [128]
0	0xbc410487	-0.011780865
1	0xbc4a91b1	-0.012363837
2	0xbc517175	-0.012783398
3	0x3c139683	0.009008053
4	0xbb8d0ed8	-0.004304748
5	0x3c30c58f	0.010789289
6	0xbc40dba8	-0.01177112
7	0xbc4268c5	-0.011865799
8	0x3c333310	0.010937467
9	0xbae12e8b	-0.0017180009
10	0xbc3de32c	-0.0115898065
11	0x3c5f0aec	0.013613444
12	0x3c487ff0	0.012237534
13	0xbc5eea50	-0.013605669
14	0xbb0af09a	-0.0021200539
15	0x3c50e38d	0.012749565
16	0xbc421fd1	-0.011848406
17	0x3c1e365b	0.009656514
18	0xbaf09a61	-0.0018356555
19	0x3c28e9a8	0.010309614
20	0x3c1ffde2	0.00976512
21	0xbc32fe7d	-0.010924933
22	0xbc514c31	-0.012774513
23	0x3c6017d4	0.013677556
24	0xbc3bbbad	-0.01145832
25	0x3ba307b0	0.0049752817
26	0xbbe0123d	-0.0068381117
27	0xbc5ca815	-0.013467808
28	0x3c5854f3	0.013203847
29	0x391f20d6	0.00015175654
30	0xbc427a3c	-0.011869963
31	0xbc4e7ff9	-0.012603753
32	0xbaefc792	-0.001829373
33	0x3c58fc2b	0.013243715
34	0x3c4e3bf9	0.012587541
35	0xbb306431	-0.0026915187
36	0x3c53031e	0.012879161
37	0xbc512dc0	-0.012767255
38	0xbc52521f	-0.012836962
39	0x3b737377	0.003714768
40	0xbc190dc6	-0.009341663
41	0xbb6e2ee6	-0.0036343872
42	0x3c5cd249	0.01347787
43	0x3c587e0d	0.013213647
44	0x3c4fcb7b	0.012682791
45	0x3c332cf4	0.010936011
46	0xbc2af14d	-0.010433507
47	0xbb885cb4	-0.0041614417
48	0x3c54f9be	0.012998996
49	0xbc605a8f	-0.013693466
50	0xbb06d569	-0.002057398
51	0x3c5dac98	0.013529919
52	0xbc1ee167	-0.009697295
53	0x3c2a41cf	0.010391667
54	0xbc2d61bc	-0.010582384
55	0x3c60caa4	0.013720188
56	0x3c51a6d2	0.012796121
57	0xbb1f22fa	-0.0024282322
58	0x3c503caa	0.012709776
59	0x3c57650c	0.01314665
60	0xbc4ea54f	-0.012612655
61	0xbc359012	-0.011081712
62	0x3b39e058	0.002836248
63	0x3bec78cf	0.00721655
64	0x3b65cbe5	0.0035064158
65	0xbc4cf889	-0.012510427
66	0x3c459dde	0.012061564
67	0x3c550942	0.0130026955
68	0x3c5feaaa	0.013666788
69	0x3c5947d7	0.013261757
70	0xbc4d78eb	-0.012541036
71	0x3c50fd3a	0.012755686
72	0x3c55c5dc	0.013047662
73	0x3c46d2f0	0.012135252
74	0x3bdcb08e	0.006734914
75	0x3c5cf4d4	0.013486106
76	0xbc528b1c	-0.012850549
77	0xbc59d872	-0.0132962335
78	0xbc3c6d28	-0.011500634
79	0x3c490a95	0.012270589
80	0x3c49f30c	0.012326013
81	0x3c5d400e	0.013504041
82	0xbba1d30e	-0.0049384898
83	0x3c54ab62	0.012980314
84	0x3c584b9b	0.0132016195
85	0x3c5e83f9	0.013581269
86	0x3aabde04	0.001311243
87	0x3c5b25db	0.013375725
88	0x3c1c4182	0.009537103
89	0x3c6406b7	0.013917617
90	0x3c5bd4ff	0.013417481
91	0x3c41068a	0.011781344
92	0x3c066443	0.008202615
93	0xbc1c65fc	-0.009545799
94	0x3c580348	0.013184376
95	0xbb47170a	-0.0030378723
96	0xbb78856f	-0.003792133
97	0x3c48cda8	0.0122560635
98	0x3c573a3b	0.013136442
99	0x3c1ef14a	0.0097010825
100	0x3c4900fe	0.012268303
101	0x3b915e16	0.0044362647
102	0x3c3d5e50	0.01155813
103	0xbc48b93b	-0.012251194
104	0x3c4c42c9	0.012467095
105	0xbc274c29	-0.010211029
106	0x3c536a1f	0.012903719
107	0x3c602c71	0.013682471
108	0x3c4d2b2f	0.012522503
109	0x3c5aac8c	0.013346802
110	0x3c47fe7b	0.012206669
111	0xbc2f669e	-0.010705618
112	0xbbda8b14	-0.0066694114
113	0xbc385ef2	-0.0112531055
114	0x3c4b2074	0.012397874
115	0xbc3db671	-0.011579142
116	0x3c5721b0	0.01313059
117	0xbc3d3553	-0.011548358
118	0xbc2ef157	-0.010677657
119	0xbc43fa3f	-0.011961519
120	0x3c63eb94	0.013911147
121	0x3ad22b5a	0.0016034648
122	0x3c4ea35d	0.012612191
123	0x3c646967	0.0139411455
124	0x3c457bf7	0.012053481
125	0xbc270969	-0.010195115
126	0x3c17275a	0.009225691
127	0x3c5b52b6	0.013386419

action_model._discrete_distribution.branches.0.weight f4 [2, 128]
0	0xbc27575d	-0.0102137
1	0xbc554a0f	-0.013018145
2	0xbccdb139	-0.02510892
3	0x3cb08598	0.021548077
4	0x3bed2703	0.0072373166
5	0x3c4dbb48	0.012556858
6	0xbcd54d2f	-0.02603778
7	0xbc34a8b6	-0.011026552
8	0x3c5ca906	0.013468033
9	0xbbc996e6	-0.0061520217
10	0xbc6144b9	-0.013749295
11	0x3d0fe456	0.035129867
12	0x3c1d7e21	0.009612591
13	0xbbf8c00b	-0.0075912527
14	0x3c8659d4	0.016400255
15	0x3cc04326	0.023469519
16	0xbca3ccdb	-0.019995144
17	0xba710623	-0.0009194335
18	0xbc11bda9	-0.008895316
19	0xbbf1e226	-0.0073816953
20	0x3c96a949	0.018391268
21	0xbc8b506f	-0.017006127
22	0x3b83a56d	0.004017523
23	0x3bac44a4	0.005257206
24	0xbc835f64	-0.016036697
25	0xbc45de8b	-0.012076984
26	0x3c288c28	0.010287322
27	0xbc33d642	-0.010976376
28	0x3c501996	0.012701413
29	0xbc4bb06a	-0.012432197
30	0xbb06c385	-0.0020563316
31	0xbc49f21d	-0.012325791
32	0xbb9bddd2	-0.0047566677
33	0x3c313f9b	0.010818387
34	0x3cb28c33	0.021795368
35	0x3b2a93ca	0.002602803
36	0x3c5a1043	0.013309541
37	0xbc270e60	-0.010196298
38	0xbc7ff16f	-0.015621527
39	0x3c770e4a	0.01507909
40	0xbb876081	-0.004131377
41	0xbc24d8e7	-0.010061479
42	0xba64699c	-0.0008713247
43	0x3c5841f4	0.013199318
44	0x3cb50d76	0.022101145
45	0xba3f980b	-0.0007308728
46	0xbb74e74f	-0.0037369316
47	0xbc50b9ad	-0.012739581
48	0x3c5a5133	0.013325023
49	0xbc33706e	-0.010952098
50	0xbc0295bd	-0.007970271
51	0x3cb94a4b	0.022618433
52	0xbc96e6ec	-0.018420659
53	0x3be79250	0.0070670024
54	0xbc09e08e	-0.008415354
55	0x3c97a7f0	0.018512696
56	0x3cd48710	0.02594331
57	0xbb3d47ae	-0.0028881836
58	0x3c69285d	0.014230815
59	0x3ca196b2	0.019725177
60	0xbc8b9136	-0.017037015
61	0xbb230b12	-0.0024878425
62	0xbb70d2db	-0.0036746773
63	0x3bf6de8a	0.007533853
64	0xbb3ac266	-0.0028497218
65	0x3af0d4ca	0.0018373963
66	0x3b7b45ae	0.0038341093
67	0x3cb75207	0.02237798
68	0x3c0cc003	0.008590701
69	0x3bb548a4	0.005532341
70	0xbca7317d	-0.02040934
71	0x3c9f8f1a	0.019477416
72	0x3bed9254	0.0072501097
73	0x3ca4797f	0.020077465
74	0xbafa643d	-0.001910336
75	0x3c752e3a	0.014964635
76	0xbc4643b0	-0.012101099
77	0xbca7296a	-0.02040549
78	0xbc24e39f	-0.010064035
79	0x3c2ef51f	0.010678559
80	0x3c314256	0.010819038
81	0x3c106ce6	0.008815026
82	0xbbee9215	-0.007280598
83	0x3ce306c9	0.027713196
84	0x3c0e834c	0.008698296
85	0x3cda09bd	0.026615972
86	0xbaf847e8	-0.0018942328
87	0x3b450942	0.0030065333
88	0x3c88e436	0.016710382
89	0x3cb04dfc	0.02152156
90	0x3c528872	0.012849914
91	0x3b85ebaf	0.0040869336
92	0x3c4ad863	0.012380692
93	0xbc954908	-0.0182233
94	0x3c0359ef	0.008017047
95	0xbbc31e3e	-0.005954533
96	0x3b45d9e4	0.0030189687
97	0x3c2f7c8f	0.010710849
98	0x3c77bfcb	0.015121411
99	0xbbacc118	-0.005272042
100	0x3ca20ccc	0.019781493
101	0x3b964038	0.004585292
102	0x3bc299f1	0.0059387614
103	0xbc97ff35	-0.01855431
104	0x3c5b9ae3	0.013403627
105	0xbc93c9f4	-0.018040635
106	0x3ca56036	0.020187479
107	0x3c824190	0.015900403
108	0x3c83cf6d	0.01609012
109	0x3c520cd7	0.012820444
110	0x3c8efd9f	0.01745492
111	0xbbde7194	-0.006788442
112	0xbbc9bab0	-0.006156288
113	0xbcc81873	-0.02442572
114	0x3cb1f5e3	0.021723693
115	0xbc60a27d	-0.013710615
116	0x3cb39be6	0.021924924
117	0xbb355fc2	-0.0027675484
118	0xbcb32ced	-0.021872008
119	0xbc9e552d	-0.019327724
120	0x3c4890c2	0.012241544
121	0x3c6abe47	0.014327592
122	0x3ce6c7a8	0.028171375
123	0x3c44075b	0.011964644
124	0x3c26b61b	0.010175253
125	0xbcbe6210	-0.02324012
126	0x3b9dea2b	0.0048191748
127	0x3ccb4580	0.024813414
128	0x3c7cdc73	0.015433419
129	0x3cacc620	0.021090567
130	0x3d0cb4b4	0.03435202
131	0xbaf1911f	-0.001843009
132	0x38f9cb00	0.00011911057
133	0x3b06b3e0	0.0020553991
134	0x3c176a59	0.009241664
135	0x3bdc5047	0.006723437
136	0xbc3f2320	-0.011666089
137	0x3c398bce	0.011324836
138	0x3ca0e94e	0.019642498
139	0xbc99f196	-0.018791955
140	0xbc3f8609	-0.011689671
141	0x3c8ee5df	0.017443595
142	0x3b61250b	0.0034354355
143	0xbc8daf0a	-0.01729538
144	0x3cb18c91	0.021673473
145	0xbb448ad8	-0.0029989984
146	0x3a871199	0.0010304927
147	0xbc9fe243	-0.01951707
148	0x3c0c09dd	0.008547273
149	0x3c6511fe	0.01398134
150	0x3cfcb560	0.030848205
151	0xbcb92b29	-0.022603588
152	0x3cf9e108	0.030502811
153	0x3b8c2c3c	0.004277734
154	0x3c2442c6	0.010025686
155	0x3c1b8e76	0.009494415
156	0xbc61442e	-0.013749165
157	0xbc2f19af	-0.010687276
158	0x3baa12ba	0.0051902207
159	0x3c8fc5fc	0.017550461
160	0x3c44fdb2	0.012023376
161	0xbcab8e91	-0.020942004
162	0xbc2eb0bf	-0.010662257
163	0xba7f2175	-0.00097324635
164	0xbc9439ac	-0.018093906
165	0x3c8ab995	0.016934196
166	0x3cb2504a	0.0217668
167	0x3c952561	0.0182063
168	0x3b1c34c5	0.0023835164
169	0x3c400d14	0.011721868
170	0xbce92041	-0.028457763
171	0xbc9da302	-0.019242767
172	0xbc914fc5	-0.017738232
173	0xbcba3686	-0.022731077
174	0x3c8a9e50	0.016921192
175	0x3c1b3835	0.00947385
176	0xbcecde43	-0.028914576
177	0x3c772f7e	0.015087007
178	0xbc244e97	-0.010028503
179	0xbc276272	-0.010216342
180	0x3cb8775b	0.02251785
181	0x3a9dfbca	0.0012053188
182	0x3c60738f	0.013699426
183	0x3ac85574	0.0015284256
184	0xbc7bed48	-0.0153763965
185	0x3bfee3a7	0.007778603
186	0xbb8d3490	-0.0043092445
187	0xbc4c7c98	-0.012480877
188	0x3cbcae6a	0.023032386
189	0x3d17976e	0.03700965
190	0xbc5ad0d2	-0.013355451
191	0x3c24e720	0.01006487
192	0xbae4cdff	-0.0017456411
193	0x3ceccf89	0.028907554
194	0xbcdcf8ec	-0.026974164
195	0xbc54f7ad	-0.012998504
196	0xbca68211	-0.020325692
197	0xbcb098cb	-0.021557232
198	0x3c12be55	0.0089565115
199	0xbc8a3900	-0.016872883
200	0xbc777f22	-0.015105994
201	0xbc11b4fa	-0.008893246
202	0xbbadc0fa	-0.0053025456
203	0xbd06004e	-0.032715134
204	0x3c5aa9cc	0.013346147
205	0x3bc46fc5	0.0059947693
206	0x3d09659c	0.033544168
207	0xbc549f3d	-0.0129774185
208	0xbc9b6775	-0.01897023
209	0xbd0421c8	-0.03225878
210	0xbb26aa4a	-0.002543109
211	0xbcaa3fc9	-0.020782368
212	0xbca605a2	-0.020266358
213	0xbc0089f7	-0.007845393
214	0x3c76de5c	0.015067663
215	0xbce71951	-0.028210314
216	0xbbe3a09b	-0.006946636
217	0xbc3a8014	-0.011383075
218	0xbcb5f262	-0.022210304
219	0xbcd67c71	-0.026182385
220	0x3a34437e	0.0006876512
221	0x3bca7057	0.0061779427
222	0xbca24bea	-0.01981159
223	0xb97eb4b9	-0.00024290652
224	0xbbd614da	-0.0065332474
225	0xbc49a88c	-0.012308251
226	0xbc9ad518	-0.01890044
227	0xbc869bba	-0.016431678
228	0xbcc51863	-0.02405948
229	0x3c5758bb	0.013143714
230	0xbc43332d	-0.011914057
231	0x3c94ef1b	0.01818042
232	0xbc8fc153	-0.017548239
233	0x3ca7138c	0.020395063
234	0xbb372307	-0.0027944462
235	0xbc5af849	-0.01336486
236	0xbb635977	-0.0034690776
237	0xbc9ecdc7	-0.019385232
238	0xbc307787	-0.010770685
239	0xb8959e3c	-7.134347e-05
240	0x3c67337c	0.014111396
241	0x3c9ce4af	0.019152014
242	0xbc4ccf11	-0.01250054
243	0x3c8c80eb	0.017151317
244	0xbc386064	-0.01125345
245	0x3c79d9b5	0.015249659
246	0xba300537	-0.0006714644
247	0x3ca29ab9	0.019849168
248	0xbccdb446	-0.025110375
249	0xbbe7127e	-0.007051765
250	0xbcac889b	-0.021061232
251	0xbc2b3d4e	-0.010451628
252	0xbc230f2d	-0.009952349
253	0x3c42c8f9	0.011888736
254	0xbb94a04a	-0.0045357095
255	0xbc93b148	-0.01802887

action_model._discrete_distribution.branches.0.bias f4 [2]
0	0x3c440d2e	0.011966033
1	0xbc440d2c	-0.011966031
