Assets/results/ppo/JumperAgent/JumperAgent-18939.onnx (onnx, 91980 bytes, 6 tensors)

network_body._body_endoder.seq_layers.0.weight f4 [128, 42]
00000000: 04b5 b7bc d2a4 90bc f65b 53be f407 b63c
00000010: a2f0 07be 3fcb afbc f265 343d d7a6 e1bd
00000020: 9b36 9d3c d90a 113e 8b7b 99bc f315 f13c
00000030: 838a c8bd 7fe6 843d 4444 30be d5ac 143e
00000040: bc73 0a3e f858 d0bd 1da4 74be e438 d53d
00000050: 981c 49be 32ba 91be bac1 1b3c faa3 b3bd
00000060: 8ebb 3c3d 3f49 aebc d060 83be 21ef 313e
00000070: e501 1c3d 16ae bcbb 8151 93bd 22fb c0bd
00000080: 4f91 68be 7981 a9bd c9d5 763e 2597 693e
00000090: 7f2f a13e 82bd a1be 10e3 203e f12b d1bd
000000a0: 4a1a 5cbe 2060 c3bd ea07 acba 6209 34be
000000b0: 0075 3f3e 6aec 45bb 0620 0b3e fc75 4a3e
000000c0: 5154 2e3e 4a76 59be 6113 b83b 3b6a 9c3c
000000d0: cdbb 05bc f3e9 443e 656c 833d faca 87be
000000e0: 1888 95bd 14f5 3a3e 0a26 f43d ab9c 4e3e
000000f0: 71d3 3fbd 9da7 d03d 2dec 023e b9b7 04be
00000100: f3f4 ba3d 6e91 07be fc3a 9cbe 6366 b73e
00000110: cbf0 c7bd bd76 e5bd 7c07 bb3e 11bb 83bd
00000120: 9a84 70bd df4e 5bbe 2fa1 383e bc48 523e
00000130: b2e5 dcbd 4580 89bb f0d8 833e e121 ecbd
00000140: a9fc 983e 9d5d 973d d29a fdbc 19c6 993e
00000150: e15e 313c aa5f a6bc 8596 ab3d ade3 1dbd
00000160: 9ddf a0bd 4f9b 333e 6286 c1bd bb73 303e
00000170: fc29 163c f7c3 a63d efac 13be 1840 30bd
00000180: bdee 02bd 263c 52bd 8bd9 29be 4491 cc3b
00000190: 8efd f93d c1af e33d 4c86 3fbe 57e8 f2bd
000001a0: ad88 2fbd 72b4 1abb dee7 81be 0c4a 00be
000001b0: c079 a53b 7820 19bd a2ff c8be 178e 093e
000001c0: 2e81 823e f9de d8bd baa1 1dbc ef24 973e
000001d0: 3d44 233c 3588 2dbe 6142 9cbd 9018 d7bd
000001e0: d20e 333e cb81 40bc e55e 4e3e 3931 c23d
000001f0: f724 49bd 9a75 283e 5f46 15be f1d3 c9bd
00000200: d453 68bc cdab aabd 4a4a ae3d f038 f33d
00000210: 35b8 763d ef26 6abd bc65 423e 67a0 9d3e
00000220: 35d5 803b bd97 97be 2e5a 843c 3b40 6f3d
00000230: 415a b2be ae64 b23e c1b5 3f3d a08e 013d
00000240: 3d75 e33c e7c8 4b3e 6787 e23d 8469 eabd
00000250: 750d 8d3d df4f af3d 66a4 b2ba b63c de3e
00000260: 9571 323e 27b7 68be 7925 fabc 923d 603e
00000270: 4e60 cdbd 8a85 07be b80f 2dbe 1da3 c23d
00000280: d3f5 703d 11bb 76bc 344e 5abb d973 313e
00000290: 399b 2e3d 7959 083e c907 9abd 86a5 833d
000002a0: 4e17 a7be 8d68 29be 2228 3f3d 98b8 7d3d
000002b0: c746 133d 547a c6bd f302 563e 304d 403e
000002c0: da6c 023e 4901 ab3d 451d f4bd 107e 46b9
000002d0: cf7e 6abe 6668 453d 16c2 113d 4da0 fd3d
000002e0: 378f c7bd 1acd 04be d1ab 19be 5eaa 613e
000002f0: d09c 35be 180f 353e 59ad 85bc 4697 d33d
00000300: 1918 18bd fc7d 55bd be74 dcbd e419 8f3e
00000310: 8d2b f3bd c65e a13e e230 1d3c d83e 50bd
00000320: fa30 c2bd f479 f2bc 096c 363d b4ea 82bd
00000330: 3ecf 2bbe ef6a 263d 79be b13c 54e1 1bbe
00000340: 88b4 87bd 2a1b 933d 3954 1a3e 1522 bf3c
00000350: 7817 193e 092b 87bd 3de8 083e 545a 893d
00000360: 0bf4 083c 8681 65bd 7d38 b1bd 3474 1cbd
00000370: e021 66be 91d0 053e 9fc1 a5be 1f4b ccbd
00000380: 6789 2e3e a7d6 643e d6b6 9d3d 2e94 d6bd
00000390: 461f 883e 0ee1 eebd 08a5 93be 30e6 a7bd
000003a0: dc5f c1bc 8f06 3d3e ccdc 873d 4345 903d
000003b0: 730c 713b feb0 82bd 3756 a73e 193e 7a3d
000003c0: d0ce 20be af2a 623c 28bd 8c3e a834 563e
000003d0: 5a0d 953d cae3 1b3e 8f58 133e de64 833d
000003e0: 6054 e63c 4cc8 6f3c 4266 dabd 6232 ea3d
000003f0: dbbc 2abe 2fe5 41bd d591 283b ec09 69be
-0.022425182 -0.017656717 -0.20640549 0.02222059 -0.13275388 -0.02145922 0.044042535 -0.1101815
0.019191077 0.14164294 -0.018735668 0.029429412 -0.09792044 0.06489276 -0.17213541 0.14519055
0.13520712 -0.101732194 -0.23890729 0.10411242 -0.19639814 -0.28462368 0.009506637 -0.087715104
0.046077304 -0.02127516 -0.256598 0.17376377 0.038087744 -0.0057580573 -0.0719328 -0.094229
-0.22711681 -0.08276648 0.2410499 0.22811563 0.3148155 -0.31589895 0.15711617 -0.10213459
-0.21494403 -0.09539819 -0.0013124917 -0.17581704 0.18696976 -0.0030200728 0.13586435 0.1977157
0.17024352 -0.2123653 0.0056175445 0.019093623 -0.008162451 0.1922987 0.06417159 -0.26522046
-0.073013484 0.18257552 0.11921318 0.20176952 -0.046832506 0.1018822 0.12785406 -0.1296071
0.091287516 -0.13239071 -0.30513752 0.35820302 -0.097627245 -0.11204288 0.36529148 -0.064321645
-0.05872021 -0.21416806 0.18030237 0.20535558 -0.107859984 -0.004196199 0.25751448 -0.115298994
0.29880264 0.07390902 -0.030957613 0.3003395 0.010825844 -0.020309288 0.08378319 -0.038547207
-0.07855151 0.17539714 -0.094494596 0.17231648 0.009165283 0.08142846 -0.14421438 -0.043029875
-0.03196596 -0.051326893 -0.16586892 0.006242903 0.12206565 0.11117507 -0.18703574 -0.118607216
-0.042854954 -0.002360609 -0.25372213 -0.12528247 0.005049914 -0.03738448 -0.39257532 0.13433109
0.2548918 -0.10589404 -0.009621078 0.29520366 0.009965 -0.1694649 -0.07629848 -0.10502732
0.17486122 -0.011749695 0.20153387 0.09482045 -0.049107518 0.16451111 -0.14577626 -0.09854878
-0.014180142 -0.0833355 0.08510263 0.11876094 0.060234267 -0.057166036 0.18984121 0.3078644
0.0039316663 -0.29607955 0.016156282 0.058410864 -0.34834483 0.34842438 0.046804193 0.03163016
0.027765865 0.19900857 0.11060982 -0.11445907 0.06887332 0.08560156 -0.0013629317 0.43405694
0.1742614 -0.22726117 -0.030535446 0.21898487 -0.10028134 -0.13234535 -0.16900527 0.09503768
0.058828186 -0.015059249 -0.0033310773 0.17329349 0.0426285 0.13315381 -0.07521016 0.064280555
-0.32634968 -0.16543789 0.046669133 0.06194362 0.03595617 -0.09691301 0.20899563 0.18779445
0.12736836 0.083498545 -0.11919645 -0.00018929713 -0.22899936 0.048195265 0.035585485 0.123840906
-0.09744113 -0.12968865 -0.15006949 0.22037646 -0.177356 0.17681539 -0.01631801 0.103315875
-0.037132356 -0.0521221 -0.10764454 0.2794944 -0.11873541 0.3151762 0.009594174 -0.050841182
-0.09481998 -0.029599167 0.044536624 -0.06392422 -0.16778275 0.040629324 0.02169727 -0.15222675
-0.066262305 0.071829155 0.15071191 0.023331681 0.14950359 -0.06600005 0.13369842 0.06706682
0.008358966 -0.056031726 -0.086533524 -0.038196757 -0.2247386 0.13067843 -0.32374284 -0.09975266
0.17044602 0.22347508 0.07700889 -0.10477482 0.2658636 -0.116640195 -0.28836846 -0.08198202
-0.02360528 0.18459533 0.066339105 0.070444606 0.0036781102 -0.06381415 0.32682964 0.061094377
-0.15703893 0.013804122 0.27488065 0.20918524 0.07277937 0.15223613 0.14389251 0.06415723
0.028116405 0.014635157 -0.106640354 0.11435391 -0.16673605 -0.047337707 0.0025721688 -0.22757691

network_body._body_endoder.seq_layers.0.bias f4 [128]
00000000: 652d fd3b 7f2d f63b 608c f93b e365 003c
00000010: 3a84 fabb 7783 25bb d78d 3a3b 7730 6ebb
00000020: c618 113a 3c23 fabb af9c f33b c793 bf3b
00000030: f522 f0bb cf7b 4639 284b 8bbb 3dd6 91bb
00000040: 4cd7 813b 2b3b 00bc 775a fcba 8693 02bc
00000050: 3e2d edbb 6e9f e4bb 3b8e edbb 4819 d73b
00000060: e3cc aabb c83b ff3b b32d 1bb9 8159 e0bb
00000070: 3ad0 f33b 4c64 bc3b 14a0 043c e454 8d3b
00000080: 9254 acba cbbd f9bb c592 edbb 9796 fd3b
00000090: f032 f43b 55f9 05bc 7ca8 ed3b e63b 12bc
000000a0: 99e7 013c 1853 ee3b 68c0 f6bb 419b f93b
000000b0: 27b6 913a 7b55 f9bb ee46 803b 619c 013c
000000c0: 8eca f23a bb12 f43b 6d9a fabb 064c fcbb
000000d0: 6f2b 98bb 8805 ff3b aaea 723a 951a f5bb
000000e0: 2c91 ccbb 83c8 f2bb ecf8 27bb 4e5a e83b
000000f0: 224f d5bb 5fcf e3bb b82b ddbb c3bd b43b
00000100: 04a0 013c d7b4 03bc 5334 fa3b c93f ebbb
00000110: 041e ebbb 62e4 91bb b4e1 333b 58d2 e1bb
00000120: c708 eb3b cc60 c33b 6c6b fbbb bc0b fb3b
00000130: 7615 e9bb ac3a 483b 6ca0 5bbb 1327 dfbb
00000140: b8a6 d0bb 4163 f3bb 398a 7c3a 4096 013c
00000150: c7ab f23b 8ad9 083c 3058 81bb d504 fa3b
00000160: 2627 013c e8e3 78ba 5d79 ff3b 1472 f1bb
00000170: 0b33 003c fbad d9bb f64e 01ba 0ccc 2a3b
00000180: 39fc e2bb 0d65 1d3b c3ce ae3b 50dc d83b
00000190: 9656 8239 2455 01bc bd6b f13b c1f8 04bc
000001a0: 5a37 fabb 2e59 aeba b49e c7bb 69ae c7ba
000001b0: daa3 6b3b 322c 71bb 532e cebb 90b8 62ba
000001c0: 4774 02bc 1fc9 f2bb 26e9 e53b 7d6f 033c
000001d0: 2867 1abb 528b f1bb 57ad afbb 529d 06bc
000001e0: d51a ef3b 8e50 fa3b c937 0dba a977 ec3b
000001f0: 0d1d c33b abc8 f83b f8ae febb fe30 013c
0.0077263587 0.007512748 0.007615611 0.007836792 -0.007645157 -0.002525536 0.002846589 -0.0036344805
0.00055350026 -0.007633595 0.0074344496 0.005846474 -0.007328386 0.00018928874 -0.0042509027 -0.004450588
0.003962433 -0.007826607 -0.0019253035 -0.007969743 -0.0072380593 -0.0069770133 -0.007249621 0.006564293
-0.0052124127 0.007789109 -0.00014798976 -0.006846607 0.007440594 0.005749261 0.008094806 0.0043130983
-0.0013147763 -0.007621502 -0.0072501623 0.007738899 0.0074523613 -0.008177121 0.007252751 -0.008925414
0.007928752 0.007273089 -0.007530261 0.0076173847 0.0011116908 -0.007609067 0.0039147055 0.007910819
0.0018523501 0.007448522 -0.0076478035 -0.0076994924 -0.0046438496 0.007782642 0.0009266535 -0.0074799755
-0.006242892 -0.0074091568 -0.0025630547 0.0070908433 -0.0065096775 -0.006952211 -0.0067495964 0.0055157854
0.007911686 -0.008038721 0.007635632 -0.0071792346 -0.007175209 -0.004452274 0.0027447762 -0.00689153
0.007172677 0.005962467 -0.007672718 0.007661311 -0.007113154 0.003055255 -0.0033512367 -0.006810078
-0.0063675307 -0.0074276035 0.0009633634 0.007909358 0.0074057314 0.008352647 -0.0039472803 0.0076299706
0.007882869 -0.000949441 0.00779645 -0.0073683355 0.00782467 -0.0066430545 -0.00049327256 0.0026061563
-0.00692704 0.002401653 0.0053347065 0.00661806 0.00024860044 -0.007893834 0.0073675797 -0.008115948
-0.007635993 -0.0013301724 -0.006091917 -0.0015234473 0.0035955817 -0.0036800024 -0.0062921434 -0.0008648718
-0.007962293 -0.0074092294 0.007016319 0.008022186 -0.002356002 -0.0073713446 -0.00536124 -0.008216219
0.0072969 0.0076389974 -0.0005387036 0.007216413 0.005954391 0.007592281 -0.0077723227 0.007885216

network_body._body_endoder.seq_layers.2.weight f4 [128, 128]
00000000: aa95 edbd 4521 383d 6680 fb3c f3c6 29bd
00000010: 1d66 39be d632 febd 011d 3c3e b831 86bc
00000020: 60a7 88bd 2c79 163d bab0 9d3c 804a 613d
00000030: 3316 ac3d dcf4 64bc 2fca d13d 7ea3 3fbd
00000040: 97c8 023e 49bc 923d 9a8e 12be 943d 32bd
00000050: a281 17bd 5c90 fe3c 4ee3 e23c 3c20 f1bc
00000060: ba9d b2bc cc61 ae3c b534 973e 33b2 dd3c
00000070: 1e40 543d 85cd afbd c486 10be b0ea 6c3d
00000080: 13e3 e23c c23f aabc fe7f 2cbe 89a7 c3bc
00000090: 6329 b9bd b508 c5bd 75d4 20bd 6544 983d
000000a0: 1208 b23d 3a4a 733d ef67 5c3d 9bb8 02be
000000b0: 828e 05be 53bc cfbc 1347 a43c 689c 30bd
000000c0: 9ba7 5e3c 6ad2 683d 26b3 bfbd 502f 6f3d
000000d0: 6eb9 2abd 9e1e c83d ddff 80bd 98d9 d93c
000000e0: c725 6dbc 47fe 943d 07fa a0bd b404 ac3c
000000f0: 16a0 6e3d 6ade 813d d98f 8bbd f48a 423d
00000100: 48cc 513d 605b 8cbe 39bd 8e3d adfc 5a3d
00000110: e794 11bd 9799 aebc 63db 9d3d db38 7b3d
00000120: f290 e23d 7783 94bc 2019 b23a 2d97 a7bd
00000130: e7ca 933d fccd 69bd 7060 cdbd 669c 12bd
00000140: cba1 313d f5ab e6bd ba02 b0bc 51ac 083e
00000150: 8ea0 51bd 6124 aabd 5c19 c23c 36d0 7e3d
00000160: ec19 28be 7a96 7e3d 3674 52bd 4e65 0f3c
00000170: ba81 6abd 3969 383d fcfb 8fbc d21b 8e3d
00000180: 7389 6e3d bd64 c7bd ec1f 17bd b594 623d
00000190: e1f3 9cbd cda2 8c3b b13e 93bc 8c8d a23d
000001a0: e0ec 193e 3e0f 733d 2795 d03d 3fc4 bfbd
000001b0: 2ce1 823d 8143 d13d b674 473d b690 3fbc
000001c0: eccc 46bd f896 013d 83ac 463d 57a2 b7bc
000001d0: d32b 5b3c bffe ad3c 79b6 803d c778 d1bc
000001e0: 8330 83bd 2d95 ecbd 0dca b63d ff62 6e3d
000001f0: 61e9 343d 5cfb 0abd cae0 153e 4185 ccbd
00000200: eb15 e6bd 3c06 a83c c6ad 01bc 947d 293d
00000210: c727 6fbd fb7a 8bbc 9fb1 42bd 2a09 5ebb
00000220: c007 283d 26f0 1fbe f5fa 40bd a6de 773d
00000230: ca23 68bd 7626 e4bd 568f b5bc d83a 2b3e
00000240: 27ee 84bd 7506 ea3d 2cd3 203e 7e9f 9ebd
00000250: a13a cdbc 9db1 7d3c 7448 c43c 80c8 ed3c
00000260: 254a 12bb 26ba cfbc 919c 0fbd 11af 7fbe
00000270: becb 82bd c552 17bc 43b0 633d 2237 b73a
00000280: da19 0c3c a600 d53c 6b19 833c 5133 ac3d
00000290: 5505 b6bd 0cf9 c7bc e0db 5e3d f633 853d
000002a0: 489f f6bd 79a5 c43d f7e0 263e a86e bc3c
000002b0: 26d8 993d da03 5ebd 2221 aa3c 6d5c 803c
000002c0: 369b 77be 9076 dd39 2954 ccbd f559 0abe
000002d0: 330b 7dbd ef71 1cbd 300f 3ebc 676f 03be
000002e0: 4351 48bd df20 523d b6f6 fdbd e724 02be
000002f0: 6132 0dbe 084a aebd 230c 583d 0800 e3bc
00000300: cca0 213d 2114 fdbd 862a 353c 542d 4a3d
00000310: 7b35 be3d 6270 afbd 1886 a3bd c104 b3bd
00000320: bca3 073d a43b 34bd 966e b1bc 57c6 193c
00000330: 4571 753d 5343 1dbd 9738 953d 4993 be3d
00000340: 2a21 17be 5c3f 94bd 9ab9 b1bd ddb4 80bd
00000350: cc61 fe3d c426 febd aa62 313e 4a58 1f3c
00000360: d737 7d3d 6f9f d4bc 2ea0 4e3d a29f 00be
00000370: 458a 043e 5480 6cbd ec6a b6bd 6672 b4bd
00000380: 77c7 cbbc 2da7 f23b 90b1 b23d 13fd 63bd
00000390: 2edd a73d 393a c93d ecd0 6e3c fcf7 17bd
000003a0: b4b0 dabd 720f 88bd 6f02 e5bc 7527 b03d
000003b0: 8aab febd 67a7 11be 19c3 d73d abb5 4b3c
000003c0: bbf0 923c 98c4 853d 0200 f13c 26f6 183d
000003d0: 4849 863d c00c 743d cd1f d1bd 0183 3dbe
000003e0: 2938 cb3d d794 c3bc 4baa afbd da2b 84bb
000003f0: 9ca4 4f3d a8c0 983d d972 2f3c cfd5 e5bd
-0.11600812 0.044953603 0.030700874 -0.0414495 -0.1810536 -0.1241204 0.18370439 -0.01638113
-0.06672549 0.036736652 0.019249309 0.05500269 0.08402672 -0.013974395 0.102436416 -0.046786778
0.12771831 0.07164819 -0.1431221 -0.043515757 -0.03698886 0.031074695 0.027696278 -0.029434316
-0.021803726 0.021286868 0.295324 0.027062511 0.05181896 -0.085841216 -0.14113909 0.057841003
0.027696168 -0.020782355 -0.168457 -0.023883598 -0.09041097 -0.09620801 -0.039265115 0.0743492
0.086929455 0.05939696 0.053810056 -0.12765734 -0.13042644 -0.025358355 0.020053422 -0.04311791
0.013589765 0.05684129 -0.09360342 0.05839473 -0.041680746 0.09771465 -0.06298802 0.026593015
-0.014474339 0.07275062 -0.07860189 0.020998336 0.05825814 0.0634125 -0.06814546 0.047495797
0.05122021 -0.27413464 0.06969685 0.053463627 -0.035542395 -0.021313472 0.0770786 0.06133352
0.110628024 -0.018129094 0.001358781 -0.08183131 0.07216435 -0.057081208 -0.100281596 -0.035793684
0.04336719 -0.11263267 -0.021485675 0.13346983 -0.051178508 -0.0830772 0.023693733 0.062210284
-0.16416138 0.062155224 -0.05138036 0.00875218 -0.057252623 0.045022223 -0.01757621 0.069389
0.05823655 -0.09736011 -0.036895677 0.0553176 -0.07663704 0.0042918683 -0.01797423 0.07937154
0.15031767 0.059340708 0.101846986 -0.09363603 0.063906044 0.102179535 0.04869529 -0.011692217
-0.048535272 0.031638116 0.048504364 -0.022416277 0.013377148 0.021239636 0.06284804 -0.025570286
-0.06405737 -0.115518905 0.08925257 0.05819988 0.04416788 -0.03393112 0.14636531 -0.09986354
-0.11234649 0.020510785 -0.007914966 0.041379526 -0.058387544 -0.017026415 -0.047532674 -0.0033879974
0.041023016 -0.15618953 -0.04711433 0.06051507 -0.056674756 -0.11140148 -0.022163074 0.16721666
-0.064907365 0.11427013 0.15705556 -0.077452645 -0.02505237 0.015484241 0.02396033 0.02902627
-0.0022322026 -0.025357317 -0.035061423 -0.24969126 -0.06386517 -0.009236042 0.05558802 0.0013978223
0.008551085 0.026001286 0.016003331 0.08408225 -0.08887736 -0.024410747 0.054408908 0.065040514
-0.12042099 0.09601874 0.16296755 0.023001984 0.0751193 -0.054202892 0.020767752 0.015669072
-0.24180302 0.0004224074 -0.0997699 -0.13510878 -0.06177826 -0.038194593 -0.011600301 -0.12835465
-0.048905622 0.05130088 -0.12400572 -0.1270939 -0.1378875 -0.08510214 0.05274595 -0.027709976
0.03945999 -0.12357355 0.011057502 0.049359635 0.09287544 -0.08566357 -0.07984561 -0.08741141
0.033115134 -0.04400219 -0.021659177 0.009385667 0.059922475 -0.038394284 0.07286184 0.09305436
-0.14758745 -0.07238647 -0.08677979 -0.06284497 0.12420997 -0.12409738 0.17322794 0.00972564
0.06182083 -0.02595493 0.050445728 -0.12560895 0.1294337 -0.05773957 -0.089071125 -0.08810882
-0.024875386 0.007405183 0.087252736 -0.055661272 0.081964836 0.09825558 0.014576178 -0.03710173
-0.10678235 -0.06643571 -0.027955262 0.08601276 -0.12435062 -0.14224015 0.10535259 0.01243345
0.017937055 0.06531638 0.029418949 0.03734412 0.06556946 0.05958247 -0.10211144 -0.18507005
0.09922821 -0.023874683 -0.08577403 -0.004033548 0.050694093 0.07458621 0.010708534 -0.112224214

network_body._body_endoder.seq_layers.2.bias f4 [128]
00000000: 695a e53b bad0 fd3b f7c8 f73b 6297 94bb
00000010: 40a7 c9bb ce53 f5bb 451f f7bb 765f c33b
00000020: 9c4c f0bb ae22 74bb 9ae7 ab3b b34a 023c
00000030: 672c e93b f316 02bc e60e bb3b 1d17 fa3b
00000040: 3886 ffbb 990b b2bb 07cd febb 0ec6 f9bb
00000050: c392 033c abaf f9bb b665 9cbb 4d20 01bc
00000060: ce23 7a3b 5a61 f73b d303 fc3b cf6f fa3b
00000070: 4544 913b 4792 183b 4656 f73b 5a7a e73b
00000080: 06af e5bb d809 f8bb ddf3 f13b 3b57 e7bb
00000090: 41b6 fb3b 61b1 02bc b907 f53b 2293 e4bb
000000a0: 108c fd3b a999 31bb cba5 cbbb 6bda c83b
000000b0: d1d4 e33b 18d8 ccbb daf3 b9bb c671 fb3b
000000c0: 1d09 00bc dae6 f83b 420b dfbb ff80 8dbb
000000d0: bf3a bc3b a35f 023c 22b6 e0bb edc2 b9bb
000000e0: a5d2 cebb a26b fa3b 50f4 00bc e50b 003c
000000f0: 7099 e63b d07e d1ba c434 f8bb f1d7 d73b
00000100: 4ac9 f93b 8663 a0bb 21a4 dc3b 5d59 ff3b
00000110: a707 e13b 48a4 003c 7265 f23b 5a74 fc3b
00000120: 857a ff3b 3624 ec3b 740f 04bc fc8a 2dba
00000130: ac0e d2bb 6f05 02bc 125f ffbb b309 fbbb
00000140: aa0c c2bb a0e6 f5bb 19e9 debb 8e49 b83b
00000150: 81b5 debb 835e fe3b 6c2f 00bc b602 02bc
00000160: 35fc 00bc d938 ffbb 655d 00bc 3c4c d3bb
00000170: 1d55 ff3b 1d72 e93b 16b7 fa3b 588a ff3b
00000180: f88f 003c 493f b5bb 691d f8bb b1c6 eb3b
00000190: 21b0 00bc 0158 fabb df1f 00bc 996f 05bc
000001a0: 416e fa3b 1c48 013c bd21 de3b 7fef 07bb
000001b0: daa3 f73b 7b35 f3bb 64a7 df3b 413a fdbb
000001c0: ec5e fe3b 800a c1bb d0dd 0d3b d408 eb3b
000001d0: 0f14 f93b 6a4f 18bb 801e e4bb 74c9 f43a
000001e0: c1ea f93b d5ac fb3b a7fb e83b 4e65 dc3b
000001f0: 2ea8 f13b 14ab f3bb 54b8 9a3b c010 02bc
0.006999303 0.0077458294 0.0075617987 -0.004534648 -0.006153971 -0.007486797 -0.0075415694 0.0059623076
-0.0073333513 -0.0037252116 0.005246115 0.00795238 0.007115889 -0.007940042 0.005708563 0.00763215
-0.0077979825 -0.0054335115 -0.007775906 -0.007622487 0.008030596 -0.007619818 -0.004772867 -0.007881236
0.0038168314 0.007549447 0.0076908856 0.007642723 0.004433187 0.0023280547 0.0075481264 0.007064146
-0.00700939 -0.007569533 0.007383807 -0.007059959 0.0076816385 -0.007976861 0.0074777273 -0.0069755474
0.007737644 -0.0027099645 -0.0062148324 0.006129553 0.00695286 -0.0062513463 -0.0056748213 0.007673475
-0.007814673 0.007595879 -0.006806762 -0.004318356 0.005744308 0.007957372 -0.0068576494 -0.005668989
-0.006311732 0.0076422254 -0.007870749 0.007815336 0.007037334 -0.0015983228 -0.0075746495 0.0065870215
0.0076228725 -0.0048946766 0.006733433 0.0077926354 0.0068673673 0.007851668 0.007397347 0.0077043
0.007796588 0.007206465 -0.008060325 -0.00066201366 -0.0064104404 -0.007935866 -0.0077933157 -0.0076610683
-0.00592192 -0.0075042993 -0.0068026897 0.005624003 -0.0067965393 0.0077627315 -0.007823806 -0.007935217
-0.007872631 -0.007788759 -0.007834767 -0.006448297 0.0077921287 0.007124199 0.00765122 0.0077984743
0.007846825 -0.005531226 -0.0075718653 0.0071953167 -0.007854492 -0.0076398854 -0.007820099 -0.008144283
0.007642538 0.007890727 0.0067789243 -0.0020742116 0.0075573744 -0.007422147 0.0068253744 -0.0077278917
0.0077627804 -0.0058911443 0.0021647103 0.0071726833 0.007601268 -0.0023240694 -0.0069616437 0.001867576
0.007626862 0.0076805153 0.0071100774 0.0067259436 0.007374785 -0.0074361656 0.0047216807 -0.007938564

action_model._discrete_distribution.branches.0.weight f4 [2, 128]
00000000: 5010 813c 7b01 583c 4b8c d63c 2d7b 41bc
00000010: 8b4f 03bb 18bc f13a 847a cabb cdb5 b33b
00000020: 9e98 37bc b459 963c 72c2 a33c f21b 893c
00000030: c416 263c f69f a2bb 7dde 223c f534 353c
00000040: edae 1fbc 986b 21ba 6ad3 02bc d4a9 8dbc
00000050: f1dd 863c cc5e 21bc ce90 a63b c0fd b3bc
00000060: f2c7 f23b 4355 9a3b e21b 993c 3ce8 503c
00000070: 7650 443b 1d98 ba3b 17df ef3a 0f7c 1e3c
00000080: 63e7 37bc 7e6d 7ebb 074d 3f3c b675 aabb
00000090: a99b 373c a484 99ba 5cd6 643b 13d7 84bc
000000a0: 3bc4 513c b661 9039 bc42 a63b 7194 3bb9
000000b0: 1fbc e43b 1095 003b 45a2 633b 3bbe 9a3c
000000c0: 20e8 4cbc 9fc8 963c 8ba4 24ba acbd 9e3b
000000d0: a2bf 60ba 8db3 c53c efee 33bb 2edb bc3a
000000e0: ec6e 6a3b e11f 353c 05f5 b03b 8a4c 653c
000000f0: 3542 be3b 84b5 37b9 7733 433b 8c95 efba
00000100: 333d c43c 0f7d c93b 586a 35bc 0906 2e3c
00000110: 0ff9 b1bb 7b94 093c 713c 813c 9abd 6b3c
00000120: 227a e93a 3ed2 0c3c 797e 70bc 3c4d 903c
00000130: a1d2 1ebc afb4 043b 7218 57bc 7717 8fbc
00000140: 6bd5 5a3c 7a46 77bb a265 543b d49b 343c
00000150: f414 96bc 0c23 713c 1f79 23bc 84ea 85bc
00000160: 45d2 08bc 28c6 13bc eee9 c4bc cdb3 d1bb
00000170: 0591 7b3c 9ed2 d73a 964f f23b 2e3e 763c
00000180: 6f01 fe3b 01b7 d3bb 1fcb 02bc 31af 323c
00000190: 331b 2738 040e d1bb 1608 2dbc 2dc8 1dbc
000001a0: ff77 023c 99ff d63c 6b65 41bb c740 55ba
000001b0: 7ed0 aa3b 5329 7cbc cf4b 023c 4bd2 57bc
000001c0: 4a13 453b 5bcb 8b3b 4a06 373c 5f5d 3a3c
000001d0: a2db f03b fd2f 5b3c dda6 e03b 4a24 de3b
000001e0: 220d b13c 324b 503c bc62 c2bb 829a bf3b
000001f0: 2ac6 1c3b d7cf a6bc d5e0 08bc aa12 37bc
00000200: e411 ba3b 97f7 05bc b48d 803b aa0e a73a
00000210: ccd5 08bb bcc3 b03c 8453 5c3c 889c 833b
00000220: 54e6 963c 8bcd 503c c08d fd3b bb96 2fbb
00000230: 7c4c 913b 0835 4a3c a7a9 3a3c 6374 4cbc
00000240: e3c7 4a3c a3c8 3f3c 48b8 c33c c39a bd3c
00000250: 96ca b4ba 15bb f63b c64f 80ba af82 06ba
00000260: 95f1 363b 289e 33bc 1b32 96bc 0779 0fbc
00000270: f673 0abc 83a3 693c b2d4 95bc 1a13 26b9
00000280: 50ff 4abb 8eb3 ba3c b20b 91ba 028e 86ba
00000290: 598c 19bc 5d24 433c 08ef 80bc 7fca b33a
000002a0: 635e 22bb 221d 05bc afe3 dc3b 1203 e4ba
000002b0: 6473 3f3b 07f9 8d3b f1c7 8d3b e8f8 c2bc
000002c0: 231d 153c 693a 24bc 4dd9 1e3b d86b efba
000002d0: 3098 3b3b b9ad ca3a c939 28ba 7f53 adba
000002e0: f28f 993c 62eb 64ba b579 533c 3e5c 94bc
000002f0: 1a8c 21bc a9fe 22bc 70b6 883c 405f e539
00000300: b623 a53b 003b a33b 56f8 28bc f047 31bc
00000310: 1542 3cbc 53f3 80bc f493 96bb af72 15bc
00000320: f9c6 6abc 7007 f73a d671 983a 8d58 f13b
00000330: 129a 2fbc 8b97 da3c ea56 863c 0051 bc3b
00000340: 8dd1 393c 6676 803c 7457 0e3c fd24 413c
00000350: f307 a7bb f5de 9dbb 987f 823c 326d a03b
00000360: 6b36 d83b ac45 533c 0bf6 083c 494c a33b
00000370: febc 0abc 6e5b f4bb a85d 4ebc 1f96 adba
00000380: c84c 16bc d430 36bc b19d 403c f26a 97bb
00000390: 5bd4 6d3c 4862 583c b362 393c db08 033c
000003a0: 8795 eebc 7c4b 0e3c 95ba 59bb ee04 0ebc
000003b0: 24eb fdbc 2b36 ab3c a089 883b bd5b 0f3c
000003c0: 497e dcbc 72c9 1ab9 459b a23c 41ba ae39
000003d0: 420a 2bbc 159f cc3b f77c 9d3c 8209 8abb
000003e0: beeb 6d3a 8812 63bc f3c7 4ebc 8fdf 7d3b
000003f0: 49b5 86bc c06e 953c 2ad0 35bb d6c7 8f3b
0.015754849 0.013183947 0.026189944 -0.011809153 -0.0020036425 0.0018442897 -0.006179156 0.005484319
-0.01120582 0.01835332 0.01999018 0.016736958 0.010137264 -0.0049629165 0.009940741 0.011059989
-0.009746295 -0.00061576953 -0.007984975 -0.017292894 0.016463252 -0.0098492615 0.00508318 -0.021971583
0.0074090892 0.004709871 0.018690053 0.0127506815 0.0029955185 0.005694403 0.0018300739 0.009673133
-0.0112246005 -0.0038822587 0.01167608 -0.0052020205 0.011206546 -0.0011712504 0.0034917807 -0.016215837
0.012803133 0.0002753862 0.0050738733 -0.00017889008 0.0069804336 0.0019620098 0.0034734171 0.018889537
-0.012506515 0.01840621 -0.00062806223 0.004844388 -0.00085734774 0.024133468 -0.0027455648 0.0014408582
0.003577168 0.011054964 0.0054003024 0.013995299 0.0058062323 -0.0001751986 0.0029785314 -0.0018278821
0.023954963 0.0061489413 -0.011072718 0.010621556 -0.0054313014 0.008397217 0.015775891 0.014388466
0.0017812888 0.0085950475 -0.014678591 0.017614953 -0.0096937725 0.0020249297 -0.013128387 -0.017467244
0.013356547 -0.0037731216 0.003240921 0.01102348 -0.018320538 0.0147178285 -0.009977608 -0.016347177
-0.008350913 -0.009019412 -0.024037328 -0.0063996078 0.0153544 0.0016465967 0.0073947413 0.015029473
0.0077516357 -0.0064610248 -0.007982998 0.010906027 3.9841234e-05 -0.0063798446 -0.01056101 -0.009630245
0.00796318 0.026244925 -0.0029509913 -0.0008134958 0.0052128425 -0.015390712 0.0079526445 -0.013172696
0.0030071312 0.004266185 0.011170933 0.0113748005 0.007350401 0.0133781405 0.006855829 0.0067792283
0.021612708 0.01271324 -0.00593218 0.005847276 0.0023921826 -0.020362778 -0.008354385 -0.011173883
0.0056784023 -0.008176706 0.0039231423 0.0012745459 -0.0020879386 0.021577708 0.013447646 0.0040164627
0.018420376 0.012744318 0.007737845 -0.0026792723 0.0044341665 0.012341745 0.011392987 -0.012478921
0.012376758 0.01170555 0.023891583 0.023145085 -0.0013793285 0.007529626 -0.0009789399 -0.00051311677
0.002791499 -0.010963 -0.018334439 -0.0087568825 -0.008450499 0.014260176 -0.018289898 -0.0001583811
-0.0030974932 0.022790696 -0.0011066108 -0.001026571 -0.00937184 0.011910525 -0.015738979 0.0013716965
-0.0024775497 -0.008124622 0.006741009 -0.0017395935 0.0029213065 0.004332665 0.0043268134 -0.023800328
0.009101185 -0.010023692 0.0024238408 -0.0018266393 0.0028624646 0.001546315 -0.0006417302 -0.0013223736
0.018745396 -0.00087325845 0.012907435 -0.01811039 -0.009860063 -0.009948411 0.016688555 0.0004374925
0.0050396575 0.0049813986 -0.010313114 -0.010820374 -0.011490365 -0.015741026 -0.004595274 -0.009121581
-0.014329665 0.0018846821 0.0011630605 0.0073652924 -0.010717886 0.02668359 0.016398866 0.0057469606
0.011341465 0.015681457 0.008687843 0.011788604 -0.005097383 -0.0048178383 0.015929982 0.0048958296
0.006598284 0.012895029 0.008359442 0.004983459 -0.008467911 -0.0074571883 -0.012595572 -0.0013243592
-0.0091735795 -0.01112004 0.011756347 -0.004620903 0.0145159615 0.013207026 0.011315036 0.007997717
-0.029124035 0.008684989 -0.0033222784 -0.0086681675 -0.030995913 0.020899853 0.004166797 0.008749899
-0.026915686 -0.00014761629 0.019849429 0.00033326636 -0.010439457 0.00624455 0.019224627 -0.004212559
0.0009075961 -0.013859399 -0.012620914 0.0038737988 -0.016443865 0.018241286 -0.0027742484 0.004387836

action_model._discrete_distribution.branches.0.bias f4 [2]
00000000: 428a f33b 418a f3bb
0.007432253 -0.0074322526
