Assets/results/ppo/JumperAgent/JumperAgent-249759.onnx (onnx, 91980 bytes, 6 tensors)

network_body._body_endoder.seq_layers.0.weight f4 [128, 42]
0	0x3aca0610	0.0015413184
1	0x3cd3dd58	0.02586238
2	0xbdaad1c8	-0.08340794
3	0x3df499c1	0.11943389
4	0x3dbc35a4	0.09189919
5	0x3e843ef1	0.2582927
6	0x3d0d1500	0.034443855
7	0x3e059869	0.13046421
8	0x3cedf96e	0.029049601
9	0x3d478d49	0.048718724
10	0xbe217fd5	-0.1577142
11	0x3b904ecb	0.004403924
12	0xbdab61d8	-0.083682716
13	0x3e3b15cd	0.18270035
14	0xbcaa65b8	-0.020800456
15	0xbd90bdf9	-0.070674844
16	0xbe05d3b3	-0.13069038
17	0xbdeec5af	-0.11658799
18	0x3d4665e2	0.048437007
19	0x3d912e3c	0.07088897
20	0xbdc3738e	-0.09543525
21	0x3e1f3b3e	0.15549943
22	0x3ddb8831	0.10719336
23	0xbd733d55	-0.059384663
24	0x3dac7874	0.08421412
25	0xbdd5dddd	-0.10442708
26	0x3d872ad8	0.06599969
27	0xbd0195c3	-0.031636965
28	0xbe22ddc5	-0.15904911
29	0x3ea66f35	0.3250672
30	0x3db4c7b9	0.088271566
31	0x3e025430	0.12727427
32	0x3e304e17	0.17217289
33	0x3dfc49fc	0.12318799
34	0xbde1c550	-0.110239625
35	0xbdd4c821	-0.10389734
36	0x3da865ac	0.08222517
37	0x3ddff8e2	0.109361425
38	0x3e934d67	0.2876999
39	0x3e4b78b7	0.19870268
40	0x3c4f46ce	0.0126511585
41	0x3defad6d	0.11703
42	0xbd9ab78d	-0.07554541
43	0x3c82c593	0.015963351
44	0xbdca5477	-0.09879392
45	0x3e16290a	0.14664093
46	0xbe0d9cd9	-0.13829364
47	0xbd1692ea	-0.036761202
48	0x3e35d396	0.17756495
49	0x3e416157	0.18884788
50	0xbe3023ac	-0.17201108
51	0x3e54b00e	0.20770285
52	0x3e1ac11d	0.1511273
53	0xbf0c00d6	-0.54688776
54	0x3e4b306f	0.19842695
55	0x3de088ef	0.10963618
56	0xbd73ffc8	-0.059570104
57	0x3ac469c4	0.0014985134
58	0xbeef4289	-0.4673045
59	0xbbf06476	-0.0073361946
60	0x3d031526	0.03200259
61	0xbc773df9	-0.015090459
62	0x3e4b35fd	0.19844814
63	0xbd27e0a6	-0.040985726
64	0xbd8e0687	-0.06934839
65	0xbde929b7	-0.113849096
66	0xbdaeeda0	-0.08541417
67	0x3d98ad64	0.07454947
68	0x3cda8a0a	0.02667715
69	0xbe798b19	-0.24369468
70	0xbdb6d85e	-0.089279875
71	0x3d9afe71	0.07568062
72	0x3e3b2c67	0.18278657
73	0x3d5bc1b6	0.053651534
74	0x3c4b0567	0.012391425
75	0xbd544221	-0.051820878
76	0x3e4afe78	0.19823635
77	0xbb59751e	-0.003318138
78	0xbc8e91b5	-0.017403463
79	0x3e1cf866	0.15329131
80	0xbd98581d	-0.07438681
81	0x3e18a9e6	0.14908561
82	0x3db0b485	0.08628181
83	0xbca28fdd	-0.01984399
84	0xbdd70fc0	-0.10501051
85	0x3d85616a	0.06512721
86	0x3dc53b27	0.09630423
87	0xbd827ac5	-0.06371073
88	0xbd80b149	-0.062838145
89	0x3d50a466	0.050938033
90	0x3d8d0605	0.06885914
91	0xbe10e468	-0.1414963
92	0x3e62850b	0.22121064
93	0xbe124f87	-0.1428815
94	0xbded8601	-0.11597825
95	0x3dc1d8cf	0.09465181
96	0x3e011857	0.12606941
97	0x3cdcf92a	0.02697428
98	0xbd80865a	-0.062756255
99	0xbe02e7ba	-0.12783709
100	0xbdc1b1a1	-0.09457708
101	0x3e9d6af7	0.3074567
102	0xbe1925d1	-0.14955832
103	0x3d916588	0.07099444
104	0xbe05df9c	-0.13073581
105	0x3dc55d19	0.096368976
106	0x3e3791f3	0.17926769
107	0xbe3ff2ec	-0.18745011
108	0xbda0121c	-0.07815954
109	0x3da20bde	0.0791242
110	0xbd310860	-0.043220878
111	0xbe13cdd3	-0.14433984
112	0xbdaeb19d	-0.08529971
113	0xbe8488e4	-0.2588569
114	0xbe8223b3	-0.2541786
115	0x3cdb3300	0.026757717
116	0x3eb13c6b	0.34616408
117	0x3da5c155	0.08093516
118	0x3cb802ed	0.022462333
119	0x3d12a5df	0.03580272
120	0x3e0b051b	0.13576166
121	0xbd50f5a7	-0.051015522
122	0x3dab47b7	0.08363288
123	0xbdb63f93	-0.088988446
124	0xbe030987	-0.12796603
125	0x3d7d0682	0.061773784
126	0xbe0f56bd	-0.13997932
127	0xbda24240	-0.079227924
128	0xbcd8ab26	-0.026448797
129	0xbc9b0cca	-0.018926997
130	0xbe83c648	-0.25737214
131	0xbe3028b2	-0.17203024
132	0xbd09cfa8	-0.033645302
133	0x3d8697c9	0.065719195
134	0xbe865ce2	-0.2624274
135	0xbcb69e6d	-0.02229234
136	0xbc963310	-0.018334895
137	0x3d98e993	0.07466426
138	0xbd5f3823	-0.054496896
139	0x3e42c703	0.1902123
140	0xbc7ec520	-0.015549928
141	0x3d29612f	0.041352447
142	0xbe66c836	-0.22537312
143	0x3e065092	0.13116673
144	0xbc9bbe0d	-0.019011522
145	0x3ce536a4	0.027980156
146	0xbbf289bb	-0.0074016727
147	0x3e92e2c7	0.28688642
148	0x3e7291f2	0.23688486
149	0x3df9adea	0.121913746
150	0x3d4947ac	0.049140617
151	0x3e74272e	0.23843071
152	0x3e554d2a	0.20830217
153	0xbc296d67	-0.010341025
154	0x3e3e3c03	0.1857758
155	0x3d670fd8	0.056411594
156	0x3dac31ef	0.084079616
157	0x3e164d2f	0.1467788
158	0x3ddc7dd4	0.10766187
159	0xbde8378b	-0.11338719
160	0xbda6c7a3	-0.081435464
161	0xbe751ff9	-0.23937978
162	0xbe1343d1	-0.14381339
163	0x3d8b8f9a	0.06814499
164	0xbe36ba22	-0.17844442
165	0x3e99eb12	0.30062157
166	0xbdd6a870	-0.10481346
167	0xbe13e394	-0.14442283
168	0x3da3dc6b	0.08001026
169	0x3de2d970	0.11076629
170	0x3acb8a42	0.0015528875
171	0x3de653ef	0.11246478
172	0x3d233280	0.039843082
173	0xbd62bb34	-0.055354312
174	0x3de0d8ec	0.109788746
175	0x3df85a9e	0.12126659
176	0xbdf39fca	-0.11895712
177	0xbd383ff7	-0.044982877
178	0x3de77fb8	0.11303657
179	0x3e24666a	0.16054693
180	0xbdeaa988	-0.11458117
181	0x3df478dc	0.119371146
182	0x3e035001	0.12823488
183	0x3e64b41e	0.22334334
184	0xbe85e1f8	-0.26148963
185	0xbd603339	-0.05473635
186	0xbe0a39f8	-0.13498676
187	0x3c11b2d5	0.008892735
188	0x3e00bceb	0.12572066
189	0x3e4b5ebe	0.1986036
190	0x3e44a482	0.1920338
191	0xbdb50900	-0.08839607
192	0x3e4aac9b	0.19792406
193	0xbcfa9eac	-0.030593239
194	0xbda5d331	-0.08096922
195	0xbe326732	-0.17422178
196	0x3df9f90a	0.122057036
197	0x3dfef290	0.12448609
198	0x3e280e8f	0.16411804
199	0xbcb0a39a	-0.021562386
200	0xbdd6746e	-0.10471426
201	0x3c894276	0.016755324
202	0xbdaee19c	-0.08539125
203	0x3e664ce0	0.22490263
204	0x3b895524	0.0041910578
205	0xbe156897	-0.14590679
206	0x3e04ab7b	0.1295604
207	0x3dbbe1b9	0.091739126
208	0xbbc4851a	-0.0059973123
209	0x3e23885f	0.1596999
210	0x3df8a323	0.12140491
211	0xbe5e02b6	-0.21680722
212	0xbdc90b63	-0.09816625
213	0x3de4950f	0.11161243
214	0x3da36d81	0.079798706
215	0xbd3b97db	-0.045799118
216	0x3e2d9aa2	0.16953519
217	0xbd41c869	-0.047310267
218	0x3e808b6d	0.25106373
219	0xbce7276b	-0.028217038
220	0x3e10e89e	0.14151236
221	0x3de5a3c6	0.11212878
222	0x3e073ca6	0.1320673
223	0xbdbc6fad	-0.09200988
224	0xbe46fcbb	-0.19432347
225	0x3d82148b	0.063515745
226	0xbe73f449	-0.23823656
227	0x3e09b908	0.1344949
228	0x3e560af5	0.20902617
229	0xbdcd468a	-0.1002322
230	0x3dbc71f7	0.092014246
231	0xbe825f36	-0.25463265
232	0x3e57dea2	0.21081021
233	0xbe120541	-0.14259817
234	0xbdf445ab	-0.119273506
235	0x3db9937b	0.09061333
236	0xbd44ed0f	-0.04807764
237	0xbd341aee	-0.043970995
238	0x3da0deb9	0.07854981
239	0x3dcdbeb2	0.10046138
240	0xb98c9b87	-0.00026818758
241	0xbe5e445d	-0.21705766
242	0x3e6d8f71	0.2319925
243	0xbe775bb8	-0.24156082
244	0x3e9645f3	0.29350242
245	0x3e305247	0.17218886
246	0x3c6bb12d	0.014385504
247	0x3e458a7e	0.19291112
248	0xbdf47716	-0.11936776
249	0x3db0e657	0.08637684
250	0xbd45c418	-0.048282713
251	0xbd34710e	-0.04405313
252	0x3e0b5443	0.13606362
253	0x3d36370b	0.044486087
254	0xbe3b4af5	-0.18290313
255	0x3e65ff02	0.22460559

network_body._body_endoder.seq_layers.0.bias f4 [128]
0	0xba69c184	-0.00089170807
1	0x3cac0b82	0.021001581
2	0xbc6160fd	-0.013756034
3	0x3c67c31b	0.014145638
4	0x3c2a3447	0.01038844
5	0xbbd51f50	-0.006503977
6	0x3c8f61f2	0.017502759
7	0x3c6fd6d6	0.014638623
8	0x3c67bf7d	0.014144775
9	0x3c87f0d6	0.016594332
10	0x3d11a1d0	0.035554707
11	0x3a5c5d70	0.0008406257
12	0x3b17c456	0.0023157797
13	0xbbe7aae1	-0.007069931
14	0x3ca64733	0.020297622
15	0x3c9a44f6	0.018831711
16	0x3d282b5b	0.041056972
17	0x3ce78b7d	0.028264755
18	0x3c8232df	0.015893398
19	0x3c056a68	0.008143045
20	0x3c2f3fe7	0.010696388
21	0xbc23b414	-0.009991664
22	0x3be0bdd3	0.0068585663
23	0xbc1279d2	-0.008940177
24	0x3cbec65e	0.023287948
25	0x3c8f2dd8	0.017477915
26	0x371f7986	9.505433e-06
27	0xbd0918c6	-0.03347089
28	0x3ca2db43	0.019879943
29	0x3a72d4d7	0.0009263283
30	0x3c947ebb	0.018126836
31	0x3aa11954	0.0012290874
32	0x3c91e912	0.017811332
33	0x3cbef379	0.023309456
34	0x3c94c9a1	0.01816255
35	0x3c3f7de8	0.011687733
36	0x3c6c0a61	0.014406771
37	0xbcb8aef6	-0.022544365
38	0xbb2c2442	-0.0026266729
39	0xbc4e45da	-0.012589896
40	0xbcb1beae	-0.021697368
41	0x3ca46b47	0.020070685
42	0xb91273c2	-0.00013966768
43	0x3c8c0cb8	0.017095909
44	0x3b5d2d63	0.0033748976
45	0x3c1d5b70	0.00960432
46	0x3a6aaf06	0.0008952472
47	0x3c53d478	0.0129290745
48	0x3c8b44b5	0.017000536
49	0x3c6671e8	0.014065243
50	0x3d148084	0.036255375
51	0xbc254dd3	-0.0100893555
52	0xbcc732f9	-0.024316298
53	0x3c9b5f8d	0.01896646
54	0x3ba4aeeb	0.0050257347
55	0x3cedce7b	0.029029122
56	0x3c929404	0.017892845
57	0xbc85f422	-0.016351763
58	0x3c9ed790	0.019389898
59	0x3bfc4f35	0.007699872
60	0xbad5b0de	-0.0016303321
61	0x3d43789d	0.047722448
62	0xbc05d278	-0.008167855
63	0x3c363dc2	0.011123123
64	0x3c42af4d	0.011882615
65	0x3ca12b1d	0.019673878
66	0x3c775512	0.015095966
67	0x3c818877	0.015812142
68	0x3ba25c92	0.004954883
69	0x3c9ceafb	0.019155016
70	0x3c3a385f	0.011365979
71	0x3c8230a2	0.01589233
72	0x3d023d91	0.031796996
73	0x3c34cb16	0.011034748
74	0x3bd65d0f	0.006541855
75	0x3c663666	0.014051056
76	0x3c118e50	0.008884028
77	0xba7a7d92	-0.00095554546
78	0x3cbd9cc4	0.02314604
79	0x3cab4754	0.020908035
80	0x3b53e04c	0.0032329736
81	0xbc1f4a4d	-0.0097223045
82	0xbc0ca062	-0.00858316
83	0x3c60f479	0.013730162
84	0x3be97060	0.007123992
85	0x3d1fb2e8	0.038988978
86	0xbc607180	-0.0136989355
87	0x384b2615	4.843444e-05
88	0x3a61e894	0.00086177257
89	0x38d99cee	0.00010376597
90	0x3d0307a2	0.0319897
91	0x3c3f1a26	0.011663949
92	0x3ccd3aae	0.025052395
93	0x3c822487	0.015886558
94	0x3c818258	0.015809223
95	0x3c316590	0.010827437
96	0xbaba8c46	-0.0014232479
97	0x3bf4c641	0.007469923
98	0x3c69b5ee	0.014264567
99	0x3cc44886	0.023960363
100	0x3ca00619	0.019534158
101	0x3c58f0e6	0.013241028
102	0x3cacbe46	0.021086823
103	0x3cb2da61	0.021832647
104	0x3c7625f9	0.015023702
105	0xbb110dfc	-0.002213358
106	0x3c676b80	0.014124751
107	0xbb55e8ec	-0.0032640053
108	0xbbcffe98	-0.0063474886
109	0x3c8b108c	0.016975664
110	0x3c53229d	0.01288667
111	0x3c1783a6	0.009247696
112	0x3d310d98	0.043225855
113	0x3c2ade83	0.0104290275
114	0xbd550bb3	-0.05201311
115	0x3c723144	0.014782254
116	0x3b20df5f	0.0024547202
117	0x3caf88a9	0.02142747
118	0x3c188e09	0.009311208
119	0x3cec1d42	0.028822545
120	0x3cb2403d	0.021759147
121	0xbbd48e7d	-0.0064867125
122	0x3c2b3110	0.010448709
123	0x3cac7d21	0.02105576
124	0x3cb0ad4d	0.021567011
125	0x3c91acd6	0.01778261
126	0x3d002fbb	0.03129552
127	0xbc27d908	-0.010244615

network_body._body_endoder.seq_layers.2.weight f4 [128, 128]
0	0xbd4658d4	-0.048424557
1	0x3c807551	0.01568094
2	0x3e3338c3	0.17502122
3	0xbcaf7291	-0.021416934
4	0xbd8ca6d2	-0.06867756
5	0x3d110782	0.03540755
6	0x3db6e074	0.0892953
7	0x3d998506	0.07496075
8	0x3c6224ca	0.0138027165
9	0x3d96d4a2	0.07364775
10	0x3ca0cf67	0.019630147
11	0x3c9cc442	0.019136552
12	0xbd777a0b	-0.060419124
13	0x3d9c144d	0.076210596
14	0xbce39b0d	-0.027783895
15	0x3e52b032	0.20575026
16	0x3e4d13be	0.20027062
17	0xbd0822d5	-0.033236343
18	0xbe00110b	-0.12506501
19	0xbe27b3b0	-0.16377139
20	0x3d5f2098	0.054474443
21	0x3dc828e6	0.09773426
22	0x3c931c25	0.017957756
23	0x3da4ebb8	0.08052772
24	0x3db7751e	0.08957885
25	0xbdc7be7d	-0.0975313
26	0x3de1bfac	0.11022887
27	0xbd9b87e8	-0.075942814
28	0xbdfa5bac	-0.12224516
29	0x3cfeee61	0.031119527
30	0x3c4eb17a	0.012615556
31	0x3e32c051	0.17456175
32	0x3e0a59df	0.13510846
33	0xbdafd9c1	-0.08586455
34	0xbe2649aa	-0.16239038
35	0xbbee5207	-0.007272962
36	0xbada2efe	-0.0016646085
37	0xbbdb1122	-0.006685392
38	0x3d50fe84	0.051023975
39	0xbd10289a	-0.03519497
40	0xbd52e488	-0.051487476
41	0xbd1fb494	-0.038990572
42	0x3c8897ff	0.01667404
43	0xbb836cc2	-0.0040107677
44	0xbdb808ee	-0.08986078
45	0xbd3e7da8	-0.046506554
46	0x3da70722	0.08155657
47	0xbdfa2af2	-0.122152224
48	0x3e0948e6	0.13406715
49	0xbd71fce5	-0.05907907
50	0x3d85611a	0.06512661
51	0x3b227f48	0.0024795104
52	0x3d1e1eb8	0.038603514
53	0x3d258689	0.040411506
54	0x3c816b60	0.01579827
55	0xbda3e8be	-0.080033764
56	0x3d1f78e5	0.038933653
57	0x3d42ca80	0.0475564
58	0xbd8bade9	-0.0682028
59	0x3c5e6bba	0.013575489
60	0x3e08a3f6	0.13343796
61	0x3d8527b5	0.06501714
62	0x3d111f2a	0.03543011
63	0xbe792550	-0.2433064
64	0xbdc6da82	-0.09709646
65	0xbe0bd061	-0.13653709
66	0xbc43247a	-0.011910552
67	0xbd8fe39d	-0.07025836
68	0x3d813a3d	0.06309936
69	0xbb6ad0b5	-0.0035829965
70	0x3c01a62d	0.007913155
71	0x3add38bc	0.001687787
72	0x3d431854	0.047630623
73	0xbcf7f47e	-0.03026795
74	0xbb2b83e5	-0.0026171145
75	0xbc852bc7	-0.016256226
76	0xbd099014	-0.03358467
77	0xbcab49bf	-0.020909188
78	0xbe4e4b06	-0.20145807
79	0xbe168e1c	-0.14702648
80	0x3d6cadd8	0.057782978
81	0x3d8dea47	0.069294505
82	0xbd943acd	-0.07237778
83	0x3d3ff095	0.046860296
84	0xbd876e82	-0.066128746
85	0xbc045d49	-0.008078882
86	0x3d2dde65	0.04244842
87	0xbd9b5139	-0.07583851
88	0x3b44c367	0.0030023695
89	0x3d083281	0.03325129
90	0xbc6280e0	-0.0138246715
91	0xbe18eb95	-0.14933617
92	0x3d8055c2	0.06266357
93	0xbdf240a7	-0.11828738
94	0x3c03a308	0.008034475
95	0x3d53165f	0.051535007
96	0x3baa119e	0.0051900884
97	0x3d8c2ed9	0.06844873
98	0x3db7e242	0.08978702
99	0xbd251ca5	-0.04031052
100	0x3db7ed2b	0.08980783
101	0x3d9ac4d1	0.07557071
102	0xbdbb0c9d	-0.09133265
103	0x3d7d5837	0.061851706
104	0xbe5282f2	-0.20557764
105	0xbcc9bdfa	-0.02462672
106	0xbbb10589	-0.005402271
107	0xbd5831b2	-0.05278177
108	0xbe493ab2	-0.19651297
109	0x3e2e8f04	0.17046744
110	0x3bab7faf	0.005233727
111	0xbd90406e	-0.07043539
112	0x3dea914b	0.11453494
113	0xbc6d07e8	-0.014467217
114	0xbdb68d46	-0.089136645
115	0xbd8ca5a4	-0.06867531
116	0x3dda200a	0.10650642
117	0x3e363407	0.17793284
118	0x3b7d3f82	0.003864259
119	0xbc6bc8e6	-0.01439116
120	0x3e047ef6	0.12939057
121	0xbc9d8f37	-0.01923333
122	0x3e15373c	0.14571851
123	0xbdcec27d	-0.100956894
124	0x3c54e8da	0.012994969
125	0x3dc4fe6a	0.09618838
126	0x3d076b8a	0.03306154
127	0xbe2760f9	-0.16345586
128	0x3df81c97	0.12114828
129	0x3da80969	0.0820492
130	0x3d4fd969	0.050744448
131	0x3e22be35	0.1589287
132	0xbdcded23	-0.10054996
133	0xbd0247fb	-0.031806927
134	0xbd2fa2ac	-0.042879745
135	0xbe33662b	-0.17519443
136	0x3d27d96f	0.040978845
137	0xbd8b6f51	-0.06808341
138	0xbdb3c015	-0.08776871
139	0x3dd28a0f	0.10280239
140	0x3e139ef9	0.14416112
141	0x3b83b39d	0.0040192143
142	0xbdf19266	-0.117955014
143	0xbd8cc7ac	-0.06874022
144	0xbc331608	-0.010930546
145	0x3d9cf306	0.076635405
146	0x3a8842f8	0.0010395935
147	0x3d81fd4c	0.06347141
148	0x3d9947a8	0.074843705
149	0x3d777a4a	0.06041936
150	0x3c4db688	0.012555726
151	0x3da83580	0.08213329
152	0xbc8b9445	-0.017038474
153	0x3d960bb1	0.07326449
154	0x3d84a79c	0.064772815
155	0x3cdedc6f	0.02720472
156	0x3da48b21	0.08034349
157	0xbde1f587	-0.11033159
158	0xbd3440f6	-0.044007264
159	0xbdc01ede	-0.093808874
160	0x3dde245f	0.10846781
161	0x3c95c386	0.01828171
162	0x3d3d31b0	0.046189964
163	0x3e6142fd	0.2199821
164	0xbcc8eb50	-0.024526268
165	0x3ce3df9e	0.02781659
166	0xbc831ba4	-0.016004391
167	0x3d548569	0.051885042
168	0xbe4feced	-0.20305224
169	0xbd03f810	-0.032218993
170	0x3d93f366	0.07224159
171	0x3d7d8013	0.06188972
172	0xbb5a46b1	-0.0033306296
173	0x3cc8f83d	0.024532432
174	0xbd42bad4	-0.047541454
175	0xbd0a1564	-0.033711806
176	0xbd077500	-0.033070564
177	0x3d9ce857	0.07661503
178	0xbdb0771f	-0.086164705
179	0xbd48cf5d	-0.049025882
180	0xbe2b1030	-0.16705394
181	0xbda781a0	-0.08179021
182	0x3d321266	0.043474577
183	0x3d0339c1	0.0320375
184	0x3ce763cc	0.028245829
185	0x3e1af842	0.15133765
186	0xbdd25700	-0.102705
187	0x3c19777b	0.009366865
188	0x3dcf3174	0.10116854
189	0x3db6b3eb	0.089210354
190	0x3e00e1f6	0.12586197
191	0x3da5a68d	0.08088408
192	0x3d27b432	0.040943332
193	0xba9cf44e	-0.0011974664
194	0x3d976892	0.07392992
195	0xbdd3183f	-0.10307359
196	0xbd84bf3a	-0.06481786
197	0x3dc07c48	0.09398705
198	0x3cfbec92	0.030752454
199	0x3d99c19b	0.075076304
200	0x3c28625c	0.010277357
201	0x3b22501b	0.0024766985
202	0x3d989d6f	0.07451903
203	0xbc34973e	-0.011022387
204	0xbd4fe576	-0.05075594
205	0x3e050f3e	0.12994096
206	0x3e3947fe	0.18093869
207	0x3e842820	0.25811863
208	0x3e11d126	0.1423994
209	0xbd3e7b57	-0.046504345
210	0xbc9a189a	-0.018810559
211	0xbd893c5b	-0.06700965
212	0x3d01f5a4	0.0317284
213	0x3d83eb55	0.064413704
214	0x3dbf0d9c	0.09328768
215	0xbd80a0b3	-0.06280651
216	0xbdaa32ce	-0.083104715
217	0x3cc6d218	0.024270102
218	0x3e0a59cc	0.13510817
219	0x3b769ed2	0.0037631285
220	0xbe40659b	-0.1878876
221	0x3d1c5435	0.038166244
222	0xbd500c88	-0.0507932
223	0xbd815404	-0.06314853
224	0xbde9ee1e	-0.114223704
225	0x3b812406	0.003941062
226	0xbcbaad6d	-0.022787774
227	0x3da66138	0.08124012
228	0x3dbe33dc	0.09287235
229	0xbb5eca62	-0.0033995141
230	0x3cfa561a	0.030558635
231	0xbe06fcd6	-0.13182387
232	0x3d8c43e6	0.06848888
233	0xbe072b98	-0.13200223
234	0xbd35f2de	-0.04442107
235	0xbc4e3f59	-0.012588345
236	0x3d8bca03	0.0682564
237	0xbcc604cf	-0.024172215
238	0x3d81b144	0.06332639
239	0xbd3b3888	-0.04570821
240	0xbb8be135	-0.00426879
241	0x3d2ad6a9	0.041708622
242	0x3ac291a6	0.0014844432
243	0x3e0a7a7a	0.13523284
244	0xbd351bc6	-0.04421594
245	0xbd900584	-0.07032302
246	0xbdf135a0	-0.11777806
247	0x3d63b6fa	0.055594422
248	0x3d851ff1	0.06500233
249	0x3c4dd0a7	0.012561954
250	0x3d6292f3	0.055315923
251	0x3e03cbb0	0.1287067
252	0xbdfcecdb	-0.12349864
253	0x3cd7d777	0.026347859
254	0x3e467ba9	0.1938311
255	0xbb410d2a	-0.002945731

network_body._body_endoder.seq_layers.2.bias f4 [128]
0	0x3c2f9608	0.010716923
1	0x3b7ae0a4	0.003828087
2	0xbbe52f8a	-0.0069941925
3	0xbba06683	-0.004895033
4	0x3c01a52d	0.007912916
5	0x3c52588d	0.012838495
6	0x3c76aabc	0.015055355
7	0x3c26490e	0.0101492535
8	0x3c8738c1	0.016506555
9	0x3c3d7cab	0.011565368
10	0xb96a5bda	-0.00022350196
11	0x3bd90cc4	0.0066238362
12	0x3bf67d4a	0.00752226
13	0x3be0645d	0.0068479017
14	0x3c588684	0.013215665
15	0xbbf432f9	-0.0074523655
16	0x3c368755	0.011140664
17	0x3b510116	0.0031891516
18	0x3cd73fe5	0.026275584
19	0x3c723493	0.0147830425
20	0xba0ee34a	-0.0005450739
21	0x3c41d55a	0.011830652
22	0x3b27fbdb	0.0025632295
23	0x3c24663f	0.010034143
24	0x3c81c1c7	0.01583947
25	0x3b1b98b9	0.0023742153
26	0x3caa9e99	0.020827578
27	0x3b47492a	0.00304086
28	0xb96112d5	-0.00021464688
29	0x3cb0dd06	0.021589767
30	0x3c13e8b7	0.0090276515
31	0x3c402b14	0.011729021
32	0x3c8da717	0.017291589
33	0x3c87a083	0.01655603
34	0x3c0994cf	0.008397295
35	0x3c0f3084	0.008739594
36	0xbb83e853	-0.004025498
37	0x3c069d51	0.008216218
38	0x3be6cb73	0.007043296
39	0x3c88a20b	0.01667883
40	0x3bca2665	0.0061691278
41	0x3be6fa9d	0.0070489184
42	0x3c6639fd	0.014051911
43	0x3be1f74b	0.0068959347
44	0x3c7966c4	0.015222255
45	0xbbb88547	-0.0056311223
46	0x3c9fb562	0.01949567
47	0x3c7213cf	0.014775231
48	0x39f8b0a8	0.00047433865
49	0x3aee6a4e	0.001818964
50	0x3c54e73e	0.012994586
51	0x3c3ece79	0.011645907
52	0x3c6292e6	0.013828969
53	0x3c909633	0.017649746
54	0x3c43e8d8	0.01195737
55	0x3c8ce46d	0.017198766
56	0x3c35f87a	0.011106605
57	0x3b4c0e17	0.0031136328
58	0x3c555926	0.013021743
59	0x3c8349c4	0.016026385
60	0x3c7c2155	0.015388806
61	0x3c1ab779	0.009443157
62	0x3b53ac00	0.0032298565
63	0x3cb2d753	0.02183119
64	0x3c53403a	0.012893731
65	0x3b5f7e8c	0.0034102527
66	0x3c411647	0.0117850965
67	0x3c2c6545	0.010522191
68	0x3c4ce1a3	0.012504968
69	0x3c569095	0.0130959945
70	0x3aec79e7	0.0018041701
71	0x3bc84c17	0.0061125862
72	0x3bc45e3b	0.0059926785
73	0x3c6aabb7	0.014323167
74	0x3bfe00e6	0.007751572
75	0x3c1d94a9	0.009617963
76	0x3c7da7bd	0.015481886
77	0x3c3460a5	0.01100937
78	0x3b4da515	0.0031378914
79	0xbc0e7ef5	-0.008697261
80	0x3c1faa6e	0.009745223
81	0x3c385710	0.011251226
82	0x3bb55358	0.005533617
83	0x3ca32e8f	0.019919662
84	0x3c119778	0.008886211
85	0x3c95c4af	0.018282263
86	0x3c608e3f	0.013705789
87	0x3c45084d	0.012025905
88	0x3b820aba	0.003968564
89	0x3c9f2171	0.019425126
90	0x3c64c1d7	0.013962231
91	0x3b439485	0.0029843163
92	0x3ca32b7c	0.019918196
93	0x3c219c06	0.009863859
94	0x3c8ca033	0.017166233
95	0x3c2f6c77	0.010707012
96	0x3c21eec3	0.009883585
97	0x3c334645	0.0109420465
98	0x3c2d5e30	0.010581538
99	0x39d20744	0.00040059735
100	0x3bf3ad5f	0.007436439
101	0x3caa7bd2	0.020810995
102	0x3c2fe166	0.0107348915
103	0xba3fcb7f	-0.0007316395
104	0x3c37ffba	0.011230404
105	0xbbd94ea7	-0.0066316905
106	0x3c569e14	0.013099212
107	0x3cc3a6a7	0.023883177
108	0xbc04f262	-0.008114429
109	0x3bb4b7b6	0.005515064
110	0x3c843207	0.016137136
111	0x3c82213a	0.015884984
112	0x3c9e21de	0.019303259
113	0x3c51a120	0.012794763
114	0x3c8192fd	0.01581716
115	0x3cb7bffb	0.02243041
116	0xbbc81ebe	-0.0061071804
117	0x3bda6274	0.0066645686
118	0x3bff4d8a	0.007791226
119	0x3c8359f0	0.016034096
120	0x3c48bb1c	0.012251642
121	0x3ca8d44e	0.020609047
122	0x3c1918c4	0.0093442835
123	0x3c53ba64	0.012922857
124	0x3c3d9bed	0.01157282
125	0x3bf7facd	0.0075677396
126	0x3c62ffd7	0.013854942
127	0x3c78edd2	0.0151934195

action_model._discrete_distribution.branches.0.weight f4 [2, 128]
0	0x3d7a1187	0.06105187
1	0xbcb36a70	-0.02190134
2	0x3b250828	0.0025181863
3	0xbc881653	-0.016612208
4	0x3d0fa743	0.035071623
5	0x3ce84070	0.028351039
6	0x3d23b500	0.039967537
7	0x3ce9224b	0.028458735
8	0x3d210a3b	0.039316397
9	0xbc8458ab	-0.016155561
10	0xbc7bb194	-0.015362162
11	0x3cd47779	0.025935875
12	0xbca218bf	-0.01978719
13	0x3cbd539e	0.02311116
14	0x3d5d6306	0.054049514
15	0x3b7c85d3	0.0038531914
16	0x3cd619d0	0.026135355
17	0xbc6e97fe	-0.014562605
18	0xbd442ca9	-0.047894154
19	0x3cc4e0db	0.024033
20	0xbba58d00	-0.005052209
21	0xbd0d7569	-0.0345358
22	0xbcc5982c	-0.024120413
23	0x3cf46369	0.029832559
24	0xbd2c2ab4	-0.042032912
25	0x3bf4c6fa	0.007470009
26	0xbd7755a9	-0.060384426
27	0xbca2f964	-0.01989431
28	0xbc41bd67	-0.011824942
29	0xbd36417c	-0.044496045
30	0x3d0ed980	0.034875393
31	0xbd359ae5	-0.044337172
32	0x3d06acb8	0.03287956
33	0xbccee558	-0.025255844
34	0x3cf03e73	0.029326653
35	0x3cf32a2d	0.029683197
36	0x3bdc90fa	0.0067311497
37	0x3ce5c18e	0.028046396
38	0xbce9e2f1	-0.028550597
39	0x3d522ace	0.051310353
40	0x3899008c	7.2957104e-05
41	0xbc9ab806	-0.018886577
42	0x3c84ba7c	0.016202204
43	0xbd2000d7	-0.0390633
44	0x3d68a6f5	0.056799848
45	0x38bac096	8.905043e-05
46	0x3d365ccf	0.044522103
47	0x3c854321	0.016267361
48	0x3ce160f5	0.027512053
49	0x3bb4a08d	0.005512303
50	0x3cb75d4e	0.022383358
51	0x3c87faf7	0.016599162
52	0xbcb889e5	-0.02252669
53	0x3d1b2397	0.037875738
54	0xbce37a8d	-0.027768398
55	0xbd4fead7	-0.05076107
56	0xbd11516c	-0.03547804
57	0x3ca23295	0.01979951
58	0xbd2fd6c5	-0.04292943
59	0x3d8c9d0e	0.06865893
60	0xbd0d2b54	-0.03446515
61	0xbd4ce23e	-0.05002045
62	0xbc8ccd37	-0.017187698
63	0xbd5c48a7	-0.053780224
64	0xbcf7f5dd	-0.030268604
65	0x3c824144	0.015900262
66	0xbd28b70b	-0.04119019
67	0x3c9c2ecc	0.019065283
68	0xbcc903f2	-0.024538014
69	0x3d156932	0.036477275
70	0xbc911cff	-0.017714022
71	0x3d0c342f	0.034229454
72	0xbc0c35d1	-0.008557753
73	0x3d0d24af	0.034458812
74	0x3d15c37c	0.03656338
75	0xbd08125f	-0.033220645
76	0xbd59b471	-0.053150598
77	0xbcc9920f	-0.024605779
78	0x3cca2af2	0.024678681
79	0xbb5c85c3	-0.0033649064
80	0xbd039ba5	-0.032130856
81	0xbd289c33	-0.04116459
82	0x3d6bfd44	0.05761458
83	0x3d503228	0.050829083
84	0xbcf8dcb8	-0.030378684
85	0xbd4e00ac	-0.05029361
86	0xbcd13114	-0.025536098
87	0xbd2f406a	-0.04278604
88	0x3d118178	0.03552386
89	0x3d65e9b4	0.05613108
90	0xbd0bc0e6	-0.03411951
91	0x3c9174d8	0.01775591
92	0x3d63f0be	0.05564951
93	0xbd0da4fc	-0.03458117
94	0x3c53596d	0.012899739
95	0x3ccfa064	0.025345035
96	0xbcd698e8	-0.026195958
97	0xbd2c4b0d	-0.04206376
98	0xbd047b15	-0.032343943
99	0xbd46bf63	-0.048522364
100	0xbd6f2cad	-0.058392216
101	0xbd39ad72	-0.045331426
102	0x3d0b27d8	0.033973545
103	0xbcfe16fd	-0.031016821
104	0x3cb1b934	0.021694757
105	0xbc02a94d	-0.007974935
106	0x3d276b7c	0.04087399
107	0x3d166ccf	0.03672486
108	0xbb88815c	-0.0041658115
109	0x3c828fc3	0.015937692
110	0x3cd1a899	0.025593089
111	0x3d157de4	0.03649701
112	0x3d25e2b7	0.040499415
113	0xbd55f0af	-0.052231487
114	0x3d5c069e	0.05371725
115	0x3c307452	0.01076992
116	0xbca93363	-0.020654386
117	0xbc980afc	-0.018559925
118	0xbd015ed9	-0.031584594
119	0x3b48a2c3	0.0030614592
120	0xbd3a84a4	-0.045536652
121	0xbd2994c7	-0.04140165
122	0xbc83af54	-0.016074814
123	0xbd251860	-0.04030645
124	0xbd626d4e	-0.055280022
125	0xbcbaf922	-0.022823874
126	0xbced10ea	-0.02893873
127	0xbd868260	-0.06567836
128	0xbd31bfc9	-0.04339579
129	0x3c6ebc56	0.01457127
130	0xbb123f96	-0.0022315732
131	0x3a400364	0.0007324724
132	0xbd262383	-0.04056121
133	0xbca013c2	-0.019540671
134	0xbd31678a	-0.043311633
135	0xbce99485	-0.028513202
136	0xbd0346b0	-0.032049835
137	0x3d135164	0.035966292
138	0x3ca2dd01	0.019880773
139	0xbce00e1a	-0.027350474
140	0x3d093fb0	0.033508003
141	0xbc888da1	-0.016669096
142	0xbd4c6ad5	-0.04990657
143	0x3c002d85	0.007823353
144	0xbc8f3cc4	-0.01748503
145	0x3b3226cb	0.0027183767
146	0x3d4ed33e	0.050494425
147	0xbd3a277c	-0.04544781
148	0x3c89ae77	0.016806824
149	0x3cf824a9	0.030290918
150	0x3caa0c09	0.020757692
151	0xbcb6a90f	-0.02229741
152	0x3d561bfe	0.05227279
153	0x3be112db	0.006868703
154	0x3d1e7b35	0.038691718
155	0x3d77db5a	0.060511924
156	0x3c68db2b	0.01421241
157	0x3d1a2250	0.03763038
158	0xbd38487b	-0.044990998
159	0x3d068f93	0.032851767
160	0xbd18bb98	-0.03728828
161	0x3d2f11dd	0.042741645
162	0xbcee46d7	-0.029086513
163	0xbcbec1d8	-0.023285791
164	0xbc0230f6	-0.0079462435
165	0xbd077e96	-0.033079706
166	0x3ca7ce89	0.020484226
167	0xbd432104	-0.047638908
168	0xbc456b76	-0.012049546
169	0x3ce1a799	0.027545737
170	0xbd1dfc48	-0.038570672
171	0x3d2058fa	0.039147355
172	0xbd53f1f1	-0.051744405
173	0xbc7c151e	-0.015385894
174	0xbd37b43c	-0.04484962
175	0xbd2ac507	-0.041691806
176	0xbcd2ee6e	-0.025748458
177	0xbb42a604	-0.0029701004
178	0xbc81edd8	-0.015860483
179	0xbbf077b7	-0.00733849
180	0x3d020131	0.031739417
181	0xbc81a12b	-0.015823921
182	0x3d132024	0.035919324
183	0x3d1ff0f4	0.03904815
184	0x3cea094d	0.028568888
185	0xbcb99019	-0.022651719
186	0x3d72f45d	0.059315074
187	0xbd3fd135	-0.046830375
188	0x3d14feb4	0.036375716
189	0x3c54e4dd	0.012994018
190	0xbb33bf28	-0.002742717
191	0x3d03b997	0.032159414
192	0x3d144065	0.036194224
193	0xbd1b5fed	-0.03793328
194	0x3d2dfa26	0.04247489
195	0xbcd4f2b2	-0.025994632
196	0x3cef75ce	0.029230978
197	0xbd3c9ac6	-0.04604604
198	0x3c41dadd	0.011831966
199	0xbd38413f	-0.0449841
200	0x3c112c53	0.008860665
201	0xbd46e0cd	-0.04855423
202	0xbd1dcd43	-0.03852583
203	0x3cbc0941	0.022953631
204	0x3d5dd199	0.054154966
205	0x3d30f77a	0.043204762
206	0xbcab0b61	-0.02087945
207	0x3c621399	0.013798618
208	0x3c99b0ea	0.018761117
209	0x3cfcfb72	0.030881617
210	0xbcca84af	-0.024721472
211	0xbd422a7e	-0.047403805
212	0x3ce7d442	0.028299455
213	0x3d397127	0.045273926
214	0x3d19307c	0.037399754
215	0x3d743918	0.05962476
216	0xbd232e4e	-0.03983908
217	0xbd113466	-0.03545036
218	0x3d14aa37	0.036295142
219	0xbb121668	-0.0022291187
220	0xbd7aa323	-0.061190736
221	0x3ce4e55d	0.0279414
222	0xbcd88892	-0.02643231
223	0xbc56e218	-0.013115428
224	0x3cbc5605	0.022990236
225	0x3d0f2518	0.034947485
226	0x3d0066e9	0.031348143
227	0x3d0e456a	0.034734167
228	0x3d5a9f6b	0.05337469
229	0x3d545661	0.05184019
230	0xbd3dffd8	-0.04638657
231	0x3c89d98a	0.016827364
232	0xbd0169ef	-0.031595167
233	0x3b905f53	0.004405895
234	0xbd4f7ee1	-0.05065811
235	0xbd2a7c72	-0.041622587
236	0x3bc6c532	0.006065988
237	0xbd0c3086	-0.034225963
238	0xbd255bb7	-0.04037067
239	0xbd167a49	-0.036737714
240	0xbc852038	-0.016250715
241	0x3d22f98f	0.03978878
242	0xbd26d8a4	-0.04073395
243	0xbcf3409a	-0.02969389
244	0x3b2aed18	0.002608126
245	0x3ccb3285	0.024804363
246	0x3d4acdf8	0.049512833
247	0xbc9c00e5	-0.019043395
248	0x3d456182	0.048188694
249	0x3d21175e	0.039328925
250	0x3c8f192d	0.01746806
251	0x3d12c86d	0.035835672
252	0x3d59855f	0.05310571
253	0x3ccda5bc	0.025103442
254	0x3cb01c5e	0.021497902
255	0x3d5cc3a9	0.053897534

action_model._discrete_distribution.branches.0.bias f4 [2]
0	0xbb6bc669	-0.0035976416
1	0x3b6bc66a	0.0035976418
