Assets/results/ppo/JumperAgent/JumperAgent-50716.onnx (onnx, 91980 bytes, 6 tensors)

network_body._body_endoder.seq_layers.0.weight f4 [128, 42]
00000000: 46d5 2bbe 93d2 2c3e e9b7 3cbe ceaa 9a3e
00000010: b10d acbd 50db 05bd 33fd 48bd e600 9c3d
00000020: b50d 7ebe f267 cebe ce8f 313e 174c c93c
00000030: e401 8dbe f949 aabd 8b9a e73d 4c4e da3c
00000040: 24a3 62bd 263e b5bd fce5 4cbb 7ad4 49be
00000050: 30e3 e63d 6e9e 69bd 396f a13e 479c cf3e
00000060: 1fea cd3d 4ab1 21be 0e1b 073e 49a0 41bd
00000070: fa1c d2bd 1a7c 4c3e ca1b f43d 7afc d43c
00000080: 5d4e d7be f865 423e 2660 ac3c 6b10 e63d
00000090: d128 393e 5c91 3dbd 805c 763d 2ca3 853e
000000a0: 1895 023b 71b5 803d 0ae7 59bd 66f6 9d3d
000000b0: 1704 f43d 17d2 a9bc be55 213e 7c97 293e
000000c0: 8e30 923d c85e 8b3d ecd7 25bd 38ab 9c3d
000000d0: b7c7 053e 3260 373c b5be b9be 22f6 f73d
000000e0: fdce dfbe 72ce 643e 5af9 13be 3247 dc3d
000000f0: 8629 013c 9eea 583e 7996 883e 0188 4fbe
00000100: edb2 c3be 4ac0 603e 2887 a4bd 7be3 c73d
00000110: d287 dabd ca33 a4bd 5ad4 4abe 87f8 513d
00000120: 16ff c0bc b407 ce3d 3808 663c 0980 613e
00000130: e847 17be 875a 0abe a1df 12bd 7891 5f3e
00000140: 0a9c ec3e db10 0bbe 36a0 203e 6796 9e3d
00000150: b476 7cbd 31c7 b03d 1c89 5a3d 9919 fcbd
00000160: 0c2c 5b3e 7e34 14be 09cc 033e 47f6 abbd
00000170: 64f2 86be 0437 6b3e bbe7 43be 8b1f 64bd
00000180: 7e58 52be e090 8cbd a5e3 57be 9a4f 113e
00000190: 4ac3 44be 60cd 1e3d 68e5 72bd 21fe 173e
000001a0: a8c0 b3bd beff 93bd ce60 a0be 8f54 b43b
000001b0: 71ad f1bd f920 78bd e242 2bbe c8fd 9e3d
000001c0: f6f3 97bd aaf3 7f3d d334 8e3d 8ac8 38be
000001d0: 2056 503e ed08 933c 962c f7be 285a 8d3d
000001e0: 95c9 80be 86b0 663d 0404 88bd 5430 85bd
000001f0: 6cf4 9ebd 6e79 d4bb 1d76 b63b d87f 4fbd
00000200: 6f3d d6bd fbfb 853e 9f6d a33d 47ea f53d
00000210: fcd4 03be 334f d03d 4100 76bd 73eb ba3d
00000220: afee 6cbe 5999 673c 2fd3 103e baef 913e
00000230: c52c fe3e 4785 b13e 4aaf af3d a2a3 883e
00000240: 5e79 cabd 7c29 8b3e 7a2b 72bd 9398 583e
00000250: 3c5f 5c3e 0264 1bbe 22ec b03d 0aa5 6cbd
00000260: 1adb 9b3d 9729 813e ad82 00be 9f7e 343e
00000270: 6d94 49be e73b 053e b926 78bc c081 5cbd
00000280: 7713 003e abe8 12be 7554 9ebb 9a14 a13d
00000290: 274a b23c f2c6 783d 48bb 4d3e d761 62bc
000002a0: 6f3d 1a3e 9b4c d33c e120 4a3a 5fec 413e
000002b0: 3525 8bbe dcc8 f8bd 9bd8 1fbe feca 81be
000002c0: 85e8 95bd 1456 353e b654 d2bd 5edd 773b
000002d0: 65a3 353e 2cf3 0fbe df08 e3bc 1788 fc3b
000002e0: 88a8 87be 0d30 85be 71f8 863e 6d43 77bd
000002f0: 31f6 bdbc 9205 8b3d fb75 0b3e 0306 963e
00000300: bf3a 273d ebe1 5e3e 0389 25bd 68ee cdbc
00000310: 07bf 593d 150e 6cbd e073 8e3d aa96 cfbd
00000320: 48d8 c2be bbd0 b63c f593 41be 84cc b6bd
00000330: f780 a8bd 4475 94bd 3585 aa3b 25f0 14bd
00000340: c825 20bb 9739 9cbd 7349 ea3d dcd1 65be
00000350: afc8 b1bc 46fe 553d 56c7 9c3e 6f6b 1abe
00000360: 5421 363d 3491 45bd e1dc 04be f4b9 2e3e
00000370: 847d afbc f71f 88bb e7dc 0a3d a5fa 0e3d
00000380: 4ae1 91bd fdbc b1be 1551 3c3e 15d5 89be
00000390: 2b0b 013e d927 b6bd 4869 15be 8622 11be
000003a0: b47a 5cbe ab25 2cbe e296 e9bd 1242 e4bd
000003b0: b5a5 59bb 598d 023e 1e41 113d f576 90be
000003c0: deb3 97be 93a4 88be 59a9 d2bd 7650 05bd
000003d0: 9f2a 043e 98a5 0e3d fe25 1fbe 3633 6fbd
000003e0: 3b7e c2bd 3b3b 58bd a239 2f3d 17a3 a3bd
000003f0: 9e6d 723e be9d 9d3e 256d 003e 1701 8ebd
-0.16780576 0.16877203 -0.18429531 0.3020844 -0.08401049 -0.032679856 -0.049069595 0.07617359
-0.24809916 -0.4031368 0.17340013 0.024572415 -0.27540505 -0.083148904 0.113087736 0.026648663
-0.055331364 -0.088497445 -0.003126501 -0.1970996 0.11273801 -0.057035856 0.3153017 0.40548918
0.10054421 -0.15790287 0.13193914 -0.047272 -0.10259433 0.19969216 0.11919363 0.025999296
-0.42051974 0.1898421 0.02104194 0.112336 0.18081976 -0.046281204 0.06014681 0.26101053
0.0019925293 0.06284607 -0.05319885 0.077130124 0.119148426 -0.020730061 0.15755364 0.16561693
0.07138167 0.068051875 -0.040489122 0.07649845 0.13064466 0.011192368 -0.3627831 0.12107493
-0.43712607 0.22344378 -0.14450589 0.10755767 0.007883435 0.2118325 0.26677302 -0.20266725
-0.38222447 0.21948352 -0.080335915 0.09760185 -0.10670437 -0.080176905 -0.19807568 0.051262405
-0.023559134 0.10060063 0.014040045 0.22021498 -0.14773524 -0.13511096 -0.0358578 0.21832836
0.46212798 -0.13580649 0.15686116 0.07743531 -0.06163664 0.08631743 0.053353414 -0.1230957
0.21403521 -0.14473149 0.12870802 -0.08396583 -0.26356804 0.22970206 -0.19131367 -0.055694144
-0.2054157 -0.0686357 -0.21082933 0.14190522 -0.19215122 0.03877008 -0.05930081 0.14843036
-0.08776981 -0.07226513 -0.31323856 0.005503244 -0.118006594 -0.06057832 -0.16724733 0.07763249
-0.07419579 0.062488236 0.06943669 -0.1804525 0.20345354 0.017948592 -0.48276204 0.069019616
-0.25153795 0.05632069 -0.06641391 -0.065033585 -0.077614635 -0.006484202 0.0055682794 -0.05065903
-0.10460936 0.26168808 0.07979893 0.120075755 -0.12874216 0.10171356 -0.060058836 0.091269396
-0.23137926 0.014135682 0.1414306 0.2850321 0.4964353 0.34671995 0.085783556 0.26687342
-0.0988643 0.27180088 -0.059123494 0.21151952 0.21520704 -0.15174869 0.08638789 -0.05777458
0.0761015 0.25227043 -0.12549849 0.17626427 -0.19685526 0.13011132 -0.015145951 -0.053834677
0.12507425 -0.14346568 -0.0048318454 0.078652576 0.021763874 0.060736604 0.20090973 -0.013817272
0.15062498 0.025793364 0.0007710588 0.18937825 -0.27176824 -0.12147686 -0.15609972 -0.25350183
-0.0731974 0.17708617 -0.102700636 0.0037821154 0.17738111 -0.14057606 -0.027714191 0.007706653
-0.26495767 -0.26013222 0.2636142 -0.060367037 -0.023188682 0.06788172 0.13619225 0.29301462
0.04082751 0.21765868 -0.040413868 -0.025138095 0.053160693 -0.057630617 0.06955695 -0.10136159
-0.38055634 0.022316327 -0.18904097 -0.08925727 -0.08227723 -0.07248929 0.005203868 -0.036361832
-0.0024436582 -0.07628172 0.114397906 -0.22443336 -0.021702139 0.052244447 0.3062083 -0.15080045
0.044465378 -0.04823418 -0.12974884 0.17063123 -0.021422155 -0.004154201 0.033902075 0.034907002
-0.071230486 -0.347145 0.18390305 -0.2692038 0.12601916 -0.08894319 -0.14590943 -0.14173326
-0.21531183 -0.16811244 -0.11405732 -0.111454144 -0.0033210341 0.12749232 0.03546249 -0.28215757
-0.29629415 -0.2668806 -0.10286207 -0.032547437 0.12906884 0.03482589 -0.15541837 -0.058398448
-0.09496733 -0.05279086 0.042779572 -0.07990091 0.23674628 0.3078441 0.12541635 -0.069338016

network_body._body_endoder.seq_layers.0.bias f4 [128]
00000000: f552 e13a 7f79 923b bfe5 15bc 872b ab3b
00000010: 2bc2 b3bb dfc4 d2b9 aa21 453c ac1d 59ba
00000020: 1028 643b 0ecd d23b c83f 253c 7a85 a6ba
00000030: 723a c83b 4c31 8b3b 6c13 7e3b f5de d3bb
00000040: ee5a ab3b 451c 213c f3eb 2ebc bdf8 a53b
00000050: 0416 66bb dcee cc3b 38c4 df3a 9fb4 ddbb
00000060: 95f8 4d3a 6ea2 a1ba 1880 a13b c24d 433a
00000070: 581e 1d38 1ce0 51bb 056e f63b 9cd6 223b
00000080: 8d14 7b3b 0633 653c 445a 3fbb 6ffc 063b
00000090: a248 093c 0a52 c63b 9a9f 6f3b 3ab3 45bc
000000a0: 5d06 453c da09 7abb 0a2a a13b f14b 8c3a
000000b0: 9d09 37bb 582d ffba 0ab2 49ba 9046 863b
000000c0: b5fe edbb d2a9 d73b 2987 02bc f990 a4bb
000000d0: 871e b03b fc53 493a ef11 803b e194 5cbb
000000e0: 3bdd 043b 21fd 1bbb 5d79 dabb 7a9c 483b
000000f0: 4884 3bbb 24b5 debb 14b4 e4ba 08ba 793b
00000100: 8f6d d439 9bb8 15bb 1871 023c 5e9f 37bb
00000110: 38d4 66ba 72c7 17ba f197 05bb 0687 4d3c
00000120: d613 7dbb e12e 76ba dc94 0f3c 628b 60bc
00000130: 1a48 91bb 4a55 e73b ab99 733b 8f09 ab3b
00000140: 47e7 5cbc bd41 b0ba 62c3 353c 21a5 273c
00000150: 0d87 14bb d007 693c 65c2 9ebb 341a 93ba
00000160: 3ca8 0a3b 55e4 8139 d0cc 14bb e5ef fabb
00000170: a607 74bb 0590 09bc c1b7 033c 5e44 483c
00000180: 8909 1c3c b3cd 3bbb 5d29 d9b9 7232 bbba
00000190: b123 c03b bada 8b3b 822a 993a 53f8 c53b
000001a0: 98e4 d3bb 3bb2 fcba fd11 7aba cfa5 cf3a
000001b0: ec03 563b ef9a abba 1fc1 9d3b f593 0b3c
000001c0: 4a8c c739 5828 9137 b20f 85bb 5315 233b
000001d0: 3ac6 533b b12e 6fbb 60d8 8fbb dbc6 1ebb
000001e0: dc14 f13b 108f e6b7 8eda 59bb ad31 83bb
000001f0: 9ec7 293c 38c1 323c e472 16bb 8607 b03b
0.0017190861 0.00447005 -0.009149014 0.0052236947 -0.005485793 -0.00040201002 0.012031952 -0.00082823145
0.0034813918 0.006433136 0.010086007 -0.0012704574 0.006110483 0.00424782 0.00387689 -0.0064657875
0.0052293455 0.0098334 -0.010676372 0.0050650523 -0.0035108337 0.00625406 0.0017072028 -0.0067659165
0.0007857171 -0.0012331733 0.0049286 0.00074502465 3.7459977e-05 -0.0032024449 0.0075204396 0.0024847155
0.003831181 0.013989216 -0.002919809 0.002059724 0.008379133 0.0060522603 0.0036563636 -0.012066657
0.012025443 -0.0038152845 0.0049183415 0.0010703785 -0.0027929314 -0.001946847 -0.00076940714 0.004097767
-0.0072630295 0.0065815235 -0.007966795 -0.005022165 0.005374733 0.0007680056 0.003908388 -0.0033658075
0.0020273465 -0.0023802 -0.0066672997 0.0030610845 -0.0028612781 -0.006796496 -0.0017448687 0.0038105268
0.00040517419 -0.002284563 0.007961534 -0.0028018574 -0.0008805427 -0.00057899125 -0.0020384754 0.012544399
-0.003861656 -0.0009391141 0.008763518 -0.013705106 -0.004433644 0.007059728 0.003717045 0.0052196453
-0.013482875 -0.0013447326 0.011093946 0.010232241 -0.0022663504 0.014223054 -0.004844951 -0.0011223019
0.0021157404 0.00024774918 -0.0022705086 -0.007657992 -0.0037236004 -0.008396153 0.008039416 0.012223331
0.009523758 -0.0028656542 -0.00041420283 -0.0014282002 0.0058636297 0.0042680176 0.0011685642 0.0060415654
-0.0064664595 -0.0019279191 -0.00095394236 0.0015842261 0.0032656146 -0.0013092438 0.0048142816 0.008519162
0.0003806076 1.7304134e-05 -0.004060709 0.0024884536 0.0032314197 -0.0036496336 -0.0043898076 -0.0024227414
0.007357223 -2.7484755e-05 -0.003324184 -0.0040037245 0.010362534 0.010910325 -0.0022956664 0.0053719906

network_body._body_endoder.seq_layers.2.weight f4 [128, 128]
00000000: 4b05 03bc c7ad e13c ea1d 3d3d c7cd c2ba
00000010: eb11 be3d ed06 dd3c 8548 27be 4a38 9abd
00000020: 4592 8d3d e955 da3d f620 dcbc 5b81 163e
00000030: 8299 03be 223b b4bc 894e e0bc bebb cabd
00000040: 2be4 e93d ee2a 64bc c53a 0cbe 8985 8f3c
00000050: 25bb 2bbe 0e9b 28be 74ee afbb 11b5 cd3c
00000060: cb92 fbbc e837 70bd bb08 06be 05ce 423d
00000070: 4877 833d e97f 043c 79a2 dbbc 4dd7 0ebe
00000080: 7ca3 5fbe d394 77bd 1606 c73d 6d45 1fbe
00000090: b555 3fbd fb19 febd 980e 963c dc23 eb3d
000000a0: 059d bebc 1314 eabd 3d83 b03d b79c 0ebd
000000b0: 3b91 08be bae1 20be 5145 a03c 798c 0d3e
000000c0: e1a9 5cbc 43c5 51bd 5ab1 8a3c 89e2 b5bd
000000d0: b6ea 663c 9290 f9bd b594 1dbe c5aa 5e3c
000000e0: 02aa ed3c 92ad 0f3d d3ac f83b 8d06 e2bb
000000f0: a7a2 ccbd e04a cbbd dc51 d43d 8cfa da3d
00000100: 9208 973d 7d2f 323e cc40 fbbc 6240 0b3d
00000110: 5901 1a3c 7b3d 233e eecc a2bd 1bb1 8f3d
00000120: e3c9 44be 8b47 ebbd 324a abbc 7208 91be
00000130: edd7 c43c e027 d13c 9eb3 843d cd85 293d
00000140: 2c8c ccbd 9414 d5bc 3f3d b6bd ee82 dc3b
00000150: 0cec 793d d17c d03d d6dc 163d bfe4 0d3e
00000160: 0ab3 15bd 4b5e 7bbd 0094 be3d a2c2 823d
00000170: eec2 073e 14a9 acbd d89f 81bd 9dca afbd
00000180: 1f7e 3b3d feb9 febc 1854 b03d de01 813b
00000190: fc1c 36be d367 0cbd 12dc 4c3d 30d6 6e3e
000001a0: ef44 1ebe 5443 183e d450 ed3d 186a 0fbb
000001b0: a421 e8bd 5755 babd 28bf de39 cf2f 6c3d
000001c0: 9892 213c cbcf 553d 0fdb 1b3e 237e 14bd
000001d0: 427e ec3b ece4 bf3d 51b2 883d 04d9 153d
000001e0: 3082 86bd 484a 9c39 5993 03be 6f6a 41be
000001f0: 1c45 a9b8 ac9c cfbd 0549 bdbc 1ca8 653c
00000200: cb11 ae3d 25e7 093d 0e1d a13d 975c 14be
00000210: 2882 92bd a435 a83d 2b05 42bc 6d6c 8d3d
00000220: d016 d63d a6cb 3cbd c848 71bc 98a9 0abe
00000230: 8685 dabd af47 f6bd 13b5 b53b 5177 f83d
00000240: 7a36 e3bb d858 6abd 817e bd3c 1b17 8abd
00000250: d198 bb3d 3296 42bd 09e2 863d 9043 d7bd
00000260: 3fe3 13bd 21ea 803c 58df d0bd bbc8 93bb
00000270: 79bf c3bc 7f89 c4bd 3c4d dfbd c696 3c3c
00000280: 1e66 d63b 1feb 63bd 05ab 233c 3a96 613d
00000290: f7fc b9bc e4c2 77bc 038a c13c c898 c73d
000002a0: 4cd5 723b 319c 603d b138 7abd 634b 143b
000002b0: 069c 19be f02d 9e3d ac82 883d 3957 3c3e
000002c0: 6c41 a73d b54b 303b 378b ac3d 2f9a d2bd
000002d0: 96f9 7ebd a369 19be 5d02 b43d dabd 743d
000002e0: 6ee4 9d3b 0444 babc 8042 c33c 0082 013e
000002f0: 365e d53b 161d eb3d a5f8 4f3e fe52 06be
00000300: 5c32 1c3d 14cd 3cbe 7f22 a73d 1fea b8bd
00000310: c1ed f9bc f925 cebd 150e d93c 9e51 f6bc
00000320: 9730 133d 6e04 cb3d b013 25bd 3c1e 5abd
00000330: df59 73bd ffeb 01bc 0308 0e3d e171 babd
00000340: 7018 22bc e574 023e e27b b1bd e7c3 50be
00000350: 9eeb 823b 0152 843d 699a a43d 5a85 d33d
00000360: 554b a1bd a348 a9bd 60bc b43d bf1a 713d
00000370: 6d33 1c3e cee7 aabd d4d6 a3bc a132 c6bc
00000380: 8445 563e 3af3 ad3d e2f6 0fbe 319e 0f3c
00000390: d336 3ebd b179 b2bc f4cb 77bd f3fe 09be
000003a0: 3c35 fdbd 8ef6 dd3c cd45 693e fcb5 04be
000003b0: b32c 4bbd e758 29bd df5e c9bd 1315 cfbc
000003c0: 7a45 b73d ff7c aebd a6f6 72bc 12f1 79bd
000003d0: bc62 0b3d 56d3 b2bd dd17 9dbd 7197 113c
000003e0: ab27 e13d e01c a1bd 18c4 543c 5d2c febd
000003f0: 0647 8fbc 610c 8e3d 95e3 e93d 9ee8 25bd
-0.007996867 0.027548684 0.046171106 -0.0014862352 0.09280761 0.026980842 -0.16336258 -0.075302675
0.06912664 0.10660917 -0.026871186 0.14697783 -0.12851527 -0.022000853 -0.027381198 -0.0989909
0.11420473 -0.013926251 -0.13694294 0.01751973 -0.16770609 -0.16465399 -0.005369002 0.025110753
-0.030709645 -0.058647066 -0.13089268 0.047559757 0.064192355 0.008087137 -0.026810871 -0.13949318
-0.21839708 -0.060444664 0.09717958 -0.15553828 -0.046712596 -0.12407299 0.018317506 0.11481449
-0.023268232 -0.1142961 0.08618782 -0.034817424 -0.13336651 -0.15711108 0.019564303 0.13823117
-0.013468237 -0.051213514 0.016930271 -0.08881099 0.014094045 -0.12185778 -0.15388758 0.013590519
0.02901173 0.03507764 0.0075889616 -0.0068977536 -0.09991961 -0.09926391 0.10367176 0.10692319
0.073746815 0.17400928 -0.030670546 0.033996947 0.009399735 0.15941422 -0.079492435 0.07016202
-0.19217639 -0.11488255 -0.020909403 -0.28326756 0.024028743 0.02553171 0.06479572 0.041387368
-0.09987673 -0.026010789 -0.088984005 0.006729475 0.061016127 0.10180057 0.0368317 0.13856791
-0.036547698 -0.06136922 0.093055725 0.063847795 0.13257954 -0.084306866 -0.06329316 -0.08583567
0.045774575 -0.031094547 0.086097896 0.00393699 -0.17784494 -0.034278702 0.050014563 0.23323894
-0.15455984 0.14869434 0.11587682 -0.0021883305 -0.113345414 -0.090983085 0.00042485562 0.05766278
0.009861611 0.05220012 0.15220283 -0.036253106 0.0072171995 0.09369835 0.06674636 0.036583915
-0.065678 0.00029809983 -0.12849177 -0.18888257 -8.0714206e-05 -0.10137305 -0.023106107 0.014017131
0.084994875 0.033667702 0.0786687 -0.14488445 -0.071537316 0.08213356 -0.011842052 0.06905446
0.1045357 -0.04609265 -0.014726825 -0.13541257 -0.10669999 -0.12025391 0.0055452674 0.12132133
-0.0069339843 -0.057213634 0.02313161 -0.06742688 0.09160007 -0.04750652 0.065860815 -0.105109334
-0.03610539 0.015736641 -0.101988494 -0.004510013 -0.023895012 -0.09596538 -0.10903403 0.011510557
0.006542935 -0.05564415 0.009989505 0.055074908 -0.02270363 -0.015122149 0.02362538 0.097459376
0.0037053404 0.054836456 -0.06108922 0.0022627942 -0.15000924 0.07723606 0.06665549 0.18392648
0.08166775 0.0026900594 0.084249906 -0.102833144 -0.062249742 -0.14981703 0.08789513 0.05975137
0.0048184907 -0.02273751 0.02383542 0.12647247 0.006511475 0.11480157 0.20309694 -0.13117597
0.038133964 -0.18437606 0.081608765 -0.0902903 -0.030508878 -0.100658365 0.026495973 -0.030068215
0.03593501 0.09912954 -0.04030198 -0.05325149 -0.05941188 -0.007929801 0.03467561 -0.09103752
-0.009893522 0.12739904 -0.08666207 -0.20387231 0.003995373 0.064609535 0.08037264 0.10328169
-0.078756966 -0.082658075 0.08824992 0.058863398 0.15253992 -0.083449945 -0.019999899 -0.024194064
0.20924956 0.084936574 -0.14059022 0.008765743 -0.046439003 -0.021786543 -0.06049724 -0.13476162
-0.12363669 0.027095105 0.22780533 -0.12960047 -0.049603175 -0.04134455 -0.09832548 -0.025278604
0.089487985 -0.08519935 -0.014829313 -0.06102092 0.034029707 -0.087317154 -0.07670567 0.008886204
0.10993894 -0.078668356 0.0129862055 -0.124108054 -0.017489921 0.06935955 0.11420361 -0.040505044

network_body._body_endoder.seq_layers.2.bias f4 [128]
00000000: 9c99 bdba aec1 41bb 427b 003a 7d81 a83b
00000010: ea4c 47bb de8b ad3b 35af 19bb a3b5 60bb
00000020: a2ea 0f3a 3a0f 573b dabc 8dbb 7128 ec3b
00000030: 40d1 27ba 9610 faba e289 e5ba da82 473a
00000040: 61df 27bb 327b 03bb a684 ccb8 4b39 7c39
00000050: e6af 89b9 a45b 49bb f3b9 2d3a 5a24 abba
00000060: 706b 06bb bad4 deba 3d6e 91bb 8b59 15bb
00000070: f7e6 f639 a22d c63b fa59 2f3a c68e 49bb
00000080: 3898 c43b 7832 bd3b c183 5cbb e484 53bb
00000090: b4e0 7abb 3069 c83a 1bd9 d63b ecae ee3b
000000a0: 66ee 58bb 3a0c 61b8 b682 34bb 21bd 28bb
000000b0: e655 c0b9 4c66 b23b caa9 a33b e972 8d3b
000000c0: 823f 39bb 9de8 bf3a 6eb7 a139 de33 46bb
000000d0: 37e7 e03b 7108 c53b 06cb 84ba a2a6 56bb
000000e0: 0537 16bb c2e2 9b3b 0211 5abb 6d7c 2abb
000000f0: 4728 47bb f157 3aba c6a1 e23b 2119 f33b
00000100: 30ca 6ebb 64e4 9039 f418 023a 278f 043b
00000110: 9baf b73b 8fd3 813a 336e 50ba 562e d1ba
00000120: 97d1 2ebb bd85 b23b 8323 cb3b dccf 6cbb
00000130: 6efb 46bb 4b36 9b39 9ca8 113c b584 113b
00000140: f0ce 5abb abf0 cdba 0d04 a3ba 7b21 813b
00000150: b9c8 f3b9 f844 25bb 6243 feba 57f8 3dbb
00000160: 4ff1 58bb 15de 453b 7c9a 073c 23d6 023c
00000170: 70ef 063b e0a3 65bb 6b1a d1b9 a604 39bb
00000180: 2b3c e2ba 8cff e83b 3529 5cbb c55f 213a
00000190: 1f4e 6cbb bf6b 09bb e81a 803a 5e68 60ba
000001a0: 728e e039 3cde aa3a f875 bf3b f104 f3ba
000001b0: 1e39 2cbb b064 2d3b 7f90 3dbb 9fc9 9439
000001c0: 5c3a e6b9 d8fe 32bb fc86 b23b 32f0 f2ba
000001d0: b431 873b be0d 89ba 7c3b 903b 2934 12bb
000001e0: d104 8f3b 7294 c73a e360 08bb c701 363b
000001f0: bd18 b63b a1b5 143b 2d79 65bb 067b 973b
-0.0014465335 -0.0029564905 0.00049011793 0.0051423893 -0.0030410835 0.0052962145 -0.0023450379 -0.0034287951
0.000548998 0.0032815472 -0.0043254914 0.0072069694 -0.0006401725 -0.0019078429 -0.0017512406 0.0007610746
-0.0025615322 -0.0020062444 -9.752186e-05 0.00024053936 -0.0002626173 -0.0030724788 0.0006627135 -0.0013057098
-0.0020510815 -0.0017000653 -0.0044381903 -0.0022788967 0.0004709286 0.0060479203 0.0006689128 -0.0030755266
0.005999591 0.0057738386 -0.0033647867 -0.0032275254 -0.0038280906 0.0015290137 0.0065566427 0.007284036
-0.003310108 -5.3655567e-05 -0.002754373 -0.0025747495 -0.00036685093 0.0054443236 0.0049946057 0.004316677
-0.0028266613 0.0014641468 0.0003084498 -0.0030243318 0.0068635005 0.006012969 -0.0010131306 -0.003275313
-0.0022920978 0.0047572562 -0.0033274298 -0.0026014105 -0.0030388997 -0.0007108441 0.0069162576 0.007418767
-0.003643643 0.00027635985 0.0004962825 0.0020226927 0.0056056506 0.0009904968 -0.0007950991 -0.0015959244
-0.0026675218 0.0054480718 0.0061993017 -0.0036134636 -0.0030362266 0.00029604355 0.008890297 0.0022204344
-0.0033387505 -0.0015711983 -0.001243712 0.0039407588 -0.00046498122 -0.002521811 -0.0019398744 -0.0028987133
-0.0033102816 0.0030192186 0.008276578 0.0079856245 0.0020589493 -0.0035040304 -0.0003988327 -0.002823153
-0.0017260363 0.0071105417 -0.0033593897 0.00061559334 -0.0036057306 -0.0020968763 0.0009773644 -0.0008560474
0.0004283074 0.0013036202 0.0058429204 -0.0018540901 -0.0026279162 0.002645772 -0.0028925238 0.0002837898
-0.000439125 -0.0027312543 0.0054482203 -0.0018534719 0.004125798 -0.0010456366 0.0044016223 -0.0022308922
0.004364588 0.0015226735 -0.0020809702 0.0027772055 0.0055571483 0.0022691267 -0.0035014853 0.00462282

action_model._discrete_distribution.branches.0.weight f4 [2, 128]
00000000: c683 98bc 5cb3 10bb bcdb 82bc e2ab e83c
00000010: 3c2b 4abc 1a8b 633c 40b4 833b 34e6 1bbc
00000020: 6c5e cabb 07f5 2b3b 1a7e 67ba c040 a13c
00000030: 4296 e5bb bf32 6db9 1d78 1bbc eba5 603c
00000040: eee1 e8bb aa90 ccbc cbb4 4a3c de64 ddbc
00000050: f996 bd3b caa4 c8bc 1dbb 653c 36e3 8abc
00000060: edae 16ba 5c6b e9bb 7094 c8bb 0ff6 bcbc
00000070: 4330 e439 139e 173c 57b3 43bc a61d c8bb
00000080: 6d00 d03c 6b9b 513c c21b 173a aecb 2c3a
00000090: 17e3 1abb c2e5 a2bb 78aa 903c 33ed 873c
000000a0: 3911 b9b9 509f 02bc 1c01 753a 0d4b 083b
000000b0: f68f a7bc b5cc 723c fa2d ba3c 470d 233c
000000c0: 31e4 97bb 6425 893b d252 20bb 6326 33bc
000000d0: 304a 8e3c 9af3 633c d8fd cbbc 160f 8dbc
000000e0: 0544 3fbc 72e1 983c 256e 243c 1a21 1a3b
000000f0: 7839 28bc 219b 21ba f93a cd3c b512 3c3c
00000100: f8eb 13bc 6c22 6ebc 3d9f 49bb 879e 92bb
00000110: 2a80 9e3c 1840 b1bb 070c bbbc 2e0b d3bc
00000120: 3b57 5fbc cc29 283b fbee da3c dfc9 5bbc
00000130: 3068 80bc ee3a e3bb dbca 123c 5088 baba
00000140: 3c90 23bc a88b 00bd 04f4 a6bc 0b44 d43c
00000150: 62b5 02bc d466 fcbc c04d 77bc e974 54bc
00000160: 614f 8dbc 4071 433b ff73 823c dd43 d83b
00000170: 2811 043c 5677 3fbb 048e 033c a73b 113c
00000180: 7236 c9bc 6092 643c 83b1 4dbb f7c4 bbbb
00000190: 9f6d ddbc 56fd 73bc ad4e 1d3c 0829 c7bc
000001a0: a142 2ebc c5d0 e23b b20f 9f3c 8775 a6bb
000001b0: e26b 78bc 9c56 1fbc 3363 49bc b7b3 51bc
000001c0: 47d1 92bc 48e4 45b8 4a67 6c3c c893 bc3b
000001d0: c36c 473c 49f4 bbbb 63a1 2b3c 58f8 a8bb
000001e0: e902 9f3a 4e14 013c dc66 66bc 8e1b 07bc
000001f0: 02af 953c 2b9d fc3b fb4a 3cbb 1acc 3b3c
00000200: b473 4a3c a60d 08ba 88a9 8b3c 3903 abbc
00000210: d1be 5d3c 008f 9ebc 3b0e acba fba3 10bb
00000220: 334d 683c bfb1 38bc e07b f93a 4941 dfbc
00000230: 27f2 eb3b 3042 3d3c 315f b13c 4bfc 103c
00000240: c1e4 5c3c 0d42 363c fe0b 09bb 647f c93c
00000250: d823 4e3c 77e9 5cbc b76d 873a 5ba7 793c
00000260: dd77 b93c f507 853c 49bb fb3b c309 ee3b
00000270: 45ec 563a 3700 dcbc 1f52 3bbb cc52 b03c
00000280: 4839 bbbc f0c7 21bd 4858 3b3c e5ff d33b
00000290: d76f 8f3b 607e 6cba bc63 83bc 61fe d7bc
000002a0: be73 b83b 3e48 4e3a e13c 01bb 34a5 13ba
000002b0: 8bfd db3c 8b29 ffbb 5507 433b ba61 30b8
000002c0: 9dc0 073c e4b0 56bc e818 12bc 770e 8b3b
000002d0: 9b30 14bc f400 c4bc 273e 933c b3f8 b63a
000002e0: 5fee 1f3c 5cf7 6cbc 92c1 df3c e4f1 77b9
000002f0: 7c4f 423c 4b9e 953c 740d fabc 7aba eabc
00000300: 2429 48bb b2b8 833c 4598 52bb 0329 98bc
00000310: 10bf 70bc e52a e93c 945e 4f3c db40 143a
00000320: 6187 a43b 74d1 06bc 1b32 75bb 02d8 dabb
00000330: cda5 2d3c 1ddd 3e3b 9e6e babc a198 14bc
00000340: 1adc 493b e766 bd3c 4def e33c eea9 41bc
00000350: 394e 823c 2ebb 7f3c 664c 923c 4828 1a3c
00000360: 8730 9b3b 08cc 63bc 9b08 86bc d145 30bd
00000370: d0cd d5bb 1c27 363b 931d b43c 5c79 2e3c
00000380: a461 3539 70d5 d7bc 43ac 043c 3441 04bb
00000390: 0fa4 09bc 4ebb 883b 5935 aa3a 89a1 c13c
000003a0: f1c6 5bbb de92 1dbc b2d6 c1bc c808 b13b
000003b0: 67b1 ba3c c132 81bc dd7c a63a 76a7 2c3c
000003c0: ec80 e33b 5643 8a3c 7494 2abb 23a3 363b
000003d0: f2e1 2fbb b637 823a 7870 e9bb 67ac a03c
000003e0: 6c1a 60bb 4993 bcbb 0a3a 543b fa1f a93b
000003f0: 170e 8fbc 4d71 77bc 8a55 393b cdb5 83bc
-0.018617522 -0.0022079563 -0.015973918 0.028402273 -0.012339409 0.013888145 0.00401929 -0.009515334
-0.0061758067 0.0026238577 -0.0008830741 0.019684196 -0.0070064375 -0.00022620986 -0.009489086 0.013711433
-0.007107011 -0.024971325 0.012372206 -0.027025636 0.0057858196 -0.02449264 0.014021662 -0.016954046
-0.0005748112 -0.007123394 -0.0061212108 -0.023066549 0.00043523507 0.009253996 -0.011944613 -0.00610705
0.025390828 0.012793402 0.0005764329 0.000659163 -0.0023633891 -0.004971237 0.01765941 0.016592598
-0.00035298782 -0.007972553 0.00093461736 0.0020796687 -0.020454388 0.014819314 0.022727001 0.009951896
-0.004635357 0.0041853655 -0.0024463427 -0.010934445 0.01736936 0.01391306 -0.024901316 -0.017219108
-0.011673932 0.018662188 0.010036026 0.0023518265 -0.010267608 -0.00061647786 0.025052534 0.0114790695
-0.009028427 -0.014534574 -0.003076508 -0.0044744643 0.019348223 -0.005409252 -0.022832884 -0.025762167
-0.013631637 0.0025659679 0.026725283 -0.013414829 -0.01567468 -0.006934515 0.008959497 -0.0014231298
-0.009983119 -0.031383187 -0.020380028 0.025911352 -0.007977815 -0.030810751 -0.015094221 -0.012967327
-0.017249765 0.002982214 0.015924452 0.006599887 0.008060731 -0.0029215417 0.008029465 0.00886432
-0.024562094 0.013950914 -0.0031386323 -0.005730267 -0.02702981 -0.014891943 0.009601277 -0.024311557
-0.010636003 0.00692186 0.019416664 -0.0050799283 -0.01516244 -0.009725239 -0.012291717 -0.012799195
-0.017922057 -4.7181064e-05 0.014428923 0.0057549216 0.012171927 -0.005735908 0.010475489 -0.005156558
0.0012131605 0.007878376 -0.0140626095 -0.008246316 0.018271927 0.0077091656 -0.0028731215 0.011462236
0.012356687 -0.0005190022 0.017048612 -0.02087556 0.013534264 -0.019355297 -0.00131268 -0.0022070396
0.014178562 -0.011272847 0.001903411 -0.02725281 0.0072004977 0.011551425 0.021651836 0.008849214
0.013482274 0.011124146 -0.002091169 0.024596877 0.012581788 -0.013483397 0.001033238 0.015237655
0.022640163 0.016239146 0.0076822382 0.0072643473 0.0008198659 -0.026855571 -0.0028582884 0.021523856
-0.022854462 -0.039497316 0.011434622 0.006469714 0.004377346 -0.0009021517 -0.016038768 -0.026366415
0.005629032 0.00078690413 -0.0019720125 -0.0005632222 0.026854297 -0.0077869347 0.002975901 -4.2052685e-05
0.008285669 -0.013103697 -0.008917071 0.0042436677 -0.009044792 -0.023926236 0.017973972 0.0013959616
0.009761422 -0.014463272 0.027313981 -0.00023645867 0.011859771 0.018263957 -0.030523993 -0.028653372
-0.00305421 0.01607928 -0.0032134217 -0.018574243 -0.01469399 0.028462837 0.0126568265 0.0005655416
0.0050210212 -0.008228648 -0.0037413898 -0.006678582 0.010598612 0.0029123493 -0.022757825 -0.009069593
0.0030801357 0.023120357 0.027824068 -0.0118203 0.01590644 0.015608592 0.017858695 0.009409018
0.0047360095 -0.013903625 -0.016361525 -0.043035332 -0.006524779 0.0027794307 0.021986758 0.0106490515
0.00017297879 -0.026346892 0.008097711 -0.0020180466 -0.008400931 0.004172719 0.001298587 0.023636596
-0.0033535326 -0.009617535 -0.023661945 0.005402658 0.02278967 -0.015771272 0.0012702007 0.010537973
0.006942859 0.016877811 -0.0026028426 0.0027868233 -0.0026837555 0.0009934816 -0.007124003 0.019613458
-0.0034195436 -0.0057548624 0.0032383227 0.0051612826 -0.017462773 -0.015102697 0.0028279745 -0.0160779

action_model._discrete_distribution.branches.0.bias f4 [2]
00000000: 4211 613b 3c11 61bb
0.0034342562 -0.0034342548
