Assets/results/ppo/JumperAgent/JumperAgent-45064.pt (torch, 546980 bytes, 33 tensors)

network_body._body_endoder.seq_layers.0.weight f4 [128, 42]
00000000: aab6 403e ae92 293e e3ff c2bd b066 463c
00000010: 0508 043e 4e98 39be 1416 0e3d 3723 77be
00000020: 5d0b 81bc c887 dfbc acb9 c53d 45e7 8ebc
00000030: cf89 d9bd 27f8 433e 3d36 ddbd 44c3 6abe
00000040: 1a7c a73d 2487 88bd 0672 6fbb 1cf1 12be
00000050: 2a66 573e 2054 553d 0852 153e 09c6 df3d
00000060: 8c0a 4cbe 0a60 7ebe 7ef2 02be 8882 073e
00000070: 6a10 34be 9ae5 623e 1cd1 2a3d f909 6b3e
00000080: 0df6 303e a385 243d bcd5 223d 81a4 0abe
00000090: 545d 53bc cef7 f1bc 1b38 323e 9468 8f3e
000000a0: 52b9 0e3e 2bcd 003d 530b 9d3e d58a 5d3e
000000b0: b595 713d a13a 67bc 259f bcbd 3dea c33d
000000c0: 4640 483e 2eee d03d 6087 393c 1879 febd
000000d0: 819e 52bd c497 9ebe c550 d53c 5fea fbbd
000000e0: 485e 903c a0e8 2d3e 4d0d 253e dc06 403c
000000f0: 9743 3fbe db35 82bc d15d 973d e59b babd
00000100: f3fa 753c 430c bdbd b8e3 39bd 0182 743e
00000110: c1b7 ddba 72dc 6ebe 9dba 00be e187 35be
00000120: ae04 e63c d452 7bbd 6fdc d43a 6f08 6dbd
00000130: 0bca 803e 3175 fbbd e68a 7abc 02ae f33d
00000140: eb0b 8fbe 8c5e debd 72a1 51be 4a6f 80bd
00000150: fa02 693d 04b3 c7bd 91aa 833d 8f7d 563e
00000160: c7af 58bd 0bfe b13d a821 25bd b2c4 2d3b
00000170: b4b7 333d d187 f43c 1132 91bd 70d8 d8bd
00000180: 78f3 c63d caca 01be 1367 99be a1bd bc3d
00000190: 1c32 153e ac54 e13d 803e 1d3b 012b 80be
000001a0: a227 483c da4d 9d3e 9dbe 213d a1e2 7b3e
000001b0: 8a0c a2be c8d3 babe d1bf 3cbe de1a e23b
000001c0: 7151 e2bd bbcc 013e 2a05 673d 2fbc bcbd
000001d0: fc43 24be 2df9 a7bc e774 d9bd a353 933d
000001e0: 7215 3abe a9a3 15be 9b09 d83e 2853 243d
000001f0: d81e 8b3e dd63 3d3d 81f0 e9bc d533 c6bd
00000200: ac65 d93e b068 fabe ff3b 0a3e f345 e2bd
00000210: b0f1 4bbe 2411 22bd bcfa 183e 2896 cf3d
00000220: 8d24 2e3e ca5d a93c af43 23be 7239 12be
00000230: 2d94 723e f35d 273e 6fed dfbd 562d a53e
00000240: d8c7 0a3e 6373 6a3e 2653 423e 4697 aabd
00000250: 7851 a0bd 76c0 50be bd23 0cbe 60de 143d
00000260: b0b8 93bd 66d8 84bd c6c8 953c 4ff3 2ebe
00000270: 32d3 8b3d bf78 a2bd 49f7 6cbe a7c7 573e
00000280: 7c30 363e 3725 793d d12b 933e 1b3d 943d
00000290: 56c3 0f3e c7dd f13d 6a0d 5d3c 4a33 d73c
000002a0: 2afd 16bd 8d78 323e 6564 b23d 6a3e f1bd
000002b0: 6dcc 443b 0bf4 22be ce61 9ebe ae88 4cbd
000002c0: a1e6 ca3d f628 203d de7a 29bb 9cc4 cabd
000002d0: 43f2 eabd d4dd 0bbe 50f4 80be fcef ccbb
000002e0: 4ade e03d 58bd 193e e045 1bbd 2ad5 4abe
000002f0: 409d c4bc 2ae3 983d 80db dcbd 3c51 853d
00000300: 0c2e eebd e8af d03e 68b5 c53d 666c 623e
00000310: 8925 e1bd bc86 fcbd 2240 ba3d 7685 fb3d
00000320: f4be 263d cd43 00bd 01e8 783e a858 e9bd
00000330: 0cf3 21be 09bf 153e 232c 23bd b05a 58be
00000340: fa4c 143e 62d7 98bd 0d5c b43d 88f0 843c
00000350: 22d6 45be 46f6 20bd c7f7 013e 7551 b93c
00000360: dfb1 f93d 3526 bc3d 483e cc3d 0899 2c3e
00000370: 6ad8 b83d 4146 19bd 4d12 ad3b 5346 b53d
00000380: 97b1 cabc cf89 343e 2830 30bd 09ab 62bd
00000390: 3191 773e 1735 9cbd 8cef c83d 4fdb 2abd
000003a0: 82bf fabc 48fc 5bbd 3189 123e 0f6f 1ebd
000003b0: 1222 7cbc dc34 4f3d a5fc 4ebd ad1e f93d
000003c0: 61e6 283d 6bb6 133e 23ff a1be 5e75 563c
000003d0: b7ab 993d ce35 19be 0cb6 9abe e145 c03d
000003e0: 1fbf 923e e352 8d3e 5eea 163e 97c2 903e
000003f0: cc20 bb3a 3fec 8e3d a22c 4fbe af64 3b3e
0.18819681 0.1655986 -0.09521463 0.012109444 0.12893684 -0.18124506 0.034689024 -0.24134527
-0.015752489 -0.027286425 0.09654555 -0.017444262 -0.10621988 0.19137631 -0.10801361 -0.2292605
0.08177967 -0.06666401 -0.003653647 -0.14349788 0.21035066 0.05208218 0.14582074 0.10926444
-0.19925898 -0.24841323 -0.12787816 0.13233387 -0.17584386 0.22157899 0.04170333 0.22953023
0.17281361 0.04016651 0.039754614 -0.13539316 -0.012900669 -0.029537108 0.17404215 0.28009474
0.13937882 0.031445663 0.30672702 0.21634991 0.058980662 -0.014113099 -0.09210042 0.09566162
0.19555768 0.10201679 0.01132378 -0.124254405 -0.051420692 -0.30975163 0.02603949 -0.12300562
0.017623082 0.1698327 0.16118355 0.011720385 -0.18678127 -0.01589482 0.07390941 -0.09111766
0.015013444 -0.09230854 -0.045383185 0.23877718 -0.0016915725 -0.2332628 -0.12571187 -0.17727615
0.028078403 -0.061358288 0.0016240011 -0.05786937 0.25154147 -0.12278212 -0.015291905 0.11898424
-0.2793878 -0.10857877 -0.20471743 -0.06271227 0.056887604 -0.097509414 0.06429017 0.20946334
-0.05290201 0.08691033 -0.0403153 0.0026514945 0.043876365 0.029849919 -0.070896275 -0.10588157
0.09714407 -0.12675014 -0.29961452 0.09215856 0.14569896 0.11002478 0.0023993552 -0.2503281
0.01221648 0.3072346 0.039488424 0.24598171 -0.31650192 -0.364897 -0.18432547 0.0069001755
-0.1105069 0.12675755 0.05640141 -0.09215581 -0.16041559 -0.020504558 -0.106180005 0.07193687
-0.18172243 -0.14613213 0.42194828 0.040118366 0.2717197 0.046237815 -0.028557064 -0.09677855
0.42460382 -0.48907995 0.13499449 -0.11048498 -0.19916415 -0.039567128 0.14939398 0.10136062
0.1700613 0.020674605 -0.15943788 -0.14279726 0.23689337 0.16344433 -0.10933959 0.3226115
0.13552797 0.22895579 0.18977031 -0.08329634 -0.07828039 -0.20385918 -0.13685508 0.036344886
-0.07212961 -0.06486587 0.018284213 -0.17085002 0.06827392 -0.07933187 -0.23141207 0.21072255
0.17791933 0.060826506 0.28744367 0.072382174 0.14039358 0.11809879 0.013491968 0.026269574
-0.03686253 0.17428799 0.08710555 -0.11779483 0.0030029074 -0.15913408 -0.30933994 -0.049935035
0.0990727 0.039101563 -0.0025860588 -0.099007815 -0.11471989 -0.1365884 -0.25186396 -0.0062541943
0.10979898 0.15013635 -0.037908435 -0.19807878 -0.024000764 0.07465203 -0.10784054 0.06509635
-0.116298765 0.40759206 0.09653741 0.22111663 -0.109934874 -0.12330386 0.090942636 0.12281315
0.04070945 -0.03131466 0.24307252 -0.11393863 -0.15815371 0.14623655 -0.039837014 -0.21128345
0.14482489 -0.07462956 0.0880662 0.016227975 -0.19319966 -0.039297365 0.12692176 0.02262185
0.12192129 0.09186975 0.09972817 0.16855252 0.09025653 -0.037420515 0.0052817226 0.08851304
-0.024742885 0.17630695 -0.043014675 -0.055338893 0.2417648 -0.076273136 0.09811315 -0.041713055
-0.030608896 -0.05370739 0.14310147 -0.038680132 -0.015388982 0.05058752 -0.05053391 0.12164054
0.04123533 0.14425056 -0.31639966 0.013089506 0.07503455 -0.14961931 -0.30217016 0.09388328
0.2866144 0.276023 0.14737841 0.2827346 0.0014276742 0.06978654 -0.2023187 0.18300126

network_body._body_endoder.seq_layers.0.bias f4 [128]
00000000: 273f 513c bc54 51bc bcec 4a3c 43d4 2e3c
00000010: 2a62 3539 ecbc 7b3c 60e5 4ebc b556 b93b
00000020: 3bac 383b 8d3a 563c 65d3 6ebc 4066 5e3c
00000030: 8d7a 3c3c 81a0 403c 49cf 303c cb02 203c
00000040: 9f0a a2bb 7400 983a c4a8 763b 8046 48bc
00000050: 67aa 37bc 6919 683c 7578 653c fcaf 4c3c
00000060: 4be7 423c 1eca 593c cdbb 393c 78c8 673c
00000070: d19f dcbb 19d7 6f3c ca9c 61bc 5da9 50bc
00000080: b13c 3c3c 22ea 3b3c 0050 e9ba 4440 5b3c
00000090: 0b0e 623c 2cdb 623c 1c66 aaba eea8 a0bb
000000a0: 4f5c 9ebb 33c7 413c 96ac efbb c0cd 38bb
000000b0: bdc4 403c 7505 603c b9c4 f0bb 1b34 443b
000000c0: d37f 21ba 64bb 453c 0e1a 71bc 8680 9a3a
000000d0: 56f2 433c f136 6e3c 0841 333c 0b71 1d3c
000000e0: eb9e 403c 2f55 50bc 4e28 5fbc 5c35 4abc
000000f0: cf9f e7bb 2014 303c 5cd7 eebb fca6 e8bb
00000100: 2ac5 523c f699 8ebb 3032 75bc 3771 443c
00000110: b35d 21bc 2119 36bc 4519 da3b bbd5 1a3c
00000120: d1ec 2ebb c60e 58bc 9cef 3fbc e3a9 343c
00000130: 4e5a 39bc 0ddc 3d3c e4a3 3abc f61a 4f3c
00000140: 56af 27bc 7e5e 6c3c b589 593c b36c 5c3c
00000150: f9c0 533c 4527 3abc b691 5e3c c97a 39bb
00000160: 9ab0 eebb e80a 5cbc b194 893c b3db 4f3c
00000170: 24c9 4abc 16c6 2fb9 8fe1 acbb b585 c63b
00000180: 999f 6e3c 0af3 4a3c d9f8 3bba 406f 95bb
00000190: adc0 433c e55b 68bb 35d2 98bb a68d 583c
000001a0: 0e76 1b3c efec 713c 3eda 3f3c bdb2 9bbb
000001b0: 3ce4 37bc eeba 5abc 1a2c 533c f072 29bc
000001c0: 442d 3bbc e40d 69bc 57e0 a7bb e717 533c
000001d0: 57b7 75bc eb6c 543c f30a cbba f922 4c3c
000001e0: d78f 653c 6930 5e3c 7463 80bc bdc4 3dbc
000001f0: c518 123c e9b7 543c 29c5 643c 9ebb 653c
0.012771404 -0.01277655 0.012385543 0.010670724 0.00017298074 0.015364867 -0.012627929 0.0056560882
0.002817883 0.013075483 -0.014576768 0.013574183 0.011503828 0.011757017 0.010791608 0.009766291
-0.004945114 0.0011596815 0.0037637213 -0.01222384 -0.011210061 0.0141662145 0.01400577 0.01249313
0.011895965 0.013292817 0.011336279 0.014146917 -0.006732919 0.014638686 -0.013770292 -0.012735692
0.011489079 0.011469396 -0.0017800331 0.013382021 0.013797293 0.0138462 -0.0013000402 -0.0049029505
-0.0048327814 0.011827278 -0.007314275 -0.0028198808 0.011765656 0.013673176 -0.00734767 0.0029938284
-0.000616071 0.012068603 -0.014715685 0.001178757 0.011959633 0.014539466 0.010940798 0.009609471
0.011756639 -0.012715622 -0.013620449 -0.012341823 -0.007068611 0.010746986 -0.0072888564 -0.007099984
0.01286439 -0.0043518497 -0.014965579 0.011989883 -0.009849 -0.01111439 0.0066558444 0.009450371
-0.0026691447 -0.013187116 -0.011714842 0.011026832 -0.011313034 0.011588109 -0.011391614 0.012640705
-0.010234674 0.014426826 0.013277461 0.01345365 0.012924426 -0.011361902 0.013584545 -0.0028301945
-0.007284236 -0.013430335 0.016794534 0.012686658 -0.012377057 -0.00016763093 -0.005275912 0.0060584196
0.014564418 0.012387047 -0.0007170565 -0.004560381 0.011947793 -0.0035455164 -0.0046637305 0.013217365
0.009488596 0.014765962 0.011709748 -0.004751532 -0.011223849 -0.013350232 0.012888933 -0.010342345
-0.011424366 -0.014224503 -0.005123179 0.012884117 -0.014997325 0.012965421 -0.0015490934 0.01245951
0.014011345 0.013561347 -0.015672423 -0.011582551 0.008917038 0.012983301 0.013963022 0.014021782

network_body._body_endoder.seq_layers.2.weight f4 [128, 128]
00000000: fca2 6f3d dbfd 023d 197a 9e3c 46f0 80bc
00000010: d2c3 eabd 0d79 1bbd fc05 bb3d ccd4 d83c
00000020: 237a fdbd c925 1dbd 3ed4 2fbd d210 c2bb
00000030: 4ec8 01be 86fc 91bc 7a53 f93d 7d00 04be
00000040: 1641 043e 07ef 03bd 195f 80bc 27d1 0abe
00000050: 739d 1b3e 1adb c3bc 3286 96bd 3853 573d
00000060: 19ba 05bd ba98 f3bd 8313 473d 9783 0abd
00000070: ec73 5f3d 7721 c5bd bf2b 073e 0f5c 493c
00000080: 22be dc3c 4461 40bd ca18 c03c 3fe4 7fbb
00000090: 7d62 913c daf7 703c b696 37bd c85d 5abd
000000a0: 24db 44bc 3907 fe3d f57a f1bc 760d 593e
000000b0: 33c9 813c 7884 bb3d 90d8 113e 7e7c 3f3d
000000c0: 2952 f0bd e669 1d3e 80f0 683d 2c4f 353d
000000d0: 310e 0d3e 7482 b9bc 72b6 68bc cb4c ca3a
000000e0: 99c5 033d eef6 3cbd c628 1ebd 198e a83c
000000f0: 4e47 d5bd 8ca8 98bc 2951 c8bd ae37 1abc
00000100: 5450 e03d fe1d 05bb 67e7 4fbb 64fc 153e
00000110: 9c3a 903d d9e0 35bd 52fd 3cbe 3cd7 56bd
00000120: d39d 003e a27a 903c c138 88bd dec0 6e3d
00000130: b302 83bd f81b 123e e7f6 943c 2d20 a83d
00000140: 3a89 51bb 9a67 e3bd 2987 2bbd 0ed5 a83c
00000150: 462c 67bd c6ae 2a3c 8abd d63c fd28 11be
00000160: ba83 d1bd 1bd0 3d3d 7255 ce3d cf96 003e
00000170: 6d63 9b3c 95e7 003d 4c86 91bd e05a 8cbc
00000180: ec74 023d e3eb d2bc 6f6d 973d 63cb a63c
00000190: bb75 123d 2376 df3d 04b2 93bd fd0d b4bd
000001a0: 7d6c 91bd 7a07 7ebd 34f3 7ebd e6ff 853c
000001b0: f528 c3bc fdc4 873c 78bb 9bbd 04d8 0a3e
000001c0: add0 8b3d 7e25 d13b 5cef 33bd 2737 493d
000001d0: c827 8bbc a1b6 09bd b98b e53d 0608 13be
000001e0: a9d9 2cbe 0d29 c8bc d7fa 143e 2d66 a4bd
000001f0: 79a4 b63d 22c1 0abc 48e5 07be f2e2 a63d
00000200: 7073 e0bd c7ed 75be d807 c2bc 1bb8 d73c
00000210: 2062 66bb ffbc 36bd 7127 c0bb cf68 8dbd
00000220: dbe0 aebd 8b13 2bbc b7ac 983b 7721 bbbd
00000230: e181 663d cac2 96bd fd4f 2dbe 87b4 29be
00000240: 4c76 29bd dc01 26bc 877d 9b3d c417 763b
00000250: 9174 3f3d 6c56 fdbc cc6c d43b 880b a43d
00000260: af9f 46bd b873 fe3c 92a4 143d 02d9 823b
00000270: dae3 d9bd c6a3 d63d 47e7 9cbd 8315 25bd
00000280: 2534 e13d d0ee 0b3e 45d6 cb3c 192c 003d
00000290: 7cb8 26bc 90b0 423d a38a 293d 9da0 22bd
000002a0: 9608 873c 311a 7cbd 6f31 0fbe 9be1 3c3e
000002b0: 02ef f23c 8f18 6bbc 53fc 7a3d b4a2 b03d
000002c0: 3e96 363c 1ba3 0dbd 39b8 8e3d 8092 10bd
000002d0: 1fec ae3d cebc 893d 8420 143d 9908 a13a
000002e0: 30eb 633d f636 eb3d 667c a1bd 606f 093d
000002f0: 95c1 e2bd 9a03 29be d1bf ba3d 9783 0fbe
00000300: be1d 943c 37f0 1abe d460 d23d 1220 e2bd
00000310: c7fe b5bc feba 0c3d 51f8 77bd dddd 3f3e
00000320: 55c4 14be 159c 2cbd 48bf a8bb 5b92 5dbe
00000330: 8a49 063d d800 5abb f3fd 31be 8cad 963d
00000340: fdad afbc 35a4 bc3c 1cf1 a53c b0ac 42bc
00000350: 7524 d3bd db36 b83d 9a95 9dbd 3230 ac3c
00000360: 0e72 d73d 2af4 473d 032a 35bd 65cd 983a
00000370: 82e4 78bc 3506 623c 5c73 05bc 3ee3 67bd
00000380: 17c6 84bc 79f1 4cbd b08e 8b3c 6647 7a3d
00000390: e114 a63c d00f cc3c 9927 753d e95d fd3a
000003a0: e4cc 4b39 53c3 873d 9715 04bd 192d 35bc
000003b0: 45c9 bfbb e2ff 06be b96a b5bc 8653 043e
000003c0: 0e2c 82bb a446 7ebd 67b3 6a3d 8567 01bd
000003d0: 195e 06be 4c69 2ebc d50c c93d 0a00 9bbd
000003e0: bd2b 91bd 52a8 003d b168 9bbd 07e1 593c
000003f0: 9dae d73c be9a 58be 0320 c5b9 04d4 74bd
0.058505043 0.031980377 0.01934533 -0.015739571 -0.11463131 -0.03795724 0.09132001 0.026468657
-0.12376811 -0.038366113 -0.04292702 -0.0059224153 -0.12674066 -0.017820608 0.12174125 -0.12890811
0.12915453 -0.032210376 -0.015670346 -0.13556348 0.15196781 -0.023908187 -0.073498145 0.052569598
-0.03264818 -0.11894365 0.048602592 -0.0338169 0.05455391 -0.096255235 0.13200282 0.012290015
0.026946131 -0.04696776 0.02344932 -0.0039045957 0.017747158 0.01470753 -0.044821464 -0.053312093
-0.012015138 0.12403721 -0.029477576 0.21196541 0.01584301 0.09156126 0.14242768 0.046749584
-0.11734421 0.15372428 0.056869984 0.044264957 0.13774945 -0.022645213 -0.014203655 0.0015434263
0.032170866 -0.046133928 -0.038613103 0.02057557 -0.10413991 -0.018635057 -0.09781105 -0.009412689
0.109528214 -0.0020312066 -0.003172362 0.1464706 0.07042429 -0.044403885 -0.18456009 -0.052451357
0.12560205 0.0176366 -0.0665145 0.0582894 -0.06396999 0.14268482 0.018184138 0.08209262
-0.0031972663 -0.11103745 -0.041876946 0.020609405 -0.056438707 0.010417646 0.026213426 -0.14175792
-0.10230203 0.046341043 0.10074891 0.12557529 0.018968308 0.031470854 -0.07105693 -0.017133176
0.031849787 -0.025747245 0.0739392 0.020360654 0.035756808 0.10911205 -0.07211688 -0.087917306
-0.071007706 -0.06201885 -0.062243655 0.016357373 -0.02382324 0.016573424 -0.07604116 0.13558966
0.06826911 0.0063826432 -0.043929443 0.049124863 -0.016986743 -0.033621434 0.112082906 -0.1435853
-0.16879906 -0.024433637 0.14548813 -0.08027301 0.089180894 -0.008468898 -0.13271058 0.08148755
-0.10959518 -0.24016486 -0.02368538 0.026332906 -0.0035153702 -0.044613834 -0.005864077 -0.06904756
-0.085389815 -0.010441671 0.004659261 -0.09137242 0.056276206 -0.07361372 -0.16925044 -0.16572772
-0.041372582 -0.010132279 0.07592302 0.0037550787 0.046742026 -0.030924998 0.006482696 0.08010012
-0.04849213 0.031061038 0.03628976 0.0039931545 -0.10639162 0.10480456 -0.076613 -0.04030372
0.10996274 0.13665318 0.024882445 0.031292055 -0.01017582 0.047531664 0.04139198 -0.039703954
0.016483586 -0.061548416 -0.13983701 0.18445437 0.029654983 -0.014349117 0.06127579 0.08624783
0.011144219 -0.034579378 0.069687314 -0.035295963 0.0854113 0.06725465 0.03616382 0.0012285887
0.055644214 0.11485092 -0.07885055 0.03355348 -0.11072079 -0.1650528 0.09118617 -0.14015041
0.018080588 -0.15130697 0.10272375 -0.11041273 -0.022216214 0.034358017 -0.060539547 0.18736978
-0.1452802 -0.04214104 -0.0051497556 -0.21637861 0.032784976 -0.0033264663 -0.1738203 0.0735732
-0.021445269 0.023027519 0.020256571 -0.011881992 -0.10309688 0.08994838 -0.0769455 0.021019075
0.10519801 0.048816837 -0.04422952 0.0011657892 -0.015191199 0.013795425 -0.00814518 -0.0566132
-0.016207738 -0.050034974 0.017035812 0.061103247 0.020273628 0.024909884 0.059852216 0.0019330356
0.00019435916 0.06629052 -0.032247152 -0.011058115 -0.0058528506 -0.13183549 -0.022145616 0.12922487
-0.003972537 -0.062079087 0.057299998 -0.031592865 -0.13121833 -0.010645222 0.09816901 -0.07568367
-0.070884205 0.031410523 -0.07588328 0.01329828 0.02632838 -0.2115278 -0.0003759862 -0.059772506

network_body._body_endoder.seq_layers.2.bias f4 [128]
00000000: 8704 41bc b191 4abc 7571 51bc 8396 133c
00000010: d80e 8dbb 8fc5 303c a8db 40bc c568 42bc
00000020: 1033 333c 8b2e e1ba 2ce3 3dbc ec0a 5f3c
00000030: f07f 483c 50ea 5ebc 9af0 0abb 8de3 503c
00000040: d11f 42bc 5b36 1e3c 619a f0ba a8e9 283c
00000050: e2fd 1f3c 7dfe 32bc 314c 51bc d417 603c
00000060: adbb 3bbc b007 a33b 3d12 e0bb 15a8 5cbc
00000070: f354 583c d620 1f39 3c7a 42bc f97f 4ebc
00000080: 92c7 efba 2bfc 583c f93b 4e3c 3164 30bb
00000090: 1e03 533c c02d 51bc 1f52 52bc 7773 733b
000000a0: c60d 19bc e62e 6ebb 49d2 5c3c 0d7e 583c
000000b0: 7bcb 4f3c f42c 333c 4df1 2abc b45c 88bb
000000c0: bef9 543c 8f5a 60bc 69d5 06bb 98ac 5d3c
000000d0: 67e1 1ebc cf41 2a3c bc61 2dbc a4ca 603c
000000e0: d2a6 513c fa22 1fbb aa3c 503c 0c65 573c
000000f0: 4fa5 4ebc 1290 35bc 58e0 393b cf78 ec3b
00000100: e5cb 653b 89f8 4cbc de9d 453c 4209 553c
00000110: aaea 5f3c d747 593c eb78 4dbc 3afd 503c
00000120: dcc5 553c f0d2 463c 8eb0 dc3b d4f4 5c3c
00000130: 1c8b 52bc 72d8 59bc 286d 3cbc 950a 493c
00000140: 0cf3 493c 0e40 5d3c 0ed3 a1bb 62ab 543c
00000150: 9b4b 583c f983 5e3c 04de ab3a db25 5b3c
00000160: 8241 1c3c b706 643c ffd4 5b3c 8a06 413c
00000170: 4364 063c fc65 1cbc 4803 583c 0a17 47bb
00000180: 6f85 78bb a8cd 483c 3b3a 573c 4af1 1e3c
00000190: fe00 493c 165e 913b 505e 3d3c 3bb9 48bc
000001a0: c942 4c3c 294c 27bc 1f6a 533c 712c 603c
000001b0: 2f2b 4d3c 8cac 5a3c 7bfe 473c 9e66 2fbc
000001c0: 148b dabb f25e 38bc 7420 4b3c 71b6 3dbc
000001d0: b021 573c 5335 3dbc 57f1 2ebc 3ffa 43bc
000001e0: 94eb 633c 5a2b d23a 5da3 4e3c 6769 643c
000001f0: f77b 453c 6909 27bc 5a27 173c b652 5b3c
-0.011780865 -0.012363837 -0.012783398 0.009008053 -0.004304748 0.010789289 -0.01177112 -0.011865799
0.010937467 -0.0017180009 -0.0115898065 0.013613444 0.012237534 -0.013605669 -0.0021200539 0.012749565
-0.011848406 0.009656514 -0.0018356555 0.010309614 0.00976512 -0.010924933 -0.012774513 0.013677556
-0.01145832 0.0049752817 -0.0068381117 -0.013467808 0.013203847 0.00015175654 -0.011869963 -0.012603753
-0.001829373 0.013243715 0.012587541 -0.0026915187 0.012879161 -0.012767255 -0.012836962 0.003714768
-0.009341663 -0.0036343872 0.01347787 0.013213647 0.012682791 0.010936011 -0.010433507 -0.0041614417
0.012998996 -0.013693466 -0.002057398 0.013529919 -0.009697295 0.010391667 -0.010582384 0.013720188
0.012796121 -0.0024282322 0.012709776 0.01314665 -0.012612655 -0.011081712 0.002836248 0.00721655
0.0035064158 -0.012510427 0.012061564 0.0130026955 0.013666788 0.013261757 -0.012541036 0.012755686
0.013047662 0.012135252 0.006734914 0.013486106 -0.012850549 -0.0132962335 -0.011500634 0.012270589
0.012326013 0.013504041 -0.0049384898 0.012980314 0.0132016195 0.013581269 0.001311243 0.013375725
0.009537103 0.013917617 0.013417481 0.011781344 0.008202615 -0.009545799 0.013184376 -0.0030378723
-0.003792133 0.0122560635 0.013136442 0.0097010825 0.012268303 0.0044362647 0.01155813 -0.012251194
0.012467095 -0.010211029 0.012903719 0.013682471 0.012522503 0.013346802 0.012206669 -0.010705618
-0.0066694114 -0.0112531055 0.012397874 -0.011579142 0.01313059 -0.011548358 -0.010677657 -0.011961519
0.013911147 0.0016034648 0.012612191 0.0139411455 0.012053481 -0.010195115 0.009225691 0.013386419

action_model._discrete_distribution.branches.0.weight f4 [2, 128]
00000000: 5d57 27bc 0f4a 55bc 39b1 cdbc 9885 b03c
00000010: 0327 ed3b 48bb 4d3c 2f4d d5bc b6a8 34bc
00000020: 06a9 5c3c e696 c9bb b944 61bc 56e4 0f3d
00000030: 217e 1d3c 0bc0 f8bb d459 863c 2643 c03c
00000040: dbcc a3bc 2306 71ba a9bd 11bc 26e2 f1bb
00000050: 49a9 963c 6f50 8bbc 6da5 833b a444 ac3b
00000060: 645f 83bc 8bde 45bc 288c 283c 42d6 33bc
00000070: 9619 503c 6ab0 4bbc 85c3 06bb 1df2 49bc
00000080: d2dd 9bbb 9b3f 313c 338c b23c ca93 2a3b
00000090: 4310 5a3c 600e 27bc 6ff1 7fbc 4a0e 773c
000000a0: 8160 87bb e7d8 24bc 9c69 64ba f441 583c
000000b0: 760d b53c 0b98 3fba 4fe7 74bb adb9 50bc
000000c0: 3351 5a3c 6e70 33bc bd95 02bc 4b4a b93c
000000d0: ece6 96bc 5092 e73b 8ee0 09bc f0a7 973c
000000e0: 1087 d43c ae47 3dbb 5d28 693c b296 a13c
000000f0: 3691 8bbc 120b 23bb dbd2 70bb 8ade f63b
00000100: 66c2 3abb cad4 f03a ae45 7b3b 0752 b73c
00000110: 03c0 0c3c a448 b53b 7d31 a7bc 1a8f 9f3c
00000120: 5492 ed3b 7f79 a43c 3d64 faba 3a2e 753c
00000130: b043 46bc 6a29 a7bc 9fe3 24bc 1ff5 2e3c
00000140: 5642 313c e66c 103c 1592 eebb c906 e33c
00000150: 4c83 0e3c bd09 da3c e847 f8ba 4209 453b
00000160: 36e4 883c fc4d b03c 7288 523c afeb 853b
00000170: 63d8 4a3c 0849 95bc ef59 033c 3e1e c3bb
00000180: e4d9 453b 8f7c 2f3c cbbf 773c 18c1 acbb
00000190: cc0c a23c 3840 963b f199 c23b 35ff 97bc
000001a0: e39a 5b3c f4c9 93bc 3660 a53c 9041 823c
000001b0: 6dcf 833c d70c 523c 9ffd 8e3c 9471 debb
000001c0: b0ba c9bb 7318 c8bc e3f5 b13c 7da2 60bc
000001d0: e69b b33c c25f 35bb ed2c b3bc 2d55 9ebc
000001e0: c290 483c 47be 6a3c a8c7 e63c 5b07 443c
000001f0: 1bb6 263c 1062 bebc 2bea 9d3b 8045 cb3c
00000200: 73dc 7c3c 20c6 ac3c b4b4 0c3d 1f91 f1ba
00000210: 00cb f938 e0b3 063b 596a 173c 4750 dc3b
00000220: 2023 3fbc ce8b 393c 4ee9 a03c 96f1 99bc
00000230: 0986 3fbc dfe5 8e3c 0b25 613b 0aaf 8dbc
00000240: 918c b13c d88a 44bb 9911 873a 43e2 9fbc
00000250: dd09 0c3c fe11 653c 60b5 fc3c 292b b9bc
00000260: 08e1 f93c 3c2c 8c3b c642 243c 768e 1b3c
00000270: 2e44 61bc af19 2fbc ba12 aa3b fcc5 8f3c
00000280: b2fd 443c 918e abbc bfb0 2ebc 7521 7fba
00000290: ac39 94bc 95b9 8a3c 4a50 b23c 6125 953c
000002a0: c534 1c3b 140d 403c 4120 e9bc 02a3 9dbc
000002b0: c54f 91bc 8636 babc 509e 8a3c 3538 1b3c
000002c0: 43de ecbc 7e2f 773c 974e 24bc 7262 27bc
000002d0: 5b77 b83c cafb 9d3a 8f73 603c 7455 c83a
000002e0: 48ed 7bbc a7e3 fe3b 9034 8dbb 987c 4cbc
000002f0: 6aae bc3c 6e97 173d d2d0 5abc 20e7 243c
00000300: ffcd e4ba 89cf ec3c ecf8 dcbc adf7 54bc
00000310: 1182 a6bc cb98 b0bc 55be 123c 0039 8abc
00000320: 227f 77bc fab4 11bc fac0 adbb 4e00 06bd
00000330: cca9 5a3c c56f c43b 9c65 093d 3d9f 54bc
00000340: 7567 9bbc c821 04bd 4aaa 26bb c93f aabc
00000350: a205 a6bc f789 00bc 5cde 763c 5119 e7bc
00000360: 9ba0 e3bb 1480 3abc 62f2 b5bc 717c d6bc
00000370: 7e43 343a 5770 ca3b ea4b a2bc b9b4 7eb9
00000380: da14 d6bb 8ca8 49bc 18d5 9abc ba9b 86bc
00000390: 6318 c5bc bb58 573c 2d33 43bc 1bef 943c
000003a0: 53c1 8fbc 8c13 a73c 0723 37bb 49f8 5abc
000003b0: 7759 63bb c7cd 9ebc 8777 30bc 3c9e 95b8
000003c0: 7c33 673c afe4 9c3c 11cf 4cbc eb80 8c3c
000003d0: 6460 38bc b5d9 793c 3705 30ba b99a a23c
000003e0: 46b4 cdbc 7e12 e7bb 9b88 acbc 4e3d 2bbc
000003f0: 2d0f 23bc f9c8 423c 4aa0 94bb 48b1 93bc
-0.0102137 -0.013018145 -0.02510892 0.021548077 0.0072373166 0.012556858 -0.02603778 -0.011026552
0.013468033 -0.0061520217 -0.013749295 0.035129867 0.009612591 -0.0075912527 0.016400255 0.023469519
-0.019995144 -0.0009194335 -0.008895316 -0.0073816953 0.018391268 -0.017006127 0.004017523 0.005257206
-0.016036697 -0.012076984 0.010287322 -0.010976376 0.012701413 -0.012432197 -0.0020563316 -0.012325791
-0.0047566677 0.010818387 0.021795368 0.002602803 0.013309541 -0.010196298 -0.015621527 0.01507909
-0.004131377 -0.010061479 -0.0008713247 0.013199318 0.022101145 -0.0007308728 -0.0037369316 -0.012739581
0.013325023 -0.010952098 -0.007970271 0.022618433 -0.018420659 0.0070670024 -0.008415354 0.018512696
0.02594331 -0.0028881836 0.014230815 0.019725177 -0.017037015 -0.0024878425 -0.0036746773 0.007533853
-0.0028497218 0.0018373963 0.0038341093 0.02237798 0.008590701 0.005532341 -0.02040934 0.019477416
0.0072501097 0.020077465 -0.001910336 0.014964635 -0.012101099 -0.02040549 -0.010064035 0.010678559
0.010819038 0.008815026 -0.007280598 0.027713196 0.008698296 0.026615972 -0.0018942328 0.0030065333
0.016710382 0.02152156 0.012849914 0.0040869336 0.012380692 -0.0182233 0.008017047 -0.005954533
0.0030189687 0.010710849 0.015121411 -0.005272042 0.019781493 0.004585292 0.0059387614 -0.01855431
0.013403627 -0.018040635 0.020187479 0.015900403 0.01609012 0.012820444 0.01745492 -0.006788442
-0.006156288 -0.02442572 0.021723693 -0.013710615 0.021924924 -0.0027675484 -0.021872008 -0.019327724
0.012241544 0.014327592 0.028171375 0.011964644 0.010175253 -0.02324012 0.0048191748 0.024813414
0.015433419 0.021090567 0.03435202 -0.001843009 0.00011911057 0.0020553991 0.009241664 0.006723437
-0.011666089 0.011324836 0.019642498 -0.018791955 -0.011689671 0.017443595 0.0034354355 -0.01729538
0.021673473 -0.0029989984 0.0010304927 -0.01951707 0.008547273 0.01398134 0.030848205 -0.022603588
0.030502811 0.004277734 0.010025686 0.009494415 -0.013749165 -0.010687276 0.0051902207 0.017550461
0.012023376 -0.020942004 -0.010662257 -0.00097324635 -0.018093906 0.016934196 0.0217668 0.0182063
0.0023835164 0.011721868 -0.028457763 -0.019242767 -0.017738232 -0.022731077 0.016921192 0.00947385
-0.028914576 0.015087007 -0.010028503 -0.010216342 0.02251785 0.0012053188 0.013699426 0.0015284256
-0.0153763965 0.007778603 -0.0043092445 -0.012480877 0.023032386 0.03700965 -0.013355451 0.01006487
-0.0017456411 0.028907554 -0.026974164 -0.012998504 -0.020325692 -0.021557232 0.0089565115 -0.016872883
-0.015105994 -0.008893246 -0.0053025456 -0.032715134 0.013346147 0.0059947693 0.033544168 -0.0129774185
-0.01897023 -0.03225878 -0.002543109 -0.020782368 -0.020266358 -0.007845393 0.015067663 -0.028210314
-0.006946636 -0.011383075 -0.022210304 -0.026182385 0.0006876512 0.0061779427 -0.01981159 -0.00024290652
-0.0065332474 -0.012308251 -0.01890044 -0.016431678 -0.02405948 0.013143714 -0.011914057 0.01818042
-0.017548239 0.020395063 -0.0027944462 -0.01336486 -0.0034690776 -0.019385232 -0.010770685 -7.134347e-05
0.014111396 0.019152014 -0.01250054 0.017151317 -0.01125345 0.015249659 -0.0006714644 0.019849168
-0.025110375 -0.007051765 -0.021061232 -0.010451628 -0.009952349 0.011888736 -0.0045357095 -0.01802887

action_model._discrete_distribution.branches.0.bias f4 [2]
00000000: 2e0d 443c 2c0d 44bc
0.011966033 -0.011966031

exp_avg f4 [128, 42]
00000000: 0000 0000 d358 c937 a22b d836 0000 0000
00000010: 1ae1 5a37 1c45 a635 3584 2c38 3214 9837
00000020: c608 9636 0000 0000 50ca a9b7 2e42 9cb7
00000030: 0000 0000 6572 7938 b84e 81b7 18eb 0736
00000040: 2195 f9b5 d3ee f0b6 0411 3c38 6b91 9c37
00000050: c0bc 5836 0000 0000 96f6 c2b7 6724 b5b7
00000060: 0000 0000 9aef 5e38 9601 1337 b00a d536
00000070: a7c7 cdb7 425d aab7 a31e 3538 f38f 2c36
00000080: 08b0 b435 0000 0000 8f2e 72b6 13d7 42b6
00000090: 0000 0000 8269 802d fd30 ab35 2187 0538
000000a0: a973 d835 263c b836 0000 0000 1ea3 edb5
000000b0: 6cde 45b5 0000 0000 e344 2fb6 d6dc dbb5
000000c0: e5ec 87b6 0154 5bb5 e02f 1bb5 0000 0000
000000d0: 0a67 af34 cf95 5234 0000 0000 4d3f 8db6
000000e0: 11f8 07b5 11c8 75b4 b32b 58b4 07a4 dbb4
000000f0: 033e 92b6 b2f9 1eb5 58d6 efb4 0000 0000
00000100: cd3a 9534 d467 4434 0000 0000 8775 71b6
00000110: 5682 81b5 9ca4 edb4 055b 08b4 64e1 fcb4
00000120: b2e5 8ab6 f987 9ab4 5ca9 fab3 0000 0000
00000130: ef70 1ab5 1836 28b5 0000 0000 17d5 23ad
00000140: efb7 8fb4 27b2 95b6 0b48 06b4 7ac5 2db5
00000150: 0000 0000 1247 b6b4 6a1c 0d36 0000 0000
00000160: 4cf9 df36 4687 5136 a7ec 0c37 fb2f 2236
00000170: deb7 ae35 0000 0000 8ff8 76b6 34fa 67b6
00000180: 0000 0000 6edf 1637 7c8d 0ab6 378e 6b35
00000190: 825c 6135 e721 4db3 9022 1f37 e2fa 0c36
000001a0: 9524 a035 0000 0000 bba8 91b6 a350 89b6
000001b0: 0000 0000 9053 0537 06d9 e635 a388 cc35
000001c0: f550 30b6 5069 03b6 6ad1 1137 0006 7635
000001d0: ef43 d234 0000 0000 9393 d1b5 ced8 c0b5
000001e0: 0000 0000 f46c a02b dd36 2835 f959 b936
000001f0: 1af8 8734 1771 7e35 0000 0000 b06c 1237
00000200: 22a0 9636 0000 0000 342f 6b36 183f 0a36
00000210: ecea 0f37 b3be 0937 02e0 7536 0000 0000
00000220: f563 7ab6 f0e0 47b6 0000 0000 9566 6637
00000230: 967d ba35 00a5 be35 b044 cb34 69fe 8a34
00000240: a82b 2937 3564 0637 72ed 2136 0000 0000
00000250: 520a 7eb6 8bd1 51b6 0000 0000 3065 4f37
00000260: 3d1f 4136 57d8 2c36 5d64 91b5 1433 62b3
00000270: 3690 1437 713f 0636 d0b6 4c35 0000 0000
00000280: 4f3a ab36 b32f b436 0000 0000 eb20 b62c
00000290: c73b b635 c588 5137 d27b 7d35 5952 2036
000002a0: 0000 0000 b7df 01b7 017d e9b5 0000 0000
000002b0: 50a9 4cb5 ed1e adb4 3716 7cb6 04b7 b8b6
000002c0: d05a c7b5 0000 0000 4a28 0735 5464 1e34
000002d0: 0000 0000 cee7 1cb7 d800 c2b5 68c8 0eb5
000002e0: 4290 6935 cfa7 fb34 e54a 92b6 2dd1 a5b6
000002f0: 9213 8ab5 0000 0000 a04a bb33 aa96 70b4
00000300: 0000 0000 04ee 01b7 1d69 16b6 fe4b 58b5
00000310: c46d e534 9024 96b4 cb5b 7ab6 c7d5 73b5
00000320: b58b 8ab4 0000 0000 6d62 b3b6 7840 b6b6
00000330: 0000 0000 4c30 39a9 ad93 25b5 9688 f3b6
00000340: 1c0c d9b4 eeef b8b5 0000 0000 af60 0f38
00000350: 60f1 d936 0000 0000 5ec5 b737 87d3 4737
00000360: 919b 5038 2b1c 9837 0926 9936 0000 0000
00000370: 2133 25b7 ddca 03b7 0000 0000 908f 8238
00000380: 2cbc 7eb5 02aa f435 9049 26b4 7c51 4035
00000390: 4c20 5f38 62a2 8c37 a245 5736 0000 0000
000003a0: e490 31b7 561c 16b7 0000 0000 9169 5c38
000003b0: 11a7 5837 f61c b536 fd9f 08b7 930e 57b6
000003c0: 77a5 5638 c66d 3c36 9ff0 9e35 0000 0000
000003d0: 4aee f836 3ed9 0837 0000 0000 4c93 f22c
000003e0: 10f2 c835 7a6c 6138 298e 0a36 6f3b 0d37
000003f0: 0000 0000 76d6 1f36 e7a4 93b5 0000 0000
0.0 2.400243e-05 6.442381e-06 0.0 1.3046223e-05 1.2388077e-06 4.1131123e-05 1.8129216e-05
4.4713697e-06 0.0 -2.0240579e-05 -1.8627466e-05 0.0 5.9472764e-05 -1.5414655e-05 2.025341e-06
-1.8595348e-06 -7.18036e-06 4.483854e-05 1.8664365e-05 3.2296375e-06 0.0 -2.3241428e-05 -2.1593833e-05
0.0 5.315207e-05 8.762252e-06 6.349139e-06 -2.4530875e-05 -2.0309006e-05 4.3182295e-05 2.5713787e-06
1.3462277e-06 0.0 -3.608791e-06 -2.9033442e-06 0.0 1.459877e-11 1.275475e-06 3.183552e-05
1.6126916e-06 5.4906295e-06 0.0 -1.7705349e-06 -7.3711885e-07 0.0 -2.611713e-06 -1.6381043e-06
-4.0508917e-06 -8.17061e-07 -5.7811667e-07 0.0 3.267126e-07 1.9612274e-07 0.0 -4.2094966e-06
-5.0652403e-07 -2.2890187e-07 -2.0132465e-07 -4.0911274e-07 -4.358358e-06 -5.922294e-07 -4.4673175e-07 0.0
2.7796196e-07 1.8291695e-07 0.0 -3.5980208e-06 -9.649182e-07 -4.426446e-07 -1.26991e-07 -4.710265e-07
-4.1394605e-06 -2.8783668e-07 -1.16723385e-07 0.0 -5.753381e-07 -6.2663594e-07 0.0 -9.312793e-12
-2.6769655e-07 -4.4612857e-06 -1.2505932e-07 -6.473489e-07 0.0 -3.3951852e-07 2.1027176e-06 0.0
6.67494e-06 3.1222166e-06 8.39975e-06 2.416781e-06 1.3017523e-06 0.0 -3.6801537e-06 -3.456732e-06
0.0 8.992718e-06 -2.0645957e-06 8.775127e-07 8.395365e-07 -4.7761116e-08 9.485186e-06 2.1007659e-06
1.1931576e-06 0.0 -4.3409796e-06 -4.0923055e-06 0.0 7.946874e-06 1.7199498e-06 1.5238951e-06
-2.6273167e-06 -1.958182e-06 8.6914315e-06 9.165087e-07 3.9164976e-07 0.0 -1.5614663e-06 -1.4368213e-06
0.0 1.1398924e-12 6.2664714e-07 5.523904e-06 2.5326227e-07 9.478694e-07 0.0 8.727584e-06
4.4889903e-06 0.0 3.5045205e-06 2.0600328e-06 8.578161e-06 8.210237e-06 3.6638235e-06 0.0
-3.7311086e-06 -2.9784242e-06 0.0 1.37329525e-05 1.389463e-06 1.4204124e-06 3.7861673e-07 2.588961e-07
1.00833495e-05 8.010354e-06 2.412908e-06 0.0 -3.7854957e-06 -3.1265397e-06 0.0 1.2361721e-05
2.8777424e-06 2.5755924e-06 -1.0832551e-06 -5.266618e-08 8.855064e-06 2.0004484e-06 7.626195e-07 0.0
5.102985e-06 5.369971e-06 0.0 5.1764057e-12 1.3577454e-06 1.2489215e-05 9.4430027e-07 2.388979e-06
0.0 -7.741087e-06 -1.7396234e-06 0.0 -7.6242304e-07 -3.2246263e-07 -3.7563857e-06 -5.504933e-06
-1.4853085e-06 0.0 5.035005e-07 1.4751396e-07 0.0 -9.352296e-06 -1.4454372e-06 -5.319075e-07
8.7009187e-07 4.687449e-07 -4.359858e-06 -4.9417345e-06 -1.0287497e-06 0.0 8.72144e-08 -2.2406553e-07
0.0 -7.7444165e-06 -2.2412926e-06 -8.0576854e-07 4.273444e-07 -2.796628e-07 -3.7306334e-06 -9.083564e-07
-2.5806153e-07 0.0 -5.346074e-06 -5.431528e-06 0.0 -4.1120143e-14 -6.1682186e-07 -7.257865e-06
-4.042821e-07 -1.3778897e-06 0.0 3.41839e-05 6.4952037e-06 0.0 2.1907206e-05 1.1910574e-05
4.9735947e-05 1.8132929e-05 4.564183e-06 0.0 -9.846671e-06 -7.855441e-06 0.0 6.225624e-05
-9.48962e-07 1.8228895e-06 -1.5486717e-07 7.164415e-07 5.3197422e-05 1.6764916e-05 3.2078028e-06 0.0
-1.0583757e-05 -8.947294e-06 0.0 5.2550404e-05 1.2913501e-05 5.397592e-06 -8.143482e-06 -3.204598e-06
5.1175677e-05 2.807808e-06 1.1841947e-06 0.0 7.4187165e-06 8.156812e-06 0.0 6.894407e-12
1.4971611e-06 5.3745207e-05 2.064635e-06 8.418093e-06 0.0 2.381768e-06 -1.1000346e-06 0.0

exp_avg_sq f4 [128, 42]
00000000: 0000 0000 528b be32 7756 8431 0000 0000
00000010: d97a 8b2f 0d8f d030 d79a e531 d8f1 fd30
00000020: 8d92 2f31 0000 0000 7c27 1932 620e 2132
00000030: 0000 0000 5aa9 a331 eb09 5332 7110 4630
00000040: 4163 6331 3223 a131 9d00 f931 6a13 4730
00000050: 1ec1 d930 0000 0000 334f 4432 8d31 4932
00000060: 0000 0000 1754 2a31 77b0 3b31 2f17 b530
00000070: 0bfc 5f32 e28e 7332 0ecb f631 b323 5b30
00000080: 4097 2b30 0000 0000 c8cc 4d32 1106 5232
00000090: 0000 0000 30f7 612a c154 6d2f 081e c232
000000a0: 0bdb ce30 0a98 0031 0000 0000 0a3e 9e2f
000000b0: 5718 4b2f 0000 0000 1678 262d 9729 602e
000000c0: f108 302f 658c 862e a46f cc2e 0000 0000
000000d0: 597f c72e a41d e02e 0000 0000 8a27 6c2e
000000e0: d020 052f f9fe 6b2e 34a5 272f 201c 4c2f
000000f0: 9c22 542f 81d1 3a2e beb8 832e 0000 0000
00000100: 96a3 ee2e 0325 022f 0000 0000 731e f42d
00000110: 2966 522e 3db1 c82e 0246 792f 2a26 872f
00000120: 0007 672f 14d0 d02d b3c4 de2d 0000 0000
00000130: 26c7 0c2f cc46 172f 0000 0000 cc8c 6629
00000140: d2c5 7e2d 9ed5 eb2f 1f73 8e2e 23dd a42e
00000150: 0000 0000 3c5b aa30 1e01 a130 0000 0000
00000160: f21c af2e fa07 a32f 1d4f 0c30 c940 9c2f
00000170: 7550 0730 0000 0000 c3ed 4930 712f 5930
00000180: 0000 0000 3236 4f2f afe1 1630 6811 972f
00000190: c1af 8030 d03b 9330 0b48 5230 6641 412f
000001a0: c0e9 ac2f 0000 0000 ceea 7230 2c2b 7d30
000001b0: 0000 0000 2f8d 8b2e 0459 562f bda1 df2f
000001c0: a008 c630 e837 cf30 0ad4 6330 43b1 372f
000001d0: 6ec9 c62e 0000 0000 621f 7730 db7b 8030
000001e0: 0000 0000 e7e9 c126 1670 962e 4e6f f730
000001f0: 2a80 1630 00b5 1e30 0000 0000 c22e 2131
00000200: 2075 6231 0000 0000 6b65 092e c4d5 8a2f
00000210: 86f5 2630 60f8 5b30 ccef 0931 0000 0000
00000220: fdd6 8f30 f2a3 9f30 0000 0000 aef2 902f
00000230: 2bdc 1931 1cdb 6a30 4ae6 6330 d9b6 8f30
00000240: 6cd1 9b30 7240 6930 bdf0 8730 0000 0000
00000250: 2544 a530 a9dc ae30 0000 0000 4141 172f
00000260: 7fbb 1530 17ac 9c30 b42f 1b31 678f 2431
00000270: 27b1 bb30 00fa 3130 9892 c02f 0000 0000
00000280: 32b4 cd30 75cb d930 0000 0000 d5b6 4129
00000290: 9304 9a2f 3829 5d31 8b58 9630 7a8d 9d30
000002a0: 0000 0000 a0c3 ff2f 93ae 0d30 0000 0000
000002b0: ec6e 042c 11cc fb2d 8254 b62e ddd9 652f
000002c0: 582d ba2f 0000 0000 f27c bc2e 9c51 e52e
000002d0: 0000 0000 090c 462f cc3f 9d2f 1d44 dc2e
000002e0: 6d46 382f cac6 4e2f 78e1 302f 7760 f82e
000002f0: cebb 492f 0000 0000 8438 4a2f 276a 5b2f
00000300: 0000 0000 d13c 7d2e 7cb0 522f 2678 122f
00000310: fe04 9c2f 3062 b02f 89cd 432f 1687 e12e
00000320: 38e2 732e 0000 0000 0f73 a72f 8dfe b12f
00000330: 0000 0000 a204 0b29 322b 502e c94a 0230
00000340: 6054 4a2f bbb5 5c2f 0000 0000 f95b 8832
00000350: 2ece aa31 0000 0000 c57a 8b2f fa4c 8530
00000360: 704f 1d32 0c70 d830 6d39 3631 0000 0000
00000370: 0cf5 fa30 595d 1531 0000 0000 e793 a231
00000380: 1f97 1532 a299 7030 6d39 3131 4b84 5f31
00000390: 38a6 2e32 2397 6230 13ce cb30 0000 0000
000003a0: 22d3 3f31 43c2 4e31 0000 0000 67df 4b31
000003b0: e7d9 3431 273d dc30 3c53 f631 9c8a 0b32
000003c0: 6f4d 2c32 db28 6830 c03c 0830 0000 0000
000003d0: 5ae7 6931 8043 7831 0000 0000 ac2e 292a
000003e0: 363b 982f 7933 8532 e54d 1931 4037 2b31
000003f0: 0000 0000 5a44 f130 398b 3730 0000 0000
0.0 2.2182267e-08 3.8515355e-09 0.0 2.537124e-10 1.5174649e-09 6.6823804e-09 1.8476909e-09
2.5549156e-09 0.0 8.91475e-09 9.374704e-09 0.0 4.7631774e-09 1.22840715e-08 7.2055345e-10
3.3089267e-09 4.689718e-09 7.2469235e-09 7.242337e-10 1.5843715e-09 0.0 1.1426709e-08 1.1711006e-08
0.0 2.4786055e-09 2.731239e-09 1.3176072e-09 1.3037616e-08 1.4176949e-08 7.182627e-09 7.972247e-10
6.2424377e-10 0.0 1.1979132e-08 1.2224988e-08 0.0 2.0069775e-13 2.1585135e-10 2.2598229e-08
1.5050728e-09 1.8712876e-09 0.0 2.8784114e-10 1.847139e-10 0.0 9.462672e-12 5.0968643e-11
1.6010283e-10 6.1185536e-11 9.296677e-11 0.0 9.072094e-11 1.0191606e-10 0.0 5.3695305e-11
1.2107937e-10 5.3659275e-11 1.5247253e-10 1.8563684e-10 1.9293583e-10 4.247758e-11 5.990007e-11 0.0
1.08520457e-10 1.183658e-10 0.0 2.775311e-11 4.783921e-11 9.126431e-11 2.267129e-10 2.4583474e-10
2.1011815e-10 2.3739267e-11 2.532583e-11 0.0 1.2803678e-10 1.3758522e-10 0.0 5.119238e-14
1.4482153e-11 4.2898035e-10 6.477862e-11 7.497138e-11 0.0 1.2395058e-09 1.1714609e-09 0.0
7.9632204e-11 2.9655195e-10 5.104413e-10 2.8422267e-10 4.922705e-10 0.0 7.3461254e-10 7.901156e-10
0.0 1.8845794e-10 5.48904e-10 2.7479108e-10 9.363178e-10 1.0712657e-09 7.6499934e-10 1.7576482e-10
3.1452707e-10 0.0 8.8372765e-10 9.2102215e-10 0.0 6.3460674e-11 1.9494811e-10 4.0678386e-10
1.4408847e-09 1.5077122e-09 8.2883445e-10 1.6706729e-10 9.0397786e-11 0.0 8.9902674e-10 9.348428e-10
0.0 1.3455465e-15 6.841121e-11 1.800325e-09 5.4751814e-10 5.773728e-10 0.0 2.3455162e-09
3.2953906e-09 0.0 3.124027e-11 2.5253943e-10 6.073936e-10 8.00247e-10 2.0072433e-09 0.0
1.0465723e-09 1.1615369e-09 0.0 2.6365882e-10 2.2389581e-09 8.544008e-10 8.290938e-10 1.0456588e-09
1.1337256e-09 8.485649e-10 9.890965e-10 0.0 1.2024698e-09 1.2722882e-09 0.0 1.3756553e-10
5.447233e-10 1.1399405e-09 2.2582585e-09 2.3946656e-09 1.365639e-09 6.4747496e-10 3.5028758e-10 0.0
1.4966928e-09 1.5846654e-09 0.0 4.301319e-14 2.8015687e-10 3.2183163e-09 1.0939102e-09 1.1463464e-09
0.0 4.652323e-10 5.1543586e-10 0.0 1.8819902e-12 2.862602e-11 8.2914134e-11 2.0904829e-10
3.3865422e-10 0.0 8.571445e-11 1.0428211e-10 0.0 1.8012271e-10 2.8603464e-10 1.0016541e-10
1.6759723e-10 1.8806215e-10 1.608721e-10 1.129487e-10 1.8347565e-10 0.0 1.8391871e-10 1.9955647e-10
0.0 5.7579556e-11 1.9162089e-10 1.3321308e-10 2.8379782e-10 3.208398e-10 1.7808167e-10 1.02558115e-10
5.5452726e-11 0.0 3.0458877e-10 3.2376982e-10 0.0 3.086822e-14 4.733209e-11 4.74e-10
1.8401769e-10 2.0073447e-10 0.0 1.5874308e-08 4.971091e-09 0.0 2.5371186e-10 9.698902e-10
9.156665e-09 1.5747914e-09 2.6517128e-09 0.0 1.825954e-09 2.1735416e-09 0.0 4.731635e-09
8.707302e-09 8.7529817e-10 2.5789533e-09 3.252597e-09 1.0165927e-08 8.24331e-10 1.4828764e-09 0.0
2.7914173e-09 3.008737e-09 0.0 2.9667377e-09 2.631731e-09 1.6024487e-09 7.169005e-09 8.122381e-09
1.0029324e-08 8.445917e-10 4.956284e-10 0.0 3.403747e-09 3.612712e-09 0.0 1.5026408e-13
2.769071e-10 1.5506645e-08 2.2308708e-09 2.491518e-09 0.0 1.7554485e-09 6.677286e-10 0.0

exp_avg f4 [128]
00000000: 2a6a 3638 f5c6 abb6 8b91 0d37 4c44 8c37
00000010: f1d9 2bb7 d640 8338 8afb 10b7 d16c 3036
00000020: b5bb aa37 614a 0138 f406 70b8 52b5 9238
00000030: 9984 9537 eeaa 0d38 b858 1737 e3e6 4b38
00000040: 8d82 86b7 a5d9 ae37 7ca6 78b7 9bb9 8eb8
00000050: 0afc f2b7 5f50 cc38 8358 7938 8093 8238
00000060: ee74 2e38 a4f7 2b38 6a10 4138 d108 4138
00000070: 0a80 33b8 51c1 7a38 881f 43b7 23d1 4537
00000080: c8bb b737 d4a9 1738 c75f fc36 2235 a238
00000090: 9a43 8e38 a968 8c38 1f75 f136 b146 86b7
000000a0: 4186 cab7 1eae 2c38 0c7d c1b5 fd2b 8db7
000000b0: b5f0 e037 cc64 ffb6 0af6 20b8 a8ec 3338
000000c0: ef9d 6137 9472 fa37 734d f3b7 6fb2 8a36
000000d0: 8198 df37 ee83 2fb7 1086 a337 cae8 1938
000000e0: a313 8338 c7f9 d4b6 0d0e bd36 bfa2 51b8
000000f0: 40e8 f8b5 4c7a 1538 ce8e 32b7 e705 5db7
00000100: 8a78 c037 c758 e336 0f76 b436 b607 4fb6
00000110: 7caa 77b6 c4e8 28b8 1057 4438 ca15 2f36
00000120: 308b d037 9dbf f9b7 daef 6eb7 6995 3a38
00000130: 5538 ccb7 d250 0238 4982 0db8 f499 bb36
00000140: 29ce b8b7 05b5 b438 d9d9 c437 b6c9 c038
00000150: 5785 5638 9f79 3ab8 5206 ea37 5410 55b6
00000160: 9f6b 64b7 5442 1eb7 26a3 9437 86d0 5038
00000170: b17c a7b6 231b 2138 7389 21b7 c00c b137
00000180: 713c 2438 258a 3338 b988 8ab7 500d a536
00000190: cacd a737 127c 0237 023f 1636 130f a238
000001a0: 0133 2e37 7926 7938 4dfc a537 66cd 45b7
000001b0: 775b 8ab8 4b41 dcb4 4b74 6038 9082 1ab8
000001c0: c58a b5b7 81e3 52b8 25f6 b6b7 fa31 0738
000001d0: 45ee 43b7 1278 7237 f60e 0034 1c8e e537
000001e0: 1511 c138 52cf 8838 dd37 4bb7 57a4 72b7
000001f0: fc38 e237 e421 4438 5a6a 4338 652b f737
4.3491054e-05 -5.119359e-06 8.438142e-06 1.6721104e-05 -1.0243138e-05 6.2586434e-05 -8.641635e-06 2.6289383e-06
2.0352987e-05 3.0825267e-05 -5.7226935e-05 6.995596e-05 1.782393e-05 3.377621e-05 9.020958e-06 4.8614e-05
-1.6034837e-05 2.0843765e-05 -1.4820715e-05 -6.805659e-05 -2.8966013e-05 9.742448e-05 5.944866e-05 6.226357e-05
4.1593732e-05 4.100021e-05 4.6030073e-05 4.6022997e-05 -4.279617e-05 5.9784685e-05 -1.1630247e-05 1.17908085e-05
2.1902742e-05 3.615937e-05 7.521335e-06 7.734659e-05 6.7836794e-05 6.695215e-05 7.1959944e-06 -1.6006963e-05
-2.4142793e-05 4.1170155e-05 -1.4416014e-06 -1.6828993e-05 2.6814969e-05 -7.6113265e-06 -3.8376114e-05 4.289733e-05
1.3447817e-05 2.9855677e-05 -2.9003922e-05 4.133493e-06 2.6654687e-05 -1.046153e-05 1.9493542e-05 3.6694844e-05
6.2502244e-05 -6.3471703e-06 5.6342747e-06 -4.9981052e-05 -1.8545034e-06 3.5638266e-05 -1.0642876e-05 -1.3174001e-05
2.2944314e-05 6.775462e-06 5.378162e-06 -3.0849892e-06 -3.6905103e-06 -4.02711e-05 4.6811125e-05 2.6089715e-06
2.4860346e-05 -2.977234e-05 -1.424175e-05 4.4485005e-05 -2.4344927e-05 3.1069685e-05 -3.3738357e-05 5.590957e-06
-2.203051e-05 8.616786e-05 2.3466464e-05 9.192845e-05 5.114576e-05 -4.4459124e-05 2.7897917e-05 -3.1748978e-06
-1.36149165e-05 -9.432977e-06 1.7718947e-05 4.9785267e-05 -4.991504e-06 3.8410664e-05 -9.62835e-06 2.1105981e-05
3.9156937e-05 4.2805583e-05 -1.6514548e-05 4.918933e-06 2.000378e-05 7.777491e-06 2.2388417e-06 7.72757e-05
1.03830835e-05 5.9402057e-05 1.978702e-05 -1.1789938e-05 -6.5973894e-05 -4.10257e-07 5.3514068e-05 -3.6838057e-05
-2.1641501e-05 -5.027978e-05 -2.181071e-05 3.2233052e-05 -1.1678382e-05 1.445228e-05 1.1926372e-07 2.7365102e-05
9.206139e-05 6.523602e-05 -1.211275e-05 -1.4462587e-05 2.6967835e-05 4.6761605e-05 4.659067e-05 2.9464902e-05

exp_avg_sq f4 [128]
00000000: b9b1 e632 499b 1b30 46ea 3031 89c5 b531
00000010: 64b2 8530 83b3 ae32 3e5a 3c31 36f3 e430
00000020: ee9a c532 1117 aa32 8b5c 1f32 bb9b 9e33
00000030: 1561 e331 0c07 fa32 26c5 1531 e55c c432
00000040: 3729 7e30 dc70 a132 6213 1731 a9d1 9132
00000050: 634b be32 3a1e ad33 58e2 9d33 5302 d632
00000060: fc27 1d33 21ec 1a32 45b0 9832 e9af 1333
00000070: 531d 7e31 5bd1 8e32 e0d3 0d32 ceac 2731
00000080: fe7d 9c32 0e6f f032 d6ee 1d30 c20b 2434
00000090: 23d5 9333 3af5 1f33 c7b1 e12f f18c df31
000000a0: caee 0a32 c1b2 a032 3349 2630 2599 2031
000000b0: 0e4b 0a33 c5f1 ca2f 7d1a 3131 f518 8032
000000c0: 24fe 7f30 ef81 0233 e3d8 5c31 95f0 342f
000000d0: 83ec 6832 0900 8a30 bb79 cd32 d879 1732
000000e0: dc2d 4d33 5a5e 4931 aafb 5931 b9d6 3532
000000f0: 4c41 b02f 2eee 4c32 ddcf 3630 5d1b 8130
00000100: f9ba 4732 2641 4330 317a 4831 eddd 982f
00000110: 5648 4930 91d0 aa32 e178 6132 b0d9 3b2f
00000120: 38ea de31 d340 e531 174c 5d31 202f 8732
00000130: 81d5 de31 94d9 6032 4b84 8231 8d5e 4a30
00000140: b5e1 2931 a780 1f33 59a3 0b32 81a0 a133
00000150: 3145 ca32 f4d6 a332 8525 2b32 48b1 622f
00000160: 7997 2431 6bd8 9230 36e6 4c31 67b5 5433
00000170: d9e2 2231 a44b 6432 1d82 f42f 9b54 4a32
00000180: d78e d431 a64c 5c33 17de 4931 b007 2f30
00000190: a0ac 1432 1858 5931 4ffa 8f2f 2985 b733
000001a0: ad4b 0232 d03c cd32 5bcf a831 d6a3 7a30
000001b0: e1b8 0833 3151 f92f b95c 8133 34f1 a331
000001c0: b61a 8331 1dcf 1232 3562 9f31 eace 0032
000001d0: eec1 4a32 e0a2 4431 38f0 5930 fe6d 2131
000001e0: 1ee2 9733 683c 9732 4918 c330 28eb 8131
000001f0: 3e4b 9631 46ce 0e33 7d58 b233 b74a d231
2.6856343e-08 5.6609345e-10 2.574454e-09 5.2902505e-09 9.727725e-10 2.0337898e-08 2.7408897e-09 1.6658308e-09
2.3004272e-08 1.9801094e-08 9.27606e-09 7.3857755e-08 6.6176065e-09 2.9107035e-08 2.179442e-09 2.2859647e-08
9.246323e-10 1.879419e-08 2.198441e-09 1.6975564e-08 2.2153193e-08 8.0614385e-08 7.352054e-08 2.4913936e-08
3.6590777e-08 9.017669e-09 1.7775287e-08 3.4386094e-08 3.6978534e-09 1.662618e-08 8.255455e-09 2.4399927e-09
1.8218085e-08 2.7990179e-08 5.7455674e-10 1.5277968e-07 6.88399e-08 3.7243105e-08 4.105358e-10 6.5061774e-09
8.0869516e-09 1.870774e-08 6.049447e-10 2.3370117e-09 3.219889e-08 3.6915374e-10 2.5771947e-09 1.491251e-08
9.3129615e-10 3.0386158e-08 3.21375e-09 1.6456377e-10 1.3557954e-08 1.0040831e-09 2.3920498e-08 8.817061e-09
4.777199e-08 2.9302982e-09 3.172071e-09 1.0584409e-08 3.206061e-10 1.1928519e-08 6.6506606e-10 9.393762e-10
1.1625837e-08 7.103317e-10 2.9173288e-09 2.7806327e-10 7.322617e-10 1.988545e-08 1.3124208e-08 1.7084889e-10
6.487678e-09 6.672147e-09 3.2202985e-09 1.5737498e-08 6.485323e-09 1.3087988e-08 3.798538e-09 7.3621537e-10
2.4721036e-09 3.713708e-08 8.128006e-09 7.526342e-08 2.354736e-08 1.9073447e-08 9.962041e-09 2.0617563e-10
2.3951243e-09 1.0684408e-09 2.9816767e-09 4.952508e-08 2.370305e-09 1.3288545e-08 4.4475792e-10 1.1777185e-08
6.186251e-09 5.1292453e-08 2.9375593e-09 6.3675554e-10 8.653984e-09 3.1627732e-09 2.6189403e-10 8.545823e-08
7.584203e-09 2.3892795e-08 4.913017e-09 9.1182295e-10 3.1833114e-08 4.5350526e-10 6.023897e-08 4.771346e-09
3.8156385e-09 8.545411e-09 4.638674e-09 7.497627e-09 1.1802042e-08 2.8614338e-09 7.928551e-10 2.3491107e-09
7.072616e-08 1.7606183e-08 1.419502e-09 3.7811283e-09 4.3741286e-09 3.3249556e-08 8.304867e-08 6.1202985e-09
