Assets/results/ppo/JumperAgent/JumperAgent-30868.onnx (onnx, 91980 bytes, 6 tensors)

network_body._body_endoder.seq_layers.0.weight f4 [128, 42]
0.040502846 -0.27896297 -0.1930443 0.035451364 -0.13169865 0.1694302 0.07115398 -0.12671024
-0.14231977 -0.14906943 -0.048986457 0.0011156222 0.0031993664 0.18477923 0.102157205 -0.28897175
0.09174357 0.052029897 0.18902901 -0.072115816 -0.034200717 -0.11994296 0.15227224 0.0015987168
-0.0033250148 0.003490525 0.14191322 -0.15368465 -0.069902375 0.35549876 -0.288133 0.10357453
-0.003758538 -0.06479274 0.011529717 0.1311894 -0.20404068 -0.19124587 0.10572258 -0.061028574
0.096961856 -0.03810431 -0.048602004 0.13956726 -0.0027794465 -0.17105006 -0.025896328 -0.07173058
0.007188248 -0.0425244 0.056501165 0.05274473 0.082250126 0.07581189 -0.049066745 0.10339494
0.043927517 -0.014795164 0.14870834 0.042167798 -0.0071879057 0.002317198 -0.07822289 0.23030555
0.056395274 0.009487424 -0.008662859 -0.051812235 -0.063315615 0.08046896 0.1598331 0.06330774
0.007022486 -0.17170593 0.073775716 0.2910348 -0.068903 0.19749556 0.07249939 -0.003912264
-0.13881284 -0.100907885 -0.0012788032 -0.006699768 -0.021506518 -0.21086313 0.026794454 0.16628973
-0.02794052 -0.32549524 -0.13960093 0.064062975 0.03890438 -0.1571543 0.09934508 -0.0011909732
-0.19381183 0.3815378 0.145072 -0.1407135 -0.10180477 0.11940568 -0.13148078 0.17721082
-0.27645636 -0.008291883 -0.113167174 0.17875214 -0.008238399 -0.2785703 0.34279943 0.14429088
-0.0741634 0.18155225 0.012247805 -0.07459928 -0.14782068 0.04775189 0.041658226 0.060126584
0.01613043 -0.15952961 -0.014151776 0.002242195 -0.26250976 -0.10712148 0.21941489 0.06218544
0.10827074 -0.06125658 0.03275074 0.2775041 -0.1376165 -0.22041376 -0.13115993 0.12462232
0.018979603 -0.06768213 0.3577757 0.02496725 -0.15661822 -0.068719156 -0.36080277 -0.25805447
-0.061316215 0.120775625 -0.010716587 0.26647937 -0.3984898 0.36942077 0.08353746 -0.06475212
-0.1181306 0.08964322 -0.22842002 -0.08903588 0.002575943 -0.18392941 -0.05476496 0.059805024
0.015786635 -0.30279142 0.098291405 0.059046622 0.27127594 0.1338202 0.18320708 -0.05068172
-0.09391597 0.015681587 -0.23553424 -0.08286223 -0.015971584 0.20926943 -0.10537332 -0.06992572
-0.097030416 -0.2079281 0.22612591 0.044426687 -0.07208605 -0.18676904 -0.28787908 -0.0747473
0.20173699 -0.022767609 -0.35975516 0.21733813 0.24055204 0.049150046 -0.10521185 -0.02485138
0.120374374 0.04178157 -0.0015228997 -0.19571356 -0.022277683 0.34999672 0.045224614 0.15539
-0.10288849 0.092265286 0.12678623 0.22226594 0.23785454 -0.01213039 -0.14190452 -0.29694954
-0.06204283 0.17875887 0.03184864 0.14594865 -0.19465251 0.05622423 -0.17534225 -0.06777283
-0.01255578 0.11828312 0.13382626 0.12182656 -0.059784975 -0.18901174 -0.26838294 0.041273788
0.043735974 -0.06459674 0.24403511 0.08109325 0.23767725 -0.18746404 -0.15803386 -0.080782376
-0.033479784 0.47965854 0.14303929 -0.09654513 0.07273483 0.18728499 0.055331893 0.021722566
0.12934329 0.06533983 0.041943293 -0.06648367 -0.18019597 0.05878484 0.10116095 -0.022638174
-0.25131574 0.08552786 -0.10497202 -0.06576619 -0.08456171 -0.03811623 -0.077336594 0.072364315
00000000: 50e6 253d 3cd4 8ebe 68ad 45be 7335 113d
00000010: 03dc 06be 1c7f 2d3e 2eb9 913d 54c0 01be
00000020: 46bc 11be a8a5 18be 06a6 48bd 123a 923a
00000030: 76ac 513b c436 3d3e cc37 d13d 1bf4 93be
00000040: 0ee4 bb3d 4d1d 553d d290 413e 75b1 93bd
00000050: 0d16 0cbd a8a4 f5bd 41ed 1b3e 098c d13a
00000060: 7ee8 59bb 4bc1 643b b351 113e 825f 1dbe
00000070: fa28 8fbd ef03 b63e 2b86 93be e21e d43d
00000080: ce51 76bb 0eb2 84bd 23e7 3c3c 8456 063e
00000090: 0af0 50be f5d5 43be 1485 d83d 19f9 79bd
000000a0: f093 c63d 4413 1cbd e512 47bd b8ea 0e3e
000000b0: 6027 36bb bf27 2fbe 8924 d4bc 7be7 92bd
000000c0: 658b eb3b 112e 2ebd c46d 673d dc0a 583d
000000d0: c172 a83d 4443 9b3d 36fa 48bd bac0 d33d
000000e0: 57ed 333d 6a67 72bc 0047 183e 24b8 2c3d
000000f0: 8688 ebbb 22dc 173b 5333 a0bd 38d5 6b3e
00000100: bbfe 663d 2471 1b3c aaee 0dbc 1139 54bd
00000110: 9eab 81bd e9cc a43d 4aab 233e 7da7 813d
00000120: e21c e63b aed3 2fbe b917 973d 8302 953e
00000130: 041d 8dbd 473c 4a3e 8f7a 943d 7332 80bb
00000140: f424 0ebe cba8 cebd 849d a7ba ba89 dbbb
00000150: 702e b0bc 81ec 57be 0b80 db3c db47 2a3e
00000160: 84e3 e4bc 50a7 a6be 8cf3 0ebe 7333 833d
00000170: 335a 1f3d 0fed 20be 6f75 cb3d 6e1a 9cba
00000180: 9c76 46be ec58 c33e c18d 143e 3317 10be
00000190: 057f d0bd f78a f43d e6a2 06be c176 353e
000001a0: b08b 8dbe aeda 07bc 31c4 e7bd cd0a 373e
000001b0: 5afa 06bc c4a0 8ebe 6883 af3e fdc0 133e
000001c0: fbe2 97bd d5e8 393e 04ab 483c 82c7 98bd
000001d0: 4e5e 17be 7c97 433d d1a1 2a3d 4b47 763d
000001e0: f723 843c bb5b 23be dadc 67bc caf1 123b
000001f0: ae67 86be 8262 dbbd 4cae 603e 29b6 7e3d
00000200: 0dbd dd3d 2ee8 7abd a425 063d 0415 8e3e
00000210: 57eb 0cbe 25b4 61be ca4e 06be fd39 ff3d
00000220: 1d7b 9b3c ee9c 8abd 602e b73e 1e88 cc3c
00000230: 8760 20be a1bc 8cbd 24bb b8be b71f 84be
00000240: b626 7bbd 3659 f73d a094 2fbc fc6f 883e
00000250: db06 ccbe b824 bd3e b015 ab3d c29c 84bd
00000260: 75ee f1bd dd96 b73d f0e6 69be 7258 b6bd
00000270: 27d1 283b fe57 3cbe 3951 60bd 1df6 743d
00000280: f952 813c 7a07 9bbe 014d c93d dfda 713d
00000290: aee4 8a3e 2a08 093e a39a 3b3e a397 4fbd
000002a0: 0457 c0bd ac76 803c e32f 71be acb3 a9bd
000002b0: d7d6 82bc ba4a 563e f8cd d7bd 3735 8fbd
000002c0: e2b7 c6bd 1beb 54be 8d8d 673e c2f8 353d
000002d0: daa1 93bd 6240 3fbe e364 93be 1d15 99bd
000002e0: 2494 4e3e 2383 babc d431 b8be e38d 5e3e
000002f0: 4653 763e 8f51 493d 4f79 d7bd 1f95 cbbc
00000300: d786 f63d 2723 2b3d 099c c7ba 2369 48be
00000310: b07f b6bc c532 b33e 723d 393d 8e1e 1f3e
00000320: 33b7 d2bd 95f5 bc3d 40d4 013e af99 633e
00000330: 2490 733e 8bbe 46bc 6b4f 11be c509 98be
00000340: 9f20 7ebd 910c 373e b873 023d 9073 153e
00000350: fd52 47be 614b 663d eb8c 33be 7bcc 8abd
00000360: c2b6 4dbc 6c3e f23d c009 093e 3480 f93d
00000370: 17e1 74bd 4b8c 41be 7d69 89be b40e 293d
00000380: 7e24 333d 4c4b 84bd 57e4 793e 3814 a63d
00000390: aa61 733e 93f6 3fbe a1d3 21be 3b71 a5bd
000003a0: 1922 09bd ce95 f53e e478 123e 74b9 c5bd
000003b0: 00f6 943d a3c7 3f3e b2a3 623d 86f3 b13c
000003c0: 9172 043e e4d0 853d bbcc 2b3d 9728 88bd
000003d0: 4b85 38be 5fc8 703d 792d cf3d b173 b9bc
000003e0: 75ac 80be 3b29 af3d 92fb d6bd 6db0 86bd
000003f0: b12e adbd c41f 1cbd a662 9ebd be33 943d

network_body._body_endoder.seq_layers.0.bias f4 [128]
0.005061145 0.0019031041 0.00022544512 -0.00394273 0.0048102434 0.0012428887 0.00033142208 0.00021404146
0.00015704629 0.0017163863 0.0016162122 -0.0019904487 -0.001908738 0.0018105548 0.0011912577 0.001779937
-0.0015216318 0.00039319336 0.002771906 -0.0017087583 0.0051094196 -0.0053857164 0.0013828864 0.0024186985
-0.00070394017 -0.0020616064 -0.00035209348 -0.00091657246 -0.0010508071 0.00060275994 -0.0011529305 -0.000428863
-0.0006096824 0.00043531077 -0.0007822392 -0.00081542553 0.0045058914 -0.0021824203 0.0027701475 0.0029710673
-0.005167904 0.001824178 0.0010237949 -0.0011927696 0.0013486189 -0.0013855328 0.0023093955 0.0021491977
8.432532e-05 -0.00014212895 -0.0017090463 0.0032631906 0.0016575602 0.004015311 0.00023430752 -0.002100781
-0.00024913577 0.0015729559 0.00035601825 -0.0009460509 0.006857181 0.0017250753 0.0022362168 0.0028901943
-0.0008033486 0.00016821022 -0.0037733328 -0.002058892 0.0022048976 -0.0007383896 0.0029605203 0.00030961464
-0.0012575402 0.003875113 0.0050084735 0.0018777418 0.0024303407 -0.0006421653 -0.0006453863 0.0035585093
-0.00066107593 -0.0008214526 0.0030492607 -0.0010247625 0.0008439893 -0.00020031755 0.001308289 0.00037859377
-0.00061395724 0.00076988916 0.0020410663 -0.0033631632 0.00078379014 0.00029491482 0.0019613297 -0.0018669585
-0.00013097213 0.00511658 -0.0015970744 -0.002266493 0.0039043906 -0.0021457437 -0.007138077 0.0034271532
-0.001537853 0.0025748245 0.00090447185 -0.0028249752 -0.00029986762 0.00092460704 0.0014836413 0.0024116638
0.0028491875 8.4992986e-05 0.0014592176 0.0068324753 0.0010360891 0.0014340584 -0.0011323767 0.00069902494
-0.0048742467 0.0015678366 -0.00054264296 -0.0051344223 0.0022980582 0.001303051 0.0018104706 0.0007762942
00000000: f6d7 a53b 9471 f93a 7765 6c39 0432 81bb
00000010: 3f9f 9d3b 6de8 a23a b8c2 ad39 5170 6039
00000020: cbac 2439 5ef8 e03a 15d7 d33a 3072 02bb
00000030: 9f2e faba 2350 ed3a fa23 9c3a c64c e93a
00000040: 7e71 c7ba 8525 ce39 dea8 353b 6af8 dfba
00000050: eb6c a73b aa7a b0bb f841 b53a 0783 1e3b
00000060: a088 38ba 041c 07bb 3099 b8b9 2346 70ba
00000070: 3cbb 89ba 8902 1e3a ee1d 97ba 04d9 e0b9
00000080: 18d3 1fba 6c3a e439 2f0f 4dba 48c2 55ba
00000090: 28a6 933b f006 0fbb 5d8b 353b 3db6 423b
000000a0: 8557 a9bb 4219 ef3a db30 863a b556 9cba
000000b0: 24c4 b03a c49a b5ba 3a59 173b 8ed9 0c3b
000000c0: d0d7 b038 7308 15b9 1402 e0ba 41db 553b
000000d0: 7e42 d93a df92 833b 72b0 7539 42ad 09bb
000000e0: 709e 82b9 a42b ce3a f6a7 ba39 6700 78ba
000000f0: 34b2 e03b ec1b e23a 7e8d 123b 6a69 3d3b
00000100: d097 52ba 9661 3039 054a 77bb 7aee 06bb
00000110: 0b80 103b 7d90 41ba 4a05 423b c653 a239
00000120: 0cd4 a4ba 9cf5 7d3b 1f1e a43b 8f1e f63a
00000130: 5a46 1f3b fc56 28ba 242f 29ba e135 693b
00000140: 0e4c 2dba c056 57ba 1bd6 473b 5351 86ba
00000150: 2a3f 5d3a 550c 52b9 e57a ab3a ff7d c639
00000160: f9f1 20ba 63d2 493a 69c3 053b 8468 5cbb
00000170: 4477 4d3a cc9e 9a39 a789 003b bbb4 f4ba
00000180: 9055 09b9 fca8 a73b ed54 d1ba 7189 14bb
00000190: cee0 7f3b 9b9f 0cbb 88e6 e9bb 179a 603b
000001a0: c991 c9ba 63be 283b 141a 6d3a 3823 39bb
000001b0: 8d37 9db9 5461 723a be76 c23a 010d 1e3b
000001c0: 6fb9 3a3b 433e b238 3843 bf3a f5e2 df3b
000001d0: 62cd 873a 04f7 bb3a 426c 94ba c53e 373a
000001e0: 25b8 9fbb de7f cd3a 2740 0eba a83e a8bb
000001f0: 059b 163b 23cb aa3a 504d ed3a 3980 4b3a

network_body._body_endoder.seq_layers.2.weight f4 [128, 128]
-0.09552985 0.050109606 -0.05356527 -0.07414854 0.0655905 0.093941085 0.11814101 0.016273733
-0.057273872 -0.1298502 -0.10236729 -0.021930037 0.0347228 0.097322814 0.18895733 -0.23936746
0.14121021 0.035596102 -0.11244903 0.17662172 -0.035635676 0.01647984 -0.092761405 -0.054633036
0.057216063 0.0130138155 0.100297764 0.012573679 0.23301682 -0.086665645 -0.13201202 0.013899095
-0.14529893 -0.019821309 0.008920073 0.014690834 -0.002157322 -0.14500481 -0.12002776 -0.012735193
-0.05105748 0.02907414 -0.11966236 0.02427783 0.009671517 0.13362828 -0.0017936097 -0.013789537
-0.09531893 -0.020058773 0.029028848 -0.040567894 0.0906871 0.01794973 -0.11278074 -0.017375277
-0.025438467 -0.015123152 -0.014843147 -0.03590081 0.025217906 -0.022995265 -0.1831352 0.117250524
0.10683523 -0.0953702 0.15003285 -0.06873669 -0.053397816 -0.07312409 0.050282493 -0.124592215
-0.021171184 0.1209686 0.048472032 0.03102893 -0.037021793 -0.017804015 0.05228729 -0.0020754226
-0.096276745 -0.08028586 -0.035381597 -0.042464253 -0.021396069 -0.12891391 -0.10841306 -0.10082591
0.0639928 0.09621255 -0.04542529 -0.06945689 -0.16029738 0.022345636 0.13108788 -0.005597427
-0.03529378 -0.06490209 0.08272213 0.057784643 -0.1012962 0.063931 -0.09215374 0.0717494
0.09027644 -0.07542622 0.024486315 0.043316048 0.087702334 0.018857403 -0.09085334 0.10312014
0.08804117 -0.051317245 -0.015234821 -0.06427082 -0.18078172 -0.18934356 -0.0463028 -0.027691042
-0.0038740588 -0.048190646 0.067204356 -0.013477462 -0.06195605 0.037403785 -0.023865169 -0.029648628
0.04280432 -0.15464912 0.15751168 0.09954749 -0.02856463 0.03086929 0.024154857 -0.04733179
0.012059533 -0.18737018 -0.046201877 -0.05039716 0.0104502505 0.07945176 -0.08116758 0.067989185
0.029088005 -0.08210148 -0.11750543 -0.11392918 -0.14500028 0.19827357 0.07072416 -0.02866151
0.08149177 -0.08015163 0.071237154 0.17451842 -0.14295164 -0.031349912 0.21516022 0.06480811
0.13699073 -0.11032578 -0.11659011 0.09818873 -0.064131044 0.08551923 -0.028585784 -0.030470122
0.05729385 -0.08098383 -0.021645138 -0.16707851 0.047168277 0.032535475 0.13503757 -0.13091029
0.008270108 0.026023185 -0.003389801 -0.08646249 -0.03450614 0.07165497 0.15450995 -0.059601896
0.011325557 0.071057975 0.013484894 0.062981404 -0.17590143 0.005599554 -0.0026047092 0.00044539053
-0.08277681 0.07166941 0.051092684 -0.02781202 -0.0016365368 0.097828485 -0.015334025 -0.041984584
0.06260634 -0.0048313863 0.12706126 -0.08031024 -0.09415513 -0.0017466187 -0.093365155 -0.037440173
-0.014506715 -0.06329258 -0.02191966 -0.17038535 0.013773178 0.025446292 0.007175099 -0.023800163
0.16693345 0.034501687 0.14677274 0.12060756 0.18522666 0.17754681 -0.04519584 0.012681622
0.03631586 0.055194855 0.038352568 -0.00022579207 -0.0025687877 0.119992055 -0.10650908 -0.00302761
-0.06451112 -0.012467503 -0.004417753 0.036461372 -0.03466512 0.12163197 0.05285095 -0.0051887175
-0.032897312 0.06054458 0.002114405 -0.105836734 -0.08782693 -0.048801947 0.12840612 -0.07211112
0.12907657 -0.07437542 0.044048846 0.12598054 0.1487581 -0.18633568 0.11795925 -0.06475291
00000000: 27a5 c3bd bb3f 4d3d 4267 5bbd 31db 97bd
00000010: 5054 863d 2f64 c03d eaf3 f13d 7e50 853c
00000020: 0298 6abd 73f7 04be f1a5 d1bd 9fa6 b3bc
00000030: 7f39 0e3d 2f51 c73d 087e 413e be1c 75be
00000040: 6999 103e 38cd 113d ad4b e6bd 53dc 343e
00000050: b7f6 11bd bb00 873c b1f9 bdbd e4c6 5fbd
00000060: 645b 6a3d e637 553c ea68 cd3d d501 4e3c
00000070: f69b 6e3e c27d b1bd 292e 07be 08b9 633c
00000080: 3ec9 14be 4c60 a2bc 7f25 123c d3b1 703c
00000090: db61 0dbb 247c 14be 1dd1 f5bd 45a7 50bc
000000a0: a621 51bd e42c ee3c 8a11 f5bd 4de2 c63c
000000b0: 4875 1e3c dad5 083e 8e17 ebba 83ed 61bc
000000c0: 9236 c3bd 4c52 a4bc e8cd ed3c 852a 26bd
000000d0: 29ba b93d 500b 933c 97f9 e6bd 9956 8ebc
000000e0: 5564 d0bc 19c7 77bc ac30 73bc ba0c 13bd
000000f0: c895 ce3c 9160 bcbc cb87 3bbe 0b21 f03d
00000100: 6ecc da3d 7451 c3bd 36a2 193e d2c5 8cbd
00000110: abb7 5abd 15c2 95bd 04f5 4d3d 342a ffbd
00000120: 316f adbc 63be f73d 9c8a 463d 6230 fe3c
00000130: 2aa4 17bd bad9 91bc 332b 563d d003 08bb
00000140: be2c c5bd ea6c a4bd 4bec 10bd ffee 2dbd
00000150: cf46 afbc 0202 04be ab07 debd d17d cebd
00000160: a80e 833d 160b c53d de0f 3abd 6a3f 8ebd
00000170: ff24 24be 320e b73c e73b 063e 9f6a b7bb
00000180: 3690 10bd 63eb 84bd 386a a93d 97af 6c3d
00000190: 6274 cfbd 42ee 823d 1abb bcbd 59f1 923d
000001a0: dbe2 b83d 1079 9abd 8697 c83c 2b6c 313d
000001b0: 489d b33d d77a 9a3c 5111 babd a730 d33d
000001c0: ee4e b43d 0832 52bd 789b 79bc 6ba0 83bd
000001d0: d81e 39be 47e3 41be 01a8 3dbd 53d8 e2bc
000001e0: ece3 7dbb 8e63 45bd 70a2 893d 93d0 5cbc
000001f0: a1c5 7dbd b634 193d e380 c3bc aee1 f2bc
00000200: 9553 2f3d 575c 1ebe be4a 213e 8edf cb3d
00000210: 5f00 eabc 98e1 fc3c 68e0 c53c fbde 41bd
00000220: 5995 453c f8dd 3fbe 2e3e 3dbd 416d 4ebd
00000230: 8737 2b3c 9bb7 a23d 303b a6bd ea3d 8b3d
00000240: f849 ee3c d224 a8bd b0a6 f0bd b453 e9bd
00000250: f47a 14be 3a08 4b3e d4d7 903d 8bcb eabc
00000260: 28e5 a63d 8a26 a4bd c9e4 913d f5b4 323e
00000270: ea61 12be c468 00bd f652 5c3e 1dba 843d
00000280: 4c47 0c3e 7cf2 e1bd ccc6 eebd 2c17 c93d
00000290: 2357 83bd b524 af3d bc2c eabc 7a9c f9bc
000002a0: f5ac 6a3d dada a5bd 2551 b1bc a116 2bbe
000002b0: 8633 413d eb43 053d 4a47 0a3e 590d 06be
000002c0: 597f 073c 932e d53c 6c27 5ebb 3f13 b1bd
000002d0: 4f56 0dbd d7bf 923d db37 1e3e 1e21 74bd
000002e0: d48e 393c d886 913d bfef 5c3c 65fc 803d
000002f0: 811f 34be 777c b73b c5b3 2abb 4e83 e939
00000300: e386 a9bd 69c7 923d 9046 513d 09d6 e3bc
00000310: 1081 d6ba 4d5a c83d 903b 7bbc 07f8 2bbd
00000320: c137 803d 9b50 9ebb 591c 023e b279 a4bd
00000330: 68d4 c0bd ccee e4ba 3b36 bfbd de5a 19bd
00000340: 93ad 6dbc 8a9f 81bd dc90 b3bc 7f79 2ebe
00000350: e5a8 613c be74 d03c 181d eb3b 8ff8 c2bc
00000360: 9af0 2a3e a451 0d3d 984b 163e 1901 f73d
00000370: 0fac 3d3e d5ce 353e 461f 39bd 94c6 4f3c
00000380: f0bf 143d 0014 623d 9517 1d3d 99c2 6cb9
00000390: 1b59 28bb 65be f53d 6f21 dabd de6a 46bb
000003a0: 681e 84bd 7f44 4cbc ccc2 90bb 8558 153d
000003b0: 03fd 0dbd 2f1a f93d 3d7a 583d 1e06 aabb
000003c0: 55bf 06bd 98fd 773d d491 0a3b eec0 d8bd
000003d0: 9bde b3bd 8de4 47bd e57c 033e ffae 93bd
000003e0: a62c 043e 2452 98bd 906c 343d 0b01 013e
000003f0: 0b54 183e c8ce 3ebe 9f94 f13d 2c9d 84bd

network_body._body_endoder.seq_layers.2.bias f4 [128]
-0.0015125034 -0.0016067387 0.00011115956 -0.0015600477 -0.0012736641 0.0007183717 0.0005902645 -0.00032077916
0.0026407512 0.0013582208 0.0014609832 5.931047e-05 0.0014674457 -0.0014735938 0.0030012554 -0.0009958585
0.001515742 0.0016553331 0.002165601 0.002180642 0.0021217344 -0.0016724764 0.0012743436 -0.001273438
0.0013477437 0.0013516882 -0.00048825046 -0.0010887344 0.0025580248 -0.0012965192 0.003215056 -0.004564508
-0.0015148128 0.0018095857 -0.0015767037 0.0028450435 -0.0014746541 -0.0012645402 0.0018242943 0.0014507334
-0.004009658 -0.0011624206 0.00017890097 0.0010931605 -0.0017254753 -0.00020290894 0.0010614432 0.00047967388
-0.004993656 0.003688557 -0.0011598417 0.0015540599 -0.0012198932 0.0017829582 -0.0011600646 -0.0007802252
-0.0023321197 0.0023807124 0.0015421435 0.00094968476 0.004883378 -0.0006101774 -0.0013714005 -0.0013408762
-0.0055602584 -0.00080541475 0.0034817292 0.0024756377 -0.0008179997 0.0012890811 -0.0011654347 -0.0005686484
0.00056481257 -0.0015340612 -0.0005073068 8.597667e-05 5.0962557e-05 -0.0020017433 -0.0010556662 -0.0012525367
0.0024130973 0.00055673544 -0.0010232009 0.0011696607 0.00074702845 -0.0035595829 -0.001494454 -0.0011209681
-0.0010501064 -0.0014017725 0.0032868423 0.0019691493 -0.0010800607 0.0023838433 0.0024152957 -0.0011940997
0.0015902431 -0.006333574 0.0002091249 -0.0017183007 -0.0015019948 -0.0007302778 0.005762838 0.0007387745
-0.0010336706 -0.0012982228 0.0023715717 0.0049252603 -0.0013998958 0.0020938753 -0.0016637882 0.00031983238
0.001142192 -0.00064994633 0.002310926 -7.655828e-05 0.0005621535 -0.0006866071 -0.00031746342 -0.0013802608
-0.00034708026 -0.000263198 0.0027839495 -0.0011778437 0.0015982189 -0.0010438276 0.0002488677 -0.00087273953
00000000: 313f c6ba 3499 d2ba 561e e938 847a ccba
00000010: 13f1 a6ba 1c51 3c3a fbbb 1a3a 402e a8b9
00000020: 7410 2d3b 5406 b23a 767e bf3a 22c4 7838
00000030: 4f57 c03a 9a25 c1ba b6b0 443b 7787 82ba
00000040: ddab c63a c3f7 d83a c1ec 0d3b 1ae9 0e3b
00000050: cc0c 0b3b ff36 dbba e007 a73a 7de9 a6ba
00000060: c6a6 b03a 212b b13a defb ffb9 ddb3 8eba
00000070: 89a4 273b f7ef a9ba b0b3 523b de91 95bb
00000080: af8c c6ba 9f2f ed3a 66a9 ceba e973 3a3b
00000090: 2e49 c1ba eebe a5ba 291d ef3a 8926 be3a
000000a0: 7363 83bb 5d5c 98ba 5d97 3b39 6148 8f3a
000000b0: 5829 e2ba f4c3 54b9 2020 8b3a bd7c fb39
000000c0: d3a1 a3bb b8bb 713b d405 98ba 99b1 cb3a
000000d0: d3e4 9fba 26b2 e93a 4f0d 98ba 0788 4cba
000000e0: 7ad6 18bb ba05 1c3b c021 ca3a 44f4 783a
000000f0: be04 a03b 50f4 1fba 91c0 b3ba 57c0 afba
00000100: d432 b6bb 7822 53ba b92d 643b 4f3e 223b
00000110: 086f 56ba 62f6 a83a 80c1 98ba 5911 15ba
00000120: ee0f 143a 8d12 c9ba c8fc 04ba 604e b438
00000130: a1c0 5538 ae2f 03bb 485e 8aba 282c a4ba
00000140: 0e25 1e3b e2f1 113a ed1c 86ba 4d4f 993a
00000150: 3bd4 433a e447 69bb 8ee1 c3ba 73ed 92ba
00000160: b9a3 89ba aebb b7ba 1068 573b d80c 013b
00000170: d390 8dba 413a 1c3b f049 1e3b 5683 9cba
00000180: b46f d03a df89 cfbb 8a48 5b39 9b38 e1ba
00000190: 95de c4ba 1d70 3fba 30d6 bc3b 51aa 413a
000001a0: 3b7c 87ba 2129 aaba 5f6c 1b3b 1464 a13b
000001b0: b57c b7ba 6639 093b 7813 daba 2daf a739
000001c0: 9bb5 953a 2961 2aba e872 173b ea8d a0b8
000001d0: 7c5d 133a 6cfd 33ba 3871 a6b9 dee9 b4ba
000001e0: 53f8 b5b9 d6fd 89b9 ec72 363b e061 9aba
000001f0: 547b d13a 0bd1 88ba 757a 8239 8fc8 64ba

action_model._discrete_distribution.branches.0.weight f4 [2, 128]
0.008950364 -0.0014719202 0.0067227692 0.016149664 0.01221422 -0.01690513 -0.004816716 0.004871424
-0.002996278 -0.00014014874 0.0010857963 -0.0046328767 0.0061820615 0.004844004 -0.00533906 0.01751802
0.00067446276 -0.005801623 -0.0075847227 -0.017296834 -0.0056452104 0.012910408 -0.010743537 -0.013862365
-5.192605e-05 -0.015563335 0.0020905808 0.019795762 -0.010456515 -0.0043034903 -0.019608734 -0.00402393
0.006519012 -0.0048954957 0.016357103 -0.010992114 0.013662088 -0.0041884165 -0.002753221 -0.0057982365
-0.01905193 0.0040279347 0.0017768351 -0.03232969 -0.00037175577 0.010394546 -0.0070811133 0.005995229
0.0017387717 0.0033827256 -0.0017833143 -0.011024322 0.005118334 -0.0052288193 0.0002986547 0.008731366
0.008450522 -0.014841963 -0.0075409343 0.0032703164 -0.004432193 -0.0016205277 0.019734673 0.005355813
0.00037257007 0.0111913495 -0.001498822 -0.02229937 0.0036924204 -0.014235385 0.009009376 0.010237276
-0.0030877753 0.009162532 0.00030617192 -0.007847044 -0.0071869395 -0.012339509 -0.0144755 0.004876244
0.0077783903 -0.009016851 -0.00018055414 -0.011270475 -0.008427748 0.010463456 0.009047645 0.017914124
0.003688951 0.006280122 -0.010921778 -0.0022723707 0.01767863 -0.007013294 -0.0053060064 0.0061033997
-0.0023678492 0.0015061804 -0.0021317939 -0.0031763387 0.0016201698 0.016673295 -0.013185135 -0.009989894
0.016127788 0.016974347 -0.0011233143 0.0026100655 -0.0045308764 -0.013224682 0.00457602 0.00020695562
-0.017918244 -0.0014527846 -1.3049343e-05 -0.011338836 -0.012734441 0.00032572463 0.010405865 0.0067707687
0.0044039423 -0.0032970188 0.0004913347 0.013503394 0.006632345 0.004314291 0.007288904 -0.006465453
-0.006032432 -0.005173703 0.007398779 0.008296041 -0.010473053 0.009044234 0.018467795 0.0060551167
0.0028709427 0.01853502 0.024244338 0.005795315 0.020000733 0.0048409114 0.01298499 -0.018669592
0.005460142 0.0164744 0.005950655 0.0029079553 -0.006351489 0.003710346 0.01304719 -0.020658387
0.0024181209 -0.010921975 -0.005705514 -0.00043516723 0.0123176435 -0.01092582 -0.012016529 -0.0054668277
-0.0042677717 0.003572762 0.011237843 0.005764498 0.0015639036 -0.017679183 -0.0013652336 0.00020820694
-0.019122366 -0.02129235 -0.0011577382 0.0065222573 -0.0012350172 0.013184401 -0.0041924454 -0.0002800534
0.0029022833 0.010008034 0.0007477064 0.01961673 -0.014410674 0.014029102 -0.0015716141 -0.023890859
0.0024144952 -0.003730419 0.0021349553 0.016508356 -0.0027116984 0.00014959063 0.0020580464 -0.01945923
-0.00550392 0.007606738 -0.004358794 0.01749413 -0.002450134 -0.0040586563 -0.016666584 0.0007743148
-0.0006534038 -0.008757372 -0.0149343405 0.00319035 -0.008525572 -0.007717335 -0.030008111 -0.015516057
0.02173638 -0.007198569 0.0013609574 -0.0025680205 0.0011102341 -0.00038625335 0.0032291526 0.0040065087
-0.018099586 -0.008574352 0.008331597 0.000183424 0.00081990095 0.015232338 0.0056192176 -0.015563463
0.012345291 -0.0008754907 -0.0052493894 -0.013203794 -0.010962665 -5.535469e-05 -0.011223713 0.0051255287
-0.0012045287 -0.013378667 0.0045423065 0.012127678 -0.008992075 0.017977184 -0.0074646957 0.012907183
0.0074984552 -0.017853577 -0.00032284064 -0.0058844755 -0.0046882867 -0.011169302 -0.0014505885 -0.0024304893
0.0062660864 -0.0073479707 0.008942663 -0.011660382 0.014823614 -0.017532796 0.015373122 -0.015994368
00000000: 8ca4 123c 72ed c0ba ad4a dc3b 4d4c 843c
00000010: 271e 483c a17c 8abc 8bd5 9dbb 77a0 9f3b
00000020: 345d 44bb e4f4 12b9 4751 8e3a 63cf 97bb
00000030: e492 ca3b 73ba 9e3b 48f3 aebb f381 8f3c
00000040: 6ece 303a 8b1b bebb 4489 f8bb 17b2 8dbc
00000050: 75fb b8bb 2d86 533c a905 30bc f91e 63bc
00000060: 2ccb 59b8 5cfd 7ebc 2002 093b b92a a23c
00000070: cd51 2bbc 4b04 8dbb 7fa2 a0bc 2cdb 83bb
00000080: 709d d53b 656a a0bb 55ff 853c 4518 34bc
00000090: f3d6 5f3c fc3e 89bb 626f 34bb 22ff bdbb
000000a0: cb12 9cbc c4fc 833b b1e4 e83a 236c 04bd
000000b0: 37e8 c2b9 e34d 2a3c af08 e8bb a073 c43b
000000c0: 7fe7 e33a b8b0 5d3b 19be e9ba 5c9f 34bc
000000d0: b3b7 a73b 8456 abbb c194 9c39 010e 0f3c
000000e0: 0f74 0a3c b42b 73bc f119 f7bb ce52 563b
000000f0: ee3b 91bb e367 d4ba 9caa a13c d17f af3b
00000100: 8255 c339 ec5b 373c 1f74 c4ba 2bad b6bc
00000110: 89fc 713b 883b 69bc 109c 133c 3fba 273c
00000120: 465c 4abb 721e 163c b385 a039 e390 00bc
00000130: 6b80 ebbb a72b 4abc a62a 6dbc e6c8 9f3b
00000140: dee1 fe3b 6abb 13bc 2253 3db9 cca7 38bc
00000150: 8a14 0abc ea6e 2b3c 933c 143c a4c0 923c
00000160: 54c2 713b 7bc9 cd3b 42f1 32bc 0eec 14bb
00000170: c6d2 903c c6cf e5bb 02de adbb 07ff c73b
00000180: eb2d 1bbb 076b c53a 91b5 0bbb 1f2a 50bb
00000190: e15b d43a 6f96 883c 7706 58bc a7ac 23bc
000001a0: 6c1e 843c c90d 8b3c 2c3c 93ba a20d 2b3b
000001b0: bf77 94bb 56ac 58bc 70f2 953b 3a02 5939
000001c0: 48c9 92bc 5d6b beba 80ee 5ab7 86c6 39bc
000001d0: 1ea4 50bc 05c6 aa39 5c7d 2a3c 53dd dd3b
000001e0: f24e 903b cc12 58bb eacc 003a 573d 5d3c
000001f0: 2454 d93b e55e 8d3b c2d7 ee3b 27dc d3bb
00000200: b5ab c5bb 2b88 a9bb 7571 f23b 1eec 073c
00000210: 2b97 2bbc 442e 143c c649 973c 006a c63b
00000220: 6d26 3c3b c1d6 973c 109c c63c a0e6 bd3b
00000230: 94d8 a33c 82a0 9e3b ffbe 543c f9f0 98bc
00000240: feea b23b 52f5 863c b6fd c23b 6593 3e3b
00000250: 2720 d0bb 4729 733b e2c3 553c c73b a9bc
00000260: 5679 1e3b 15f2 32bc 52f5 babb 2827 e4b9
00000270: f1cf 493c 3602 33bc fae0 44bc 1323 b3bb
00000280: aad8 8bbb 0025 6a3b ee1e 383c 1de4 bc3b
00000290: e6fb cc3a efd3 90bc a3f1 b2ba 2052 5a39
000002a0: 82a6 9cbc 4b6d aebc 3fbf 97ba a9b8 d53b
000002b0: 4de0 a1ba 6303 583c c860 89bb 22d4 92b9
000002c0: 3c34 3e3b bdf8 233c ba01 443a 44b3 a03c
000002d0: bf1a 6cbc 52da 653c 9efe cdba c3b6 c3bc
000002e0: 823c 1e3b 0c7a 74bb 9bea 0b3b 883c 873c
000002f0: c0b6 31bb 6edb 1c39 4ae0 063b f768 9fbc
00000300: 3a5a b4bb f141 f93b 37d4 8ebb da4f 8f3c
00000310: 6d92 20bb 7afe 84bb 5c88 88bc 63fb 4a3a
00000320: 3049 2bba 157b 0fbc 2aaf 74bc 3115 513b
00000330: d7ae 0bbc b3e1 fcbb 92d3 f5bc 0f37 7ebc
00000340: 7e10 b23c f9e1 ebbb 2762 b23a 3c4c 28bb
00000350: 4685 913a 0c82 cab9 31a0 533b 0849 833b
00000360: 9545 94bc 707b 0cbc 4081 083c 8155 4039
00000370: 9fee 563a 0e91 793c 6a21 b83b e5fd 7ebc
00000380: e743 4a3c 3081 65ba 1203 acbb ba54 58bc
00000390: c09c 33bc a52c 68b8 aae3 37bc 0df4 a73b
000003a0: 47e1 9dba 3232 5bbc a1d7 943b 2bb3 463c
000003b0: 7f53 13bc e344 933c 689a f4bb a678 533c
000003c0: 9ab5 f53b aa41 92bc f042 a9b9 8fd2 c0bb
000003d0: 33a0 99bb 73ff 36bc ac21 beba d848 1fbb
000003e0: be53 cd3b 3fc7 f0bb 3f84 123c 300b 3fbc
000003f0: bede 723c f0a0 8fbc 8cdf 7b3c 9f06 83bc

action_model._discrete_distribution.branches.0.bias f4 [2]
-0.001318691 0.0013186906
00000000: edd7 acba ead7 ac3a
