Assets/results/ppo/JumperAgent/JumperAgent-32081.onnx (onnx, 91980 bytes, 6 tensors)

network_body._body_endoder.seq_layers.0.weight f4 [128, 42]
000000 36 76 1b 3c e6 b9 37 3e 80 5b e7 3d 24 48 9e 3b
       0.009488633 0.17942008 0.11296749 0.004830377
000010 44 98 ef bd cb d9 b9 bd c2 d0 23 3d e3 f0 b6 3d
       -0.11698964 -0.09074744 0.03999401 0.08932664
000020 1e 65 f4 bc 7b 48 ab 3d 54 9c 62 be a0 d6 2a bc
       -0.029833373 0.08363434 -0.22129947 -0.010427147
000030 45 a5 ca bc 5a 22 ea 3c 9c 71 14 bc 4a 4a db bd
       -0.02473701 0.028580833 -0.00906029 -0.10707529
000040 b4 79 1b be 17 b6 c7 be 3a f7 47 3e 0d e5 5a 3d
       -0.15183145 -0.3900611 0.19527903 0.053441096
000050 d0 76 be 3b 4a 7d 0b 3e a8 63 cf bd c9 d0 9b 3e
       0.0058125034 0.13622013 -0.1012643 0.30432728
000060 45 1d 9f bd 70 6a 3c bd 9d fb 95 be 63 a4 86 3e
       -0.077692546 -0.045999944 -0.29293528 0.26297292
000070 cc 32 6c bd ac 92 c5 bd 83 a3 ad bb 94 35 d8 bd
       -0.05766563 -0.09647116 -0.005299033 -0.10557094
000080 c4 70 46 3e c6 01 65 3d 71 83 ad 3d 41 b9 2a bc
       0.19378954 0.055909894 0.08472336 -0.010420145
000090 c1 d7 83 3c 3b d2 a3 3d 10 a6 aa be 19 7e 28 be
       0.01609409 0.07999083 -0.3332982 -0.16454352
0000a0 c8 48 55 bd be 40 95 bd d1 ff 3d be bb 5e b6 bd
       -0.052071363 -0.07287739 -0.18554617 -0.08904787
0000b0 4e a7 40 3e 99 91 25 be 10 90 08 3e b5 62 17 3e
       0.18813822 -0.16168822 0.13336205 0.14783747
0000c0 a8 db 0a be 52 38 ab 3d ff ce 3f be dc 78 cf 3d
       -0.13560355 0.083603516 -0.18731306 0.10130474
0000d0 86 41 03 bd fa 37 81 3d f2 e6 b1 bd 42 49 7d ba
       -0.03204491 0.06309505 -0.086866274 -0.00096621003
0000e0 72 a5 93 be 0d 6e 31 3e 03 ce 14 bc cc 63 17 3d
       -0.28837162 0.17327137 -0.00908232 0.036960408
0000f0 05 29 25 be 19 e0 a5 bc 60 21 3d bd 83 64 59 be
       -0.16128929 -0.02024846 -0.046174407 -0.21229748
000100 99 45 06 3e ce ce 04 3e cb e6 c6 bd 34 6f d6 bd
       0.13112487 0.12969515 -0.09711989 -0.10470429
000110 a2 1a 83 3d 03 b2 c8 3d 14 96 0e be 0c 29 2e be
       0.06401564 0.09799578 -0.13924438 -0.17007846
000120 fc 4e 6e bd 0e 08 47 be bc cd 11 be d4 b9 20 be
       -0.058180794 -0.19436666 -0.14238638 -0.15695888
000130 d6 9c 37 3d d3 a1 39 3e c8 e1 8b bd 53 83 2e be
       0.044827305 0.18128137 -0.06830174 -0.17042284
000140 a3 4a 90 bd 80 e4 6f 3e a0 6b 65 be 89 5d 30 bd
       -0.07045486 0.2342701 -0.22404337 -0.043057952
000150 4e 1e 5f 3e 3d 81 b0 bd 61 0e d4 bd df 52 05 be
       0.21788904 -0.086184 -0.10354305 -0.13019894
000160 f8 4f 98 bd 0d da 2e 3e 7b b3 6f 3c 06 fd 99 bd
       -0.07437128 0.17075367 0.014630194 -0.075189635
000170 17 66 9a bd 94 c2 3c 3d bc dd a6 bd 0a ef 1b bd
       -0.07539003 0.046084 -0.08147761 -0.038069762
000180 e1 df 76 bc 1c 5f 4a 3e 7d e1 28 bd 36 8f 6a bd
       -0.015068025 0.19762844 -0.041230667 -0.057265483
000190 07 1b 29 be c8 79 24 3e 9c 00 8b 3d 52 bb 45 3d
       -0.16514216 0.16062081 0.067872256 0.048274346
0001a0 7e 7d 4b be 0e 20 d1 bd 0b 77 cd bc 46 74 95 3d
       -0.1987209 -0.10211192 -0.025081178 0.07297568
0001b0 99 48 a0 3e d5 b0 0a bc 46 37 22 bd 5b bd 37 3d
       0.31305388 -0.008465012 -0.039603494 0.044858318
0001c0 f9 3d 5a be 33 6c 74 bb db 07 2c be ea e4 dd 3d
       -0.21312703 -0.0037295937 -0.16799872 0.108346775
0001d0 d9 ab 27 be 0e 4e 7d bd 84 5b 15 be c1 88 af 3d
       -0.16374148 -0.061842017 -0.14585692 0.085710056
0001e0 45 59 34 3d fc f6 f4 bc e5 a9 8c be 61 86 24 be
       0.044030447 -0.029902928 -0.2747337 -0.16066886
0001f0 d7 9f a1 bd 7a 46 77 be 25 dd 07 3e 80 80 50 3e
       -0.07891815 -0.24147978 0.13267954 0.20361519
000200 78 c3 a9 be 58 ef 21 3e 43 9b 1c be 3e 7f 7a bd
       -0.33156943 0.15813959 -0.15293603 -0.061156504
000210 49 d4 98 bb 73 95 9f bc a8 69 46 3d 22 54 9c bd
       -0.0046639782 -0.019480443 0.048440605 -0.076332346
000220 24 0b ed bd df 3f c1 bd 95 b7 fe bd f4 c5 7a 3d
       -0.115743905 -0.094360106 -0.12437359 0.06122394
000230 d1 a0 05 bc 51 3c ff 3d aa 86 9a bd 5f c2 e5 3d
       -0.008156017 0.12462676 -0.075452164 0.11218714
000240 55 6f 29 be 4c 5b 65 be fb dc ae 3c 9c 19 d6 bd
       -0.16546376 -0.22398108 0.021345606 -0.10454103
000250 63 3f 5b bd 73 00 b6 bd aa 7e c3 3d 5b 25 af bd
       -0.053527247 -0.088868044 0.09545644 -0.08552047
000260 a1 db 43 3c 2e 9f 3a be cf ad 5b 3e 83 de 13 3e
       0.011954219 -0.18224785 0.21453021 0.1444035
000270 8c 36 4b 3e 1a 88 14 be ea 51 af 3c 92 63 3b be
       0.19845027 -0.14505044 0.021401364 -0.18299702
000280 c0 84 09 3e 2c 90 d8 3d 8e 03 c4 3d 36 a8 e6 3d
       0.13429546 0.105743736 0.095709905 0.112625524
000290 b4 12 a6 bd 7a d1 36 be 0d 3b a3 3d f1 bc ef 3d
       -0.08109036 -0.17853346 0.079702474 0.117059596
0002a0 17 82 28 3e 45 0b 3f 3e 57 31 5e 3d 89 9e 13 bd
       0.16455875 0.18656643 0.054246273 -0.036039863
0002b0 32 51 87 be a5 68 b9 3e 14 1a 26 be 87 73 7f bd
       -0.26429135 0.3621265 -0.16220886 -0.062366035
0002c0 de 5e d0 3e 1e d9 57 bd 71 f5 67 3e 5a 9e 8a bd
       0.40697378 -0.052697293 0.22652222 -0.067684844
0002d0 fb 60 41 3c 93 b4 90 3e 5a 9c 45 3e 28 3d 10 3e
       0.011802907 0.28262767 0.19297925 0.1408583
0002e0 fa f0 23 be fb d8 84 be 34 49 18 bc 84 d5 a2 bd
       -0.16009894 -0.25946793 -0.009294797 -0.07950881
0002f0 a4 60 4c be 43 58 18 3e 2f 9a 66 bd 3c a9 8a 3e
       -0.1995874 0.14877419 -0.056299385 0.2708224
000300 e9 63 50 bc 91 57 a5 3d 4d b2 f6 bc c3 b3 a3 3c
       -0.012719133 0.080733426 -0.030114317 0.019983178
000310 4a d5 06 3e c1 ff fa bd 5a 18 2d 3d c7 5a 79 be
       0.13167301 -0.122558124 0.04225955 -0.24351035
000320 f2 a2 58 3d 24 1e 79 3d cd 56 53 3e 46 54 17 be
       0.05288977 0.06081976 0.2063858 -0.14778242
000330 54 33 d8 3d 89 12 c6 3b 3a ae 85 3e a9 6b 25 3e
       0.10556665 0.00604469 0.26109487 0.1615435
000340 a8 aa f0 3c 22 61 21 be 35 36 c0 ba 51 6a d6 bd
       0.02937825 -0.1575971 -0.0014664592 -0.10469497
000350 00 d2 22 3e be 82 37 3d 77 3b 7a bd 21 0e 90 bd
       0.15900421 0.04480242 -0.061091866 -0.07033945
000360 81 3e 16 3e 7d 5d c3 bd ca 53 f8 3d 83 c2 bb 3e
       0.14672281 -0.09539316 0.121253565 0.36671838
000370 4e 5d 67 3e 7e f5 25 be 0f e9 ae bd be ec 18 bd
       0.22594187 -0.16206929 -0.08540546 -0.03733515
000380 01 ba 0e be 80 a4 13 3e d6 d6 3b bd 35 9c 94 3e
       -0.13938142 0.1441822 -0.04585918 0.29025427
000390 70 e0 73 be 67 ec 2e 3d 55 ab 69 be 02 39 ea 3b
       -0.23816085 0.04270592 -0.22819264 0.007147909
0003a0 4e 48 e3 bd ce 41 f8 bd ad 9d 43 3e 07 35 dd 3c
       -0.110977754 -0.12121926 0.19103117 0.027002824
0003b0 25 60 4b bd 3d 70 2d be 32 28 18 be d0 bb 80 bd
       -0.049652237 -0.16937347 -0.14859083 -0.062858224
0003c0 09 77 58 3e 05 3b d5 3c e9 60 c9 3d 84 b0 a2 bd
       0.21139158 0.02602912 0.09832937 -0.07943824
0003d0 2c d1 59 be 8a aa 81 3d 78 26 e0 3b fb b9 5f 3d
       -0.21271199 0.06331356 0.0068405233 0.054620724
0003e0 f4 0e cc bd bd 25 6a bd 81 ef cb 3d f1 fc 93 3b
       -0.099637896 -0.057164896 0.09957791 0.004516237
0003f0 4e 5f 4a 3d 3a bd 36 be bf ef 0b 3e 91 21 ea bc
       0.049407296 -0.17845622 0.13665675 -0.028580459

network_body._body_endoder.seq_layers.0.bias f4 [128]
000000 86 0b 2b ba f1 64 b6 3a 01 28 6e ba 27 d4 87 bb
       -0.00065248495 0.0013915581 -0.00090849405 -0.0041451636
000010 3d 7f ef ba 0a e8 e1 38 ed 3d 51 3a 9b d0 9a 37
       -0.0018272173 0.00010772057 0.0007981945 1.845537e-05
000020 de 96 10 3a eb fc b9 3b c1 cd 16 3a ec 87 5d 3a
       0.0005515645 0.005675902 0.00057527056 0.0008450735
000030 04 d2 f6 3a 79 ea 78 3a e0 9e c0 3a b8 ed 3e 3a
       0.00188309 0.00094953884 0.0014695786 0.00072833477
000040 46 77 80 3a a3 54 7e ba 99 11 a9 3b 25 2e 4b 3b
       0.0009801171 -0.0009701943 0.0051595685 0.0031002846
000050 c1 0a 18 ba a5 b3 18 ba 06 4a 8a 39 02 a5 9f b9
       -0.00057999423 -0.0005825109 0.00026376563 -0.00030449784
000060 f4 0c 1d 37 63 f7 52 ba ef c3 3d 3a 48 33 77 b8
       9.360945e-06 -0.0008047728 0.0007238974 -5.893715e-05
000070 8a 4f 27 ba 00 27 5b ba ea d9 b3 ba 1c dd 72 39
       -0.00063823967 -0.00083599985 -0.001372156 0.00023161288
000080 53 82 73 ba 57 bf b2 b9 a8 f3 88 ba 9d 27 5f bb
       -0.0009289134 -0.00034093365 -0.0010448592 -0.003405071
000090 52 82 b3 b9 8a 7d 49 b9 67 2f 1f ba 0e 37 62 39
       -0.00034238637 -0.0001921562 -0.0006072432 0.00021573549
0000a0 00 dd 32 ba 66 b2 52 3a 8a fd fa b7 f6 fc 93 3a
       -0.00068230927 0.00080374477 -2.9920386e-05 0.0011290598
0000b0 49 83 15 3a 6c 28 be ba 30 10 89 3a eb 08 94 3a
       0.0005703462 -0.0014507896 0.0010457095 0.0011294162
0000c0 a3 66 4a ba d5 69 d0 3a 13 0f 76 ba 3a 43 2b 3a
       -0.00077209825 0.0015900681 -0.00093864015 0.000653315
0000d0 e9 69 57 ba 24 8e 5f b9 3c 3e c0 39 69 57 95 ba
       -0.0008217381 -0.00021319889 0.00036667462 -0.0011393848
0000e0 32 c0 80 39 77 20 68 ba bb 2d 9a ba 39 14 f6 39
       0.0002455726 -0.00088549353 -0.0011762896 0.00046935843
0000f0 12 51 49 3a 1a cf b1 3a dc fd 64 ba 57 e1 36 3a
       0.0007679622 0.0013565749 -0.0008735338 0.0006976327
000100 b8 2f 24 39 69 c9 c5 b8 71 2f 0e 3b 0f 8b 42 3a
       0.00015658035 -9.4312076e-05 0.0021695758 0.0007421234
000110 6d 30 7d 3a 2d 65 8f 3a 21 79 46 3a fc 27 a7 b7
       0.00096584 0.0010940187 0.000757115 -1.992657e-05
000120 d0 47 d8 3a 7b fd c9 b9 25 09 b4 3a 67 66 39 3a
       0.0016500894 -0.00038526565 0.0013735635 0.0007072449
000130 d5 29 41 3a 72 6b 93 b9 5d bb 2a 38 df e6 48 ba
       0.0007368599 -0.00028118078 4.0705654e-05 -0.0007663797
000140 5c 68 a6 3a eb b5 94 ba 3a ec 56 ba 39 7e 48 ba
       0.0012695896 -0.001134572 -0.00081986526 -0.0007648203
000150 70 cf 98 bb 96 99 67 39 3a 88 b1 3b 52 53 f8 b9
       -0.0046634004 0.00022087092 0.005417851 -0.00047364325
000160 ec e8 17 bb c9 8c 07 bb 6c fe 61 3a 55 15 fd ba
       -0.0023179604 -0.002068328 0.00086209807 -0.0019308726
000170 fb 7f 85 38 8a 80 2f ba 02 1a 7a 3a e0 4b 71 3a
       6.3657724e-05 -0.0006694874 0.00095406186 0.00092047267
000180 b0 c2 12 bb 98 44 3e 3b 5f 7c c2 ba c6 8f c6 b9
       -0.0022393875 0.0029032584 -0.0014838091 -0.00037872622
000190 fb cd 35 bb f2 45 d1 ba 21 2f 40 3b 66 16 42 3b
       -0.0027741182 -0.001596628 0.0029324966 0.0029615401
0001a0 59 ad 8f ba 49 3a d2 39 95 40 d1 39 e0 7b 5f 38
       -0.0010961696 0.00040097747 0.00039911704 5.328271e-05
0001b0 ab c2 a7 b9 71 d9 0b bb d9 0e e1 ba c9 c0 b8 ba
       -0.0003199776 -0.0021339322 -0.0017170563 -0.001409554
0001c0 e5 a7 be ba e9 8e 3d bb e8 c3 33 bb 12 37 37 3b
       -0.0014545886 -0.0028924292 -0.0027430002 0.0027956408
0001d0 9c f0 f5 3a ce f9 3d 3a a7 cf 2c 38 29 73 dc b9
       0.0018763724 0.00072470016 4.1201387e-05 -0.0004204747
0001e0 55 8f 09 b9 08 6d 9c b9 24 4f dc 39 25 30 f7 39
       -0.00013118733 -0.00029835873 0.00042020634 0.00047147382
0001f0 9d 61 46 b9 23 c3 18 ba 88 07 66 3a 4b ff 1d ba
       -0.00018919115 -0.00058274175 0.0008774926 -0.00060271163

network_body._body_endoder.seq_layers.2.weight f4 [128, 128]
000000 63 49 4d bd 8f 9b 28 3c cd 82 80 3d 3b aa ee bd
       -0.050118815 0.010290994 0.06274948 -0.11653563
000010 2a 87 34 3d a9 07 84 3b 50 45 22 bd b7 06 81 3c
       0.044074215 0.0040292335 -0.039616883 0.015750272
000020 34 50 90 bd 04 b6 01 3e 59 9c b8 bd ae a7 03 3e
       -0.070465475 0.1266709 -0.09014196 0.12856933
000030 64 77 a0 3d 38 b8 2c be 6f 5d 5f bc 7a 09 8c 39
       0.07835272 -0.16867149 -0.013633116 0.0002670994
000040 9a 14 28 be 38 ba d6 3d cb 58 a3 3c 14 54 15 bd
       -0.16414109 0.10484737 0.0199398 -0.036457136
000050 7c 49 54 3e d5 9b 83 bc 7a 8d ac 3d e1 19 f8 bd
       0.20731157 -0.016065517 0.08425422 -0.12114311
000060 67 6a bf 3c 00 28 f7 3c a6 98 a2 3d ab 3e 6c 3c
       0.023366166 0.03017044 0.07939272 0.014419238
000070 f7 d2 00 3e 79 22 e7 bc 85 a5 1d bd 38 6c 88 3d
       0.12580477 -0.02821468 -0.03848793 0.06661266
000080 ee 9b ba bc ac 61 dc bc 82 47 fe bc 1f 75 a0 bd
       -0.022779431 -0.026902042 -0.031039957 -0.07834839
000090 50 65 dd 3d 5f 8e eb 3c 04 d2 fd 3d 62 bd ca bd
       0.108103395 0.028754411 0.12393573 -0.09899403
0000a0 5b 21 b3 3d 8d 3c 97 3c c5 10 07 3d 17 01 78 3c
       0.087465964 0.01846149 0.032974977 0.015136979
0000b0 a8 c7 24 bd 78 7a 40 3d b3 44 e4 3d 43 3e e6 3d
       -0.04022947 0.046991795 0.11145916 0.11242344
0000c0 b4 bd 46 be d7 d7 e5 3c 11 dd a1 3d 51 5c b3 3c
       -0.19408303 0.028057022 0.07903493 0.021894606
0000d0 48 0a 55 3e df 25 a0 bd 29 1c 43 bd 4c 7f 7a bc
       0.20804703 -0.07819723 -0.047634277 -0.015289139
0000e0 46 f7 dd bc 3e e9 8d bd c4 94 7b bc ba e0 d6 3d
       -0.027095448 -0.06929253 -0.015355293 0.10492082
0000f0 4d 36 f2 3c 1f c5 55 3d bf 96 5a 3c 9a 94 2b bd
       0.029566908 0.052189942 0.013341605 -0.041889764
000100 38 4e 0b be 54 a2 38 be 7e a1 50 3e cc d0 ac 3c
       -0.13604057 -0.18030673 0.20374104 0.021095656
000110 4c 7d 22 3c 56 b5 0a bd dd 46 85 bd b4 35 99 3d
       0.009917568 -0.03386434 -0.06507657 0.07480946
000120 d6 17 55 bd 3f d2 16 3d c6 7f 35 3b 48 6c ce 3d
       -0.052024685 0.0368216 0.0027694567 0.10079247
000130 4c 53 43 bd 2b d0 85 bd 06 c2 f4 bd 6b 51 7b 3d
       -0.04768686 -0.065338455 -0.119510695 0.061356943
000140 9e b4 83 ba b6 c2 97 bd 5b 04 08 3e 82 fa 6c bc
       -0.0010048335 -0.07410185 0.13282911 -0.014464023
000150 0d 23 f7 3c a0 04 d1 bb a0 c0 20 bd dd 7c b8 bd
       0.03016808 -0.006378725 -0.0392462 -0.09008191
000160 49 68 f3 3d 71 85 75 bc 64 b1 8c bd 13 8b 2b 3d
       0.11885125 -0.014985428 -0.06869772 0.04188068
000170 d8 0f cc 3d 00 5c 8e 3d a4 5d f4 3c a2 3e 94 bd
       0.099639595 0.06951141 0.029829808 -0.07238509
000180 d1 e5 91 bd 1f f8 1b bc a4 c8 46 bd 1f 9a 46 3d
       -0.07123912 -0.009519606 -0.04853119 0.048486825
000190 2b 25 ca 3c c0 ce 39 3c e9 d1 c5 bd 96 05 35 3e
       0.024675926 0.011340797 -0.09659178 0.17677912
0001a0 fd ee 3a 3c 8e 00 7c bc a9 7f d6 39 53 98 65 be
       0.011409518 -0.015380992 0.00040912375 -0.22421388
0001b0 94 b6 b4 bd d7 27 6f 3d 4d c9 12 3e 6e c7 0b 3d
       -0.088238865 0.058387604 0.14334603 0.034125738
0001c0 86 ae 72 3d e3 c5 63 be 64 10 fc bd 58 33 42 bd
       0.05924847 -0.22243457 -0.12307814 -0.047412246
0001d0 2f fe 65 bd 45 60 d3 3b 32 f2 9a 3d fc 73 7d 3d
       -0.05615061 0.006450685 0.07565726 0.06187819
0001e0 8a d1 7e bc 5e 50 fa bc 58 0f 1c bd 78 53 ca 3d
       -0.015552888 -0.0305559 -0.03810057 0.09879202
0001f0 2a b2 d7 3d ec 47 dc 3d e8 3a fb bb 72 62 c9 bd
       0.10532029 0.107559055 -0.0076669343 -0.0983323
000200 e2 80 71 3c 72 6a a0 bd b1 38 8f be ca 2b d2 bd
       0.014740201 -0.07832803 -0.2797294 -0.10262258
000210 26 9d 0c bc 09 b8 ef 3d 0f 76 ed 3d ae c0 1d be
       -0.008582389 0.11705024 0.115947835 -0.15405533
000220 2b 97 5d bb 77 9b 42 be ab fb 47 3d 22 fe da bd
       -0.0033812027 -0.19004618 0.048823994 -0.10693003
000230 e3 3e 48 bd 4e 5f 70 ba 68 f0 fc bd 1d 65 0d be
       -0.0488881 -0.0009169475 -0.12350541 -0.13808103
000240 5e df ff bd 44 16 14 be a1 d5 a3 3b 0b 64 a5 bb
       -0.12493776 -0.14461619 0.004999832 -0.0050473264
000250 19 81 19 3c 3c 87 3c bd 47 66 04 3d 16 64 18 bd
       0.009369158 -0.046027407 0.0323241 -0.037204824
000260 11 18 d3 bd ea dd 31 3e 0c d7 8c bd 54 a0 75 bd
       -0.10307325 0.1736981 -0.068769544 -0.059967354
000270 89 74 26 be e5 cd 3d bd e8 45 93 3d 07 a2 ac bd
       -0.16255392 -0.046338934 0.07191068 -0.08429342
000280 25 ee 08 3e ba 26 4e 3c 4f c7 09 be e0 30 7b bd
       0.13372095 0.012582475 -0.13454936 -0.061325908
000290 bc e7 79 3b 49 d9 d8 bd 0c b2 c8 3c 8a 76 31 be
       0.003813251 -0.10588319 0.024498962 -0.17330375
0002a0 ab 84 e0 3d a3 3b e4 3d 0b 9e 9e bd 7b e6 1b bd
       0.109628044 0.11144187 -0.07744988 -0.0380616
0002b0 7d a6 98 bb 1e 85 8d bc 6f 7a 38 bd da 7c a1 bd
       -0.004658519 -0.01727539 -0.045038637 -0.07885142
0002c0 81 d8 35 bd 9a 53 11 3e 4e 2a 6a ba 7e 6c 1d be
       -0.044395927 0.14192048 -0.00089326955 -0.15373418
0002d0 97 7c ef 3c 9f f9 ca bd e8 85 1c bd 09 ca 38 bd
       0.029234214 -0.09910893 -0.03821364 -0.04511455
0002e0 02 2c b0 3c 99 1b 4a bc 0e 29 8b 3d 75 e3 35 be
       0.02150536 -0.012335681 0.0679494 -0.17762549
0002f0 6c 4f 53 bd 74 b9 2c 3c 4a c9 b4 bd 22 72 cc bc
       -0.051589414 0.010542262 -0.08827455 -0.024956767
000300 a4 62 1e 3d 11 53 93 bc b6 e2 91 bd d9 65 67 3d
       0.03866829 -0.017983945 -0.0712332 0.056493614
000310 69 b7 6b bc e3 e7 45 bc 29 d5 06 bc bf b2 45 bd
       -0.01438699 -0.012079212 -0.008229532 -0.04826617
000320 04 07 76 bd 98 c5 c4 3c 04 a1 c6 3d 92 22 dd bd
       -0.060065284 0.024020001 0.0969868 -0.107976094
000330 80 03 d3 3b 3b ca 39 bd e8 63 7d bd 86 d9 b0 bd
       0.006439626 -0.045358878 -0.061862856 -0.08635239
000340 a8 38 90 bd 19 cf bd bd d9 c5 d0 3c f2 d5 a0 3c
       -0.07042056 -0.09268016 0.025484966 0.019633267
000350 0b 10 01 3e 35 b0 bf 3d f4 47 59 bd 74 bf 33 3c
       0.12603776 0.09359781 -0.053047135 0.010970939
000360 dd cc 54 bd 46 de 03 3e 15 55 49 3d 7f 43 8c 3d
       -0.051953185 0.1287776 0.049153406 0.06848811
000370 40 80 8b 3b e9 13 02 be 80 79 5e 3e ab 71 e3 bb
       0.004257232 -0.12702908 0.21726036 -0.0069410405
000380 be bc 05 3d 2c 78 b2 bd 0e 65 14 3d 2c 1d 38 be
       0.0326507 -0.08714327 0.036229186 -0.17979878
000390 7e 59 28 bd de 1d a1 bd ce 0b d1 3c 73 b5 bb 3d
       -0.04110097 -0.07867025 0.025518324 0.09165468
0003a0 06 5c 7d be f3 a4 b9 bd 17 a6 6c bd 48 95 79 bd
       -0.24742135 -0.09064665 -0.057775583 -0.06093338
0003b0 bf 06 fa 3c a5 43 b3 3c be 41 b5 3d 65 a7 56 3c
       0.030520795 0.021882841 0.0885043 0.013101433
0003c0 2e f3 06 be 30 48 8b 3d 9b 0e b1 3d aa c0 61 3d
       -0.13178703 0.06800878 0.08645364 0.05511538
0003d0 ed bf 48 3d ac 36 3e bd e9 47 e8 3c 53 ea 25 bd
       0.04901116 -0.046438858 0.028354602 -0.040506672
0003e0 6d 0c 7d 3e 1c f7 99 3d 25 ac 26 3e 5e 02 32 3e
       0.24711771 0.075178355 0.16276605 0.17383716
0003f0 c6 4f ba bd c5 7d 61 3c 74 7e 22 3d 95 c7 fa bc
       -0.09097247 0.013762896 0.039671376 -0.030612746

network_body._body_endoder.seq_layers.2.bias f4 [128]
000000 4f 5d 88 b9 3e 0d d9 ba 44 b4 0b bb 41 e8 42 b8
       -0.00026009462 -0.0016559733 -0.0021317163 -4.6469508e-05
000010 cf 5d 2e bb f8 f1 0c b9 45 00 8e 39 f7 b7 44 ba
       -0.0026606207 -0.00013441581 0.0002708455 -0.00075042195
000020 51 86 e8 ba 90 59 16 3a 43 07 05 b9 57 96 8c b9
       -0.0017740225 0.0005735392 -0.00012686574 -0.00026814893
000030 c8 f5 fd 3a 32 63 1b ba a9 7f c1 b9 74 dd 27 ba
       0.0019375617 -0.0005927562 -0.00036906943 -0.00064035435
000040 22 b0 90 3b 89 4f c1 38 7a 25 03 b9 ab 3c 2d ba
       0.004415528 9.217772e-05 -0.00012507095 -0.00066084665
000050 13 cb 0d 3a be 89 24 39 af 53 94 38 40 ae d1 36
       0.00054089836 0.00015691572 7.072777e-05 6.2489707e-06
000060 24 c0 3e ba 6a 40 06 ba 3f 13 e4 b9 fa a4 71 39
       -0.0007276556 -0.0005121293 -0.00043501888 0.0002304501
000070 2c 6d 83 3a e2 78 4e 39 a1 a6 d1 b9 01 3b 59 b9
       0.0010027043 0.00019690723 -0.00039987735 -0.00020716713
000080 ef 47 9d b9 d9 de 4d b9 d5 71 38 bb c2 8d 6b b9
       -0.00029998968 -0.0001963334 -0.002814402 -0.00022464155
000090 14 46 c8 39 8a 15 12 ba 4f d5 60 39 12 27 55 b9
       0.00038199185 -0.00055726676 0.00021441768 -0.00020327818
0000a0 c6 aa 18 ba 26 af 1f bb e8 ab aa 3a 41 f8 71 38
       -0.0005823787 -0.0024365871 0.0013021203 5.7690082e-05
0000b0 94 12 9c b9 ea dc e3 39 12 86 a7 b9 56 fa 4c ba
       -0.0002976848 0.00043461408 -0.00031952612 -0.00078192854
0000c0 aa b5 2c ba 02 51 91 38 65 54 66 37 9a 96 50 3b
       -0.00065883494 6.929228e-05 1.3728718e-05 0.0031828047
0000d0 2f 8b 2e ba 3e 7f 6c 3a 88 f9 32 b9 00 3e 30 ba
       -0.0006658313 0.0009021646 -0.0001706836 -0.0006723106
0000e0 e1 d6 42 ba 93 de 4e 3a 1c 91 9d b8 1d d3 46 bb
       -0.0007432532 0.00078914425 -7.513372e-05 -0.0030338236
0000f0 a6 06 f0 b9 b1 69 86 b9 03 72 8d 3a 20 de 2e b9
       -0.0004578132 -0.00025637218 0.0010791424 -0.00016676681
000100 33 17 5c ba 1b 43 c7 b9 06 b8 56 38 d0 68 d9 39
       -0.0008395791 -0.00038006235 5.119296e-05 0.00041467557
000110 f8 2e f8 39 74 87 64 3a f8 b2 46 ba 90 d2 00 3a
       0.0004733724 0.0008717694 -0.0007579769 0.0004914189
000120 22 50 9f 39 1f 88 d2 3a f9 97 22 ba 7a ff 97 39
       0.00030386547 0.0016062296 -0.0006202455 0.0002899131
000130 e4 d1 98 3a ad a3 27 ba 49 af f0 b9 23 ed 23 ba
       0.0011659232 -0.0006394934 -0.00045906965 -0.00062532927
000140 41 5c 34 3a 9a 94 ec ba db 3d 0d ba 58 1d ad 3a
       0.0006880202 -0.0018049658 -0.00053879403 0.0013207598
000150 e1 c8 53 39 72 07 b4 b9 34 40 a4 39 73 79 9a 3a
       0.00020197361 -0.00034337823 0.00031328353 0.0011785462
000160 6a ab 19 3a 8a b8 d0 b9 24 e4 df 39 59 51 91 b9
       0.00058620295 -0.00039810344 0.00042703853 -0.00027717164
000170 5e 60 06 3a 43 f9 5f ba 61 e2 16 3a c1 5e 26 3a
       0.0005126054 -0.0008543918 0.0005755779 0.0006346517
000180 4e 40 45 3b a2 72 c4 b9 94 b1 87 b9 64 2b ef b9
       0.0030098143 -0.0003746944 -0.00025881513 -0.0004561796
000190 cf 21 2f ba 10 03 09 3a 99 53 27 ba 3e 52 31 3a
       -0.0006680758 0.00052265916 -0.00063830015 0.0006764269
0001a0 cb 1a 7c 3a 86 21 90 b9 47 2d 98 3a 32 9a 9b 3a
       0.00096170296 -0.00027490797 0.0011610173 0.0011871515
0001b0 4e aa c2 39 c7 76 b3 b9 34 9e fe 38 7f dd d2 39
       0.0003712945 -0.00034230037 0.000121411314 0.0004021935
0001c0 77 b6 2b ba be 96 9d b9 59 8d bd ba 38 5b d3 b9
       -0.00065503217 -0.00030057685 -0.001446168 -0.0004031302
0001d0 21 33 0d ba 25 3d 4a bb 3e bc 38 3a b3 6e c5 3a
       -0.0005386342 -0.00308592 0.0007047093 0.0015062898
0001e0 bc 4c e6 39 7b b7 4d 3a 8f b4 4d b9 5b 60 13 b9
       0.0004392619 0.000784747 -0.00019617587 -0.00014054908
0001f0 51 2a bf 39 d8 2b 03 ba 1d 02 e9 3a 01 de 22 3a
       0.00036461887 -0.00050037866 0.0017777119 0.0006212891

action_model._discrete_distribution.branches.0.weight f4 [2, 128]
000000 2f 21 05 3a 60 b0 8a 3c 1d 62 af 3c 29 7d 8b 3c
       0.0005078492 0.016929805 0.021409089 0.017027454
000010 9b 9e 7a bb 35 a4 7c bc 36 33 fd b9 1d fe 79 bb
       -0.003824151 -0.015420009 -0.00048294076 -0.0038145848
000020 b9 9a 33 bc b8 9f cb 3b ce d5 6b bc 91 fb cb 3c
       -0.010962182 0.0062141083 -0.014394237 0.02490023
000030 86 80 f8 3b ea 86 a9 ba f7 3a 58 3c f4 0c 1e 3c
       0.0075836806 -0.0012933884 0.013197652 0.009646643
000040 27 26 e5 bb 77 4c 07 bc 8b 80 39 3a dd 39 4e 3c
       -0.0069930735 -0.008257977 0.00070763443 0.012587038
000050 ce c2 6d bc 8c 2f dd bb ee e7 3a bc 67 2f 35 3c
       -0.014511777 -0.006750053 -0.011407835 0.011058665
000060 32 6b d6 3c 83 bf 40 bb 38 bd 2c bc 63 23 1b bc
       0.026174162 -0.0029411025 -0.01054316 -0.009468886
000070 5f 04 02 bb c6 00 aa bb 32 0e 87 ba 55 6c 2b 3c
       -0.001983903 -0.0051880805 -0.0010303913 0.01046284
000080 50 c8 53 bc e5 e5 b5 bb e6 c9 24 ba 99 3d 5d bc
       -0.012926176 -0.005551087 -0.0006286189 -0.013503456
000090 23 b8 05 3a b9 d1 b0 bc 31 af 02 bc 2a d4 ad bb
       0.0005100986 -0.021584379 -0.007976339 -0.005304833
0000a0 05 60 90 3c 99 15 0b 3c d8 a8 90 bb 55 77 2e 3c
       0.01762391 0.008489036 -0.004414659 0.010648568
0000b0 3a ce b4 3c c4 9d 5c 3b f0 fa 9a 3b 2a d7 3d bc
       0.022070993 0.0033663372 0.004729621 -0.011586944
0000c0 11 bc cf 3b 5e eb 55 3b ad 1e b7 bb 4a 0a 78 bb
       0.006339558 0.003264151 -0.0055883736 -0.003784793
0000d0 0a b1 70 3c f5 44 0e 3b 53 3b 65 3b 64 7c 15 bc
       0.014690647 0.0021708582 0.0034977987 -0.009123895
0000e0 e4 ae d5 b9 9a 15 92 ba d4 1e 38 3c 5c 0f 2f 3b
       -0.0004075683 -0.0011145354 0.011237819 0.0026712036
0000f0 87 59 51 3c f7 aa 5d 3c 90 b5 0e bc b8 c6 48 3b
       0.012777693 0.013529531 -0.00871028 0.0030636024
000100 36 a0 39 3c 94 2c 2f 3b d8 ef 13 bc a9 39 af bb
       0.011329701 0.0026729451 -0.009029351 -0.00534745
000110 7e ba 73 bb ab fe 9c bc b0 d7 de 3b 9f 49 c8 3b
       -0.0037190015 -0.019164404 0.0068006143 0.006112292
000120 e3 8e 4f 3b 25 ad ad b9 e5 7e 19 b9 cf 0e e5 3b
       0.003167086 -0.00033126134 -0.00014638489 0.0069902907
000130 da 6a a4 bb 57 16 b2 39 4b b9 45 bc 5c 41 00 bb
       -0.0050176205 0.0003396745 -0.012068103 -0.0019570207
000140 48 e7 21 bc 4f d0 ef 3b 4e b7 2d 3c 16 06 00 3c
       -0.009881802 0.0073185335 0.010602785 0.007813951
000150 36 92 3b bc e3 8d 0e 3c a9 36 6d bc de 97 24 bc
       -0.011448434 0.008700821 -0.014478364 -0.010045974
000160 48 04 da 3a 4b 31 96 3b c3 dc 60 bc eb 97 8d bc
       0.0016633356 0.004583513 -0.013724509 -0.017284354
000170 37 11 38 bb 43 80 b1 b9 72 29 cf bb b9 ea 69 bc
       -0.0028086433 -0.00033855633 -0.0063220793 -0.014277154
000180 5c a3 1e 3c 22 5c 01 3c 6d df 04 bc 59 dc f6 bb
       0.009682503 0.007895501 -0.0081099095 -0.0075335917
000190 50 64 24 3c eb 84 a8 bb 01 67 74 b9 34 58 6d ba
       0.010033682 -0.005142798 -0.00023308025 -0.0009053976
0001a0 c2 0a 02 ba 22 3f 18 bc 1a 12 36 bc 4e fd 77 bc
       -0.00049607095 -0.009292396 -0.011112714 -0.015136076
0001b0 1c 8c b7 bb b8 71 33 bc 50 8d 03 bd 83 b5 7a ba
       -0.005601419 -0.010952406 -0.032117188 -0.00095637905
0001c0 c2 e9 ff 3b 92 55 06 bb 4b df 3a 3b 51 32 a6 3b
       0.0078098485 -0.0020497781 0.002851444 0.005071916
0001d0 23 af e2 3b 51 f1 02 3c 19 70 d9 3a 12 60 e9 bb
       0.0069178506 0.007992105 0.0016589194 -0.007122048
0001e0 37 ea 44 3c e5 83 95 bc 29 74 2b 3c 1f b9 f8 3b
       0.012018732 -0.018251369 0.010464706 0.0075904275
0001f0 5a 25 51 bc 67 c9 9a 3b 7c 09 88 bc af d3 8a 3b
       -0.012765253 0.004723716 -0.016606085 0.0042366604
000200 55 61 16 bb 57 b9 6d 3c aa d6 d2 3b ef 9e 92 bc
       -0.0022946198 0.0145095205 0.0064342814 -0.017898051
000210 c7 36 ed 39 38 b3 fb 3b cb 55 7c 3b e2 15 86 bc
       0.00045244975 0.0076812766 0.0038503285 -0.016367856
000220 85 59 40 bc 00 32 f6 bb b7 dd e8 bb 8b c0 3d bc
       -0.011740093 -0.0075132847 -0.0071065086 -0.01158155
000230 6c 78 30 bb c3 ad 0b bc fc 3a 3c 3c 9c 0a cb 3b
       -0.0026927246 -0.008525315 0.011488672 0.006196333
000240 73 1c 8e ba 64 0b f7 3a f0 82 5c bb ba c7 2f bc
       -0.0010842219 0.0018847999 -0.003364738 -0.010728771
000250 c1 cd 0c 3c 51 a3 57 bc 71 ea a9 bb da aa ac 3a
       0.008593977 -0.013161496 -0.0051854183 0.0013173476
000260 1b 5a 4e bc ca 54 dd ba 0d 28 b9 bc 67 2b 5e ba
       -0.012594725 -0.0016886231 -0.022602106 -0.00084750954
000270 db 7a 21 ba db 2b 28 bc b0 0e 0d bc 84 ff f3 b8
       -0.00061599695 -0.010264362 -0.008609459 -0.000116347364
000280 91 7a a0 3b 2e b3 fe 39 13 31 ce bb 25 99 d7 bb
       0.0048974236 0.00048580155 -0.006292471 -0.0065795355
000290 12 eb 68 3c 18 0b c9 bb 11 fb 43 3b 56 b2 de 38
       0.014216201 -0.0061353557 0.0029904286 0.000106190026
0002a0 d3 25 b8 3b 36 4b 94 3b fd 65 0a 3c ac 24 92 bc
       0.0056197434 0.0045255674 0.008447167 -0.017839752
0002b0 a7 f8 34 bc 1e d2 c1 3c 47 6b b4 3b cf 7d 1c 3a
       -0.011045611 0.023659762 0.0055059525 0.00059696747
0002c0 95 3c 0a 3b 7b aa 9a 3b 5c 11 70 3a 65 9f 85 3b
       0.0021093239 0.00472003 0.000915786 0.004077839
0002d0 b5 79 34 3c f2 0a 49 bc a1 94 75 bc 82 08 81 bc
       0.011015345 -0.012270676 -0.014989049 -0.015751127
0002e0 eb f1 54 3b 5f 2c 31 bb b8 55 0a bb 62 64 3c 3b
       0.0032492827 -0.0027034504 -0.0021108221 0.0028746356
0002f0 7b 33 37 3a 31 e4 3c 3c ef 66 af 3b 18 95 88 bc
       0.0006988567 0.011529014 0.005352847 -0.016672656
000300 03 3e 0d bc 1a 12 f9 bb cf d3 51 bc f8 34 cd 3b
       -0.008620742 -0.007601035 -0.012806847 0.006262418
000310 17 b7 7e bb 07 b6 c7 ba e0 bb e2 b7 61 9d 30 3c
       -0.0038866454 -0.0015236743 -2.7028786e-05 0.01077971
000320 75 24 6d bc 4d 33 19 bb 7e 65 a3 bb 0a d0 39 bc
       -0.014474024 -0.0023376525 -0.004986464 -0.011341104
000330 56 51 0e 3c 38 cf 6e b8 b7 1e b3 3b a6 ce 85 3a
       0.008686384 -5.693661e-05 0.005466308 0.0010208681
000340 9b 9e 34 bb 5a 8f bf 3a ae 77 a1 ba 68 06 3c 3b
       -0.0027560357 0.0014614866 -0.0012318993 0.0028690342
000350 34 1e 11 3b 05 bd ba bb 83 1e 56 ba b8 a6 d2 ba
       0.0022143247 -0.0056988024 -0.0008167999 -0.0016071415
000360 40 d6 75 3c 55 69 9b ba 8f 68 a6 bb 58 eb 32 ba
       0.015004694 -0.0011856953 -0.0050783823 -0.000682523
000370 a0 ad c1 39 3a ce c7 3a 80 89 37 b5 3b 65 85 b9
       0.0003694119 0.0015243955 -6.83729e-07 -0.0002544316
000380 a0 d4 30 3b 79 cd 67 3b 7d 84 6e bb c0 e6 81 bc
       0.0026982203 0.0035370274 -0.0036394887 -0.0158571
000390 9a 8a 75 3b 0d 8c 9c 3b 8f bd 92 3a b1 e5 ab 3c
       0.0037466646 0.0047774375 0.0011195409 0.020983549
0003a0 f9 4a 99 3c 3b d6 18 bc 1a aa 68 3c 1d 10 63 3c
       0.018712508 -0.00932842 0.014200712 0.013858822
0003b0 25 03 8d 3c c9 22 cb bb 29 9c 85 3c 2e 4d 87 3c
       0.017213413 -0.006199215 0.016309815 0.016516294
0003c0 38 51 cf 39 69 11 2c bb b7 ad 6b bc c7 c9 e7 3b
       0.0003954263 -0.0026255494 -0.014384679 0.0070736143
0003d0 cf 0c 81 bc 57 00 f5 3a 2b 41 4a bb af ab ed 3b
       -0.015753178 0.0018692118 -0.0030861597 0.0072531323
0003e0 b5 96 e3 3b ff 78 71 ba 89 27 8c bb 6a d6 34 3b
       0.006945456 -0.000921145 -0.004277174 0.002759362
0003f0 1d 3f 62 3b 00 ce 30 bc a7 51 9a 3a 4c 93 5d 3b
       0.0034522482 -0.010791302 0.0011773602 0.003380972

action_model._discrete_distribution.branches.0.bias f4 [2]
000000 7a e3 a5 b9 7d e3 a5 39
       -0.00031640736 0.00031640744
